checkpoint_actor.pth (torch, 864681 bytes, 8 tensors)

fc1.weight f4 [400, 9]
000000 bb 53 a3 bd 8c 08 17 3c e2 19 ca 3d e0 99 0a bd
       -0.07974955 0.009218346 0.09868218 -0.033838153
000010 35 b8 f8 bc 76 ce a0 bc c0 8e b6 3d 9d 7a d6 3c
       -0.030361274 -0.019629698 0.08913946 0.026181513
000020 5a b9 b7 3c 9e 04 e9 bd eb fb b3 3d cd 6b c1 3d
       0.02242725 -0.11377834 0.08788284 0.094443895
000030 03 3a 70 3d 22 a0 b7 bd 78 f2 d5 3c 25 e7 02 3e
       0.058649074 -0.0896609 0.026116595 0.12783487
000040 74 fd d7 bc 5a a1 a2 bd 48 b5 9a bd 17 d6 63 bc
       -0.026365973 -0.079409316 -0.07554108 -0.013906023
000050 3d 0a d2 3d 0e ba 3b bd 23 ce 50 bd 42 4c dd bc
       0.10255859 -0.045831732 -0.050977837 -0.027013902
000060 78 ac 0c 3d 6a 56 6e 3c 0c 0d 81 3c e2 98 e4 3c
       0.034344167 0.01454697 0.015753292 0.027904931
000070 3a 60 c0 bc 9a e8 2a bd 5d d4 04 3d d7 5c ed bc
       -0.023483384 -0.041725732 0.032429088 -0.028974934
000080 43 a1 ff bc 00 28 08 bb 3a 4c 17 bd 3a 07 fa bc
       -0.031204825 -0.0020775795 -0.03693793 -0.030521024
000090 e8 d8 32 bd d9 a2 18 3d 33 36 e4 bc 06 d1 a3 3c
       -0.04366389 0.03726468 -0.027857875 0.019997131
0000a0 50 4f 1a bb 95 9c 06 bd d3 60 39 bd d6 ac 8c bc
       -0.002354581 -0.032864172 -0.045258354 -0.017172258
0000b0 10 78 e9 3b 1f ec b8 bd 93 00 35 3d d5 cb 05 3c
       0.0071249083 -0.090294115 0.04419 0.008166273
0000c0 5c 2c d5 3c 25 32 a2 bd d4 7b b7 bc f8 c2 bd 3d
       0.026022129 -0.079197206 -0.022397913 0.09265703
0000d0 ab c3 be bc 1d 95 0f bc 00 2c 6a bb 9f 33 34 3d
       -0.023286661 -0.008763579 -0.0035731792 0.043994542
0000e0 38 0b 7c bc ab d1 3b 3d a3 53 02 3d 54 02 57 3c
       -0.015383534 0.04585425 0.031818043 0.013123114
0000f0 2c 5c 07 3c c7 5d b6 bc 4d 5f 03 3d a8 5f e9 bd
       0.008261722 -0.022261513 0.032073308 -0.11395198
000100 d0 48 d4 38 74 d5 55 3d c5 6b 07 3c 09 bb 87 bd
       0.0001012251 0.052205518 0.00826544 -0.06627471
000110 d1 2a 7f 3d 2f 82 b6 3c 94 a1 8d 3b 76 8c 4c bd
       0.062296692 0.022278873 0.00432224 -0.04993864
000120 de ca 7a bc 46 e1 b0 bc 8f 1c c3 3c 0e 10 3f bd
       -0.015307156 -0.021591794 0.023817329 -0.04664617
000130 dd 09 bb 3c 54 14 c9 bd 1b 87 f6 bb 39 de ac 3d
       0.022831852 -0.098183304 -0.00752343 0.08440823
000140 e7 72 f0 3c 63 f8 89 bd b0 e0 53 bc f4 df ca 3d
       0.029351665 -0.06736829 -0.012931988 0.09905997
000150 00 4b 55 bc b5 da 08 bd 71 9c ad bd 01 a8 de bc
       -0.01301837 -0.0334117 -0.084771045 -0.02717972
000160 ab fe 84 3a 85 ff 03 3d 8c 69 60 bc 43 fc ff bc
       0.0010146698 0.032226104 -0.013697039 -0.031248217
000170 01 55 29 3d 2a e2 c6 bc 67 0a 3d 3d a9 14 30 3d
       0.04134083 -0.024277765 0.0461525 0.042988453
000180 f7 16 37 3d ca 1e 9f bc 5e 3d cd 3c 71 4d 06 3c
       0.044699635 -0.019423861 0.025053676 0.008197174
000190 71 95 03 bd 11 ed 15 3d 72 5d 04 bd 6e af 5b 3d
       -0.03212494 0.036603037 -0.03231568 0.0536341
0001a0 64 7d a5 bd 86 91 90 3c 09 78 a4 3c ea 69 e2 3d
       -0.08080557 0.017647516 0.020076768 0.11055358
0001b0 8d d8 e5 bc 06 f9 61 3d 3f f4 86 3d c7 a5 8a 3c
       -0.028057361 0.055169128 0.06589555 0.016924752
0001c0 8f b8 7f 3d d8 21 38 3d 70 c2 95 bd 47 ca 11 bd
       0.06243187 0.04495415 -0.07312477 -0.035593297
0001d0 b6 a8 8a bc 2d 95 46 bd f3 91 05 3d 87 fa 1b 3e
       -0.01692615 -0.04848211 0.03260989 0.15232287
0001e0 20 4d 3f bd f6 c4 ba bc 33 68 25 bd 4a 95 80 3d
       -0.04670441 -0.022798996 -0.040382575 0.06278475
0001f0 2b c3 f5 3c 9f d2 15 bc a1 83 5a bc ef 4b 91 3c
       0.03000029 -0.009144454 -0.013337047 0.017736403
000200 3a db 2a bb 83 07 17 3d ec 99 15 3d 84 b8 0c bc
       -0.002607061 0.036872398 0.036523744 -0.008588914
000210 cd 29 6a 3c c9 99 a8 3b f0 bd 0e bd be 59 9c 3b
       0.014292193 0.0051452857 -0.034849107 0.0047714403
000220 e8 9e 79 bc 75 63 b4 3d 2c aa c0 3c 25 cf 89 bd
       -0.01523564 0.088080324 0.023518644 -0.06728963
000230 1e 28 a8 bb e4 da 6b 3d 3b c7 67 3d 24 05 81 bc
       -0.0051317355 0.057581797 0.056586485 -0.015749522
000240 9f 96 3f bd bf 52 14 bc 5b 7c 84 3d 07 3c 0d bc
       -0.046774503 -0.009052931 0.064690314 -0.008620269
000250 11 d9 ee bc 5f 2f 00 be 12 b3 5d bc 4b 56 33 3d
       -0.02915624 -0.1251807 -0.013531463 0.043783467
000260 7b 32 fc 3c 47 ad 9a bd d0 7f 86 3d 70 a1 f9 3d
       0.03078579 -0.07552581 0.06567347 0.12188995
000270 42 55 40 bc 9b ad a9 bd fb 8b 79 3d 4d 67 f4 3d
       -0.011739077 -0.08285066 0.06092451 0.119337656
000280 74 f9 84 bd de a0 2c bd 46 36 ed 3c 83 11 cf bc
       -0.06492892 -0.042145602 0.028956544 -0.025276905
000290 58 bd dd 3b 08 a6 17 bc d2 d2 8c 3c 80 74 34 3b
       0.0067669563 -0.0092558935 0.01719037 0.002753526
0002a0 fa f4 b1 bc e3 f3 35 bd 8a cb cc 3c 18 03 c1 3b
       -0.02172326 -0.04442204 0.024999399 0.0058902614
0002b0 26 46 a8 bd 26 60 2d bd 23 ad d1 bc ba b9 26 3d
       -0.08216505 -0.042328022 -0.025595253 0.040704466
0002c0 07 79 06 bc ea 8a 84 bc 90 13 a6 3c 2a dc 4b 3d
       -0.008207566 -0.01617952 0.020273 0.04977051
0002d0 8a 67 a6 3c 5d 48 af bc b9 14 2d 3d b8 4b 10 3c
       0.020313043 -0.02139681 0.04225609 0.008807115
0002e0 9e c1 94 3c ca fa d7 bc e2 d6 b7 3c 60 d8 96 3a
       0.01815873 -0.026364703 0.022441331 0.0011508577
0002f0 4f 9a 42 bd 70 95 eb 3b df 32 c5 bd 5c 6c 14 3c
       -0.04751044 0.007189445 -0.096288435 0.009059038
000300 43 d0 92 3a 26 35 4a 3d d9 47 1c 3c 0b f8 15 3c
       0.0011200983 0.049367093 0.009538614 0.009153376
000310 d9 0c 81 3d 8f 41 c9 3c a3 7f 1c bd 98 c6 44 bd
       0.063012786 0.024567394 -0.03820766 -0.048040956
000320 1d 8c 48 bd 89 46 0f 3d c7 04 fd bc 2c b1 7f 3c
       -0.048961747 0.034979377 -0.030886067 0.015606206
000330 b0 7d a4 bb 00 a6 b2 3b 5d 10 e5 bc 65 f8 74 3d
       -0.005019866 0.0054519176 -0.027961904 0.0598072
000340 4e cc f1 ba 91 9f 83 3c b5 ac e5 3b 1f 72 68 3d
       -0.0018447728 0.016067298 0.0070091137 0.05674946
000350 6b 3c 6f 3c 18 43 34 bd 88 30 d4 3c 8a df 64 3d
       0.014601807 -0.044009298 0.025902048 0.055877246
000360 b0 a3 a6 3b a8 35 e0 bb 83 cf d8 bc 64 14 62 3c
       0.005085431 -0.006842334 -0.026466137 0.013798807
000370 ed dc b1 bc e6 85 05 bd c0 4b 07 3c 4c d5 57 3c
       -0.021711791 -0.0325984 0.008257806 0.0131734125
000380 30 ae f1 bb d5 79 8f bd 16 12 54 3d 7b 32 6b 3c
       -0.007375501 -0.070056595 0.05177506 0.014355297
000390 99 4a 3e bd a7 9a 82 bc bc 52 63 3d 88 84 b2 3d
       -0.04645786 -0.015942885 0.055498824 0.087166846
0003a0 64 1a cd bb 5b f2 a1 3c 5c 45 80 bc 01 02 2e 3d
       -0.0062592495 0.019768884 -0.015658073 0.04248238
0003b0 92 0e b5 3c 4c d0 40 3c 80 bc 76 bc 57 98 39 bd
       0.022101674 0.011768412 -0.01505959 -0.0453113
0003c0 24 ed 00 bd ad 05 32 3d 8a b8 c5 bc 46 eb 80 bc
       -0.031476155 0.043462444 -0.024135847 -0.015737187
0003d0 00 b0 f1 bc 69 a0 42 3d b1 f6 0c 3d 41 9f 11 3d
       -0.029502869 0.04751626 0.03441495 0.035552267
0003e0 2f f1 30 3d d4 e8 0f bc 79 84 32 3d f0 41 8f 3b
       0.04319876 -0.008783538 0.043583367 0.004371874
0003f0 be 3f 09 3c f0 9c a8 3c 7c dd a0 bb b1 1d 0a bd
       0.008377014 0.020582646 -0.0049092155 -0.033719722

fc1.bias f4 [400]
000000 9c e2 65 3e a9 ff ef bc 0d 41 44 3e 53 62 66 be
       0.22449726 -0.029296713 0.1916544 -0.22498445
000010 6e b0 99 be 83 a5 e4 3d 3b 32 a3 be 8b f5 15 3e
       -0.30017418 0.11164381 -0.3187426 0.14644448
000020 21 3f 5d bc 20 f0 b8 3d 96 80 18 be 33 1d 37 bd
       -0.013503821 0.09030175 -0.14892802 -0.04470558
000030 51 73 0a be e5 26 82 3e c5 74 e0 bd ca d9 12 3d
       -0.13520552 0.254203 -0.10959772 0.03585223
000040 c0 45 de 3c b0 b7 ee 3b 1a 51 88 be ef 01 12 3d
       0.027132869 0.007285081 -0.26624376 0.035646375
000050 96 99 82 be 03 c3 90 bc f3 5b 6d be e1 b5 0b be
       -0.25507802 -0.017671114 -0.23179607 -0.136436
000060 ac 70 8a be 6e c0 28 3e 5b 08 8f be 3b 97 3f be
       -0.27039087 0.16479656 -0.27936062 -0.18710034
000070 29 00 a0 bd dd 94 a2 3d ed 70 9c 3e 8d 17 81 ba
       -0.078125305 0.0793855 0.30554906 -0.0009848938
000080 73 1b a0 3e e6 7d 0f be 14 44 0e 3e b2 44 b2 3d
       0.31270942 -0.1401287 0.13893157 0.08704509
000090 3c f3 a8 3e 30 e4 0d 3d d8 62 1b be 4c 24 a3 3e
       0.32998073 0.034641445 -0.15174425 0.3186363
0000a0 03 68 a7 3e 10 79 9c be d9 2a a9 3e 89 61 b8 3c
       0.32696542 -0.30561113 0.33040503 0.022507446
0000b0 07 1d c3 3e b2 7f a9 3e 7b 08 a0 be f5 fe 99 3e
       0.38108084 0.33105236 -0.3125647 0.3007733
0000c0 06 f3 e1 3d d9 0d 19 3e dc 50 74 bd cb 86 3d be
       0.11032681 0.14946689 -0.059647426 -0.1850845
0000d0 f3 df 8c be 07 30 2c 3e bb 74 03 3e 51 2d 16 3e
       -0.2751461 0.16815196 0.12837498 0.14665724
0000e0 43 4b 6c be 9a 38 a6 be 06 54 5f be 3e 56 84 be
       -0.23075585 -0.3246506 -0.21809396 -0.25847048
0000f0 d4 6b bb 3d 4a 34 84 be de 66 5f be b7 25 a4 be
       0.09151426 -0.25821143 -0.21816584 -0.32060024
000100 e1 c6 8c 3e 9c 1e 82 be 88 65 01 3e ce 5c 34 3d
       0.27495483 -0.25413978 0.12636387 0.044033818
000110 db 0a 82 3e a4 ed 7f 3e be f9 57 be 2f 11 0d be
       0.25398907 0.24992996 -0.21091363 -0.13776086
000120 49 20 b3 3e e0 9e be bd d4 77 d8 bd 38 05 c3 bd
       0.3498557 -0.09307647 -0.105697304 -0.0952248
000130 a0 4c 6a 3e b6 01 a7 3d 43 06 d5 3d 10 ad 37 be
       0.22880793 0.08154623 0.10401585 -0.17937112
000140 48 98 b3 3e 56 41 19 3e 66 b0 06 be 06 c9 ae 3b
       0.3507712 0.1496633 -0.13153228 0.0053340225
000150 95 45 8f 3e 29 b8 87 bd 43 ed 8f be b4 8e 89 be
       0.27982774 -0.06626923 -0.28110704 -0.26866686
000160 5e 4d a9 3e bb 2b 1e be 00 56 8f be 28 d1 a0 be
       0.3306684 -0.1544637 -0.279953 -0.31409574
000170 9d f9 87 3e 05 0c 2b 3d 90 64 a3 3d 79 d5 91 3e
       0.26557627 0.04175951 0.07978165 0.2848318
000180 a6 64 6c 3e 48 ab 4f be 87 4f 1b bd 54 9a 81 be
       0.2308527 -0.20280182 -0.03791764 -0.25313056
000190 3d c0 86 3e 47 98 37 3e 68 b4 88 be f1 33 72 3e
       0.2631854 0.17929183 -0.2670014 0.23652627
0001a0 d3 18 7d bd 53 4e 17 be 3a d8 88 be 80 06 94 3e
       -0.061791252 -0.14775972 -0.26727468 0.2891121
0001b0 f3 05 86 be 29 9b ae 3e 43 b0 0f 3e a3 6d 65 be
       -0.26176414 0.34102753 0.14032082 -0.22405104
0001c0 60 d4 50 be cb e2 56 be 90 72 c0 3d a5 02 ea 3d
       -0.20393515 -0.20984952 0.09396851 0.11426286
0001d0 0e 87 db bc 8e 40 3f 3c be cd 61 3d a7 77 63 3e
       -0.026797798 0.011673106 0.05512785 0.22213612
0001e0 d2 42 9c 3e db 0b 95 3e 0d 0a 15 3d 7d a7 b0 3e
       0.3051973 0.29110608 0.03638654 0.34502783
0001f0 40 b0 4e 3e d0 e6 98 3e 0b ce 25 be b9 b4 dd bd
       0.20184422 0.29863596 -0.1619188 -0.10825486
000200 86 48 16 bd fe c1 90 be e9 3b f2 bd 88 66 30 be
       -0.036690257 -0.28273004 -0.11827833 -0.17226613
000210 a2 25 9b 3d 1d c8 bf 3e c3 91 98 be 4b 91 3b be
       0.07575537 0.37457362 -0.29798707 -0.18317144
000220 1a be 97 be b6 cc af 3e 2a ae f2 3c 1d bb 42 3e
       -0.29637223 0.3433587 0.029624064 0.1901669
000230 9d f3 80 3e 99 03 b9 bd d2 ce 5a 3e 56 c5 5e be
       0.25185862 -0.09033889 0.21367958 -0.21754965
000240 1b 5d 7f be 53 df 06 3c b7 29 bb 3e a7 ed 89 3e
       -0.2493786 0.008231956 0.36555263 0.26939127
000250 a3 37 46 3d 15 d1 96 3c 29 0f 8a 3e 7f 3a 61 3d
       0.048392903 0.018410245 0.2696469 0.054987427
000260 da 14 6b 3e d3 f5 42 be dc fd 4b 3e cc da 61 3e
       0.22957173 -0.19039087 0.19921058 0.2205612
000270 cc 9d ba 3e cd 63 ac 3e 86 f3 97 3e 7a e5 b3 3e
       0.36448514 0.33669892 0.2967798 0.35136014
000280 2a 34 5a be 3f f3 02 be 41 dd 99 3e 89 ef d3 3d
       -0.21308962 -0.12788104 0.30051616 0.10348422
000290 fa fe 8c 3e d3 46 c2 bd 4d 41 8d 3e 54 ff a4 3e
       0.27538282 -0.09486165 0.27588883 0.3222605
0002a0 62 64 00 be 7a cb 99 be d0 99 28 3d 31 c9 98 3e
       -0.12538293 -0.30038053 0.041162312 0.29840997
0002b0 c8 eb 73 be 27 77 11 be e5 39 4b 3e 37 93 8c 3e
       -0.23820412 -0.1420561 0.19846304 0.27456066
0002c0 63 4d 2a be d1 4d 45 3e b5 3a d1 3d 73 44 b8 3e
       -0.16631083 0.19267966 0.102162756 0.35989723
0002d0 06 ab ad 3e fc 94 d6 3d 87 8e 37 be b6 87 29 3e
       0.33919543 0.10477635 -0.17925464 0.16555676
0002e0 16 4a 65 3e 38 51 e9 3d b1 38 02 3e d6 ce a1 bc
       0.22391543 0.11392444 0.12716939 -0.019751947
0002f0 9f 03 9b be 2e 16 3e be 1e 06 74 be 89 ef 49 3e
       -0.302762 -0.18563148 -0.23830459 0.19720282
000300 7c 62 a1 be 49 1d e4 bd 56 e4 29 be 87 d1 f7 bc
       -0.3152045 -0.11138398 -0.1659101 -0.030251278
000310 0d 85 9e 3d 96 dc 8d be 6b 15 a1 3d 1f b7 b4 3e
       0.07740221 -0.27707356 0.07865413 0.3529596
000320 a9 32 88 3d 2d 3a 00 3e 92 83 8c be 7a 60 f2 3c
       0.06650288 0.12522192 -0.2744413 0.02958702
000330 13 e0 b1 3c 4d 3b 63 3e ce 56 ec 3d b8 2d 3e be
       0.021713292 0.2219059 0.11539994 -0.18572128
000340 93 49 58 be 9f 59 11 be c2 1a 42 3e 83 0f 5c be
       -0.21121816 -0.14194344 0.1895552 -0.21490292
000350 7c 7f 60 3e 39 62 97 bd 81 c4 8a 3e 67 bf 3e 3d
       0.21923631 -0.07391781 0.27103046 0.046569254
000360 13 14 a0 bd c6 2a c7 bd 13 e8 48 be 07 a7 87 be
       -0.07816329 -0.09724955 -0.1961978 -0.2649462
000370 80 0c 8f 3e 38 fd 94 be 0f c6 8d 3e 18 a8 5c be
       0.27939224 -0.2909944 0.2769017 -0.21548498
000380 c3 72 1a be 5b 11 97 3e 66 6f 95 be 56 0e 1d 3d
       -0.1508284 0.2950543 -0.29186553 0.03834375
000390 ed a7 a9 3e e7 a5 a3 be fe c6 6a be 50 fc 18 be
       0.3313593 -0.3196251 -0.22927472 -0.1494
0003a0 10 30 33 be 74 7c e1 bd 62 80 9e be 98 31 4c bd
       -0.17498803 -0.11010066 -0.30957323 -0.049851984
0003b0 db 77 62 be 0d 3c 89 3e e1 82 61 3e a6 40 5b 3e
       -0.22116034 0.26803628 0.22022583 0.2141138
0003c0 1b 40 94 be f4 5d 83 be 72 09 87 3e e5 df b4 3e
       -0.2895516 -0.25657618 0.26374394 0.35327068
0003d0 a4 e4 13 3e 10 4c 33 be d1 42 95 3e 10 11 54 be
       0.14442688 -0.17509484 0.2915254 -0.20709634
0003e0 73 8a a0 be 54 d3 4d 3e a8 a1 6d be 96 60 85 be
       -0.31355628 0.20100147 -0.23206198 -0.26050252
0003f0 eb cd a3 be 7e 12 1f be d6 c0 59 3e fa 95 b8 bd
       -0.3199304 -0.15534398 0.21264967 -0.09012981

fc2.weight f4 [300, 400]
000000 06 5d a7 3d e8 19 80 3d c0 8a 95 3d c0 a5 14 bd
       0.0817204 0.06254941 0.07301855 -0.036290884
000010 cb a8 46 bd d5 71 34 3d 5c a8 2a bd 91 95 49 3d
       -0.048500817 0.04405387 -0.041664466 0.049214903
000020 69 6d 99 3d 8f c4 a2 3d 64 a5 a4 3c 7f cf 29 bd
       0.074915715 0.07947647 0.020098396 -0.04145765
000030 87 35 4f 3b fc 61 ba 3c 9e a2 13 bd 3a f7 01 3d
       0.0031617598 0.0227518 -0.036043756 0.031729914
000040 b2 1f 64 3d f6 73 5c 3d 50 66 47 3d b4 be 9f 3d
       0.05569429 0.053821526 0.048681557 0.078000456
000050 20 8b 42 bc aa 06 9f bc ec 5d df 3c 9f 2f 80 3d
       -0.01187399 -0.019412357 0.027266465 0.06259083
000060 b0 d7 07 bc 52 cd df 3c 00 98 35 3c 9c 3f 33 3d
       -0.00829117 0.027319584 0.011083603 0.043761835
000070 f1 83 5f bd 8c 13 60 3d 34 5f 7e 3d 32 14 8a 3c
       -0.05456919 0.05470614 0.06210251 0.016855333
000080 cd 79 2d 3d 96 b8 42 bd f3 4b b7 3d 71 05 d0 3d
       0.042352486 -0.047539316 0.08950033 0.10157288
000090 c9 a1 5a 3d 88 75 4f 3d df 16 6f 3d 79 f6 b9 3d
       0.053376947 0.050649196 0.05837142 0.09080214
0000a0 17 ba 2d bb 80 e7 bb 3c c1 19 8c 3d 67 20 bd 3d
       -0.0026508623 0.022937536 0.0684085 0.09234696
0000b0 92 7f fd 3b dd 99 29 3c ae 55 29 3d 1c 1b ef 3c
       0.007736155 0.010351625 0.041341476 0.029187731
0000c0 4d 3b 5d 3d d5 74 6d 3b cd 94 34 3a 5b 66 52 bd
       0.05401163 0.0036232967 0.0006888628 -0.051367145
0000d0 ce 8a 49 bd 86 12 87 3d f4 1e 85 3c ce 8b a9 3d
       -0.04920464 0.0659533 0.016250111 0.08278619
0000e0 3e a7 45 3d cc b3 d8 bc 0d bf 66 bd c0 19 4c 3d
       0.048255198 -0.026452921 -0.056334544 0.049829245
0000f0 8d 41 08 3c 03 13 fe bc f8 23 1b 3d 60 34 00 3c
       0.00831641 -0.031014925 0.0378761 0.007824987
000100 6a a8 fc 3b 40 26 6c bb af 8c b7 3d a1 59 40 3d
       0.007710506 -0.003603354 0.0896238 0.046960477
000110 f3 7d a8 3d aa 74 98 3d 00 51 cf 3b fe 3f a7 3d
       0.08227148 0.07444127 0.0063267946 0.081665024
000120 f3 2b bc 3c 28 7c 0f bc e5 0e 9e 3c 88 17 97 ba
       0.022970175 -0.0087576285 0.019294212 -0.0011527399
000130 e5 fd 8b 3d 52 a6 7e 3d 48 50 e0 3d 20 7c 3d 3d
       0.06835536 0.062170334 0.109528124 0.046260953
000140 9e ac a5 3d 80 18 21 3d 84 89 5f bd 62 17 48 bd
       0.08089565 0.039330006 -0.054574504 -0.048850425
000150 86 02 50 3d 96 d2 73 3d e2 1f 5d 3d e5 38 f1 bc
       0.050783657 0.059527002 0.053985484 -0.029446075
000160 5f fc 2c 3d 48 6a 2d bc 52 80 11 3d 2e a0 25 3d
       0.042232867 -0.010584421 0.035522766 0.040435962
000170 e1 1e b6 3d ce 1a 6d 3d e6 25 70 3d 93 9f c7 3d
       0.088926084 0.05788689 0.058629893 0.09747233
000180 20 03 b0 3d a0 41 13 3d cf 54 bc 3d c3 f6 15 bd
       0.08594346 0.035951257 0.091958635 -0.036612283
000190 ed 33 df 3d ee c8 87 3d 84 7e 83 3c b2 e9 7d 3d
       0.10898576 0.06630121 0.016051538 0.061990447
0001a0 4c bc a1 3d 08 08 0b bc 74 d6 06 3d 0f dc a6 3d
       0.07897243 -0.0084858015 0.032919362 0.081474416
0001b0 30 50 8c 3b cf 65 6c 3b 76 98 55 3d 68 42 06 bd
       0.00428202 0.0036071425 0.05214735 -0.032778174
0001c0 80 bb 48 ba 2c b1 0c 3d bf 70 29 bc 2b b5 ff 3c
       -0.0007657334 0.03434865 -0.010341822 0.031214317
0001d0 64 39 bb 3d f9 57 4a bc 16 85 67 3c 1e 27 87 3d
       0.09141806 -0.012350076 0.014130851 0.06599258
0001e0 13 0f 8d 3d 7b c8 b6 3d 70 68 d7 3d e6 53 81 3d
       0.06887641 0.08924957 0.10517967 0.063148305
0001f0 57 52 d5 3d 99 6e 57 3d a8 b5 f2 3c f2 62 04 3d
       0.10416096 0.05259571 0.029627636 0.032320924
000200 b8 c6 97 3c a4 a8 39 bd ed 55 3c 3c 08 3b 20 bd
       0.018527374 -0.045326844 0.011495096 -0.039118797
000210 6f 7e 2a 3d 52 f7 6c 3d 8e e5 d7 bc 08 a6 16 bd
       0.041624483 0.05785305 -0.026354577 -0.036779433
000220 3c d3 b9 bc e9 a3 ad 3d 12 b6 8a 3d 83 5a 76 3d
       -0.022683732 0.08478529 0.067730084 0.060144912
000230 80 46 95 3d a8 a9 05 3d 35 c8 32 3c e5 5d 32 bd
       0.072888374 0.0326325 0.010911991 -0.043546576
000240 38 14 0b 3d 25 57 1b bc 93 fd 7f 3d 49 ec 8d 3d
       0.03395483 -0.009481226 0.062497687 0.069298334
000250 b7 71 4a 3d e7 f4 5f bd 55 6a f2 3b bc 69 35 3d
       0.049424853 -0.054676916 0.0073979297 0.04429029
000260 26 52 b4 bb 77 ec 7a 3d 95 45 9b 3d 9d f5 ab 3d
       -0.005502957 0.061260667 0.07581631 0.083964564
000270 4d 6f 39 3d 25 71 3e 3d 77 cc a4 3d dc e6 fb 3c
       0.04527216 0.04649462 0.08046811 0.03074973
000280 1d f4 c5 bc 13 03 34 3d d4 e6 bb 3d 8b ae d8 3d
       -0.024164254 0.043948244 0.09174886 0.105801664
000290 e0 cd 56 3d c2 e2 50 bc 79 ac 8e 3d c1 a0 c9 3d
       0.05244243 -0.012749376 0.0696649 0.098451145
0002a0 54 60 ca bc 0a 1e 42 bd ae 43 65 3d 42 41 bb 3d
       -0.024704136 -0.04739193 0.055972748 0.09143306
0002b0 2e 05 3d 3d 4d 5e 8a 3d 01 2d 3e 3d f5 00 c1 3d
       0.046147518 0.06756268 0.046429638 0.09424011
0002c0 1e 7c 0c bd e9 7b 88 bb 95 0d a6 3d 2d 9a 5f 3d
       -0.034298055 -0.004165162 0.08108059 0.054590393
0002d0 be 43 18 3d 1f c4 88 bc 4a 2e 0a bc 6b fd d3 3c
       0.03717398 -0.01669508 -0.008433888 0.025877675
0002e0 c0 a9 3e 3c 77 01 4a 3d 39 01 33 38 d4 b6 c0 3c
       0.011637151 0.049317803 4.2678064e-05 0.02352468
0002f0 b2 d0 12 3d 1e b1 5f 3d d0 c0 64 3c d1 9e b6 3d
       0.03584356 0.05461227 0.013961986 0.089170106
000300 98 e3 6a 3c 52 3c 3a 3c 5a 5f e9 bc 58 ba 66 3b
       0.014336489 0.011366921 -0.02848785 0.0035206284
000310 78 ab a6 3c e8 d3 7a 3c 01 23 97 3d 0b c5 05 3d
       0.020345435 0.015309311 0.07379723 0.032658618
000320 19 46 6e 3d 25 6f bd 3d 16 2e 46 3d 1f a2 96 3d
       0.05817232 0.09249715 0.048383795 0.07355141
000330 ad 1f a6 3d db 32 1d 3d 6d f4 08 3e 0e 6e ff bc
       0.081115104 0.038378578 0.13374491 -0.031180408
000340 3d 51 0c 3c 44 27 6c 3d 85 d8 0b 3d 84 59 eb 3c
       0.008564291 0.057654634 0.034142036 0.028729208
000350 be 3e d5 3c be ff 6c 3d e6 34 a6 3b e6 18 aa 3c
       0.026030894 0.057861082 0.005072224 0.020763826
000360 72 12 fd 3c 3e 73 16 3d 4c bb 26 3d da 0e 5d 3d
       0.030892584 0.036730997 0.040705964 0.05396924
000370 5c 42 ba 3d 9c 42 8a 3c 28 1c b3 3d 38 2d 1c bd
       0.09094688 0.016877465 0.08745605 -0.03812906
000380 38 5a de bb 90 af ab 3a 78 a7 57 bc 6f c9 a6 3d
       -0.0067856573 0.0013098586 -0.013162486 0.08143889
000390 4f 5b d5 3d 78 f5 52 3d 60 69 bd ba 78 b0 26 bd
       0.10417806 0.05150363 -0.001445096 -0.040695637
0003a0 e5 03 ff ba 27 3b f8 3a c3 ac 0d bd 01 05 91 bd
       -0.0019456117 0.0018938527 -0.034588587 -0.070810325
0003b0 89 9a 96 3c 8d ba 23 3d 25 2f 14 3c d1 25 a5 3d
       0.018384235 0.03997283 0.009044443 0.080638535
0003c0 fc f7 2e bc b8 33 b5 bb 01 54 c8 3d 86 d5 22 3c
       -0.010679241 -0.005529847 0.097816475 0.009938603
0003d0 36 68 45 bc d8 aa 5e 3c 68 6a ed 3b 5a cb 0c bd
       -0.012048772 0.013590537 0.0072453506 -0.03437362
0003e0 8c b2 be bc 9f 51 9b 3d da 35 2d bd 58 6b 98 3b
       -0.023278497 0.07583927 -0.042287685 0.0046514682
0003f0 bc 46 dd bc 1c 52 4c bc 7c 86 8a 3d 22 5e ab 3d
       -0.027011268 -0.012470748 0.06763932 0.08367564

fc2.bias f4 [300]
000000 98 7d 25 3d 44 5b c1 3d 9a 92 ab 3d e2 5e 23 3d
       0.04040298 0.09441236 0.083775714 0.03988541
000010 07 ff fd bc 0c 82 57 bb ba db 4b 3d 00 5c b2 38
       -0.031005396 -0.003288391 0.049770094 8.504838e-05
000020 56 55 2c bd 98 4e 8f bd f3 60 0a 3d 62 59 da 3c
       -0.04207357 -0.069974124 0.033783864 0.02665395
000030 2d 2f b2 bc ca 29 2f 3d ed 1c 06 bd e6 27 5f 3d
       -0.02175101 0.042764463 -0.03274243 0.05448141
000040 4d 52 e9 3c 50 bd e9 3c d0 43 ab 3d 9b cd 59 bb
       0.028481627 0.028532654 0.083625436 -0.0033234123
000050 47 9a 14 bc 58 88 8f bd cd 5e 32 3d 68 58 34 bc
       -0.009069986 -0.070084274 0.04354744 -0.011007406
000060 2d 9d da bb e5 c5 8d bd 8d 6c 1b 3c 3a 3d 8d 3d
       -0.006671569 -0.06922511 0.00948633 0.06896444
000070 da a2 bf bc bb 62 e7 bc 6a f0 35 3d e3 64 a1 3d
       -0.023393083 -0.02824532 0.04441873 0.07880571
000080 9a 95 06 3d cc 17 40 3d 8a f7 75 bd 83 e8 52 3d
       0.032857515 0.046897694 -0.060050525 0.05149127
000090 79 7a 82 3d 33 e3 0c 3d f5 a4 cb 3d 6b 4f 1a 3d
       0.06371016 0.03439636 0.099435724 0.037673395
0000a0 00 c1 37 3c 46 4c 80 3c d7 00 65 3d 25 cd 9b bd
       0.011215448 0.01566137 0.055909004 -0.076074876
0000b0 d8 2c 9a bb a8 42 3e bb 45 0c c1 3d b7 f6 44 bd
       -0.004705053 -0.002903143 0.09426168 -0.048086848
0000c0 f8 70 9a 3c da 0f ff 3c 81 86 9c 3d 30 14 db 3a
       0.018852696 0.031135488 0.07642842 0.001671439
0000d0 18 6f ce bb 6c 96 38 3d 2c 76 a3 3d 00 16 80 3a
       -0.0062998645 0.04506533 0.07981524 0.0009772182
0000e0 50 78 5e bd 97 1e 8a 3d 22 ba d4 bb dd 99 af bc
       -0.054313958 0.06744116 -0.0064919153 -0.021435672
0000f0 29 ad 97 3d 14 8a 33 3c 39 cd df 3c 5d 73 3b bd
       0.074060746 0.010958213 0.027319537 -0.045764316
000100 af 7f 6f 3d b7 e8 a5 bd 1e 8c 21 bd 22 79 25 3d
       0.058471378 -0.081010275 -0.039440267 0.040398724
000110 77 fd 89 3d cf 1f b2 bc b4 56 6f 3d 2d 1f 88 3c
       0.06737798 -0.021743683 0.058432296 0.016616428
000120 a5 72 84 bd 33 15 6e 3d f4 f5 02 3d f7 9a a5 bc
       -0.06467179 0.058125686 0.03197284 -0.020215495
000130 ae 6d 9d bc 59 82 d1 3d f6 02 3b 3d d3 01 5d bc
       -0.019217338 0.1022994 0.04565712 -0.013489204
000140 c4 97 a6 3c 25 33 19 3d 39 56 a0 bb 52 91 21 bd
       0.02033604 0.03740229 -0.004893091 -0.03944523
000150 83 05 8e bc f4 9a 60 3c 05 f1 cd 3c de 9a d1 3d
       -0.017336613 0.013708819 0.025139341 0.10234617
000160 95 a5 c9 3d 8c a3 af 3d 9f 0b 5f 3d f3 12 ae 3b
       0.098460354 0.08576116 0.054454442 0.0053123175
000170 bc bf 73 3b 72 f2 1d bd bc a7 16 3d fd ef 3a 3c
       0.003719314 -0.038561292 0.036781058 0.011409757
000180 6a db b5 3d e5 20 98 3d 72 ac 88 bc 7d ab 28 bb
       0.088797405 0.07428149 -0.01668379 -0.002573698
000190 d3 93 1b bd 85 2b 9f 3d 9e 90 78 3d b2 83 a4 3c
       -0.037982773 0.077719726 0.060684793 0.020082328
0001a0 4d 3a a0 3b ea 8f b5 bc c3 14 6d 3d 03 a2 1d 3c
       0.0048897625 -0.02216335 0.057881128 0.009621146
0001b0 90 43 cc 3c 80 b6 c4 bc 41 c6 90 bd 4a 4d a7 3d
       0.02493456 -0.024012804 -0.07069064 0.081690386
0001c0 c8 23 32 bc 9b 7f ba 3d d3 04 34 bd e3 ea 81 bb
       -0.010872789 0.0910637 -0.043949913 -0.0039647683
0001d0 72 99 48 3d de 53 8c bb 9e 7e b5 3d ef dd 49 3c
       0.04897446 -0.0042824587 0.08862041 0.0123209795
0001e0 c6 be 13 bd 43 e5 a4 3d fd 13 16 3d cc 73 a5 3d
       -0.036070608 0.08051541 0.036640156 0.08078727
0001f0 d3 54 84 3d 11 b6 1a 3d 64 4e a3 3d 58 cd f3 bb
       0.064614914 0.03777129 0.07973936 -0.0074402504
000200 dc 8e 91 3d 08 90 3b 3d e8 9d c5 bb b0 91 57 3d
       0.071073264 0.045791656 -0.006030787 0.052629173
000210 77 77 17 bd 7c d4 c1 bc 58 3f 75 3d 03 46 7d 3d
       -0.036979165 -0.02366089 0.059874862 0.061834347
000220 b6 f8 42 3d 52 3c d4 3d 38 40 b6 3d 9e 21 b6 3d
       0.04760047 0.10363068 0.088989675 0.08893131
000230 46 60 b1 3d 2c 0e 5b 3c 79 11 c3 bc 00 4d d8 bc
       0.08660941 0.013370078 -0.023812043 -0.026403904
000240 64 bf fe 3b 31 b5 81 3c 4c 17 2d bc 75 56 d0 bb
       0.0077742804 0.01583347 -0.010564636 -0.0063579627
000250 63 c4 b7 bc ec 38 96 3d 39 ce b3 3d 5e ad d9 3c
       -0.022432512 0.07335076 0.08779568 0.026571926
000260 2c f8 87 bd 80 ac 05 3d 5c 8e cc 3c 96 a6 15 bb
       -0.06639132 0.032635212 0.024970226 -0.0022834889
000270 43 2c 6f 3d e5 4d 46 3d 41 2a 1e bd ae e7 69 3d
       0.05839182 0.04841413 -0.038614515 0.057105713
000280 5b d2 76 3d 1b c7 96 3d a7 04 00 3d 80 b3 72 bc
       0.060259204 0.07362195 0.031254437 -0.014813304
000290 b5 79 a7 bd 86 db 9f 3d 00 39 60 3d 04 8c 51 3c
       -0.08177511 0.07805543 0.05474186 0.01278973
0002a0 c1 56 cd 3c bd 87 a2 bc a8 93 ae bb 6f 1b 5e 3d
       0.025065782 -0.019840116 -0.0053276606 0.05422538
0002b0 96 04 c9 bd 74 35 84 3d 8c 59 4f bc 02 e9 82 3c
       -0.09815328 0.06455508 -0.012655627 0.015980247
0002c0 6b 47 43 bd b2 ab 3a 3d fa 40 11 bd 13 b8 23 3d
       -0.04767553 0.045573898 -0.035462357 0.03997047
0002d0 8a 5a 23 bd 9c 4c 81 3c bc 61 68 bd 57 4c 3c 3d
       -0.039881267 0.0157836 -0.05673383 0.04597124
0002e0 d5 c5 28 bc 42 21 67 3d e7 74 3b 3d 6f 88 57 bc
       -0.010301073 0.0564282 0.045765784 -0.013155087
0002f0 4e fe ae 3c aa 90 9b 3d 84 b1 a4 3d 26 9b 4d 3d
       0.021361496 0.07595952 0.08041671 0.05019679
000300 80 33 95 3d 4b 43 87 3c b8 2a 52 bc b9 45 b8 3d
       0.072852135 0.01651158 -0.012827568 0.089976735
000310 65 39 45 3d c7 e3 49 3d 31 3a 93 3a 90 b4 09 3c
       0.04815044 0.04928949 0.0011232552 0.008404866
000320 a8 c6 2e ba d4 b2 33 3c 69 ad b6 3c b7 67 9b bd
       -0.00066671753 0.010967929 0.022299485 -0.075881414
000330 01 95 bc 3d e5 7a 47 bd e7 9d a4 3d 38 e6 2a bd
       0.09208108 -0.048701186 0.0803793 -0.04172346
000340 08 d9 23 3b ce 75 79 3c ba 32 1a 3d 18 fd c2 bb
       0.0025001187 0.015225841 0.037646033 -0.0059505813
000350 1f e1 37 bd 20 cc 4f 3d ca bf 13 bd 88 54 31 bc
       -0.044892427 0.05073178 -0.036071576 -0.0108233765
000360 35 8e 89 bd 0a e4 67 bd ac 7b 80 bc b8 bc 2c 3d
       -0.06716577 -0.05661396 -0.015683971 0.042172164
000370 8d 50 3f bd 14 43 0e bd 1c 3e 06 3d 0b 28 58 bc
       -0.04670768 -0.03473194 0.032774076 -0.013193141
000380 48 7b 96 bd 5e ec 83 bd 39 22 16 3d 7a dd 45 bd
       -0.07347733 -0.06441568 0.03665373 -0.04830692
000390 08 c0 62 bd 8d 96 42 bd 63 62 be 3b ca ca 45 3b
       -0.055358917 -0.047506858 0.0058100685 0.0030180686
0003a0 3e fa 34 bb 1a d5 83 3c 2d 64 71 3a fe 63 90 3d
       -0.0027614976 0.016092826 0.0009208348 0.07050322
0003b0 fe f6 de 3c 60 53 9f 3c cc ff 03 bd 8c b3 8e 3d
       0.027217384 0.019448936 -0.03222637 0.069678396
0003c0 68 70 3a bc 7f 92 19 3c e9 79 8b 39 39 a9 1d bd
       -0.011379339 0.009373306 0.00026602976 -0.03849146
0003d0 11 0b 4d 3d ff 40 3a bd 31 be 76 3d 35 65 49 bd
       0.050059382 -0.04547214 0.060239974 -0.049168784
0003e0 4c 4b 03 bd c5 79 1e 3d 01 f4 79 bc d6 1c aa 3d
       -0.03205423 0.038690347 -0.015255929 0.08306281
0003f0 78 ec 81 3d 0a e8 35 3c 6b da 65 3d a3 b7 ed bc
       0.06343931 0.011102686 0.056116503 -0.029018229

fc3.weight f4 [300, 300]
000000 57 fa 6d 3d c4 85 f0 3d b4 10 a1 3d 31 fa a1 3d
       0.05810007 0.11744264 0.07864514 0.07909048
000010 ee 51 8d 3d 4a 32 3c bd 24 38 dd 3c db 8a 69 bd
       0.069003925 -0.045946397 0.027004309 -0.05701719
000020 09 de 8c 3d 06 69 74 3d 72 ed fe 3b ac c8 2a bd
       0.06878287 0.05967047 0.0077797705 -0.041695282
000030 2d 2d 20 ba 27 7d a4 3d f0 92 02 bb b0 1e e2 3d
       -0.00061102473 0.080316834 -0.0019924007 0.110410094
000040 7c 22 cc 3d 49 a8 c8 3d 92 86 b3 3d 07 86 2f 3d
       0.09967515 0.09797723 0.087659016 0.042852428
000050 75 21 69 3c 4e d4 26 3d 1b d0 eb bc 54 7f db 3c
       0.014229168 0.040729813 -0.028785756 0.026794113
000060 b0 e5 28 bc 00 30 ab bc 24 c9 a9 3d a1 55 81 3d
       -0.010308668 -0.020896912 0.08290318 0.063151605
000070 90 00 2a 3b 08 55 6d 3c d0 58 ed 3c 93 07 2d 3d
       0.0025940277 0.014485605 0.028973013 0.04224355
000080 eb b1 8c 3d 49 e1 db 3d ca 47 ab 3d a6 1b ee 3c
       0.06869873 0.10736329 0.08363302 0.029065918
000090 b3 0e 5f 3d 15 e6 00 3d 4a 85 d1 3d a0 2a 7c bc
       0.054457378 0.031469423 0.10230501 -0.015391022
0000a0 f2 36 25 bd 2f 5b 64 bd 9a 93 6d 3d 48 b6 d8 3c
       -0.040335603 -0.055751022 0.058002092 0.026454106
0000b0 30 87 ad 3b b3 ed df 3c 67 68 b8 3d ac 1c 05 3d
       0.0052956566 0.027335024 0.09004288 0.032498047
0000c0 c4 34 d1 3d f1 63 95 3d 6a 29 99 3d c2 b0 c6 3c
       0.10215142 0.07294453 0.07478602 0.024254207
0000d0 a8 f8 66 3d 15 40 0f bc be 4c e2 3d 0e 8c 5b 3d
       0.05638948 -0.008743306 0.11049794 0.053600363
0000e0 6c 96 cc 3b ca 4f 87 3c e7 3b 26 3d de 3b 6c 3d
       0.0062435176 0.016517539 0.04058447 0.05767428
0000f0 97 a3 be 3d 36 68 14 3d 67 fc 48 3d 78 02 30 3d
       0.09308546 0.036232196 0.049068835 0.042971104
000100 d7 bb 83 3c fe 8e a8 ba 7d b3 fd 3c e8 8a 91 3c
       0.01608078 -0.0012859998 0.030969376 0.017766431
000110 d0 10 45 3c 77 ff 0e 3d cd 21 ed 3c 2d 02 a2 3d
       0.012027934 0.0349116 0.028946782 0.07910571
000120 16 88 5b bb 02 a5 92 3d 2d aa 53 3d 1c cc 27 bd
       -0.0033497862 0.07160379 0.051675964 -0.04096614
000130 69 6c 3d bd b0 58 91 3d b6 69 31 3d bd d7 59 bd
       -0.046245966 0.07096994 0.043313704 -0.05318426
000140 30 12 f4 3c 84 5f f8 3c 6c af 92 3d 08 42 7a 3c
       0.029793829 0.030318983 0.07162365 0.015274532
000150 4e 2f 7f 3c a3 d5 02 3d 73 ac ec 3c 0a 72 09 3d
       0.015575243 0.03194202 0.028890824 0.03355602
000160 14 b0 90 3d 47 5c ad 3d 7b 31 96 3d 8e 30 b7 3d
       0.07064834 0.08464866 0.073336564 0.08944808
000170 47 6d 82 3b e4 bb 0a 3d 9b 80 33 3d 5c 83 3a bd
       0.003980312 0.033870593 0.04382382 -0.04553543
000180 d8 57 96 3d b6 1c 35 3c 8b 64 4f 3c 04 b7 c3 3d
       0.073409736 0.0110542085 0.012658249 0.09556392
000190 9c 11 ca 3c 20 ca d1 3d 94 2a 17 3d b9 ab 77 bb
       0.0246666 0.102436304 0.03690584 -0.0037791564
0001a0 b5 5e a3 bc 2e d6 35 bd d3 a1 a4 3c 77 85 12 3d
       -0.01994262 -0.04439371 0.020096695 0.035771813
0001b0 fe db bd 3d 34 96 96 3c 10 ab 8e bd 4f e5 ab 3d
       0.09270476 0.01838217 -0.06966221 0.083933465
0001c0 77 c4 3b bd bf 5d 1a 3c 18 2e 18 bc d6 06 80 3c
       -0.04584166 0.009421765 -0.009288333 0.01562826
0001d0 fd 77 a1 3d 29 10 a5 3d 41 4b a6 3d bb 83 84 3d
       0.07884214 0.08059723 0.08119822 0.06470438
0001e0 54 06 57 bd 81 c5 9c 3d 77 f8 dd 3c ad 40 94 3c
       -0.05249627 0.076548584 0.027096016 0.018097246
0001f0 80 2b 5d 3d 64 17 ea 3d cf b7 7a 3d 90 f2 b9 3c
       0.053996563 0.11430243 0.06121045 0.02269867
000200 69 70 ba 3d f8 90 dd 3d 50 25 6e bb 1b 68 87 3d
       0.09103472 0.10818666 -0.0036338158 0.066116534
000210 1a e2 85 3c 26 ce 44 bd 83 86 6e 3c f2 ab 6d 3d
       0.016343165 -0.04804816 0.014558437 0.058025308
000220 94 a6 ca 3c 2c 83 02 3d 70 db ae 3d a2 58 4d 3d
       0.024737634 0.031863376 0.08537948 0.050133355
000230 be f9 58 3c 84 3d 3c bc ed 95 15 3c 7a 0b dd 3b
       0.013243137 -0.011489276 0.009129983 0.006745753
000240 29 fc 2c 3c ba a3 eb 39 9c c7 44 3d f4 b4 7b 3d
       0.010558167 0.0004494468 0.048041925 0.061451867
000250 82 6b 44 3d d5 99 61 3d 9e cb 12 3d ec 3f 48 3d
       0.04795409 0.055078346 0.035838716 0.048889086
000260 e8 b7 94 3c 55 37 df 3d 69 3e fe 3c 7a 5a 1e 3d
       0.0181541 0.108992256 0.031035619 0.038660504
000270 b0 05 94 3d fb d3 a8 bc 9d 03 d2 3c f9 9a e1 3d
       0.07227647 -0.020608893 0.025636489 0.11015887
000280 09 2c e2 3c bf 6b 69 3d e1 ec 70 3d 90 a4 9f 3b
       0.027608888 0.05698752 0.058819655 0.0048719123
000290 bb 74 05 3d 18 8d 2b 3d 6e d0 b5 3d 32 03 15 3d
       0.032582026 0.041882604 0.088776454 0.03638
0002a0 48 4b 8b 3d 48 5e b2 3c d5 33 8e 3b 2b 7f c6 3d
       0.06801468 0.021773472 0.004339675 0.09692224
0002b0 71 d8 95 3d 4d d5 4d 3d 65 ad 29 bd 08 9f dd 3d
       0.073166735 0.050252248 -0.041425128 0.108213484
0002c0 68 b5 d1 bc c6 7f a1 3c 59 5b 5a bd ab 51 e2 3d
       -0.025599197 0.019714247 -0.053309772 0.11050733
0002d0 44 cf 00 3d f6 8e 02 bd e3 59 d0 3c 80 4e 39 3d
       0.031447664 -0.03187462 0.025433486 0.04524088
0002e0 be 1a 26 3d 8e f8 8a 3d fe 9c ab bc c5 0f ef bc
       0.040552847 0.06785689 -0.020948883 -0.029182324
0002f0 d7 4d e6 3d a5 17 ec 3d 94 99 28 3d c8 b7 7d 3d
       0.112453155 0.11527947 0.04116209 0.061942846
000300 86 e4 9c 3d fa ca 1d bd 30 1e 8f 3b f1 86 18 3d
       0.07660775 -0.03852365 0.0043676123 0.037238065
000310 eb 1a 98 3d c0 cd 95 3d 60 9f 2c 3d 7c 2b d7 3c
       0.07427009 0.07314634 0.04214418 0.026265852
000320 7b 49 93 bb e1 e7 c0 3d 8c 08 ea 3d 0c 12 25 3d
       -0.0044948435 0.094192274 0.114274114 0.040300414
000330 74 4c b6 3c b7 07 34 3d ab c5 2f 3d c1 09 3f 3a
       0.022253253 0.04395267 0.04291312 0.0007287525
000340 7e a7 89 3d f9 94 ba 3d 76 ae cf 3c e8 88 99 bc
       0.067214 0.091104455 0.025351744 -0.01874204
000350 33 ec a6 bd 5e 86 bc 3d 40 c8 3b bb 20 17 95 3c
       -0.0815052 0.09205316 -0.0028653294 0.018199503
000360 ea f8 68 3c 48 d7 15 bc 40 3c 2d 3c e2 4b 88 3d
       0.014219502 -0.009145565 0.010573447 0.066550985
000370 e4 e0 6e 3d 95 7f b0 3d 20 13 ee 3b ed 3e 7b 3d
       0.05831994 0.08618084 0.0072654635 0.061339308
000380 08 3b 84 bc d0 a7 64 bd cd 81 b2 3d 1b 5c 2d bd
       -0.01614143 -0.0558241 0.08716164 -0.042324167
000390 1b 7f c5 3c 48 e4 3f 3d 69 37 25 3d 1c c6 7b bb
       0.02410846 0.046848565 0.040336046 -0.0038417643
0003a0 b5 c9 5f 3d 12 d5 5e 3d 62 ce 34 bd 8f c2 b6 3d
       0.054635722 0.05440242 -0.044142134 0.08923828
0003b0 19 18 12 3a 6e f3 f8 bc 1a 8c c1 bc bd b9 e8 3d
       0.0005573049 -0.030389514 -0.023626376 0.11363552
0003c0 6e cb 17 bd a3 da 53 3d 60 b0 cd 3d e2 d6 28 bd
       -0.03705924 0.05172218 0.100434065 -0.041220553
0003d0 9e cc 9b 3d 94 1a f8 3c ee 00 0d 3c f1 2a 4a bd
       0.07607387 0.030286111 0.008606179 -0.04935736
0003e0 d1 4a 99 3d 85 c9 7c 3d 8f 18 12 bd 53 a3 64 3d
       0.07484973 0.06171562 -0.035667952 0.05581982
0003f0 a6 7b 06 3d 26 63 21 3d af 35 99 3d 5d 5c 89 3d
       0.032832764 0.039401196 0.074809425 0.0670707

fc3.bias f4 [300]
000000 1b 21 88 3d 07 20 a3 3d 34 85 14 bd 88 0d c6 3c
       0.06646939 0.07965093 -0.036259845 0.024176374
000010 63 21 b3 3d c1 77 b2 3d eb 82 3a bd 8e 90 9e 3d
       0.087466024 0.087142475 -0.04553501 0.07742415
000020 bf 9a 26 bd c8 9f 67 3d 70 1c d4 bc 87 13 d9 3d
       -0.04067492 0.056548864 -0.025892466 0.10599428
000030 02 90 d4 3d 63 86 01 3d 0e 8e c6 3d d5 c9 c5 3d
       0.1037903 0.0316223 0.096950635 0.09657637
000040 7c 91 b4 3d 39 18 40 3d 82 bd d2 3d 8e 87 6a 3d
       0.088168114 0.0468981 0.10290052 0.05725818
000050 6b 9f 9d 3d c6 70 cc 3d d7 8e a2 3d 99 a4 88 3d
       0.07696422 0.09982447 0.07937401 0.066720195
000060 e2 e3 e8 3d 8e 57 9a 3c be 28 17 bd af 17 cd 3c
       0.1137159 0.018840577 -0.03690409 0.025035707
000070 f6 75 9b 3d 35 2e 3d bd a8 ef 44 3c d4 b6 43 bc
       0.07590859 -0.046186645 0.012020029 -0.011945445
000080 91 c3 4b 3d 64 8f b6 bc 11 ba c7 3d d7 59 07 bd
       0.049747054 -0.02228517 0.09752286 -0.033044662
000090 e9 4b e3 3d 15 f9 a2 3d 71 18 a1 3c dc 0d 93 bd
       0.11098463 0.07957665 0.019664975 -0.07180378
0000a0 47 85 ae bd 26 d7 21 bd fc eb 23 bd 3b 14 e1 3d
       -0.085215144 -0.039511822 -0.040019974 0.10990187
0000b0 cd 5e 22 bd d4 b4 ad 3c 01 88 77 3d 40 1e dd 3c
       -0.03964119 0.02120439 0.060432438 0.026991963
0000c0 e2 7e 96 3d 5b 64 bd 3c c8 82 b4 bc 20 a8 73 bd
       0.0734842 0.023119142 -0.022035018 -0.05948651
0000d0 69 dc b0 3c 2c 76 62 bd e9 5f 05 bd 02 f6 b9 3d
       0.021589475 -0.05528848 -0.03256217 0.090801254
0000e0 a1 2a d0 3d b8 45 aa 3d 2e 5b af bc e6 80 b8 bc
       0.10164381 0.08314079 -0.021405783 -0.022522401
0000f0 29 41 3c 3c 70 31 9a 3c b0 e0 dc 3d a1 80 0d 3d
       0.011490145 0.018822402 0.10785043 0.0345465
000100 c6 14 9f 3c 36 e8 af bc 3d f8 9b 3d 09 e2 4b 3d
       0.019419085 -0.021473031 0.07615707 0.04977611
000110 e5 1d dc bc a0 a5 12 bd 96 3a 16 3d 9d cc a0 3d
       -0.026869724 -0.035802484 0.036676966 0.07851527
000120 3c f9 82 3c 33 40 e0 3d ec 2b b1 3d 1d 69 95 3c
       0.015987985 0.10949745 0.086509556 0.018238598
000130 ca a8 d8 bc 19 ba 2f 3d 0d 1b a5 3d 9e 4a 5f 3d
       -0.026447672 0.042902086 0.080618 0.05451452
000140 a8 82 03 3d 40 29 0d bd 1a 40 52 3d 43 7f 94 3d
       0.032107025 -0.034463167 0.051330663 0.07250836
000150 f9 b9 0e bd 0a e6 0c 3b a6 5f bf 3c 72 98 ff bc
       -0.034845326 0.0021499419 0.023361038 -0.031200621
000160 2c a7 52 3c a0 3d cc 3d a3 9d e2 3c b8 02 58 3d
       0.01285724 0.099726915 0.027663058 0.052736968
000170 74 d5 8f 3d 26 aa dc bc 7f 3b c2 3d 14 c4 ca 3d
       0.07023135 -0.026936602 0.09484004 0.0990068
000180 f8 48 0f bd 13 ab b6 bc 4e b9 37 bd 5e 3f 53 3d
       -0.034981698 -0.022298371 -0.044854455 0.051574104
000190 a4 c4 15 bc a5 06 34 3d f4 88 b3 3c e6 1d 9c 3d
       -0.009141121 0.04395165 0.02191589 0.0762289
0001a0 af e3 08 3d b7 37 2c bd 3f 8c 94 3d b1 a7 36 bd
       0.03342026 -0.04204532 0.07253312 -0.044593517
0001b0 35 fa ca 3d da 46 8c 3c ed 35 a2 3d 80 45 ef 3c
       0.099110045 0.017123628 0.07920442 0.029207945
0001c0 d0 3c 5f 3d 72 cb 5e bd f9 c3 90 bc b1 ae d5 3d
       0.054501355 -0.05439324 -0.017671572 0.1043371
0001d0 80 23 3e bb 49 5a 58 3d ff c7 98 bd af 1b 8c bd
       -0.002901286 0.052820478 -0.07460021 -0.06841218
0001e0 74 40 20 3d 9d b4 aa 3d 20 41 07 3d 07 73 69 3c
       0.039123967 0.083352305 0.033021092 0.014248616
0001f0 22 e1 bb 3d aa 0f 6b 3d 20 86 bc 3d 20 cc bb 3d
       0.091738 0.057387985 0.0920527 0.09169793
000200 bb 5c 80 3c 82 05 85 3d c6 3d b4 3d 8e 45 a0 3c
       0.015669217 0.06495191 0.08800845 0.019564416
000210 15 45 d8 3d 9c 4d 81 bc 22 6b b3 3d 54 3d bd 3d
       0.10560051 -0.015784077 0.08760668 0.09240213
000220 0c 70 fd 3b 9d fd 50 bd e8 e7 29 3c 1c 62 0f 3d
       0.0077343043 -0.051023114 0.010370232 0.035005674
000230 c7 cb 35 bd bc c0 bb 3c 93 5e 70 3d 18 c8 18 bd
       -0.04438379 0.022919051 0.058683943 -0.0373002
000240 7a c8 bf bc 52 0b a4 3c 44 04 94 3d c5 0f 47 3d
       -0.023411024 0.02002493 0.07227376 0.048599023
000250 87 a8 11 3d f5 e2 a4 3d e8 cd 2f 3c be a5 8e 3d
       0.03556111 0.08051101 0.010730244 0.069652066
000260 f4 50 40 3d e4 58 94 bc 03 8e 5c bd 64 a3 02 bc
       0.046952203 -0.018108793 -0.05384637 -0.007973526
000270 c7 bd be 3c d4 d8 b2 bc ab 2b cb 3d d9 3e 70 3d
       0.023283852 -0.021831907 0.099204384 0.058653686
000280 50 9f 06 bd d7 b8 15 3d 96 b9 7c 3d c7 5a 9a 3d
       -0.032866776 0.03655323 0.061700426 0.07536846
000290 95 eb a0 3d 6e 89 8a 3d b4 bb cd 3c 11 f5 de 3d
       0.07857434 0.06764494 0.025113918 0.108865865
0002a0 a8 42 ef bc bc 9f 12 bc b4 49 6b 3d a3 e7 3f bd
       -0.029206589 -0.008949216 0.057443336 -0.046851765
0002b0 a5 63 9d 3c ff cb d2 3d 9d 1c 31 bd 2c 5a 9e 3c
       0.019212553 0.102928154 -0.04324018 0.019330107
0002c0 d7 44 c1 3d 9f 50 9f 3d a2 65 c7 3d 78 ee f8 bb
       0.09436958 0.07779049 0.09736182 -0.007596787
0002d0 69 15 0f 3d 5c 57 19 bd 1c c4 4c 3d 5e 71 37 3d
       0.034932528 -0.037436828 0.049991712 0.04478585
0002e0 0c b1 2b bc 41 19 dc bc 56 c3 bf 3d 98 d6 43 3c
       -0.010479223 -0.02686751 0.09363429 0.011953019
0002f0 4d 08 a2 3d 2d a9 82 bd 60 17 5d 3c a0 0c c8 3a
       0.079117395 -0.06379924 0.013494343 0.0015262552
000300 8b a6 38 bd 92 c6 b0 3d 48 6d 91 3d bd bf de 3d
       -0.045080703 0.08631624 0.07100922 0.10876415
000310 1c 79 b6 3d 43 8e cf 3d 42 6a 0f bc 96 3c 84 3c
       0.089098185 0.10134556 -0.008753361 0.01614217
000320 d6 ec 92 3d 0c 47 51 3c 00 54 a5 bb fe 9a ea bc
       0.07174079 0.012773287 -0.005045414 -0.02863836
000330 ef b7 c1 3d 0d a0 d4 3d 2c e0 c2 3d a6 82 be 3c
       0.09458911 0.1038209 0.09515414 0.023255657
000340 28 16 45 3d 1a 0c a6 3d d8 a6 4b 3d 10 ff c2 3c
       0.048116833 0.08107777 0.04971966 0.023803264
000350 51 bf c4 3d 12 89 14 bd 61 bf 0e bd 8a 86 d5 bc
       0.09606803 -0.036263533 -0.034850482 -0.02606513
000360 93 8b aa 3d b0 11 c5 3d 0b 7e f7 bc 90 6c 42 bd
       0.08327403 0.09622514 -0.03021147 -0.047466815
000370 95 0c a3 3d c1 ee f1 3d 37 f6 23 bd e3 65 7c 3d
       0.07961384 0.11813117 -0.04002973 0.061620604
000380 07 38 bd 3d 2d 5c b7 3d 90 73 d5 3c f3 0e 14 3c
       0.09239202 0.08953128 0.026056081 0.009036767
000390 ef 79 98 3c 82 9c e1 3d 60 77 22 bd 8d ce 94 3d
       0.01861283 0.110161796 -0.039664626 0.07265959
0003a0 12 19 ae 3d 21 5b 2c bc 95 4c 63 3d f3 65 5a 3d
       0.085008755 -0.010519774 0.055492956 0.053319883
0003b0 63 6b 00 3d 20 79 99 3d 3e 73 a6 3d a8 11 0d 3d
       0.031352412 0.07493806 0.081274495 0.034440666
0003c0 73 1a 88 3d f1 da 1c 3c d9 f7 92 3d 80 89 d1 3d
       0.0664567 0.009573684 0.071761794 0.10231304
0003d0 b5 f1 8a 3c 7c 66 42 bb 13 83 b6 bd 8a 00 af 3b
       0.016960958 -0.0029663136 -0.08911719 0.0053406404
0003e0 81 9b 32 3c b4 f7 e8 3c 1f 77 16 bd bc 61 d2 3d
       0.010901333 0.028438427 -0.036734696 0.102725476
0003f0 c5 70 85 3d 0d d9 6f bd 51 82 64 bb 22 7a 60 3c
       0.0651565 -0.058556605 -0.0034867714 0.013700994

fc4.weight f4 [3, 300]
000000 45 3a 9f bd 12 3b a0 bd 8a 41 69 be e5 7a 9e bd
       -0.07774786 -0.07823767 -0.22778907 -0.07738284
000010 61 e2 9d bd 73 7b a1 bd 2f b9 04 bb 7b ab a3 bd
       -0.07709194 -0.07884874 -0.002025198 -0.07991692
000020 f8 94 12 ba 48 80 a4 bd a4 61 37 3b 2b c6 ae bd
       -0.0005591656 -0.0803228 0.0027981782 -0.08533891
000030 e9 6e a4 bd cf 0a ab bd dd 99 9b bd f7 b1 a4 bd
       -0.08028967 -0.08351671 -0.075977065 -0.080417566
000040 8b 2f a9 bd d4 7f 81 bb ae 21 b8 bd 37 ed 99 bd
       -0.08261021 -0.003952006 -0.08990799 -0.07515948
000050 3a b4 b9 bd 62 f5 a8 bd d8 1d 9d bd 2f 8d a0 bd
       -0.090675786 -0.08249928 -0.07671708 -0.07839429
000060 17 41 9e bd 5a c7 dc bb a8 e5 a6 bb 75 d5 a9 bd
       -0.07727259 -0.0067376317 -0.005093295 -0.08292667
000070 86 03 98 bd 6b e3 45 bb 68 12 2b ba 96 49 ed ba
       -0.07422547 -0.0030195366 -0.0006525875 -0.0018103595
000080 fd 79 a0 bd e2 a6 c9 ba 83 f6 a4 bd 1f 8a b5 bb
       -0.078357674 -0.0015384818 -0.08054831 -0.005540147
000090 da 7f a2 bd 7e 35 9d bd ad 3b 9f bd 1c b1 df bc
       -0.07934542 -0.076762185 -0.07775054 -0.027306132
0000a0 8c cd 05 bd f8 d1 14 bd df 6d 9c ba 3e bf a9 bd
       -0.032666728 -0.036333054 -0.00119346 -0.0828843
0000b0 e2 07 fd bb 24 da 90 bd ab b4 a5 bd 8a c3 d8 ba
       -0.007721887 -0.07072857 -0.080911 -0.0016537767
0000c0 0d 9f b3 bd a2 6e 7c bb 5c e1 22 bb f1 b0 06 bd
       -0.08770571 -0.003851809 -0.0024853563 -0.03288359
0000d0 85 e4 a3 bd ca 5e c7 bb 7b a5 90 ba 9e c6 a7 bd
       -0.08002571 -0.006084298 -0.0011035645 -0.0819218
0000e0 61 5d a3 bd 35 f7 a3 bd 20 3a cf 3a 20 3c df 3a
       -0.07976795 -0.080061354 0.0015810169 0.0017031468
0000f0 2f 67 40 bd ad 31 7b bd af 5f a2 bd 3d 76 b2 bd
       -0.046973404 -0.06132667 -0.079284064 -0.087139584
000100 0a 0a 9f bd b2 cd 41 bb f8 7f a5 bd 22 d7 a4 bd
       -0.07765587 -0.0029572067 -0.08081049 -0.08048846
000110 ac 90 ec bc f8 8f 34 3a 94 7d ec bb a4 59 a7 bd
       -0.028877579 0.0006887908 -0.0072171185 -0.081713945
000120 1f 91 19 bb 97 89 a5 bd fb 6d aa bd 8f e9 a4 bd
       -0.0023432446 -0.08082884 -0.08321758 -0.0805236
000130 47 87 82 bb a1 6c a1 bd bd 04 a4 bd 12 34 2d bd
       -0.0039834115 -0.078820474 -0.08008716 -0.042285986
000140 2d de 7e bb 76 1c 11 bc 19 e6 9c bd 1b a1 9e bd
       -0.0038889751 -0.008856883 -0.07661075 -0.07745572
000150 e0 f3 84 39 45 95 23 bb 63 73 cf bb b3 5e 13 bd
       0.00025358703 -0.0024960798 -0.006330894 -0.035978984
000160 49 40 a1 bd b0 55 a0 bd a7 b6 08 bc 5b ec a0 bd
       -0.078735895 -0.078288436 -0.008344329 -0.07857581
000170 ba 17 a4 bd d5 bb b9 bb 4e a8 a9 bd af ec 9d bd
       -0.08012338 -0.0056681433 -0.08284055 -0.077111594
000180 cc 90 0e ba 0d 3b ae bb 34 61 d5 3a af 64 a9 bd
       -0.00054384465 -0.005317098 0.0016279579 -0.08271157
000190 a4 94 13 bb 13 4c 9a bd 58 22 88 ba d0 15 a9 bd
       -0.0022519017 -0.07534041 -0.0010386212 -0.082561135
0001a0 b7 7c ac bd 0e 37 8d bb 76 34 9f bd 70 31 76 39
       -0.08422225 -0.0043095415 -0.07773678 0.00023478805
0001b0 42 fe 9d bd 0e a8 91 bb a5 ce 9c bd 40 b2 e8 3a
       -0.077145115 -0.0044450825 -0.07656602 0.0017753318
0001c0 13 03 a1 bd b0 70 e6 b9 2c 21 41 bb c8 fd 9d bd
       -0.078619145 -0.00043952977 -0.0029469235 -0.077144206
0001d0 68 33 6d 3a 1b 0e 9d bd 21 99 e0 bc 5a b2 1a bd
       0.00090484926 -0.07668706 -0.027416768 -0.037767746
0001e0 7a 5d 1a bb 53 bf a5 bd d1 e8 54 bb c4 b4 cf bb
       -0.0023554252 -0.08093133 -0.0032487402 -0.0063386876
0001f0 08 cd a2 bd 7c 9f 5c bd d3 46 9c bd 85 bc 9c bd
       -0.07949263 -0.053863034 -0.07630696 -0.07653145
000200 e7 e1 92 bd 62 86 ad bd 7c 7c a3 bd 69 9e 95 bd
       -0.07171994 -0.08472897 -0.07982728 -0.07305605
000210 34 75 9b bd f0 61 c2 3a 78 60 96 bd cc a5 a1 bd
       -0.07590714 0.0014830213 -0.07342619 -0.07892951
000220 3d df bd bb f7 1b 92 bb aa 15 99 bb b2 4d a3 bd
       -0.0057944343 -0.0044589 -0.004671772 -0.079738036
000230 d8 90 2a bb da 7c a1 bd 61 a3 a2 bd f4 88 62 ba
       -0.0026026275 -0.07885142 -0.07941318 -0.00086416234
000240 58 b1 19 3b ce 15 9f bd 0e 18 aa bd d3 44 a9 bd
       0.0023451652 -0.07767831 -0.08305369 -0.0826508
000250 e5 ad aa bd 5f ea 48 bd b8 db 8c bd b8 5a 98 bd
       -0.08333949 -0.04905164 -0.068778455 -0.07439178
000260 ba 4a a0 bd ce 18 42 3b e8 20 b2 3a e8 57 99 3a
       -0.07826753 0.0029616836 0.0013590129 0.0011699172
000270 60 fa a2 bd 92 79 19 bb c2 24 9c bd f7 18 a8 bd
       -0.079579115 -0.0023418409 -0.076241985 -0.08207887
000280 70 07 f9 39 fc 34 a2 bd 59 ab ad bd fc 0a 9b bd
       0.00047498522 -0.07920262 -0.084799476 -0.075704545
000290 a9 0f a2 bd df 7a a4 bd e2 31 29 3b 64 d4 a1 bd
       -0.07913143 -0.08031248 0.0025817086 -0.079018384
0002a0 72 e1 29 bb 3c 7e 17 bd 61 b3 a7 bd d8 1c 97 39
       -0.002592173 -0.03698562 -0.08188511 0.00028822455
0002b0 78 86 ee bb ab 02 a9 bd 74 97 15 3a 18 1f ed 39
       -0.0072792135 -0.08252462 0.0005706467 0.0004522733
0002c0 ed e5 b3 bd c8 4b a1 bd d3 39 9e bd 2a ad 1c bd
       -0.08784089 -0.07875782 -0.07725873 -0.03825108
0002d0 d4 e9 8e bd 3c fa 98 3a 2c 8f 9b bd 56 95 9d bd
       -0.06978193 0.0011671255 -0.07595667 -0.07694499
0002e0 8a ce e2 ba 47 6c 27 bb 5d 4d 9f bd 43 c4 a5 bd
       -0.0017303985 -0.0025546716 -0.07778428 -0.080940746
0002f0 ba 68 a3 bd 24 43 81 bd ee 39 a0 bd e4 92 ea 3a
       -0.079789594 -0.06311634 -0.07823549 0.001789656
000300 7f eb 83 bb 32 17 9e bd ba 26 9d bd e9 e0 a4 bd
       -0.004025876 -0.07719268 -0.07673402 -0.08050711
000310 fb b1 a1 bd 7e 09 a0 bd cc bc cb bb d3 9b 18 bd
       -0.07895275 -0.078143105 -0.0062175747 -0.03725798
000320 db f7 9f bd 3b 76 84 bd 88 4a 96 ba 16 a1 08 bc
       -0.078109466 -0.06467863 -0.0011466304 -0.008339187
000330 c9 04 a8 bd 3b 7e 9f bd 77 c7 a3 bd 1b eb af bd
       -0.08204038 -0.077877484 -0.07997029 -0.08589765
000340 25 bd 96 bd 81 19 a2 bd bf 7a a1 bd d8 ba a4 3a
       -0.07360295 -0.07915021 -0.0788474 0.0012567891
000350 90 e3 a3 bd 0c 77 9b 3a ac 56 02 bc 30 81 70 ba
       -0.080023885 0.001186104 -0.0079552345 -0.0009174524
000360 29 8f 99 bd 0d db a0 bd f4 c3 c3 3a e0 9b 31 bb
       -0.07498009 -0.078542806 0.0014935718 -0.0027100965
000370 99 85 9f bd 45 3b 99 bd 28 4b a5 ba d8 77 a4 bd
       -0.077891536 -0.07482008 -0.0012610899 -0.08030671
000380 29 5b 9e bd fa 0e 9f bd 3c 88 a3 bd 6e d1 86 bd
       -0.07732231 -0.077665284 -0.07984969 -0.06582914
000390 42 c9 94 bd 86 6c a4 bd 7e 0e 7a bd 87 66 ad bd
       -0.072649494 -0.08028512 -0.061048977 -0.08466821
0003a0 14 6d a9 bd a5 18 7f bd 61 b1 a4 bd 6c 2c a6 bd
       -0.08272758 -0.062279362 -0.08041645 -0.081139416
0003b0 c6 8b 8e bd 26 78 a0 bd e5 ea ad bd e8 df 38 bb
       -0.069602534 -0.078354165 -0.08492068 -0.002820963
0003c0 2a d5 9c bd e8 97 da bb 3a 8c 52 bd 9d 6b a2 bd
       -0.07657845 -0.0066709407 -0.05140326 -0.07930682
0003d0 05 d2 a1 bd bc 4b b3 bd 52 ff 9d bc 4f 2d 65 bb
       -0.07901386 -0.087546796 -0.019286785 -0.0034969633
0003e0 05 16 a0 bd 40 a1 a2 bd 2e 2c 32 bb 44 1f bf bd
       -0.078167 -0.07940912 -0.0027186978 -0.09332135
0003f0 4f 3c a2 bd 94 52 6c bb 12 c6 cc bb ef 62 8c bd
       -0.07921659 -0.0036059963 -0.0062491978 -0.068548076

fc4.bias f4 [3]
000000 92 fe ca bd 3d 63 c4 3d 9c c2 af bd
       -0.09911837 0.09589241 -0.08582041
