checkpoint_actor.pth (torch, 864681 bytes, 8 tensors)

fc1.weight f4 [400, 9]
00000000: b832 fabc a0a0 e0bc 712b cf3c 0c9a 48bd
00000010: 4e73 88bd f413 18be 7a05 6e3b 7aeb b93c
00000020: ef86 963c 26e4 1abd 33ae 613c 038c 473d
00000030: 596d 103d a046 e5bd 230e 38bc 75bd 773d
00000040: d7f4 e13c 77fb 44bd 890e f53c f2d9 0dbc
00000050: 3cfb d4b9 27fa 34bd ca27 3d3e 6798 4bbd
00000060: 6efc f43c 3f87 1b3d 2fb6 8f3c e298 e43c
00000070: 3a60 c0bc 9ae8 2abd 5dd4 043d d75c edbc
00000080: 43a1 ffbc 0028 08bb 3a4c 17bd 3a07 fabc
00000090: e8d8 32bd d9a2 183d 3336 e4bc 06d1 a33c
000000a0: 504f 1abb 959c 06bd d360 39bd d6ac 8cbc
000000b0: 1078 e93b 2e7d 873b 80ce 243e a41d b2bd
000000c0: 4589 9e3c 4a1c 013e fb5a 473e 5edb 153c
000000d0: afac b7bd e38f 3e3b 002c 6abb 9f33 343d
000000e0: 380b 7cbc abd1 3b3d a353 023d 5402 573c
000000f0: 2c5c 073c c75d b6bc 4d5f 033d f697 3abd
00000100: cafc 6e3c aa1b 213c ab3d b9bb 1ad8 233d
00000110: d3b7 513c a4c5 a4bd 8987 4b3c 75c8 28bd
00000120: c416 9bbc 75e9 c73d 83af a9bc 5689 89bc
00000130: 2990 0d3e 925b b73d 8fa0 eb3c b8c2 fbbb
00000140: 72a6 0abd a096 96bd 8ae5 6abd 3d27 1e3d
00000150: 1475 ddbc 28a7 ccbc ed41 ccbd 35ee 39bd
00000160: d974 d2bc 784a 0b3d 093d 65bd aacf fdbd
00000170: 0c98 a63d 1dd3 a1bc 68cc d33c cb3b 10be
00000180: 7b51 1c3d 823c 993d 119b c13c 1fe6 1fbd
00000190: c8a5 94bd 2db6 8c3d c56e 36bb 6e11 b1bd
000001a0: 0301 b1bd e877 fc3d a21a 123d 5b44 313d
000001b0: d751 203d 4248 d63d d66a 343d 5221 88bb
000001c0: 677e 8f3d 22ca 263e 80ee 0ebd 64ab b63b
000001d0: e68f 49bc 8e64 653d d724 3c3d f126 443d
000001e0: fa9b 55bd 7f12 2d3e c482 e03c 0cbb c13c
000001f0: 9f85 443d 1ca5 aa3c cbd8 873d 3744 9f3c
00000200: aa63 c2bc 77b5 843d 4dbc 4abd fa0c 01bc
00000210: 0c29 b63d 4dfb 1eb9 029c 86bd 21ca 933d
00000220: a56b 343c f8c6 97bd 123e 203d 9c14 98bd
00000230: 2918 613d 1ce5 bf3c 2e64 82bb c743 0fbd
00000240: cad4 7e3d a734 46bd 5b77 8e3d 6e0e b83c
00000250: 8d38 943d 229e aabd 4324 3e3c 57eb 07bc
00000260: 852a 90bc 4368 143d 73fa 6c3b 97f9 5c3d
00000270: ac7e 90bd 5dae 79bd f660 b0bc 8bd3 7a3d
00000280: 69c3 383d 1dd9 553d 4636 ed3c 8311 cfbc
00000290: 58bd dd3b 08a6 17bc d2d2 8c3c 8074 343b
000002a0: faf4 b1bc e3f3 35bd 8acb cc3c 54ec 993c
000002b0: f2fb a1bd bdfc 2e3a 210c e2bc 0ec9 083d
000002c0: 8d87 98bd 5621 b1bc 6537 593d 7f2b 2c3d
000002d0: 8a67 a63c 5d48 afbc b914 2d3d b84b 103c
000002e0: 9ec1 943c cafa d7bc e2d6 b73c 60d8 963a
000002f0: 4f9a 42bd 7492 85bd db99 963d a8ea 6abc
00000300: 03c5 353d fc1a d73d 493a 563d 5fd1 883c
00000310: 3b7d 1a3d 722b 3dbd a37f 1cbd 98c6 44bd
00000320: 1d8c 48bd 8946 0f3d c704 fdbc 2cb1 7f3c
00000330: b07d a4bb 00a6 b23b 5d10 e5bc 3334 c43d
00000340: 8061 b53c 00bd 3c3d 420d 023d cc70 56bc
00000350: f5b4 6abd ee49 7a3c 1b16 5a3c b468 3a3c
00000360: b0a3 a63b a835 e0bb 83cf d8bc 6414 623c
00000370: eddc b1bc e685 05bd c04b 073c 4cd5 573c
00000380: 30ae f1bb f0c7 813b 4531 8c3c 3ab1 b93c
00000390: 29b6 21bd cfd1 403c 6b47 9e3d a041 b13d
000003a0: 33b7 ea3c d0d1 023d 5c45 80bc 0102 2e3d
000003b0: 920e b53c 4cd0 403c 80bc 76bc 5798 39bd
000003c0: 24ed 00bd ad05 323d 8ab8 c5bc b544 ebbc
000003d0: a17d 78bc eed2 e33c 7822 6a3d 90cc 013e
000003e0: 0504 1e3d 08c7 56bc bcb8 da3d 6088 4fbd
000003f0: 543d a23d 615b d0bc c7d6 13bc b327 75bd
-0.030541763 -0.027420342 0.02528927 -0.048975036 -0.066626176 -0.14851362 0.0036319182 0.022695292
0.018374888 -0.037815236 0.0137744425 0.04871751 0.035260532 -0.11195111 -0.011233839 0.060483415
0.027582569 -0.048091378 0.029914157 -0.008657919 -0.00040622975 -0.044183876 0.1847221 -0.04970589
0.029905524 0.037970778 0.017542927 0.027904931 -0.023483384 -0.041725732 0.032429088 -0.028974934
-0.031204825 -0.0020775795 -0.03693793 -0.030521024 -0.04366389 0.03726468 -0.027857875 0.019997131
-0.002354581 -0.032864172 -0.045258354 -0.017172258 0.0071249083 0.0041347956 0.16094398 -0.0869706
0.019352565 0.12608448 0.194683 0.0091465395 -0.08968484 0.0029077462 -0.0035731792 0.043994542
-0.015383534 0.04585425 0.031818043 0.013123114 0.008261722 -0.022261513 0.032073308 -0.045555077
0.014586637 0.009833256 -0.0056531033 0.040001012 0.012800175 -0.080455095 0.012422451 -0.041206796
-0.018931754 0.09761325 -0.020713573 -0.01678912 0.13824524 0.089530125 0.028763084 -0.0076831244
-0.03385014 -0.07352948 -0.05734781 0.03861164 -0.027033366 -0.02498205 -0.09973512 -0.045393188
-0.025690483 0.034006566 -0.05596641 -0.123931244 0.081344694 -0.019753987 0.025854304 -0.14085309
0.038163643 0.07482244 0.023633512 -0.03903782 -0.07258183 0.06870685 -0.002783702 -0.086459026
-0.08642771 0.12327558 0.03566993 0.04327808 0.03914055 0.10463001 0.0440472 -0.0041543627
0.07006531 0.16288045 -0.03489542 0.0055746306 -0.0123023745 0.0560041 0.04593357 0.0478887
-0.052150704 0.16901587 0.027406104 0.023648761 0.047978994 0.020830683 0.06633147 0.019441707
-0.023729164 0.06479924 -0.049495984 -0.007876629 0.08894548 -0.00015161671 -0.06572725 0.072162874
0.011011993 -0.07410997 0.039121695 -0.07425806 0.05495468 0.023424678 -0.0039792275 -0.034976747
0.06221465 -0.048390057 0.06956359 0.022467818 0.07237349 -0.08330943 0.011605325 -0.0082958555
-0.0175984 0.036232244 0.0036160022 0.053948965 -0.07055411 -0.0609573 -0.02153061 0.0612369
0.045108233 0.05220901 0.028956544 -0.025276905 0.0067669563 -0.0092558935 0.01719037 0.002753526
-0.02172326 -0.04442204 0.024999399 0.018789448 -0.07909383 0.0006675234 -0.027593674 0.033394866
-0.07447729 -0.021622341 0.053031344 0.04203367 0.020313043 -0.02139681 0.04225609 0.008807115
0.01815873 -0.026364703 0.022441331 0.0011508577 -0.04751044 -0.06522074 0.07353564 -0.014338173
0.04437734 0.10503194 0.05230168 0.016701398 0.037717085 -0.04618401 -0.03820766 -0.048040956
-0.048961747 0.034979377 -0.030886067 0.015606206 -0.005019866 0.0054519176 -0.027961904 0.09580269
0.022141218 0.046078682 0.031750925 -0.013088416 -0.05730148 0.015276415 0.013310934 0.011377502
0.005085431 -0.006842334 -0.026466137 0.013798807 -0.021711791 -0.0325984 0.008257806 0.0131734125
-0.007375501 0.003960602 0.017113337 0.022667516 -0.039480362 0.011768772 0.07728466 0.08655095
0.02865181 0.031938374 -0.015658073 0.04248238 0.022101674 0.011768412 -0.01505959 -0.0453113
-0.031476155 0.043462444 -0.024135847 -0.028719286 -0.015166671 0.02781054 0.05716178 0.1267569
0.038578052 -0.013108976 0.106797665 -0.050667167 0.07921854 -0.025434198 -0.009023375 -0.059852313

fc1.bias f4 [400]
00000000: a6a3 583e c2ec dcbd c8de 583e 5362 66be
00000010: 6eb0 99be 3b33 023d 3b32 a3be 7a6f 283e
00000020: 1e17 28bd 9147 8c3d 64ff cfbd 1e4d 6dbc
00000030: 52fc 19be 6869 743e f0cf b9bd 558c cc3c
00000040: 5a2a 5b3d 6de4 63bd 1a51 88be 4fdf 823b
00000050: 9699 82be 0c95 5cba f35b 6dbe 66f5 09be
00000060: ac70 8abe a5a7 163e 5b08 8fbe 7823 25be
00000070: bd28 d3bb f661 873d edf2 913e a859 83bd
00000080: 6d6f 963e 2d88 45be def0 053e b51a 7e3d
00000090: 8c96 963e fd40 373d d777 a9bc 82bd 963e
000000a0: 0a45 a03e 1079 9cbe 4520 a23e 3ddc 5cbd
000000b0: 587b b23e cdea b23e 7b08 a0be 7b08 8d3e
000000c0: 6b98 f0bd 30af 363e 6f98 fdbc dd13 3ebe
000000d0: f3df 8cbe 9678 193e 11ff c83d 4348 2b3e
000000e0: 434b 6cbe 9a38 a6be 0654 5fbe 3e56 84be
000000f0: 2ba7 a23d 4a34 84be de66 5fbe b725 a4be
00000100: 717a 723e 9c1e 82be d111 85bd 6dc8 533c
00000110: f08a 743e 0b3b 7a3e a946 58be 2366 03be
00000120: 422a ae3e 5c86 c3bd 0cab 28bd e8a4 f9bd
00000130: 64f0 533e cb86 df3d 2f52 cd3c a348 dbbd
00000140: 5d6d ac3e a52f 203e 66b6 acbd 67be 9f3d
00000150: 48a5 853e 9ca9 c4bd 43ed 8fbe b48e 89be
00000160: b207 9d3e aa96 67bd 0056 8fbe 28d1 a0be
00000170: 8717 903e 3f65 68bd 0e15 65bd b298 913e
00000180: 41ea 5f3e 48ab 4fbe 4fbe f3bd 549a 81be
00000190: e7b9 863e 1102 353e 68b4 88be 52dd 533e
000001a0: c567 aa3d 534e 17be 3ad8 88be fe92 8b3e
000001b0: f305 86be e756 ac3e aebd cd3d a36d 65be
000001c0: 60d4 50be cbe2 56be e331 be3d ced3 053e
000001d0: 6fb7 c4bd f932 9d3d c3e9 003e aaac 4f3e
000001e0: d3bf 893e 6d4c 933e 9492 58bc 278e b03e
000001f0: 9791 303e 18ca 9a3e 3017 c9bd 7067 1ebd
00000200: c697 833c fec1 90be 93d8 04be 8866 30be
00000210: 0066 753d b575 bf3e c391 98be 7af1 3fbe
00000220: 1abe 97be ed80 b23e 92df b03d 773c 3e3e
00000230: 42d9 5a3e 1f31 eebd 2017 5d3e 56c5 5ebe
00000240: 1b5d 7fbe 53b8 763d 1763 ba3e d686 803e
00000250: bbc3 223b fefc 703d c4f4 953e fd5d c63d
00000260: 4e53 543e 1fbe f1bd 57b8 113e c7f8 603e
00000270: bfce b83e 0751 ae3e 2d71 8d3e f044 a43e
00000280: 0a04 28be 6f0c a6bd 3a98 9b3e 758c 613d
00000290: 4400 823e 4191 e4bc d570 813e f879 9b3e
000002a0: 0dcc 55bd 7acb 99be 63a0 5dbd 1096 9d3e
000002b0: c8eb 73be 7738 92bd d3e5 2b3e f1da 943e
000002c0: 634d 2abe beb4 2c3e ecd9 a23d fb40 b43e
000002d0: 186b a93e ebc8 f03d a7f7 21be 61ed 273e
000002e0: d68e 673e 6424 b93d c910 403e f11b 6bbd
000002f0: 9f03 9bbe 2e16 3ebe 1e06 74be d582 603e
00000300: 7c62 a1be ac64 49be d2d9 2abe 34df 893d
00000310: b859 a03d 96dc 8dbe dda1 16bd ae54 aa3e
00000320: 796c 0abe 1b52 263e 9283 8cbe 2e7d 8c3d
00000330: 5fa9 9cbb 7251 683e bbfe 833d b82d 3ebe
00000340: c27b 37be 77b9 93bd e241 2d3e 830f 5cbe
00000350: e304 643e c79e acbd 72e9 863e 08dd 7e3d
00000360: c624 a2bb c46a 35bd 13e8 48be 07a7 87be
00000370: 2de9 873e 38fd 94be 0f70 963e 166c 1ebe
00000380: e9d5 a2bd 3a24 8f3e 666f 95be a179 363d
00000390: 9db4 ab3e e7a5 a3be fec6 6abe 50fc 18be
000003a0: c2fa d2bd 657e 05be 6280 9ebe 0f97 253d
000003b0: cd27 63be 2ca2 783e 145f 5d3e 7eb1 433e
000003c0: 1b40 94be f45d 83be ed8d 8e3e 414e b23e
000003d0: ce05 1d3e 104c 33be f857 973e 6bb0 54be
000003e0: 738a a0be 6a9c 483e a8a1 6dbe 9660 85be
000003f0: ebcd a3be 2707 b5bd c712 463e ff4e 0cbd
0.21156177 -0.107873455 0.21178734 -0.22498445 -0.30017418 0.03178714 -0.3187426 0.16448775
-0.04103767 0.06849588 -0.10156134 -0.014483718 -0.15037659 0.23868334 -0.09072864 0.02496926
0.053507186 -0.055637766 -0.26624376 0.0039939056 -0.25507802 -0.00084145437 -0.23179607 -0.13472518
-0.27039087 0.14712389 -0.27936062 -0.16126812 -0.0064440654 0.066104814 0.2850565 -0.06413585
0.29381886 -0.19290228 0.13080165 0.06203719 0.29411733 0.044739712 -0.020687027 0.29441458
0.31302673 -0.30561113 0.31665245 -0.053920973 0.3485973 0.34944764 -0.3125647 0.27545533
-0.117478214 0.17840266 -0.030956475 -0.18562265 -0.2751461 0.14987406 0.09814275 0.16726784
-0.23075585 -0.3246506 -0.21809396 -0.25847048 0.07942041 -0.25821143 -0.21816584 -0.32060024
0.2367952 -0.25413978 -0.06497539 0.012926203 0.23881125 0.24436586 -0.21120705 -0.12831931
0.34016615 -0.095471114 -0.041178748 -0.121896565 0.2069717 0.109143816 0.025063602 -0.10707214
0.33677188 0.15643175 -0.08433227 0.07799988 0.26102662 -0.09602663 -0.28110704 -0.26866686
0.30669934 -0.05654017 -0.279953 -0.31409574 0.2814295 -0.05673718 -0.055928282 0.2843681
0.21866705 -0.20280182 -0.11901533 -0.25313056 0.26313707 0.1767657 -0.2670014 0.20689896
0.08320574 -0.14775972 -0.26727468 0.27260584 -0.26176414 0.3366005 0.10045944 -0.22405104
-0.20393515 -0.20984952 0.09286859 0.13069078 -0.096053 0.07675738 0.12589173 0.2028071
0.26904163 0.28769246 -0.013218541 0.34483454 0.17243038 0.3023231 -0.09818876 -0.038672864
0.016063582 -0.28273004 -0.12973242 -0.17226613 0.059911728 0.3739449 -0.29798707 -0.1874446
-0.29637223 0.34863988 0.08636393 0.18577753 0.2137194 -0.11630463 0.21590853 -0.21754965
-0.2493786 0.06023438 0.36403725 0.25102872 0.0024835903 0.058835022 0.29288304 0.096858956
0.20734903 -0.11803841 0.14230476 0.21969901 0.36095235 0.34046194 0.2762541 0.32083845
-0.16407791 -0.0810784 0.30389577 0.05506559 0.25390828 -0.027901294 0.25281397 0.30366492
-0.05219655 -0.30038053 -0.054108035 0.3077855 -0.23820412 -0.07139676 0.1678689 0.2907329
-0.16631083 0.16865823 0.079517215 0.35205826 0.3308952 0.11757072 -0.15817128 0.16399147
0.22613081 0.09040144 0.18756403 -0.057399694 -0.302762 -0.18563148 -0.23830459 0.21924908
-0.3152045 -0.1966731 -0.16684654 0.06732026 0.078296125 -0.27707356 -0.03677546 0.3326773
-0.13517942 0.16242258 -0.2744413 0.06859814 -0.004780933 0.22687319 0.0644507 -0.18572128
-0.17918304 -0.07213109 0.16919664 -0.21490292 0.22267489 -0.08428722 0.2634998 0.06222251
-0.0049482314 -0.044291273 -0.1961978 -0.2649462 0.26545087 -0.2909944 0.2938237 -0.15470919
-0.079509564 0.27957326 -0.29186553 0.044549588 0.33536234 -0.3196251 -0.22927472 -0.1494
-0.103017345 -0.13036497 -0.30957323 0.040427264 -0.22183152 0.24280614 0.216183 0.19110677
-0.2895516 -0.25657618 0.27842656 0.34825328 0.15334246 -0.17509484 0.29559302 -0.20770423
-0.31355628 0.19590917 -0.23206198 -0.26050252 -0.3199304 -0.08839255 0.193431 -0.034255024

fc2.weight f4 [300, 400]
00000000: 8959 d83c bba4 0b3d f4f5 413d c0a5 14bd
00000010: cba8 46bd cee4 2dbd 5ca8 2abd 466f e03b
00000020: ff78 133d 7935 ce3d 75d2 dcbc d981 54bd
00000030: 5aa8 c43d 40a7 4e3b c4a9 07bd cf4d 863d
00000040: 28b8 ac3d d070 0abc 5066 473d ef17 563d
00000050: 208b 42bc d45b a5bb ec5d df3c 5891 3bbc
00000060: b0d7 07bc 6dcd b6bb 0098 353c f196 ff3d
00000070: 773e 53bd ef41 4abc 0f84 bd3c 1062 1bbc
00000080: 5526 853c 3ce0 a73d c003 063d 3af8 823c
00000090: d91f b83c 73ca 7f3d 934c cd38 13e8 653d
000000a0: 953d 11bd 80e7 bb3c dec3 b83c 7c85 f03c
000000b0: 8f63 c1bc 6365 f1bc ae55 293d 4f0e 0fbb
000000c0: a38f 51bd 84d6 0dbd ad0b 9f3d 7948 53bd
000000d0: ce8a 49bd 21cc f8ba 72db a9bc 3165 0f3d
000000e0: 3ea7 453d ccb3 d8bc 0dbf 66bd c019 4c3d
000000f0: d370 86bd 0313 febc f823 1b3d 6034 003c
00000100: 41f1 d3bc 4026 6cbb 8131 edbb 0d91 0a3d
00000110: 9f70 7d3d baf4 213d 254b cf3b 4690 303d
00000120: 0d23 d03a e630 283d bf8a 103c e70b 8b3d
00000130: b71b c03c 6771 5e3d f043 2e3c 4d1a 67bc
00000140: ddd1 293d 5857 0c3c ebd4 7fbd cec6 c03b
00000150: d707 853c ed05 723d e21f 5d3d e538 f1bc
00000160: a820 8b3c 052e 2cbd 5280 113d 2ea0 253d
00000170: f2a1 3c3d 81ba 43bc f7e9 443d 911a 523d
00000180: a586 633d a041 133d c119 053e c3f6 15bd
00000190: a4cf 713d d020 403d 847e 833c e40d 3d3d
000001a0: e10c cd3c 0808 0bbc 74d6 063d dc69 243d
000001b0: 3050 8c3b c4d8 0cbd 91ef 503c 6842 06bd
000001c0: 80bb 48ba 2cb1 0c3d d037 8bbc df31 5d3c
000001d0: 0e20 95bc 8112 563c d688 a63c f83f a53b
000001e0: 3fd8 293d 4ec8 8b3d 3feb ef3d 92f9 e23c
000001f0: 44be 943d 4566 023d 6bf6 3cbd ee90 3fbd
00000200: f5d3 1f3d a4a8 39bd 605d 77bd 083b 20bd
00000210: bc7c 0f3d dd08 913c 8ee5 d7bc 4566 13bd
00000220: 3cd3 b9bc ecd9 123d 666d 943d 2b8d 963c
00000230: a079 193d b8c1 37bd acaf 01bd e55d 32bd
00000240: 3814 0b3d cbc1 40bd 7615 093d 6fe4 503d
00000250: 3b44 7ebd 4b41 10bd c1c3 17bd 18e3 1b3d
00000260: 749a 25ba ea3f ee3c af4c 8c3c cfb3 1b3d
00000270: 0265 9fbb 8cbd 133c 8ba7 2d3d a8bc 75bb
00000280: 846e 16bd 9884 90bd c7ae 8b3d 30b1 503d
00000290: 23b7 8b3c f326 80bd 3057 dc3c e122 923d
000002a0: 0530 8dbd 0a1e 42bd 8912 0dbd 82dc 5f3d
000002b0: 2e05 3d3d 022d b33d 881b ad3c 6655 4a3d
000002c0: 1e7c 0cbd a207 01bd 16ce 8b3d d840 8f3c
000002d0: d69e d1bb 4e42 e3bb be86 72bd c924 bebc
000002e0: 3419 08bd ae82 33bc 1ed4 47bc da76 9bbd
000002f0: b2d0 123d 1eb1 5f3d d0c0 643c 3254 a13d
00000300: 98e3 6a3c 0a1c 123e 6f71 e5bc 360d 6bbc
00000310: 0ad3 ac3c e8d3 7a3c 1786 f2b9 dd2a fdb8
00000320: d277 58bd e235 983d 162e 463d da08 d53d
00000330: 702c 87bc 0574 ffbb ea2b 8e3d 0e6e ffbc
00000340: be5d bfbd 44d8 a1bd 23a5 e73c 8459 eb3c
00000350: 24b5 ad3c ac46 a3bb 3b09 0ebd 10c7 2c3d
00000360: e9aa 383d e7d3 ad3b 4cbb 263d da0e 5d3d
00000370: 35f5 853d 9c42 8a3c 5098 7e3d 5641 82bc
00000380: 3e94 c6bc c654 e4bc 78a7 57bc 09f9 f03c
00000390: 1d8a 6e3d 78f5 523d 6069 bdba 78b0 26bd
000003a0: 3104 cabc 953d a03d c3ac 0dbd f0bb e3bc
000003b0: 0d6e 583d 655b a73c 7168 b3bc eb21 0d3d
000003c0: fcf7 2ebc b833 b5bb 0338 5d3d 4df5 18bd
000003d0: e40d a6bc d8aa 5e3c 2055 f5bc 63c9 0cbd
000003e0: 8cb2 bebc b93c 063d da35 2dbd 586b 983b
000003f0: bc46 ddbc f127 85bc 43d0 363d a203 113d
0.026409881 0.034092646 0.0473537 -0.036290884 -0.048500817 -0.042454533 -0.041664466 0.0068492023
0.036004063 0.10068793 -0.026955822 -0.051881645 0.09602423 0.0031532794 -0.033120885 0.065578096
0.084335625 -0.008449748 0.048681557 0.05226892 -0.01187399 -0.005046347 0.027266465 -0.011448227
-0.00829117 -0.005578688 0.011083603 0.12479962 -0.051573243 -0.012344821 0.02313426 -0.009483829
0.01625363 0.08197066 0.03271842 0.015987504 0.022476124 0.06244893 9.789425e-05 0.056129526
-0.03545912 0.022937536 0.022554334 0.029360525 -0.023607044 -0.02946729 0.041341476 -0.0021828597
-0.051162373 -0.034628406 0.07765899 -0.051582787 -0.04920464 -0.0018981734 -0.020734522 0.035008613
0.048255198 -0.026452921 -0.056334544 0.049829245 -0.06564488 -0.031014925 0.0378761 0.007824987
-0.025871875 -0.003603354 -0.0072385673 0.033829737 0.061874982 0.03954003 0.0063260966 0.04310634
0.0015879587 0.04106226 0.008822142 0.067893796 0.023450715 0.054307368 0.010636315 -0.014105392
0.041459907 0.008565746 -0.062458914 0.0058830744 0.01623909 0.059087683 0.053985484 -0.029446075
0.016983345 -0.042036075 0.035522766 0.040435962 0.04605288 -0.011946321 0.04807469 0.051294867
0.05554833 0.035951257 0.12998106 -0.036612283 0.059035912 0.046906292 0.016051538 0.046155825
0.025030555 -0.0084858015 0.032919362 0.040140018 0.00428202 -0.03438641 0.01275243 -0.032778174
-0.0007657334 0.03434865 -0.016994387 0.01350066 -0.018203761 0.013065935 0.02032892 0.005043026
0.041465994 0.068253145 0.117147915 0.027706895 0.07262853 0.031835813 -0.04613344 -0.046769075
0.039020497 -0.045326844 -0.060391784 -0.039118797 0.035031065 0.017704422 -0.026354577 -0.035986204
-0.022683732 0.035852358 0.072474286 0.018377861 0.037469506 -0.04486248 -0.031661674 -0.043546576
0.03395483 -0.047059815 0.033467732 0.0509991 -0.06207679 -0.03521852 -0.03705192 0.03805837
-0.0006317266 0.029083211 0.01712641 0.038013276 -0.004864336 0.009017359 0.04239611 -0.003749648
-0.03672649 -0.0705654 0.068204455 0.05095023 0.0170551 -0.06257429 0.026897043 0.07135559
-0.068939246 -0.04739193 -0.034441505 0.054653652 0.046147518 0.08748819 0.021131292 0.04939785
-0.034298055 -0.03150142 0.06826417 0.017486975 -0.0063971085 -0.0069353944 -0.05921053 -0.0232109
-0.03322716 -0.010956449 -0.012196569 -0.075910285 0.03584356 0.05461227 0.013961986 0.07877387
0.014336489 0.14268509 -0.02800819 -0.014346411 0.021096725 0.015309311 -0.00046257742 -0.00012071964
-0.052848645 0.07432152 0.048383795 0.10402079 -0.016500682 -0.007795813 0.0694197 -0.031180408
-0.09344052 -0.079025775 0.028276986 0.028729208 0.021204539 -0.00498279 -0.03467677 0.04218203
0.045084868 0.0053048017 0.040705964 0.05396924 0.0654091 0.016877465 0.062156975 -0.015900295
-0.02424061 -0.027872454 -0.013162486 0.029415624 0.058237184 0.05150363 -0.001445096 -0.040695637
-0.024660202 0.07824246 -0.034588587 -0.027799577 0.052839328 0.020429322 -0.021900387 0.034456175
-0.010679241 -0.005529847 0.054008495 -0.037343312 -0.020270295 0.013590537 -0.029947817 -0.034371745
-0.023278497 0.032772753 -0.042287685 0.0046514682 -0.027011268 -0.016254397 0.044632208 0.035403855

fc2.bias f4 [300]
00000000: 7751 c53b b41c 563d 9152 4c3d 137e e03c
00000010: 1df2 e9bc 9f0d 103d 29b2 263d 005c b238
00000020: 84dd c43c efa9 c5bb 7d4e 6e3d 6259 da3c
00000030: c546 8fbc a047 12bb ed1c 06bd 4563 0b3d
00000040: 2f6d e53b 5a3b 9abb 6739 753d 4299 f43c
00000050: bf1f ae3c 0c8a 0cbc f93f 4f3d 6858 34bc
00000060: a6f4 be3c a353 afbc 4765 3b3d 7b5c 5e3d
00000070: daa2 bfbc d38f 0f3d d28e 303d fa38 403d
00000080: fa2f 2a3c ee25 cb3b 168f 8e3c 242e a53c
00000090: f64e 3d3d 0d13 823d d7f9 5d3d f17a 463d
000000a0: 12fc 1d3d 8d4a bb3c 9b12 1b3d 5ea5 f6bc
000000b0: d82c 9abb efc7 573d cab4 443d ae99 34bd
000000c0: 463e 88bb ce2d 8339 123b 3f3d 895a 023d
000000d0: 54be e1bb 782b 043d a70b 173d 0016 803a
000000e0: 35bc 7dbc df10 263d df33 0b3c db54 9fbb
000000f0: 5120 503d 5b56 7b3d ee50 3a3d 5d73 3bbd
00000100: 5eef dd3c d45e c7bc 9e4f 1abc f5b5 f4bb
00000110: 6a12 9a3d 35e6 2c3c 5bba b23c 021b d33c
00000120: 1174 14bd fe12 df3c f74b 803c 5be5 2c3d
00000130: d8cd f33c 059d 6c3d 352e 933d 8604 62bc
00000140: 1a13 2d3d 3d49 e8bb 2e0a c9bb 2789 24bd
00000150: 26a6 363c f34b dfbc 5b14 81bc 0d53 a33d
00000160: 31d4 743d 2c05 323d e251 5a3d 8ade 16bd
00000170: 502b c13b d6e2 aebc ca57 a53c 2479 4a3d
00000180: 82bb ae3d da91 3b3d 36b1 fe3c 2ef2 bcbc
00000190: 32f0 09bd 16e6 693d 6c17 0e3d e264 923d
000001a0: 2d10 a73c 59c5 a1bb 9729 043d 9167 afbc
000001b0: e506 2f3c 4142 c2bc 591b 2abc 4e21 f53c
000001c0: c823 32bc bbe0 053d d304 34bd 4179 d93c
000001d0: 09ab 2d3d 2522 503d 105d 093d 4437 d8bc
000001e0: 91e9 80bc 275f 963d 8da0 a13c 382a 383d
000001f0: 32ef e53c 6ef8 763c 35c9 283d 58cd f3bb
00000200: 1a76 2a3d 24bf 96ba a21b d43c 8200 3d3d
00000210: 7c8b 07bc bc0d 0cbc f95f d93c 1c9a da3c
00000220: 0680 753c fcda 713d 2abe 483d 0dab 893d
00000230: eff6 963d 2616 423c 2841 da3b c25d c8bc
00000240: cab6 b0bc 73e8 8a3d 4c17 2dbc 9eca 0bbd
00000250: f89c c3bb 5446 8a3d aff0 2d3d 28f1 943d
00000260: c8d9 eabc c5de 3abc 0cc6 123d 5c1c ea3c
00000270: 086a a33c d505 933d 32e4 213d 663a 0f3d
00000280: 9973 923d 4cd1 2d3d 57d0 f5bc 80b3 72bc
00000290: 984b 89bc d0bd 413d 2017 2e3c 048c 513c
000002a0: c7e4 923d bd87 a2bc a910 593d 0816 9c3c
000002b0: 06fc 20bd 597e 993d 6464 59bc 3b61 8fbc
000002c0: 6b47 43bd 7576 683d fa40 11bd b703 41bb
000002d0: b564 91bc 38cf 2c3d d3e6 ccbc 748a 293d
000002e0: a942 983d cc42 e33c 1fa0 6d3d 9710 303c
000002f0: 0e88 31bc b356 ff3c 6694 5d3d e6c5 db3b
00000300: 26f3 123d 94cd 583d 9898 1dbc acb0 8a3d
00000310: a76a 2f3c 5546 8b3c eab1 013d d590 193d
00000320: b661 633d b0ef 0d3d 377f ffbc 4b6a 9cbc
00000330: 238e a83d 456b f83c 3ab8 083d 430a b73c
00000340: 8674 323d 9b04 d3bc a6bd 903c fa6d d23c
00000350: 60ef 80ba 70eb 263c 904d 41bc 1f73 3bbc
00000360: 6848 d5bc aa54 39bc c6b6 88bc 1aa3 db3b
00000370: b80a 8cbc 5306 773c 0427 b1bc 27c6 a3bc
00000380: 73df f6bc 2ba8 603c 6bb8 d83c 7add 45bd
00000390: a14b b5bc 63e8 bfbc bccc 0f3d ca1a f63c
000003a0: 4dfc 7b3c 9ec5 1c3c 0120 e83c 35ce 323d
000003b0: f2c5 123d c2f6 063d a2b4 08bd 9739 363d
000003c0: 4ecd 75bc 70c7 2bbd 366f a0bc 6d76 283c
000003d0: 9733 beba d831 3cbd 4230 803c 081d 2fbd
000003e0: d612 ba3c a0a4 d53a 9e3c 6d3c f1bd 4d3d
000003f0: b99b 373d a70c 4c3d c8d6 e83b dd74 993c
0.0060216743 0.052273467 0.04988343 0.027403867 -0.028557831 0.03516924 0.04069725 8.504838e-05
0.024031408 -0.0060322206 0.05818032 0.02665395 -0.0174898 -0.0022320524 -0.03274243 0.034030218
0.007001541 -0.0047067823 0.059869196 0.029858235 0.021255372 -0.008577835 0.05059812 -0.011007406
0.023310017 -0.021402186 0.045750882 0.054287415 -0.023393083 0.03504927 0.043104954 0.046929337
0.010387415 0.00619959 0.017402213 0.020163603 0.04621788 0.0635129 0.054193344 0.04845709
0.03857047 0.022862697 0.03785954 -0.03010815 -0.004705053 0.052680906 0.048023976 -0.044091873
-0.004157814 0.00025020394 0.046687193 0.031824622 -0.006889144 0.032268018 0.036876347 0.0009772182
-0.015486767 0.040543433 0.008496254 -0.0048624105 0.05081207 0.061361652 0.045487337 -0.045764316
0.027091678 -0.02433721 -0.009418396 -0.00746798 0.075230435 0.0105529325 0.021817377 0.025769714
-0.036243502 0.027230736 0.015661223 0.042210918 0.02976124 0.057766933 0.07186548 -0.013795024
0.042254545 -0.007088809 -0.0061352467 -0.04016986 0.011148011 -0.027257895 -0.015756777 0.07974825
0.059772674 0.043461964 0.053300746 -0.036833324 0.005895056 -0.021348398 0.020183463 0.049431935
0.08531858 0.04579339 0.03109036 -0.023064699 -0.033676334 0.057104193 0.034690306 0.07148148
0.020393455 -0.0049368558 0.032266226 -0.021411689 0.010682796 -0.023713233 -0.010382497 0.029923107
-0.010872789 0.032685023 -0.043949913 0.026547076 0.04239944 0.050813813 0.033536017 -0.02639354
-0.015736373 0.073423676 0.019729877 0.044962138 0.028068159 0.015073879 0.04120751 -0.0074402504
0.041616537 -0.0011501056 0.025892083 0.046143062 -0.008273002 -0.008548196 0.026535021 0.026684813
0.014984136 0.05904673 0.04900948 0.067220785 0.073713176 0.011846101 0.0066605993 -0.02445877
-0.021571536 0.067826174 -0.010564636 -0.034128778 -0.00596964 0.06751695 0.042465862 0.072725594
-0.0286683 -0.011405651 0.035833403 0.028577976 0.01994802 0.07178847 0.039524265 0.034967802
0.07150955 0.04243593 -0.03000657 -0.014813304 -0.016759679 0.04730016 0.010625631 0.01278973
0.07172542 -0.019840116 0.052994404 0.019053474 -0.03930285 0.07494802 -0.013268564 -0.017502418
-0.04767553 0.056753594 -0.035462357 -0.0029451677 -0.017748216 0.042189807 -0.02501241 0.041391805
0.074345894 0.027741812 0.05801403 0.010746143 -0.010835661 0.031169271 0.054096602 0.006706941
0.035876416 0.05293043 -0.009618901 0.06771979 0.01070658 0.01700131 0.031663813 0.03749164
0.055513106 0.034652412 -0.03118859 -0.019093653 0.082302354 0.030324588 0.033378817 0.02234376
0.043568157 -0.025759032 0.017668556 0.025687207 -0.0009836964 0.010187969 -0.0117982775 -0.011441021
-0.026035503 -0.011311689 -0.016688716 0.006702793 -0.017094955 0.015077191 -0.02162505 -0.019991947
-0.030135846 0.013711969 0.026455125 -0.04830692 -0.02213079 -0.02342624 0.03510736 0.03004207
0.015379977 0.0095686 0.028335573 0.043653686 0.035833307 0.03295017 -0.03337539 0.044488516
-0.015002562 -0.041938245 -0.01958428 0.010282141 -0.0014511225 -0.045945972 0.015648011 -0.042752296
0.02271406 0.0016299672 0.014479784 0.05022997 0.044826243 0.049816754 0.007105682 0.018732483

fc3.weight f4 [300, 300]
00000000: fb80 b83a 91ed a83d 37a1 133d 1c47 873d
00000010: 0e46 d23c 46fd 113d 78a3 e03a db8a 69bd
00000020: 6fed 9e3d a3db 9f3c 91f4 0dbd acc8 2abd
00000030: 12b0 443e aaec d2ba f092 02bb ef66 203d
00000040: 48d7 4c3d f240 6c3d 7808 fb3c 9c7b a83d
00000050: 1866 5dbd 76e4 443d 413f a4be 547f db3c
00000060: a64a 0fbc 050f 893d b575 d33c 9c8e 57bc
00000070: 9000 2a3b e43a e4bc 6233 213d decb 56bc
00000080: 2b0d 8e3c 15d5 993d ff8c a23d 21e7 b9bd
00000090: fdfa 2fbd 076c eb3c fc89 6e3d f5a1 0e3d
000000a0: 76b3 0fbe 5098 8c3d 4fc5 213d 9066 5b3d
000000b0: 3087 ad3b f3f4 4f3c faad 2d3d 921a 24be
000000c0: 8f72 493d 8a9b 113d dbb8 083c 1bbf 813d
000000d0: cafe 663d 0e9c 56bd 7232 8b3d 0e8c 5b3d
000000e0: cc7c a73c 8a03 5ebc 267b 0f3e b487 17bb
000000f0: 1144 633d d7cb d03c 8b02 ea3d 7802 303d
00000100: 4fb9 633a a277 d53b bf08 803d 8e4a b0bc
00000110: c656 7cbd 4e49 923d 1fd9 58bc 8e08 e13d
00000120: e0de 19bb 82be 9c3c 9c20 e73c c62d 38bd
00000130: cee1 17bc 7b66 6f3d b80b 01bd fc8f 59bd
00000140: 754c 883d 6504 c6bc 8e29 e63b cf28 743c
00000150: 956f 4e3d e033 a93a df92 3bbc 78dd 17bc
00000160: 8ee5 9c3b 798b 633d b9cd 0b3d ab4e 723d
00000170: 0aca 50bd 75d6 043d 21e4 cfbc 7616 52bc
00000180: e606 4cbc 84a2 13bd 7fac dd3c a6bf b33d
00000190: cfd6 723e c731 6e3d 77e7 edbc 235e 40bc
000001a0: 29b0 8d3c 427a a33d 6987 07bd c79d 243b
000001b0: fc79 e5bb b1ff 363e 41d7 5f3b 271d 063d
000001c0: 77c4 3bbd dc9b 83bc 182e 18bc 26e5 85bd
000001d0: 78c2 613d 295c af3d 477d 4f3d 12f4 1f3d
000001e0: 2cae 00bd a279 0e3d 6c69 c13c 8b39 5fbc
000001f0: 03e4 b0bc 1c17 8e3d 5d03 a33c 90f2 b93c
00000200: b386 a53d 559d 7f3d 57e5 be3c 0f86 4fbc
00000210: 0647 7c3c fa3a abbc 1baf 89bc fe0d 0e3e
00000220: cb98 5dbd a252 813e 1722 1a3d 6ac8 57bc
00000230: 27a4 8dbd 98ce 3bbc dc7e 6bbc a096 783d
00000240: de2d 23bd 12c2 4ebd 9cc7 443d f087 023d
00000250: 7b94 ed3d f93a be3c ac3c 6039 daf4 493d
00000260: a10a 9bbc 811f 9e3d 55cd aa3d 039f 0f3d
00000270: f056 473d b330 a3bb 5fa8 7f3c 24c2 473d
00000280: e429 0e3c d7ee 473c f002 173b 90a4 9f3b
00000290: ed5c b4bd def3 16bc 96b2 813d 3203 153d
000002a0: c6f0 803c 485e b23c 2f45 d5bb 72fa 9c3d
000002b0: 8aca 7c3d 2910 07bc 9d97 29bd 448f b83d
000002c0: 68b5 d1bc 763c 9fbc 595b 5abd 89ae b33d
000002d0: 284a 443d c0ad 803c f6e4 3a3d d7f3 0abe
000002e0: e6d0 153d 9d53 a3bc c23f 193d 6810 773b
000002f0: a572 923d fcc6 853d 4782 a9bc 1c63 d23c
00000300: eafc 463d b228 9dbc 2057 23bd 6a95 71bc
00000310: 1646 923c b966 c83c 65cc 293d b191 05bd
00000320: 7123 553d c5c5 063e 812a a03d 6250 533c
00000330: 034e 7abd f288 f83c e5ec 27bd a391 28bd
00000340: bc45 a03c b71c 22bc 8251 9cbd f51b b2bd
00000350: fe0a 6abd 6669 453d c64d 603c 149e 943c
00000360: 8c42 ff3d 49d0 f4bc 803a 2d3c 62f7 bf3c
00000370: cf0a 923c ff62 913d 6fdc 59bd c078 533c
00000380: 9853 873b 8911 7dbd bdb2 353d 1b5c 2dbd
00000390: bbaa 063d 2775 a8bb f046 1b3d a812 a8bd
000003a0: 3e94 d03c 05b9 893d 47c9 15bd 474d ec3c
000003b0: d42b 4bbe 41cd 013d 22a0 c1bc b910 113d
000003c0: f8cc 17bd b0d5 bd3c c7c2 1d3d e48f c0bc
000003d0: 5dff 553e 5d1f f93c 29a6 adbc a67e 7d3a
000003e0: 23e8 b13d 4027 273d d8b0 92bc 3223 3e3d
000003f0: f5fc d9bc 25c2 b73d 20d3 8b3c 58f0 273e
0.0014076525 0.08248437 0.03604242 0.0660536 0.02566817 0.03564193 0.0017138561 -0.05701719
0.077601306 0.01951391 -0.034657065 -0.041695282 0.1920779 -0.001609226 -0.0019924007 0.039160665
0.050009996 0.057679124 0.030643687 0.082267016 -0.054052442 0.04806944 -0.3207951 0.026794113
-0.008745825 0.06692318 0.025812963 -0.013156559 0.0025940277 -0.027860112 0.039355643 -0.013110129
0.017340263 0.07511345 0.07937049 -0.090772875 -0.04296397 0.028738035 0.05823706 0.034822423
-0.14033303 0.06864989 0.03949481 0.053564608 0.0052956566 0.012692678 0.042402245 -0.16025761
0.049181517 0.035548724 0.008344854 0.063352786 0.05639533 -0.05239492 0.06796731 0.053600363
0.02044525 -0.0135506485 0.14011821 -0.0023121657 0.055484835 0.025487823 0.11426266 0.042971104
0.0008686976 0.0065145055 0.06251668 -0.021519925 -0.06160619 0.07142888 -0.013235359 0.1098796
-0.002347879 0.01913381 0.028213792 -0.044965528 -0.009270145 0.058447342 -0.031505316 -0.05311583
0.06655208 -0.024172017 0.0070239967 0.014902308 0.05039938 0.0012909137 -0.011448591 -0.009269111
0.0047881072 0.055552933 0.03413174 0.059157055 -0.05097393 0.032431085 -0.025377335 -0.012822738
-0.012452817 -0.03604366 0.027059792 0.087767884 0.23714755 0.05815294 -0.029041035 -0.011741194
0.017295914 0.07982303 -0.03308812 0.0025118457 -0.007003067 0.17870976 0.00341554 0.032742646
-0.04584166 -0.01606553 -0.009288333 -0.06537847 0.0551171 0.085625 0.050656583 0.039051123
-0.031416103 0.034783967 0.02360984 -0.013624559 -0.0215931 0.069380015 0.019899065 0.02269867
0.080823325 0.062405903 0.023302717 -0.012666239 0.015397793 -0.020902146 -0.01680713 0.13872525
-0.054100793 0.25258356 0.037630167 -0.013170341 -0.06916075 -0.01146283 -0.014373507 0.060690522
-0.039838664 -0.05047805 0.048041925 0.03186792 0.11600586 0.02322148 0.00021384907 0.049305774
-0.018925967 0.07720853 0.08339945 0.035063755 0.048666894 -0.0049801706 0.015604108 0.04876913
0.00867698 0.01220294 0.0023042522 0.0048719123 -0.08806787 -0.009213416 0.06332891 0.03638
0.01573981 0.021773472 -0.0065084915 0.07664956 0.061716594 -0.008243599 -0.041404355 0.09011701
-0.025599197 -0.01943801 -0.053309772 0.08773524 0.047922283 0.01570785 0.04562851 -0.1356958
0.036576174 -0.01993733 0.03741432 0.0037698988 0.07150773 0.06532094 -0.020692004 0.025682025
0.04858104 -0.019184444 -0.03987801 -0.014745096 0.017855685 0.024463044 0.04145469 -0.032609645
0.052035753 0.1316138 0.07820607 0.012897583 -0.061109554 0.030338738 -0.040997405 -0.041154515
0.019564502 -0.009894541 -0.07632734 -0.08696739 -0.05713939 0.04819622 0.013690418 0.018141784
0.12463865 -0.029884474 0.0105730295 0.023433391 0.01782742 0.0709896 -0.053188737 0.012907207
0.004129838 -0.0617843 0.04435991 -0.042324167 0.032877665 -0.005140919 0.03790945 -0.082066834
0.025461312 0.06724743 -0.036568906 0.028845442 -0.19840938 0.031689886 -0.023635928 0.03541634
-0.037060708 0.023173183 0.038515832 -0.023506112 0.20898195 0.030410463 -0.021197395 0.0009670056
0.08686855 0.040808916 -0.017906591 0.046420284 -0.026609877 0.08972577 0.017068446 0.16400278

fc3.bias f4 [300]
00000000: 04d8 1f3c 5748 2e3d 37b7 8fbc 3a13 82bc
00000010: 81c8 1a3d 4012 1f3d 66c4 6fbd f38c f63c
00000020: 3d05 383c b09f bc3c b494 d03b 3762 713d
00000030: 53d9 743d d1ef 49bc 8a01 443d d2a6 503d
00000040: 65a2 0d3d bdd7 8f3d 3645 853d 80f7 b63c
00000050: 8e9f 053d ca22 793d 06c9 d23c e79d 8d3c
00000060: 0402 623d 97ec 0f3d ad63 d7bc 420d babc
00000070: 6587 fc3c 3436 f1bb e574 963c d4b6 43bc
00000080: 17f6 073b 648f b6bc 8b75 663d e965 0f3c
00000090: d19e ac3d b844 003d 8e0b bdbc f49e 40bc
000000a0: 5c4d 34bd dcdb 063d fceb 23bd 4214 7f3d
000000b0: bd86 dc3b 3e87 edbc 1b93 f43b 87a2 dc3c
000000c0: 6e02 2e3d 8526 ea3c 042f 093c c623 033b
000000d0: 3773 b9bc bb09 5bbb a986 30bc ff1b 4a3d
000000e0: b880 533d 2a89 f73c de21 823b 1afe 3dbc
000000f0: 3c01 3fbd f40f 0abd 0a21 883d 7d73 24bc
00000100: 70d2 1cbd 36e8 afbc 969c 263d c72a e4ba
00000110: 1289 a63b a0a5 12bd 1958 5e3d f05f f23c
00000120: 3cf9 823c 96f8 833d 8bf1 383d ac08 ebbc
00000130: fadf 583c e7b5 c53b 8c26 f23c 65f6 fe3c
00000140: 4128 933d 099a 9abc fc0a c239 8792 f23c
00000150: 93dd d6bc 80a4 f53b 07b4 2b3d b3e0 9ebb
00000160: 3c06 30bd 2dfc 5e3d 19a1 523d 5d06 9c3c
00000170: dcaf 0d3d 8ca3 bc3c 4b4a 793d fba3 883d
00000180: 9b39 96bc f28b cc3b 4eb9 37bd d6e2 b93a
00000190: a4c4 15bc 7e12 263d 43cd d73c e662 303d
000001a0: f003 7fbc 7cbe 7dbb 3828 893c 9ba8 47bc
000001b0: 2663 813d 8867 da3c 4311 1d3d 8045 ef3c
000001c0: d6a8 333c ae82 61bc 1ba5 1b3d dd41 863d
000001d0: 8023 3ebb 9867 593c 8e9e 5ebd 354f c0bc
000001e0: 7440 203d 7e47 2c3d 634d 1c3d 4932 513d
000001f0: a462 2d3d 0598 a7bb f989 563d 0f54 113d
00000200: c022 2abd 7bd1 013d beb8 473d b063 e4bc
00000210: 60be 893d 9c4d 81bc c0c1 513d c0ca 693d
00000220: a948 cb3c 7a50 a3bc c7e3 813c 7013 0dbc
00000230: c7cb 35bd 4e2f a6bc d6c0 693c 18c8 18bd
00000240: 710e c2bc 5371 20bd 4722 e63c a390 3b3c
00000250: 81b6 83bc aac8 293c 9d68 20bd fd57 c93c
00000260: b5d3 85bb e458 94bc a7cd 43bc 893f d23c
00000270: d189 c7bc e803 893c e14d 2c3d 161c 6e3c
00000280: 3ba3 39bb 3c8c adbc cc33 833c 16e9 5d3d
00000290: 0d07 003d 25ca 753c b4bb cd3c f5ab 5f3d
000002a0: a842 efbc 95e4 293d 0142 643c a512 6cbc
000002b0: f5c3 0e3d ce04 9f3d 3086 87bc 2c5a 9e3c
000002c0: 1f7b 4f3d 9168 153d 04a4 783d b524 1b3d
000002d0: 2f2f d73b 5c57 19bd 049d 0d3c 372c 2b3c
000002e0: 0cb1 2bbc 8535 613c a179 8a3d 90dd 08bd
000002f0: 1642 fa3c 25b6 57bc 6bd5 13bd a00c c83a
00000300: c6d6 48bc 3e4f 623d e046 703c 72e2 8c3d
00000310: ad20 2d3d 108a 503d 19f5 0b3c d96e e7bc
00000320: 318a d33c 555d 703d b462 f03b 2017 8dbc
00000330: 373e 343d 7127 8f3d 0818 363d ed25 d0bc
00000340: 186d 27bc 9a7c 343d f890 843b 16af c03c
00000350: d789 423d 9451 83b9 9c98 97bc 8a86 d5bc
00000360: 4e48 4f3d b943 713d 1ff5 9eba 906c 42bd
00000370: c3d1 1a3d 90b9 873d 37f6 23bd 67c1 853c
00000380: be8a 393d c55f 433d 1491 88bc fe6f 1fbd
00000390: 6ff7 e3bc f2e2 823d 002d febb c309 d53c
000003a0: 4fa5 413d 11ef c53c 4009 753c 6848 743c
000003b0: 97a7 05bd d28f 0c3d f398 123d a811 0d3d
000003c0: 58ed 083d d289 9c3c 0c94 023d 4ade 5b3d
000003d0: 6698 d0bc 946b 21bd 510e 9abc 92bb b63c
000003e0: e7ed c6bc 51d6 3dbc bbf2 02bd 7709 813d
000003f0: a34c 923c 38db 27bd 166a 0d3c 3b72 b93d
0.009756092 0.042549457 -0.017543418 -0.015878309 0.03778887 0.038835764 -0.05853691 0.030096507
0.011231718 0.023025364 0.006365383 0.058931556 0.05977757 -0.012325243 0.04785303 0.050940342
0.0345787 0.07023571 0.065073416 0.022334814 0.032622866 0.060824193 0.025730621 0.017287208
0.055177703 0.03513774 -0.026292646 -0.0227114 0.03082628 -0.007361198 0.018366287 -0.011945445
0.0020746046 -0.02228517 0.05626444 0.008752325 0.08428729 0.031315535 -0.023076799 -0.011756647
-0.04401909 0.032924518 -0.040019974 0.06227518 0.0067299292 -0.028995153 0.0074638254 0.026932968
0.042482786 0.02858282 0.008373026 0.0020010336 -0.022637947 -0.0033422548 -0.010774293 0.049343105
0.051636428 0.030216772 0.0039713224 -0.011596227 -0.046632037 -0.03370662 0.06646927 -0.0100373
-0.038286626 -0.021473031 0.040676676 -0.0017407768 0.005082258 -0.035802484 0.054283235 0.029586762
0.015987985 0.064438984 0.04515223 -0.028690659 0.013236994 0.0060336473 0.029559396 0.03112335
0.07185412 -0.018872278 0.00037010747 0.029610885 -0.026228702 0.0074964166 0.041919734 -0.0048485636
-0.042974696 0.054439712 0.051423166 0.019046003 0.03459154 0.023027204 0.060861867 0.06671902
-0.018338015 0.0062422687 -0.044854455 0.0014181982 -0.009141121 0.04054498 0.026342994 0.043063067
-0.015564904 -0.0038718274 0.01674281 -0.012186195 0.06317739 0.026660696 0.03834654 0.029207945
0.010965547 -0.013764067 0.037999254 0.06555531 -0.002901286 0.013269328 -0.05435043 -0.023475269
0.039123967 0.042060368 0.03815974 0.051073346 0.0423304 -0.0051145577 0.052377675 0.035480555
-0.041537046 0.031693917 0.04876017 -0.027879566 0.06725764 -0.015784077 0.051210165 0.057078123
0.02481492 -0.019935835 0.015855683 -0.008610591 -0.04438379 -0.020286229 0.014267167 -0.0373002
-0.023688527 -0.039170574 0.028092517 0.011448058 -0.016078236 0.010362783 -0.039162267 0.024578089
-0.0040840753 -0.018108793 -0.011950887 0.025665062 -0.024357708 0.016725495 0.04206646 0.014533063
-0.0028326053 -0.021185033 0.01601591 0.054177366 0.031256724 0.015001808 0.025113918 0.05460735
-0.029206589 0.04147776 0.013931752 -0.014408742 0.034854848 0.07764588 -0.016543478 0.019330107
0.050654527 0.036476675 0.060703292 0.037876803 0.006566904 -0.037436828 0.0086433925 0.010447553
-0.010479223 0.01374567 0.0676148 -0.033414423 0.03054909 -0.013165985 -0.036092203 0.0015262552
-0.012258237 0.055251352 0.014665335 0.068791285 0.04226749 0.050912917 0.008542323 -0.028251098
0.02582273 0.05868276 0.007335985 -0.01722294 0.044004645 0.06989945 0.04445651 -0.02540871
-0.010218881 0.04406414 0.004045602 0.023520987 0.047494736 -0.00025047048 -0.018505387 -0.02606513
0.050606064 0.058902476 -0.0012127495 -0.047466815 0.0377977 0.0662719 -0.04002973 0.016327573
0.04529833 0.047698755 -0.016670741 -0.038925163 -0.027827946 0.06390943 -0.0077568293 0.026005631
0.04727679 0.024161847 0.014955819 0.014909841 -0.03263053 0.034316845 0.035790395 0.034440666
0.033429474 0.019108687 0.03187947 0.05367879 -0.025463294 -0.039409235 -0.018805655 0.022306237
-0.024283363 -0.011586742 -0.031969767 0.063006334 0.017858809 -0.040980548 0.00863125 0.09054991

fc4.weight f4 [3, 300]
00000000: 8753 d5bc 17b8 7dbc 0344 8abc a76b 76bc
00000010: 421a c1bc 8e96 e0bc 2fb9 04bb 133e debc
00000020: 3231 4ebd 327b 94bc 4389 42bd ae32 b8bc
00000030: 996a e3bc 0494 a2bc 3c0b acbc 1130 cebc
00000040: 7dfa c5bc 49f7 76bc 47e0 c3bc de22 53bc
00000050: a06c d7bc 5cf1 9cbc 8d25 bdbc ad3b b6bc
00000060: 56cf c0bc 9167 67bc 0046 6637 34c2 9ebc
00000070: 23b3 6abc 8dcd 34bd 6812 2bba 9649 edba
00000080: e164 b6bc e2a6 c9ba 6881 a5bc a10b 03bd
00000090: 279e 9dbc 818a afbc 6f0e 8fbc a263 2ebd
000000a0: a057 c0bd 3f63 fabc df6d 9cba da72 b3bc
000000b0: 8056 09bd 5f2b 90bc a028 e4bc 8ac3 d8ba
000000c0: 0f26 18bd d01a e13a 90ca 1abd c98d 56bc
000000d0: fb82 a3bc f569 20bd 7ba5 90ba e6c6 9ebc
000000e0: 708d b2bc 4309 cbbc 203a cf3a eb36 10bc
000000f0: 5868 0bba b113 6ebd cb31 9cbc 0b17 90bc
00000100: 91f0 c5bc b2cd 41bb 042b 96bc 65a9 bfbc
00000110: 78aa 3a3b f88f 343a 686d c5bc a336 c6bc
00000120: 1f91 19bb ea8a f0bc 9058 a4bc d68d bebc
00000130: eee3 20bd 252f 81bc bd0f b9bc 7cc8 27bd
00000140: 7a44 5bbc ebdb f2bc 286e b8bc 8f63 70bc
00000150: 257d afbc 68c6 3a3b b0c4 7ebc a61d ac3a
00000160: 52a9 b9bc d0d1 89bc 1e85 98bc d1ed 93bc
00000170: 63ab 9cbc 388d b4bc 8b74 92bc 68da 82bc
00000180: 576d 05bd 56f4 b7bc 3461 d53a 91e4 f1bc
00000190: a494 13bb de1e 87bc 5822 88ba 4183 84bc
000001a0: 2e12 9cbc 6281 4bbd 7787 d7bc b7bd 50bd
000001b0: 7bd9 9abc 0646 343a 3376 79bc 40b2 e83a
000001c0: 88c7 93bc bc61 b3bc 0461 16bd dccb 8dbc
000001d0: 6833 6d3a 5d08 7bbc 3ad6 093b bdc4 e4bc
000001e0: 7a5d 1abb 1fc8 98bc 157a 013b 62c0 11bd
000001f0: d63e dfbc 5471 08bb 527b 86bc 602e bcbc
00000200: aadb f2bc d7db 70bc 6e45 87bc d5e5 b3bc
00000210: 2737 8dbc f061 c23a 99bb 4abc 2db6 86bc
00000220: 31f5 b7bc d1f8 0bbd 1cf5 813a 2389 9cbc
00000230: d890 2abb 1ced 95bc 448c b0bc f488 62ba
00000240: 58b1 193b 2c19 7cbc 924f a3bc 7c8c 5bbc
00000250: be72 d1bc 348c 3f3a 535f 8cbc 7052 a0bc
00000260: 114f c0bc ce18 423b b2cd a4bc da58 21bc
00000270: e677 9fbc 0e4a 9bbc 1095 9dbc 5088 8abc
00000280: 2ae2 1dbd b805 b4bc c050 afbc 73f7 7ebc
00000290: a79c c2bc cb2e ccbc e231 293b e2f5 e3bc
000002a0: 72e1 29bb c0e3 9dbc 303a a6bc c0ed 50bc
000002b0: 4f22 d1bc 7599 57bd 3840 1c3a 181f ed39
000002c0: 0fbe dabc 1b40 91bc be58 80bc 94da 96bc
000002d0: e317 99bc 3cfa 983a 7694 88bc ab93 75bc
000002e0: 8ace e2ba f535 43bd e900 41bc 54cf abbc
000002f0: 7c87 bfbc 69ce 89bc 6bfa c5bc e492 ea3a
00000300: 4936 f8bc 8df5 6cbc 191e c7bc 4b34 81bc
00000310: 1cca e1bc f4c8 c6bc 0765 b7bc 5135 53bd
00000320: 7f6c a2bc 124f 8ebc 8e7a c4bd 3fba d3bc
00000330: a1b6 cabc d855 83bc b45e d4bc 53ec b2bc
00000340: 6500 9fbc fc62 aabc 3051 b4bc 4273 a33a
00000350: c682 bfbc 59c7 1ebc dc4c fdbc 3081 70ba
00000360: 022a 4dbc 281c c0bc 9ca2 13bd e09b 31bb
00000370: b10e 86bc 92ea d8bc 284b a5ba 02fb c7bc
00000380: 9f27 c1bc f3e2 9ebc 47b3 a5bc bcbd 00bd
00000390: 686a 43bb e291 edbc dcd7 68ba 267a d9bc
000003a0: d4ba 9ebc df2a 98bc 3fc4 75bc 1dc5 9abc
000003b0: 8dfb debc 8842 93bc 5bf4 bbbc e8df 38bb
000003c0: 52e7 94bc a2f3 c2bc 18b4 44bd d91b a1bc
000003d0: 7f5f 7ebc 7bf7 e6bc b314 51bd 1b9f a1bc
000003e0: 0d21 84bc 2d1c a6bc 2e2c 32bb a181 dfbc
000003f0: 8f6b 88bc 2385 83bc 625f cfbc 7eaa 08bd
-0.026040806 -0.015485785 -0.016878134 -0.015040315 -0.023572091 -0.02741554 -0.002025198 -0.027129209
-0.050339885 -0.01812515 -0.047494184 -0.022485103 -0.02776079 -0.01984597 -0.02100145 -0.025169404
-0.024167294 -0.015073606 -0.023910655 -0.012886731 -0.026296914 -0.019158058 -0.023089195 -0.022245253
-0.023536365 -0.014123813 1.3725366e-05 -0.019379713 -0.014324936 -0.04414134 -0.0006525875 -0.0018103595
-0.0222649 -0.0015384818 -0.020203307 -0.031993512 -0.019240452 -0.021428348 -0.017462937 -0.042575486
-0.09391713 -0.030564902 -0.00119346 -0.021905351 -0.03352976 -0.017598806 -0.027851403 -0.0016537767
-0.03714567 0.0017174128 -0.037790835 -0.013095328 -0.019959917 -0.03916355 -0.0011035645 -0.019381952
-0.021795958 -0.02478469 0.0015810169 -0.008802156 -0.00053179776 -0.058124248 -0.019066712 -0.017589113
-0.024162563 -0.0029572067 -0.018331058 -0.023396203 0.0028482955 0.0006887908 -0.02410002 -0.024195975
-0.0023432446 -0.029363114 -0.020061761 -0.023260992 -0.03927987 -0.01576955 -0.022590512 -0.04096268
-0.013383025 -0.02964588 -0.022513464 -0.014672174 -0.021421978 0.0028499607 -0.015549824 0.0013131395
-0.022663746 -0.01682368 -0.018618163 -0.018057736 -0.019124692 -0.022039995 -0.017877838 -0.015973285
-0.032574978 -0.022455376 0.0016279579 -0.029527934 -0.0022519017 -0.01649421 -0.0010386212 -0.016175868
-0.019051638 -0.049683936 -0.026309712 -0.050962176 -0.01890253 0.00068768894 -0.015225935 0.0017753318
-0.01803948 -0.02189719 -0.036713615 -0.017309122 0.00090484926 -0.015321818 0.002103223 -0.027925843
-0.0023554252 -0.018650113 0.0019756604 -0.03558386 -0.027251642 -0.0020819502 -0.016416226 -0.022971332
-0.02964576 -0.014700851 -0.016512599 -0.021960178 -0.017238213 0.0014830213 -0.012373828 -0.01644429
-0.022455784 -0.034172837 0.0009914967 -0.01910836 -0.0026026275 -0.01830154 -0.021551259 -0.00086416234
0.0023451652 -0.015386861 -0.019935403 -0.013400193 -0.025567409 0.00073069637 -0.017135298 -0.01957056
-0.023475202 0.0029616836 -0.020117614 -0.009847844 -0.019466352 -0.01895621 -0.019236118 -0.016910702
-0.038545765 -0.021975383 -0.02140081 -0.015561926 -0.023756338 -0.024924656 0.0025817086 -0.027827207
-0.002592173 -0.019273639 -0.020291418 -0.0127519965 -0.025529055 -0.052636582 0.0005960497 0.0004522733
-0.026701955 -0.017730763 -0.015667316 -0.018414773 -0.018688148 0.0011671255 -0.016672354 -0.01498882
-0.0017303985 -0.04765888 -0.011780002 -0.020972885 -0.023380034 -0.016822057 -0.02416726 0.001789656
-0.030299323 -0.014462841 -0.024306344 -0.015772006 -0.027562194 -0.024265744 -0.02238704 -0.05156452
-0.019827126 -0.017371688 -0.09593688 -0.025845645 -0.024745287 -0.016032144 -0.025924064 -0.021841204
-0.019409368 -0.020799153 -0.02201137 0.0012470263 -0.023377787 -0.009691083 -0.030920438 -0.0009174524
-0.0125222225 -0.023450926 -0.03604375 -0.0027100965 -0.016364427 -0.02647904 -0.0012610899 -0.024411682
-0.023578463 -0.019395327 -0.020227088 -0.031430945 -0.0029818062 -0.029000226 -0.0008882263 -0.026547503
-0.019376196 -0.01857513 -0.015000402 -0.018892819 -0.027219558 -0.01797606 -0.022943666 -0.002820963
-0.018176708 -0.023797814 -0.048023313 -0.0196666 -0.015525698 -0.02819418 -0.05104513 -0.019729188
-0.016129041 -0.020277107 -0.0027186978 -0.027283492 -0.01665285 -0.016054695 -0.025314037 -0.03336572

fc4.bias f4 [3]
00000000: 912f 53bd bc82 3e3d f8a0 b0bc
-0.051559035 0.046511397 -0.02156113
