checkpoint_actor.pth (torch, 986345 bytes, 8 tensors)

fc1.weight f4 [400, 9]
0	0xbd23797d	-0.039910782
1	0xbd49cd07	-0.049267795
2	0xba930aec	-0.0011218465
3	0x3c364099	0.0111238
4	0x3d029cf1	0.031887952
5	0x3d157da8	0.03649679
6	0x3cffe4b8	0.031236991
7	0xbce20098	-0.027588174
8	0x3cce90e3	0.025215572
9	0xbda52c06	-0.080650374
10	0x3d85fc8d	0.06542311
11	0xbca5220d	-0.020157838
12	0x3cd96161	0.026535692
13	0x3dc5aecf	0.09652483
14	0xbe0b2e8f	-0.1359198
15	0xbd2843bd	-0.041080225
16	0x3c283ff3	0.010269153
17	0xbca432f6	-0.020043831
18	0x3b16caa1	0.002300896
19	0x3d2ad0ad	0.041702915
20	0x3c5f2fa1	0.013622195
21	0xbd11fcb3	-0.035641383
22	0x3d5b6742	0.05356527
23	0xbb8551dd	-0.0040685968
24	0x3d36163b	0.044454794
25	0x3b4dd1d7	0.0031405592
26	0x3c97c7b4	0.018527843
27	0x3d1d676b	0.038428705
28	0x3c03d28c	0.008045804
29	0xbcb66203	-0.022263533
30	0xbce75413	-0.028238332
31	0xbd0dc6e5	-0.03461351
32	0xbba8ca00	-0.0051510334
33	0xbc2aad78	-0.010417335
34	0xbd42279f	-0.047401067
35	0xbd358428	-0.044315487
36	0x39540d00	0.00020222738
37	0x3c4cc820	0.012498885
38	0xbc826f74	-0.015922286
39	0xbcea7047	-0.028617991
40	0xb8c60c00	-9.443611e-05
41	0xbc9ed643	-0.019389277
42	0x3d42ebf5	0.047588307
43	0xbd418707	-0.047247913
44	0xbd3d8fe7	-0.046279814
45	0xbd5ded16	-0.05418118
46	0xbca2a73d	-0.019855136
47	0xbd2d3f35	-0.042296607
48	0x3c1fc7f2	0.0097522605
49	0x3d238112	0.039918013
50	0xbcc658da	-0.02421229
51	0x3d78180d	0.06056981
52	0x3cbb911a	0.022896338
53	0xbc0cbd90	-0.008590117
54	0xbcfc94e7	-0.03083272
55	0x3c6f080c	0.014589321
56	0x3bd25cb0	0.0064197406
57	0xbd0c59de	-0.03426539
58	0x3d147445	0.036243696
59	0xbd07365e	-0.033010833
60	0xbb660c60	-0.003510259
61	0xbd3906a3	-0.045172345
62	0xbd483ea2	-0.048887856
63	0x3d9dd4fe	0.07706641
64	0xbd028734	-0.03186722
65	0xbb3a4f8b	-0.002842876
66	0xbd0626bd	-0.032751787
67	0x3d2ee911	0.04270274
68	0xbdc9593a	-0.09831472
69	0x3cda0ada	0.026616503
70	0x3ce37d10	0.027769595
71	0x3c21c951	0.009874658
72	0xbd22fa82	-0.039789684
73	0x3d27065d	0.040777553
74	0xbcc47669	-0.023982244
75	0x3d46884f	0.048469838
76	0x3d031921	0.032006387
77	0x3ce73c06	0.028226864
78	0xbd30f3cb	-0.04320125
79	0x3cc73d21	0.02432114
80	0xbd7dc73c	-0.061957583
81	0xbc269c2f	-0.010169073
82	0x3bb3024a	0.0054629194
83	0xbb118377	-0.0022203603
84	0x3c0595ab	0.008153359
85	0x3cb4cdff	0.022070883
86	0xbd24d97f	-0.040246483
87	0x3d663608	0.056203872
88	0xbc85295e	-0.016255077
89	0xbd043550	-0.032277405
90	0xbd4eef2c	-0.05052106
91	0xbd9f598f	-0.07780754
92	0xbc1190da	-0.008884633
93	0x3d6795f3	0.056539487
94	0x3ceab9b2	0.028653
95	0xbe032e82	-0.1281071
96	0x3c9dc4f8	0.019258961
97	0x3d8342c7	0.06409221
98	0xbd818a6c	-0.0632523
99	0x3dc44115	0.09582726
100	0xbd8f3843	-0.06993153
101	0xbbe530cb	-0.006994342
102	0x3c16ea51	0.009211139
103	0x3dc0a855	0.09407107
104	0xbcb6791e	-0.02227455
105	0x3d338a1f	0.043832894
106	0x3c81d168	0.015846923
107	0x3a7eac68	0.00097150216
108	0x3dc2eaf6	0.095174715
109	0x3dae51cd	0.08511696
110	0x3d88e3e2	0.0668409
111	0xbd00c4b8	-0.031437606
112	0xbd0f9dd8	-0.03506264
113	0x3c3634cb	0.011120985
114	0x3d78ce91	0.060743872
115	0x3d269758	0.040671676
116	0xbd2d37d8	-0.042289585
117	0x3b951f73	0.004550868
118	0x3d85de77	0.065365724
119	0x3a9efe81	0.0012130291
120	0xbb13c7bc	-0.002254947
121	0xbdaf2b87	-0.08553224
122	0x3d293ccf	0.041317757
123	0x3dbb150a	0.09134872
124	0x3dd2ced1	0.10293353
125	0x3d75d94f	0.060021695
126	0x3cdf9503	0.027292734
127	0xbd6287d4	-0.055305317
128	0xbbe2a0d5	-0.0069161453
129	0x3dd57457	0.10422581
130	0x3dd729e2	0.105060354
131	0xbd8423b7	-0.064521246
132	0x3d1ff28d	0.039049674
133	0xbb932562	-0.0044905404
134	0xbe00ae9e	-0.12566611
135	0xbb862e8e	-0.004094905
136	0xbd23baa8	-0.03997293
137	0x3d2e5bf0	0.042568147
138	0x3cc75ff3	0.024337744
139	0x3d93d675	0.07218639
140	0x3d171dac	0.03689353
141	0x3d58aad9	0.052897308
142	0xbd448578	-0.04797885
143	0xbc8f2590	-0.017473966
144	0x3defb9bf	0.1170535
145	0xbc934231	-0.017975898
146	0x3c31b989	0.010847458
147	0x3c27d782	0.010244252
148	0xbd2722d1	-0.040804688
149	0xbd96eb5f	-0.07369112
150	0xbc8e9916	-0.017406981
151	0xb9f49c3c	-0.0004665571
152	0x3ca286c0	0.019839644
153	0xbbbbffeb	-0.005737295
154	0xbd353132	-0.04423637
155	0xbd961568	-0.07328302
156	0x3cf6db0c	0.030133747
157	0xbd00b7f6	-0.03142544
158	0x3d63d5d6	0.05562385
159	0x3d4f9c3b	0.050686102
160	0x3d5d987e	0.054100506
161	0xbd544831	-0.05182666
162	0x3cc44686	0.02395941
163	0xbd01c295	-0.03167971
164	0x3c73f89c	0.014890816
165	0xbc719e6c	-0.014747243
166	0xbc519860	-0.012792677
167	0x3d456e27	0.048200753
168	0xbc8c12b4	-0.017098762
169	0xbbb857e8	-0.0056257136
170	0x3b001fd0	0.0019550212
171	0xbc682990	-0.0141700655
172	0xbdb68884	-0.08912757
173	0x3cb2e31b	0.021836808
174	0x3cbdbab3	0.023160314
175	0x3bb1366d	0.0054080994
176	0x3d5aa295	0.053377707
177	0x3cf199ee	0.029492345
178	0x3d2b43fc	0.04181288
179	0xbc696b37	-0.014246753
180	0x3d26b4e1	0.040699843
181	0xbc3c5ef8	-0.011497252
182	0x3c18ef08	0.009334333
183	0x3d290901	0.041268352
184	0xbcbbd700	-0.022929668
185	0x3d3bff0d	0.045897532
186	0xbca3925a	-0.019967247
187	0xbc253138	-0.010082535
188	0xbca9b980	-0.020718336
189	0xbd3f0c75	-0.04664274
190	0x3d164e97	0.036696043
191	0x3d7f43d5	0.06232055
192	0xbcbf63c8	-0.02336301
193	0xbd765da1	-0.060147885
194	0x3cc651a8	0.024208859
195	0x3d80d9b3	0.06291523
196	0x3c4daeed	0.012553913
197	0xbd58017b	-0.052735787
198	0x3cb77052	0.022392426
199	0x3d4701cf	0.04858571
200	0x3d3c4479	0.045963738
201	0x3ce5e222	0.02806193
202	0xba252ec0	-0.0006301217
203	0x3d38a9db	0.04508386
204	0xbc5f5014	-0.013629932
205	0xba8be6a0	-0.001067359
206	0x3d0e57e9	0.034751806
207	0xbd8e3b0a	-0.069448546
208	0xbbbe4910	-0.0058070496
209	0x3c9a4277	0.018830521
210	0x3cb86390	0.022508413
211	0xbd3d08c1	-0.046150927
212	0x3d53c790	0.05170399
213	0x3d1e428b	0.03863768
214	0x3c99bb7b	0.018766155
215	0xbca8e6e3	-0.020617908
216	0x3c9d04d6	0.019167345
217	0x3d0572e3	0.032580268
218	0x3c8c00c2	0.017090205
219	0x3c6973f4	0.014248837
220	0x3d3fb299	0.046801183
221	0x3d3aa911	0.04557139
222	0x3d465d37	0.04842874
223	0xbcaeb307	-0.021325601
224	0xbd24f34a	-0.04027108
225	0x3d48b5f3	0.049001645
226	0xbcb0b637	-0.021571262
227	0xbd4edefd	-0.050505627
228	0x3cc4c155	0.02401797
229	0x3ddf0a39	0.10890622
230	0x3c4d739f	0.012539773
231	0xbd8cd5e5	-0.06876735
232	0xbcfe3aa0	-0.031033814
233	0xbcf0254d	-0.029314661
234	0xbd04a5d4	-0.03238471
235	0xbd44e602	-0.048070915
236	0xbcce0277	-0.02514766
237	0xbce48017	-0.02789311
238	0xbd286756	-0.041114174
239	0x3d431641	0.047628645
240	0xbd2c5ac2	-0.04207874
241	0x3cc978de	0.024593767
242	0x3d1c19a9	0.03811041
243	0x3d29e9c8	0.041482717
244	0xbc63817d	-0.013885853
245	0x3d6a0e20	0.057142377
246	0x3dbdc456	0.09265964
247	0x3e2e2bd3	0.17008905
248	0x3db08a88	0.08620173
249	0xbca7377d	-0.020412201
250	0xbdba2516	-0.09089105
251	0xbdcdb867	-0.100449376
252	0x3d4f1176	0.05055376
253	0xbd0233df	-0.03178775
254	0xbcc1c48a	-0.023653287
255	0xbba49678	-0.00502282

fc1.bias f4 [400]
0	0x3e431791	0.19051959
1	0xbdd268a1	-0.10273863
2	0x3e46425a	0.19361249
3	0xbe666253	-0.22498445
4	0xbe99b06e	-0.30017418
5	0x3ddaa6b3	0.106763266
6	0xbea3323b	-0.3187426
7	0x3e33568a	0.17513481
8	0x3d20c158	0.039246887
9	0x3daac1b3	0.083377264
10	0xbdfadf44	-0.12249616
11	0x3c0d4028	0.008621253
12	0xbe0a7e87	-0.13524829
13	0x3e6f5f38	0.23376167
14	0xbc63f93c	-0.013914403
15	0x3c67772a	0.014127532
16	0x3da48bcf	0.08034479
17	0xbda6881b	-0.08131429
18	0xbe88511a	-0.26624376
19	0xbcb89e4e	-0.022536423
20	0xbe829996	-0.25507802
21	0x3c4896b6	0.012242964
22	0xbe6d5bf3	-0.23179607
23	0xbe04046e	-0.12892315
24	0xbe8a70ac	-0.27039087
25	0x3e2afc5a	0.16697827
26	0xbe8f085b	-0.27936062
27	0xbdd61826	-0.10453825
28	0xbdd0dd7b	-0.10198494
29	0x3d597950	0.05309421
30	0x3e8fdb93	0.2809721
31	0xbcfb39d0	-0.030667216
32	0x3e922397	0.28542778
33	0xbdd59884	-0.10429481
34	0x3de1ca8b	0.1102496
35	0x3db644bd	0.088998295
36	0x3e93d6f7	0.28874943
37	0x3cf78502	0.03021479
38	0xbd97851c	-0.073984355
39	0x3e92797b	0.28608307
40	0x3e99b620	0.30021763
41	0xbe9c7910	-0.30561113
42	0x3e9b0cdc	0.30283248
43	0x3d0690cb	0.03285293
44	0x3eb646a5	0.35600773
45	0x3ea37e02	0.31932074
46	0xbea0087b	-0.3125647
47	0x3e8d740f	0.27627608
48	0xbd80ccf3	-0.06289091
49	0x3e36b6ec	0.17843217
50	0xbcbd6e47	-0.023123873
51	0xbe3d86cb	-0.1850845
52	0xbe8cdff3	-0.2751461
53	0x3e04c119	0.12964286
54	0x3e13ae32	0.14421919
55	0x3e025c67	0.12730561
56	0xbe6c4b43	-0.23075585
57	0xbea6389a	-0.3246506
58	0xbe5f5406	-0.21809396
59	0xbe84563e	-0.25847048
60	0x3dd1f1e3	0.10251214
61	0xbe84344a	-0.25821143
62	0xbe5f66de	-0.21816584
63	0xbea425b7	-0.32060024
64	0x3e68b3bf	0.22724818
65	0xbe821e9c	-0.25413978
66	0xbd69b900	-0.057061195
67	0xbb57d98d	-0.0032936067
68	0x3e7e0295	0.24805672
69	0x3e6ce645	0.23134716
70	0xbe57f9be	-0.21091363
71	0xbdb67e05	-0.08910755
72	0x3eae3be2	0.34030062
73	0xbd82a7e5	-0.063796796
74	0xbc377580	-0.011197448
75	0xbd9ba114	-0.075990826
76	0x3e488b1a	0.19584313
77	0x3da8fe1e	0.08251594
78	0x3d2cf94a	0.042229928
79	0xbdf8f731	-0.12156523
80	0x3ea86423	0.32888898
81	0x3e049d04	0.12950522
82	0xbdb4ce02	-0.08828355
83	0x3d6fdbec	0.058559343
84	0x3e8228ae	0.2542166
85	0xbc9a2263	-0.018815225
86	0xbe8fed43	-0.28110704
87	0xbe898eb4	-0.26866686
88	0x3ea15038	0.31506515
89	0xbe1e2bbb	-0.1544637
90	0xbe8f5600	-0.279953
91	0xbea0d128	-0.31409574
92	0x3e80722c	0.25087106
93	0xbe0d928f	-0.13825439
94	0xbcbd7dfe	-0.023131367
95	0x3e7aaebe	0.24480721
96	0x3e574e17	0.21025883
97	0xbe4fab48	-0.20280182
98	0xbcfc656d	-0.030810082
99	0xbe819a54	-0.25313056
100	0x3e840297	0.25783226
101	0x3e214663	0.15749507
102	0xbe88b468	-0.2670014
103	0x3e65464a	0.22390094
104	0x3c3e4a6d	0.011614424
105	0xbe1863da	-0.1488184
106	0xbe88d83a	-0.26727468
107	0x3e8c7e48	0.27440095
108	0xbe8605f3	-0.26176414
109	0x3e9d1e99	0.30687407
110	0x3dcaa7a9	0.0989526
111	0xbe656da3	-0.22405104
112	0xbe50d460	-0.20393515
113	0xbe56e2cb	-0.20984952
114	0x3dba7674	0.091046244
115	0x3d9edea0	0.07757306
116	0xbd8bea7a	-0.06831832
117	0x3de51f9b	0.11187669
118	0x3df88843	0.12135365
119	0x3e48b3ab	0.19599788
120	0x3e870781	0.26372913
121	0x3e99496b	0.29938826
122	0x3cb7731d	0.022393757
123	0x3eaa3494	0.3324324
124	0x3e32f64d	0.17476769
125	0x3e9ee11e	0.31031126
126	0xbe02512e	-0.1272628
127	0xbd8471e5	-0.06467036
128	0x3d0f0943	0.034920942
129	0xbe90c1fe	-0.28273004
130	0xbd28d2c3	-0.041216623
131	0xbe2b1fdf	-0.16711377
132	0x3cc8e22a	0.024521906
133	0x3eb1824b	0.34669718
134	0xbe9891c3	-0.29798707
135	0xbe53baf0	-0.2067678
136	0xbe97be1a	-0.29637223
137	0x3ea9d1e7	0.33167955
138	0x3d8078c9	0.06273038
139	0x3e2ca441	0.16859533
140	0x3e6f7a85	0.23386581
141	0xbd8eab54	-0.06966272
142	0x3e419df1	0.18907906
143	0xbe5ec556	-0.21754965
144	0xbe7f5d1b	-0.2493786
145	0x3d8f1ad5	0.0698754
146	0x3eb155e0	0.3463583
147	0x3e7c1a84	0.2461949
148	0x3d4db3ea	0.050220408
149	0x3cc7274f	0.024310736
150	0x3e7d594a	0.24741092
151	0x3d9c307c	0.07626435
152	0x3e5cf312	0.21577099
153	0xbd9f2f76	-0.07772724
154	0x3e2b1563	0.16707377
155	0x3e445d00	0.19176102
156	0x3eb1ec82	0.34750754
157	0x3ea9e421	0.3318186
158	0x3e8d4c5e	0.27597326
159	0x3eac654d	0.33671036
160	0xbe56b0ae	-0.20965835
161	0xbd8a07c0	-0.067397594
162	0x3e95a3e5	0.29226604
163	0x3d8bb93b	0.06822439
164	0x3e7a0e82	0.24419597
165	0x3d086a83	0.033304702
166	0x3e79c45b	0.2439131
167	0x3e9acbc7	0.30233595
168	0xbe11087a	-0.1416339
169	0xbe99cb7a	-0.30038053
170	0x3cbac139	0.022797214
171	0x3e9494d5	0.290198
172	0xbe73ebc8	-0.23820412
173	0xbde4586e	-0.11149679
174	0x3e501f5a	0.2032446
175	0x3e83c2af	0.2573447
176	0xbe06b5be	-0.13155267
177	0x3e2f796d	0.17136164
178	0x3ddef48a	0.10886486
179	0x3eae04e1	0.33988097
180	0x3e9c6d71	0.30552247
181	0x3df816cc	0.12113723
182	0xbde6c22e	-0.112675056
183	0x3e216b4f	0.15763591
184	0x3e4aa5cf	0.19789813
185	0x3d931eaa	0.07183583
186	0x3e29126b	0.16510932
187	0xbd7429a6	-0.05961003
188	0xbe9b039f	-0.302762
189	0xbe5796e6	-0.21053657
190	0xbe74061e	-0.23830459
191	0x3e3f1b9e	0.18662879
192	0xbea1627c	-0.3152045
193	0xbe2bb35e	-0.16767642
194	0xbdda9e46	-0.106747195
195	0x3d7adedd	0.061247695
196	0x3dd3e7aa	0.10346921
197	0xbe8ddc96	-0.27707356
198	0xbb4064f1	-0.002935704
199	0x3eaca40e	0.33718914
200	0xbd7e8fc1	-0.062148813
201	0x3dcfcc1a	0.10146351
202	0xbe8c8392	-0.2744413
203	0x3d0521d5	0.032502968
204	0xbbdc839c	-0.0067295562
205	0x3e4018ba	0.18759432
206	0x3d8b8278	0.06811994
207	0xbe3e2db8	-0.18572128
208	0xbe39a023	-0.18127494
209	0xbdf0eedc	-0.11764309
210	0x3e287ded	0.16454287
211	0xbe5d9c6c	-0.21641701
212	0x3e44e420	0.19227648
213	0xbdafd4ae	-0.08585487
214	0x3e88354b	0.2660316
215	0x3d5d7535	0.054066855
216	0xbcef7670	-0.02923128
217	0xbcb517d6	-0.022106092
218	0xbe48e813	-0.1961978
219	0xbe87a707	-0.2649462
220	0x3e85c8d0	0.2612977
221	0xbe94fd38	-0.2909944
222	0x3e8e2821	0.2776499
223	0xbe5ca818	-0.21548498
224	0xbd9f728c	-0.0778552
225	0x3e8ed33e	0.2789554
226	0xbe956f66	-0.29186553
227	0x3d46b561	0.04851282
228	0x3e9940ce	0.29932255
229	0xbea3a5e7	-0.3196251
230	0xbe6ac6fe	-0.22927472
231	0xbe1c184c	-0.15243644
232	0xbe08b62c	-0.13350743
233	0xbd3dd94e	-0.046349816
234	0xbe9e8062	-0.30957323
235	0xbbf06c73	-0.007337147
236	0xbe422146	-0.18958005
237	0x3e80218f	0.25025603
238	0x3e61f9a8	0.22067893
239	0x3e30a302	0.17249683
240	0xbe94401b	-0.2895516
241	0xbe835df4	-0.25657618
242	0x3e7f2a9f	0.24918602
243	0x3ea80c71	0.32821992
244	0x3df48704	0.11939815
245	0xbdebf990	-0.1152221
246	0x3e8c273d	0.27373686
247	0xbe541110	-0.20709634
248	0xbea08a73	-0.31355628
249	0x3e3f1e47	0.18663894
250	0xbe6da1a8	-0.23206198
251	0xbe856096	-0.26050252
252	0xbea3cdeb	-0.3199304
253	0xbdec970c	-0.115522474
254	0x3e481b00	0.1954155
255	0xbd6eff54	-0.05834897

fc2.weight f4 [300, 400]
0	0xbc33cfe4	-0.010974858
1	0x3d9fe69d	0.07807658
2	0xbbbc77f5	-0.0057516047
3	0x3c9a7118	0.018852755
4	0xbd64d9e9	-0.055871878
5	0xbce1e9be	-0.027577277
6	0xbd1b0918	-0.03785047
7	0xbcf5ac5d	-0.029989416
8	0x3b1e7513	0.0024178668
9	0x3c3a26f7	0.011361829
10	0xbc1e02d3	-0.009644228
11	0x3c739b98	0.014868639
12	0x3d528e71	0.051405374
13	0xbcd5dae0	-0.026105344
14	0xbdb84c89	-0.08998973
15	0xbc8b9f02	-0.017043594
16	0x3d4645b2	0.04840631
17	0x3d8b7c7a	0.068108514
18	0xbc35fe00	-0.011107922
19	0xbb7ddef4	-0.0038737627
20	0x3c49c200	0.01231432
21	0xbd10e4b2	-0.03537435
22	0xbd36cb80	-0.044627666
23	0xbd5bc060	-0.05365026
24	0xbb5b5ec0	-0.0033473223
25	0xbd848b0e	-0.06471835
26	0xbcc61758	-0.024181053
27	0xbd454ab7	-0.048166957
28	0x3e2296c3	0.15877824
29	0xbd6f586e	-0.058433942
30	0xbd5cd88d	-0.053917456
31	0xbd916a34	-0.07100335
32	0x3d7f1492	0.062275477
33	0xbd3be8bb	-0.045876246
34	0xbda75913	-0.081712864
35	0xbc89d9b6	-0.016827445
36	0xbc345ecc	-0.011008929
37	0xbc3eee55	-0.0116535025
38	0xbd99c71e	-0.07508682
39	0x3ce5a921	0.028034749
40	0x3ccdac37	0.025106532
41	0x3d03878c	0.03211169
42	0x3d6a48d1	0.05719835
43	0xbcff4094	-0.031158723
44	0x3d072c24	0.03300108
45	0xbd07f376	-0.033191167
46	0x3d478224	0.048708096
47	0x3d2327b2	0.03983278
48	0x3cd872ad	0.02642187
49	0xbc13b428	-0.009015121
50	0xbd18d259	-0.03730998
51	0xbd0441cc	-0.03228931
52	0xbbc202b8	-0.0059207343
53	0x3c69f467	0.0142794615
54	0xbbecc5b7	-0.007225718
55	0x3d845031	0.06460608
56	0x3cb077f4	0.021541573
57	0x3c2b4218	0.01045277
58	0xbc8c9756	-0.017162006
59	0xbd001770	-0.03127235
60	0xbce1883b	-0.02753078
61	0xbd4296ab	-0.04750697
62	0xbc587edc	-0.013213839
63	0x3be71f70	0.007053308
64	0xbb04ed98	-0.0020283218
65	0x3ca8851c	0.020571284
66	0x3d85068d	0.0649539
67	0x3cf4e7a9	0.02989562
68	0xbd057b12	-0.032588072
69	0x3c89c78a	0.01681878
70	0xbb7ed0d0	-0.0038881786
71	0xbcc7bd7f	-0.024382351
72	0x3d461511	0.048359934
73	0x3c1380e7	0.009002901
74	0xbdb87dbb	-0.09008356
75	0xbd5d7027	-0.054062035
76	0x3d1070db	0.035263877
77	0x3d81f724	0.063459665
78	0x3af08c65	0.0018352388
79	0xbc8467ea	-0.016162831
80	0xbb258bad	-0.0025260255
81	0x3d29fa37	0.04149839
82	0x3d8765c4	0.06611207
83	0x3cf29eb5	0.029616693
84	0x3c93b3b0	0.018030018
85	0xbd8c5139	-0.068514295
86	0x3c54b0b0	0.012981579
87	0xbae6ef80	-0.0017618984
88	0xbc5d8107	-0.013519532
89	0x3c49d7b0	0.01231949
90	0x3c7defc0	0.015499055
91	0x3ca16578	0.019701704
92	0xbc81fc7d	-0.015867466
93	0xbcf54bd5	-0.029943386
94	0xbdb63763	-0.08897283
95	0x3ca340c6	0.019928347
96	0xbc74109a	-0.014896536
97	0xbcbeb1c4	-0.023278125
98	0x3bc9f9cc	0.0061638113
99	0xbcd0e3be	-0.025499221
100	0x3d3a66b1	0.04550809
101	0xbcae9cf2	-0.021315072
102	0x3ceb06b0	0.028689712
103	0x3c71ac90	0.014750615
104	0xbd63dd26	-0.055630825
105	0xbcf295f8	-0.029612526
106	0x3d18ff5e	0.037352912
107	0x3ccf362a	0.025294382
108	0x3d0766b6	0.033056937
109	0x3d8d1df3	0.06890478
110	0xbc4e65a4	-0.012597475
111	0x3c0d49f8	0.008623593
112	0xbd345db0	-0.04403466
113	0xbc2197b0	-0.009862825
114	0xbc9c8440	-0.01910603
115	0x3d333bd0	0.043758214
116	0xbd74ccbd	-0.059765566
117	0xbdc27d9a	-0.09496613
118	0xbc90949f	-0.017648993
119	0xbd2a739d	-0.041614164
120	0x3b8c37dd	0.0042791204
121	0x3c33d7bd	0.010976729
122	0xbd8e1535	-0.06937639
123	0x3d64bc5d	0.0558437
124	0xbb8c765b	-0.00428657
125	0x3c9004dc	0.017580442
126	0xbdb1341d	-0.08652518
127	0x3ca2b77e	0.019862887
128	0x3d311b68	0.043239027
129	0xbcda81f7	-0.0266733
130	0xbdd65158	-0.10464734
131	0xbd322f5f	-0.043502208
132	0x3d575142	0.052567728
133	0x3b7181af	0.003685098
134	0x3c90552c	0.017618738
135	0xbd56fe6f	-0.05248874
136	0xbd2294a6	-0.039692543
137	0x3d1d95e5	0.03847303
138	0x3d1f6bfb	0.038921338
139	0x3d6c3208	0.0576649
140	0xbd20473f	-0.039130446
141	0xbd367b9a	-0.04455147
142	0xbbc5cd01	-0.0060364013
143	0x38901c00	6.8716705e-05
144	0xbc1d5130	-0.009601876
145	0xbc5c1798	-0.01343336
146	0x3cd905a1	0.026491942
147	0x3cc4bf80	0.024017096
148	0xbd66a674	-0.056311086
149	0x3dbb944f	0.09159147
150	0xbbe3a07c	-0.0069466215
151	0x3c4cb60e	0.012494577
152	0xbb6f2d7c	-0.0036495617
153	0x3d2f554d	0.04280596
154	0xbc84bf13	-0.016204393
155	0x3d172d49	0.03690842
156	0xbb870d82	-0.0041214833
157	0x3d938ae0	0.07204223
158	0x3cff647f	0.03117585
159	0x3d398d8d	0.04530101
160	0x3bd17240	0.0063917935
161	0x3b43922e	0.0029841769
162	0xbc1e5d9e	-0.009665875
163	0xbc4f7349	-0.0126617635
164	0xbc1f5910	-0.009725824
165	0xbc33a3df	-0.010964363
166	0xbd269c88	-0.040676624
167	0xbd2d1014	-0.04225166
168	0xbd5732ea	-0.05253879
169	0x3d297cf4	0.04137893
170	0xbca93917	-0.020657105
171	0x3d407063	0.04698218
172	0xbd1223c9	-0.03567866
173	0x3d8c2a8c	0.06844053
174	0x3d6bfef2	0.05761618
175	0xbabe47d5	-0.0014517257
176	0x3d0c82d9	0.034304474
177	0xbd1d191d	-0.038354028
178	0xbcc39d9c	-0.023878865
179	0xbd407a8e	-0.046991877
180	0x3780476b	1.5292046e-05
181	0xbd1e55ad	-0.038655926
182	0x3d64ebc6	0.055888914
183	0xbd094cab	-0.033520382
184	0x3c2ce645	0.010552947
185	0x3cf36fac	0.029716335
186	0xbce45276	-0.027871352
187	0x3d71e1ab	0.059053104
188	0xbc5067f4	-0.012720097
189	0xbd8e3389	-0.06943423
190	0xbd405948	-0.046960145
191	0xbd9a6d6b	-0.07540401
192	0x3d5e1318	0.054217428
193	0x38895f7f	6.5504566e-05
194	0xbcfa1c28	-0.030531004
195	0xbda739ed	-0.08165345
196	0x3cc9e3ae	0.024644699
197	0xbbba1e10	-0.0056798533
198	0x3b8e3d2d	0.004340789
199	0x3d25dfe0	0.040496707
200	0x3d014448	0.03155926
201	0x3d9d0244	0.07666448
202	0xbba4d7d0	-0.0050306097
203	0x3cfa73f5	0.03057287
204	0x3b14e0d9	0.0022717027
205	0xbc8e48dd	-0.017368728
206	0x3d8f90a5	0.07010011
207	0x3d4d8b4c	0.050181672
208	0x3cb0857c	0.021548025
209	0x3ac655c0	0.0015131757
210	0xbb8f4ec5	-0.0043734037
211	0xbd36a37c	-0.044589505
212	0xbd078e61	-0.033094767
213	0x3b94bdb7	0.0045392173
214	0x3cfced32	0.030874822
215	0xbcd9b8c9	-0.02657737
216	0xbd5ff7b3	-0.054679584
217	0x3d2a2400	0.04153824
218	0x39594900	0.00020721927
219	0xbd105138	-0.035233706
220	0x3d13a47f	0.036045548
221	0xbc74cf08	-0.014941938
222	0x3cff39a9	0.031155424
223	0x3c34d510	0.011037126
224	0xbdd1d8a2	-0.102463976
225	0x3d03d130	0.03218192
226	0x3b81f918	0.003966462
227	0x3cdb576a	0.02677508
228	0xbd55d06b	-0.052200716
229	0x3d315a18	0.04329881
230	0x3cde3da8	0.02712901
231	0x3b25fa5f	0.0025326235
232	0xbb237b7f	-0.0024945436
233	0xbd8c0f11	-0.06838811
234	0xbccde06a	-0.025131423
235	0xbd7e54ed	-0.06209271
236	0x3d3ecffc	0.046585068
237	0x3d4a1e8d	0.04934554
238	0x3c1864af	0.009301349
239	0x3d6d1b17	0.057887163
240	0x3d627aea	0.055293
241	0x3cb5606c	0.022140704
242	0xbd0c1759	-0.034201954
243	0xbd520197	-0.051271047
244	0x3d5660eb	0.052338522
245	0xbd3b2491	-0.04568917
246	0x3d230aa2	0.039805062
247	0xbc4b0c70	-0.012393102
248	0xbce1380b	-0.027492544
249	0x3ca98cba	0.020696986
250	0xbc1ed07c	-0.009693261
251	0xbd48aaba	-0.048990943
252	0x3d1132c6	0.035448812
253	0xbcd79f42	-0.026321057
254	0xbce3b78a	-0.02779748
255	0x3df0801a	0.117431834

fc2.bias f4 [300]
0	0xbc09c353	-0.008408385
1	0x3d5fb4f5	0.054615933
2	0x3cee6900	0.029102802
3	0x3c96c2c9	0.018403428
4	0xbc9af14b	-0.018913886
5	0x3d46b17b	0.048509102
6	0x3d29ceb5	0.041456897
7	0x3cbe55dd	0.023234302
8	0xbbfdb254	-0.0077422056
9	0xbcf560a0	-0.029953301
10	0x3d429364	0.047503844
11	0x3d2a71d4	0.04161246
12	0x3c0239fc	0.007948395
13	0xbc888dad	-0.016669119
14	0xbd08aec3	-0.03336979
15	0x3caeb8f3	0.021328425
16	0xbb2af57f	-0.0026086268
17	0x3b4c5adb	0.0031182084
18	0x3d4b0879	0.049568627
19	0x3d1313c2	0.035907514
20	0xb9465214	-0.00018913328
21	0xbcdd364c	-0.02700343
22	0x3d382cd2	0.04496462
23	0x3c18c0d2	0.009323316
24	0x3cee0bd4	0.029058374
25	0xbc187be9	-0.009306886
26	0x3d2e8aca	0.04261283
27	0x3c896e9a	0.016776372
28	0xbbc09933	-0.005877638
29	0x3cf9fe3f	0.030516742
30	0x3d4e150c	0.05031304
31	0x3d6a80a2	0.05725158
32	0xbb7d015e	-0.0038605551
33	0xbc43e999	-0.0119575495
34	0x3c5b96aa	0.01340262
35	0x3b6e2be2	0.0036342074
36	0x3d2fa5bb	0.042882662
37	0x3d4659c8	0.048425466
38	0x3d887e12	0.06664671
39	0x3d412e0e	0.04716306
40	0x3d262580	0.040563107
41	0x3d236ffc	0.03990172
42	0x3cd7dc21	0.026350083
43	0xbc8b7d4e	-0.017027523
44	0x398a80ce	0.00026417378
45	0x3d066300	0.032809258
46	0x3d3000f5	0.042969663
47	0xbd44f6b7	-0.048086848
48	0xbc774e69	-0.015094378
49	0xbafe03bf	-0.0019379779
50	0x3d0d2b93	0.034465384
51	0x3beb23b0	0.007175885
52	0x3c68eca6	0.014216578
53	0x3d0a8ee8	0.033827692
54	0x3d3baf03	0.0458212
55	0x3c2ec57f	0.010667204
56	0x3aac50ed	0.0013146676
57	0x3d0b9087	0.03407338
58	0x3c167ef1	0.009185539
59	0xbc754080	-0.014968991
60	0x3d146f4e	0.03623896
61	0x3c338a14	0.010958213
62	0x3d795dce	0.060880475
63	0xbd1199ba	-0.035546996
64	0x3d3d300b	0.046188395
65	0xbd376c2a	-0.044780888
66	0xbcfe1a27	-0.03101833
67	0x3bd3a752	0.006459155
68	0x3d82ba86	0.06383233
69	0x3a87bdfd	0.0010356304
70	0x3b9278b0	0.0044699535
71	0x3d2d997f	0.042382713
72	0xbd1332ee	-0.035937242
73	0x3d07561c	0.033041105
74	0x3c403cb5	0.011733224
75	0x3d006adb	0.031351905
76	0x3c8d6aba	0.017262805
77	0x3d69a615	0.057043154
78	0x3d3ea302	0.046542175
79	0xbc5cfe60	-0.013488382
80	0x3d15f267	0.036608126
81	0xbc7c5fec	-0.015403729
82	0xbd29b8cb	-0.041435998
83	0xbcc325d1	-0.023821743
84	0xbba885ca	-0.005142902
85	0xbcf77aed	-0.030209983
86	0xbcf1fc6d	-0.029539311
87	0x3d8ae8a7	0.06782656
88	0x3d9e7613	0.077373646
89	0x3d4f572b	0.05062024
90	0x3d3a14d0	0.045430005
91	0xbd4c5f0a	-0.049895324
92	0xbd21f633	-0.039541434
93	0xbd1df272	-0.038561292
94	0x3c188a80	0.009310365
95	0x3cb416fb	0.021983614
96	0x3d5986a0	0.053106904
97	0x3d088fe1	0.03334034
98	0x3ca295ea	0.019846875
99	0xbcc175dd	-0.023615772
100	0xbd1b93d3	-0.037982773
101	0x3d5709b6	0.052499495
102	0x3c2c92b4	0.010533024
103	0x3d237557	0.039906826
104	0x3cfcf44f	0.030878214
105	0xbc28fa34	-0.010313559
106	0x3c590544	0.013245884
107	0xbd18a415	-0.037265856
108	0xbc1ea5d6	-0.009683093
109	0xbcb8d5fe	-0.022562977
110	0xbd305c70	-0.043056905
111	0x3c94d59f	0.018168269
112	0x3c2cebdf	0.010554283
113	0x3d5d4335	0.05401917
114	0xbcb5f602	-0.022212032
115	0x3c34a909	0.011026629
116	0x3c24f0b8	0.010067157
117	0x3d82ef16	0.06393258
118	0x3cd6b732	0.026210401
119	0xbc99b441	-0.01876271
120	0xbd502c8e	-0.05082374
121	0x3d8eb22a	0.06967576
122	0x3c953e73	0.018218255
123	0x3d84d1f6	0.06485359
124	0x3cc0ab37	0.023519142
125	0xbbf1d498	-0.0073800795
126	0x3d02fbef	0.031978544
127	0x392bfd5e	0.00016402217
128	0x3cd09812	0.025463138
129	0xbc282468	-0.010262586
130	0x3c3f9bfc	0.011694904
131	0x3d161c40	0.036648035
132	0xbcaf39fa	-0.02138995
133	0xba940ec0	-0.00112959
134	0x3d05cc1d	0.03266536
135	0x3d032512	0.032017775
136	0xbb797eb0	-0.0038069896
137	0x3d2b4775	0.041816194
138	0x3d4713d1	0.048602883
139	0x3d409ffc	0.047027573
140	0x3d29b682	0.04143382
141	0x3d07451a	0.033024885
142	0x3bd256fa	0.00641906
143	0xbc01a828	-0.007913627
144	0xbc2b336f	-0.010449274
145	0x3d3fb227	0.04680076
146	0x3c129518	0.0089466795
147	0xbd439ced	-0.047757078
148	0xbb932f08	-0.0044916905
149	0x3d3159e1	0.043298606
150	0x3d866bba	0.06563516
151	0x3d95b6c0	0.073102474
152	0xbcae2af2	-0.021260712
153	0xbc3d3a92	-0.011549609
154	0x3d57fc43	0.05273081
155	0x3c8ed993	0.017437732
156	0x3ccda324	0.025102206
157	0x3d83fdea	0.06444915
158	0x3d064b86	0.03278687
159	0xbb83621e	-0.004009499
160	0x3d31f4ac	0.043446228
161	0x3d0ad4ea	0.033894457
162	0xbcf55da7	-0.029951883
163	0xbc196098	-0.009361409
164	0xbd443459	-0.047901485
165	0x3cf5230a	0.029923934
166	0x3c51e881	0.012811781
167	0x3c96a091	0.01838711
168	0x3d8bd9cd	0.068286516
169	0xbab874d4	-0.0014072903
170	0x3d102385	0.035190124
171	0x3d1ab365	0.03776874
172	0xbd4b89e5	-0.049692053
173	0x3cf1ba6f	0.029507844
174	0xba8a1f95	-0.0010537977
175	0xbc892c75	-0.016744832
176	0xbd6ae9d8	-0.057351917
177	0x3d616ccc	0.055035397
178	0xbd5e417b	-0.054261666
179	0xbc573460	-0.013135046
180	0xbc5edd21	-0.013602526
181	0x3d31b31a	0.043383695
182	0xbb895994	-0.0041915867
183	0x3d8b4d0f	0.06801807
184	0x3d467935	0.048455436
185	0x3c9149e2	0.017735425
186	0x3d57b821	0.052665833
187	0x3b8fcaed	0.0043882043
188	0xbb1e5508	-0.002415957
189	0x3cbb1fd2	0.022842322
190	0x3d424c40	0.047436
191	0x3c0b9d76	0.008521428
192	0x3c9e6128	0.019333437
193	0x3d195e00	0.03744316
194	0xbc91b0e8	-0.01778455
195	0x3d15d2ac	0.036577865
196	0x3c850059	0.016235517
197	0x3cdc99bf	0.02692878
198	0x3cf4d261	0.029885473
199	0xbcdbfa53	-0.026852762
200	0x3d45bc61	0.048275355
201	0x3ce1b00c	0.027549766
202	0xbc6a389a	-0.014295721
203	0xbd10560a	-0.035238303
204	0x3d5f6353	0.054538082
205	0xbba9d418	-0.0051827542
206	0x3cbd697a	0.023121584
207	0xbc05bf73	-0.008163321
208	0x3d0b59b7	0.034021106
209	0xbccc53aa	-0.024942238
210	0xbc198e69	-0.009372332
211	0xbc80d9c6	-0.015728842
212	0xbba90ebe	-0.005159228
213	0x3ccdbe6d	0.025115216
214	0xbd13bfca	-0.036071576
215	0xbc525ae6	-0.012839055
216	0xbd0f9e38	-0.035063
217	0xbcce9da3	-0.025221651
218	0xbc08ea4c	-0.008356642
219	0xbbf28da9	-0.007402141
220	0xbbe7d949	-0.007075463
221	0xbbd368b2	-0.0064516896
222	0xbccc16d2	-0.024913225
223	0xbc31a4f7	-0.010842553
224	0xbd49e667	-0.049291994
225	0xbc08d648	-0.00835187
226	0x3c9f3bce	0.019437697
227	0xbce2af0f	-0.027671365
228	0x394915b9	0.00019176946
229	0xbd3453fd	-0.04402541
230	0xbb36d5dd	-0.0027898469
231	0x3ce0f93a	0.02746259
232	0x3c48b839	0.012250953
233	0x3c72a461	0.014809699
234	0x3ce776e9	0.028254943
235	0x3d06b923	0.032891404
236	0x3d4bf51b	0.049794298
237	0x3cd96ead	0.026542032
238	0xbc971246	-0.01844133
239	0x3d4e76d7	0.050406303
240	0xbc3a7068	-0.011379339
241	0xbd326ee5	-0.04356279
242	0xbcac2bb6	-0.021016937
243	0xbb331943	-0.002732829
244	0x3c689da7	0.0141977435
245	0xbd0557d2	-0.032554455
246	0x3c1b39f3	0.009474265
247	0xbd0cafbe	-0.03434729
248	0x3c8c3665	0.017115781
249	0xbb8f52cd	-0.0043738843
250	0x3c0da6f1	0.008645759
251	0x3d749f65	0.059722323
252	0x3cd0693b	0.025440803
253	0x3d92647e	0.071480736
254	0xbb1c06e4	-0.0023807818
255	0x3d085e82	0.033293255

fc3.weight f4 [400, 300]
0	0xbd26f039	-0.040756438
1	0x3da1882c	0.07887301
2	0x3d68a045	0.05679347
3	0x3d483f48	0.048888475
4	0x3b012b28	0.001970956
5	0x3d89d926	0.06730871
6	0xbbbc9996	-0.0057556136
7	0x3b950c73	0.004548603
8	0x3d9ae40d	0.075630285
9	0x3b630c60	0.0034644827
10	0x3c5ea1a1	0.01358834
11	0x3ba940bb	0.005165187
12	0x3b97d03e	0.0046329787
13	0xbd114ceb	-0.035473745
14	0xbcb434f1	-0.0219979
15	0xbb954250	-0.004555024
16	0xbd2c1f51	-0.042022053
17	0x3cd35982	0.025799517
18	0xbd12e29f	-0.035860654
19	0xbc731326	-0.014836108
20	0xbc299640	-0.010350764
21	0xbccfc5df	-0.025362907
22	0x3d2d9ab5	0.04238387
23	0x3d53f4f0	0.051747262
24	0x3d8ff984	0.07030013
25	0xbb942bd9	-0.0045218286
26	0x3d39c7de	0.045356624
27	0x3d42731c	0.047473058
28	0x3da1d669	0.079022236
29	0x38b26328	8.506171e-05
30	0xbbe260ea	-0.0069085257
31	0x3d19fd89	0.037595306
32	0xbd0d7801	-0.034538273
33	0xbc137a82	-0.009001376
34	0xbd1ae1d0	-0.037813008
35	0xbcd66039	-0.02616893
36	0x3d47a447	0.04874065
37	0x3d47d32e	0.04878538
38	0x3c08c96f	0.008348807
39	0x3d958403	0.0730057
40	0xbd909748	-0.070601046
41	0x3d0312e5	0.03200044
42	0xbc8e239d	-0.017350966
43	0x3d4d0c76	0.05006071
44	0x3d5c33d0	0.05376035
45	0x3c629f02	0.013831856
46	0xbdc661a2	-0.09686591
47	0xbc57fe60	-0.013183206
48	0x3c7bcb7e	0.015368341
49	0x3b5321b2	0.003221613
50	0x3d13da15	0.03609665
51	0x3d15132d	0.03639524
52	0x3d72f023	0.059311043
53	0xbda895b6	-0.0823168
54	0xbc2cc6d4	-0.010545451
55	0x3bd0ecdc	0.006375892
56	0x3ce676ec	0.028132878
57	0x3c0b0350	0.0084846765
58	0x3cae079f	0.021243868
59	0x3a3ac491	0.00071246276
60	0xbbb1d723	-0.0054272576
61	0xba19dcc0	-0.0005869381
62	0xbd4274bd	-0.04747461
63	0x3ceca208	0.028885856
64	0x3ba56274	0.005047137
65	0x3cd7ba82	0.026334051
66	0xbd38c94d	-0.04511385
67	0xbbf726a4	-0.007542448
68	0x3d995919	0.07487697
69	0x3c781492	0.015141623
70	0xbd36166f	-0.044454988
71	0x3d3d35d5	0.046193916
72	0x3d0e2e7f	0.03471231
73	0xba57eda0	-0.0008237008
74	0xbd3302bc	-0.04370378
75	0xbb696b5e	-0.0035616974
76	0x3c36fabc	0.011168178
77	0xbbd42907	-0.0064746174
78	0x3c97dc49	0.018537657
79	0x3d31567d	0.043295372
80	0x3d207592	0.039174624
81	0x3d21cc61	0.03950155
82	0xbbc75d1b	-0.006084097
83	0x3cdf4acb	0.027257344
84	0x3b9763f3	0.004620069
85	0x3c2f2722	0.010690482
86	0xbc18e9e8	-0.009333111
87	0xbd289143	-0.041154157
88	0x3d95bcb4	0.07311383
89	0xbc8df076	-0.017326575
90	0x3c8e960f	0.017405538
91	0x3cca44d6	0.024691027
92	0xbcdb1daa	-0.026747543
93	0xbd4cbeef	-0.049986776
94	0xbc8172dc	-0.01580184
95	0x3bef9fd0	0.0073127523
96	0xbd094a95	-0.033518393
97	0x3c3d18a0	0.011541516
98	0x3ac026bd	0.0014659982
99	0x39f1d799	0.00046127735
100	0x3d135bc1	0.035976175
101	0x3b31e1ef	0.0027142724
102	0xbd3304c2	-0.04370571
103	0xbd1baa12	-0.03800399
104	0x3cabc458	0.020967647
105	0xbd444b9a	-0.04792366
106	0x3d3c9409	0.046039615
107	0xbccad953	-0.024761831
108	0x3c99d3d4	0.018777765
109	0xbc7bd43e	-0.015370427
110	0xbd10424b	-0.035219472
111	0x3bb7f849	0.0056143147
112	0x3d93bd27	0.07213812
113	0xbd6534f1	-0.055958692
114	0x3cce3a30	0.02517423
115	0x3bbbf800	0.005736351
116	0xbd58371a	-0.052786924
117	0x3ca9b138	0.020714387
118	0x3d3579d7	0.04430565
119	0x3c9b36a5	0.018946955
120	0xbcbf0648	-0.023318425
121	0x3d01f0be	0.03172373
122	0xbbfb9a6b	-0.00767832
123	0x3ca95b5a	0.020673443
124	0xbc22be6d	-0.009933096
125	0x3d12c691	0.0358339
126	0xbd18bf5c	-0.03729187
127	0xbc222f65	-0.009898995
128	0xbce55e9f	-0.02799922
129	0xbd19391c	-0.03740798
130	0x3d74197c	0.059594616
131	0x3d46e809	0.04856113
132	0x3bc8ae0e	0.0061242646
133	0x3d4daf5f	0.050216075
134	0xbccfb0b9	-0.025352823
135	0x3b8e3eac	0.004340967
136	0x3b468c20	0.0030295923
137	0xbd0ea047	-0.03482082
138	0x3ce294da	0.027658869
139	0x3d1dd2e2	0.03853119
140	0xbde76a4e	-0.11299573
141	0x3d5581d8	0.05212578
142	0x3d3b9f80	0.045806408
143	0xbcf0e7b5	-0.029407362
144	0xbcb075bf	-0.02154052
145	0xbe6f6fbc	-0.23382467
146	0x3d6953b1	0.05696458
147	0x3cff2b52	0.031148586
148	0x3d00364a	0.031301774
149	0xbd3450a9	-0.044022236
150	0x3c7322b0	0.014839813
151	0x3d084e3e	0.033277743
152	0x3bd5baff	0.006522536
153	0xbd3fb84f	-0.04680663
154	0x3d52ba32	0.0514471
155	0xbd48e636	-0.04904767
156	0x3d94b0f8	0.072603166
157	0xbcd32f76	-0.025779467
158	0xbc6f121d	-0.014591721
159	0xbc8b23b5	-0.0169848
160	0xbd558106	-0.052125
161	0xbbba2f1e	-0.0056818863
162	0xbc069a4f	-0.008215501
163	0x3d78d300	0.0607481
164	0xbc522afb	-0.01282763
165	0xbd1c5976	-0.038171254
166	0x3741e4cc	1.1556967e-05
167	0xba81f0cb	-0.0009913681
168	0x3d41325b	0.047167163
169	0x3d69d073	0.05708356
170	0xbca3cb55	-0.019994417
171	0x3b9bf90d	0.004759914
172	0xbd0db702	-0.034598358
173	0x3bfed13e	0.0077764085
174	0xbc7a3505	-0.01527143
175	0x3d00ee37	0.03147718
176	0xbdae6f3d	-0.08517311
177	0xbcb021db	-0.021500519
178	0xbd3e97b3	-0.04653139
179	0xbd15f6ed	-0.03661244
180	0x3bf1377a	0.0073613496
181	0x3cba347d	0.022730106
182	0x3cde3aff	0.02712774
183	0xbaf1075d	-0.0018389035
184	0xbd99f293	-0.075169705
185	0x3b8ea0b0	0.0043526515
186	0xbc61b5a8	-0.01377622
187	0xbd13cb54	-0.03608258
188	0x3cbca22a	0.023026545
189	0xbd8e525b	-0.06949302
190	0xbc44b07f	-0.012004971
191	0x3b961713	0.0045803874
192	0x3c697e0b	0.014251242
193	0xbd1e1110	-0.03859049
194	0x3d2e4165	0.042542834
195	0xbbc15688	-0.005900208
196	0x3cdefbb0	0.027219623
197	0xbd36df9e	-0.04464685
198	0xbc858e4a	-0.0163032
199	0x3c844e16	0.016150516
200	0x3c150ba3	0.009097013
201	0xbb01e1af	-0.0019818356
202	0xbd8312ae	-0.06400047
203	0x3bad770d	0.005293733
204	0x3cfe8cd0	0.031073004
205	0x3cf44cbe	0.02982175
206	0xbcbffa6c	-0.02343484
207	0xbdc52f52	-0.09628166
208	0x3c8544e1	0.016268196
209	0x3c99e9f1	0.01878831
210	0xbc80cdf3	-0.015723204
211	0xbcdc7c94	-0.026914872
212	0xbc2e9fb9	-0.010658198
213	0x3b87acf6	0.0041404916
214	0xbd2b7416	-0.041858755
215	0xbb874200	-0.004127741
216	0x3d09a2cf	0.033602532
217	0x3cf1e93b	0.029530158
218	0xbd52b46b	-0.05144159
219	0xbc5998c8	-0.013281055
220	0x3d242586	0.040074848
221	0x3cfccdfd	0.030859942
222	0x3d30bd8b	0.043149512
223	0xbd4650ba	-0.04841683
224	0x3d356061	0.044281367
225	0x3bea7f61	0.007156298
226	0x3c627238	0.013821177
227	0x3caf790f	0.02142003
228	0x3d4f2caf	0.050579723
229	0xbd79cbcb	-0.060985368
230	0x3d08c759	0.033393238
231	0x3b06f514	0.0020592855
232	0x3d462c07	0.04838183
233	0x3ca32000	0.01991272
234	0x3d378965	0.044808764
235	0x3d7dbdd6	0.06194862
236	0x3d122232	0.035677142
237	0xbca079dc	-0.019589357
238	0x3c8d0db6	0.017218452
239	0xbc24e974	-0.010065425
240	0x3cffc2de	0.03122085
241	0x3ce8b553	0.028406775
242	0x3d840552	0.06446327
243	0xbd812d11	-0.06307424
244	0x3d4223bc	0.04739736
245	0x3d18bb8d	0.037288237
246	0xbdeeae9b	-0.11654397
247	0xbcd94200	-0.026520729
248	0x3cb491c4	0.022042163
249	0xbcc58351	-0.024110468
250	0xbcb39d28	-0.021925524
251	0x3d3a05c1	0.045415644
252	0xbb67b588	-0.0035356004
253	0x3d46822c	0.048463985
254	0xbe098c8e	-0.13432524
255	0x3d335647	0.043783452

fc3.bias f4 [400]
0	0x3d867290	0.0656482
1	0xbb361bc0	-0.0027787536
2	0xbb45f5c0	-0.0030206293
3	0xbd16f67c	-0.03685616
4	0x3d73dff3	0.059539746
5	0x3cfbb8bd	0.030727739
6	0xbc48f564	-0.012265537
7	0x3d5e974b	0.054343503
8	0xbc3a1dd5	-0.011359652
9	0xbbdf3d00	-0.0068126917
10	0xbce89fa6	-0.028396439
11	0x3cda2016	0.026626628
12	0x3c2b69dd	0.0104622515
13	0xbd31eea0	-0.04344046
14	0x3d2546cf	0.04035073
15	0x3d225114	0.039628103
16	0x3d75a5e2	0.05997265
17	0x3d751eeb	0.05984394
18	0x3d0806ee	0.033209734
19	0xbd4c962d	-0.049947906
20	0x3c4b5879	0.01241123
21	0x3cd4a0c1	0.02595556
22	0x3cfd8145	0.03094543
23	0x3d82555b	0.063639365
24	0x3d3c529b	0.045977216
25	0x3cbc014c	0.022949837
26	0x3a0e189c	0.0005420537
27	0xbcd5475a	-0.026035
28	0xbd003f44	-0.031310335
29	0x3d00b603	0.03142358
30	0x3d5f54da	0.05452428
31	0xbd1a75ec	-0.037710115
32	0x3dafab8d	0.085776426
33	0xbc24eda8	-0.010066427
34	0xbb054944	-0.002033786
35	0xbcc493bc	-0.023996226
36	0x3a98ed5d	0.001166742
37	0x3cc24af3	0.02371738
38	0xbca4b6e9	-0.02010675
39	0x39e6eea3	0.00044046817
40	0xbd24bf16	-0.040221296
41	0xbc85a4a0	-0.01631385
42	0x3c7ae851	0.015314178
43	0x3d3e33c3	0.046436083
44	0x3d52d5e4	0.051473513
45	0xbb561518	-0.0032666381
46	0x3c95a84f	0.018268732
47	0x3caf8101	0.021423819
48	0xbcc1a8bd	-0.023640031
49	0xbd2160e0	-0.039399028
50	0xbce73113	-0.028221643
51	0x3d6c207f	0.05764818
52	0x3d74aa2d	0.059732605
53	0xbd2d739d	-0.042346586
54	0x3d7194c2	0.058979757
55	0x3d6141dd	0.054994453
56	0x3c353248	0.011059351
57	0xbc7151fb	-0.014729018
58	0x3d0b6cbb	0.03403924
59	0xb9784fae	-0.00023680806
60	0x3c467b88	0.012114413
61	0xbc941922	-0.01807839
62	0xbd340f93	-0.043960165
63	0x3cb84c80	0.022497416
64	0xbc9b0e8d	-0.018927837
65	0x3cff5eb9	0.031173097
66	0xbd5bfb25	-0.053706307
67	0xbc8f64f8	-0.0175042
68	0x3d120195	0.03564604
69	0x3d07af01	0.03312588
70	0x3c39c996	0.011339566
71	0x3c972687	0.018450988
72	0x3c38de49	0.011283466
73	0xbd1d7162	-0.03843821
74	0xbbc7fd43	-0.006103189
75	0x3c832ca8	0.016012505
76	0x3b61409c	0.0034370786
77	0x3d44dacd	0.048060227
78	0xbd20bcfb	-0.039242726
79	0x3a9e0e20	0.0012058653
80	0xbce3b19a	-0.027794648
81	0xbc1b3db0	-0.009475157
82	0xbc6f06fc	-0.014589068
83	0xbcbe9333	-0.02326355
84	0xbc76b851	-0.015058593
85	0xbd04c82b	-0.032417458
86	0x3d2e2f0d	0.04252534
87	0x3c80e376	0.015733462
88	0x3cc2d27b	0.023782006
89	0xbc633c0c	-0.013869297
90	0xbd6494d8	-0.05580601
91	0x3ce16c6f	0.027517525
92	0x3c9d7ef8	0.019225582
93	0xbd544cf7	-0.051831212
94	0x3d45536f	0.04817527
95	0x3d398d94	0.045301035
96	0x3d5a096e	0.05323165
97	0xbd2556b3	-0.040365886
98	0xbbda7efc	-0.0066679697
99	0x3d674dcf	0.05647069
100	0x3cfb8bd4	0.030706324
101	0xbc977689	-0.01848914
102	0x3d422810	0.047401488
103	0x3bd1d670	0.006403737
104	0x3d5a3c61	0.053280238
105	0xbd61e667	-0.05515137
106	0x3d46df78	0.04855296
107	0xbcec63be	-0.028856155
108	0x3d138a3b	0.0360205
109	0xbc86b54f	-0.016443877
110	0xbcbac3fe	-0.022798534
111	0xbca56296	-0.020188611
112	0x3cb58748	0.022159234
113	0x3c30a43f	0.010781347
114	0x3d4c21f4	0.049837068
115	0x3d024b28	0.031809956
116	0xbc931471	-0.017954083
117	0xbd04d9bb	-0.032434206
118	0x3d5594fd	0.05214404
119	0xbd324c67	-0.043529894
120	0xbd1a53a1	-0.03767741
121	0x3ce365c3	0.027758485
122	0x3ac852b1	0.0015283433
123	0x3cb45b3c	0.02201616
124	0x3a18f5ec	0.0005834985
125	0xbbd9b71b	-0.0066441423
126	0xbd2d5595	-0.042317946
127	0x3ca7e41b	0.020494511
128	0x3d3344a1	0.04376662
129	0x3d86689d	0.06562922
130	0xbd1bfdde	-0.038083903
131	0x3cec2e86	0.028830778
132	0x3cb5e2a8	0.022202805
133	0x3a1cbc2c	0.00059789675
134	0x3ccd09cb	0.025029084
135	0x3d810dab	0.06301435
136	0xbd27b1da	-0.040941097
137	0xbd0f0be0	-0.034923434
138	0xbcbbd42f	-0.022928325
139	0x3d2d6908	0.042336494
140	0x3d8d2c67	0.06893235
141	0x3d0c1de2	0.034208186
142	0xbcb4010a	-0.021973152
143	0x3dbca4ec	0.09211144
144	0x3cd6416f	0.026154248
145	0x3d3f3e74	0.04669042
146	0x3d177d61	0.036984805
147	0x3cb6fa68	0.0223362
148	0x3d65b6ef	0.056082662
149	0xbd580178	-0.052735776
150	0x3c34fc54	0.011046488
151	0xbd0e4ad3	-0.034739327
152	0x3bcc5390	0.0062355474
153	0xbd5dde82	-0.054167278
154	0x3b80944b	0.003923928
155	0x3c99ee75	0.018790463
156	0x3ce56d29	0.028006153
157	0x3d0f7e7a	0.035032727
158	0x3c4541f1	0.012039647
159	0x3d36ebc8	0.044658452
160	0x3d8c2e9a	0.06844826
161	0xbd05cd0f	-0.032666262
162	0x3d8f59c5	0.06999544
163	0x3c39addf	0.011332958
164	0xbca6af66	-0.020347308
165	0x3c862c52	0.016378555
166	0xbd10d4f3	-0.035359334
167	0x3d05a0a2	0.032623895
168	0xbd1c523f	-0.038164373
169	0xbd1d9e1e	-0.03848087
170	0xbd653325	-0.05595698
171	0xbd469a57	-0.048487034
172	0x3d721972	0.059106298
173	0xbd09ab26	-0.033610485
174	0xbd567e7e	-0.052366726
175	0xba995430	-0.0011698063
176	0xbcee7136	-0.029106718
177	0x3d0486e8	0.03235522
178	0x3d3cd8f5	0.046105344
179	0x3ca21e5a	0.019789863
180	0xbcd8ce6d	-0.026465619
181	0xbd5b4a52	-0.053537674
182	0x3bf13e4a	0.0073621618
183	0xbb877e58	-0.0041349344
184	0x3d7f6228	0.06234947
185	0xbc60f54d	-0.013730359
186	0xbca070f9	-0.01958512
187	0x3d893c26	0.067009255
188	0x3d0f85d8	0.035039753
189	0xbc871372	-0.016488764
190	0x3cf9e4e2	0.030504648
191	0xbd1c3680	-0.038137913
192	0x3da5a73b	0.08088537
193	0x3d0c73cc	0.03429012
194	0xbd411764	-0.047141448
195	0x3d384e5a	0.044996597
196	0x3c7b467d	0.01533663
197	0x3bb95e60	0.0056570023
198	0xbca376b1	-0.019954057
199	0xbd7c44d5	-0.06158908
200	0xbc53db03	-0.012930634
201	0xbc4b25a4	-0.012399111
202	0xbc83cad9	-0.016087936
203	0xbbde8975	-0.0067912885
204	0xbce26d8d	-0.027640129
205	0xbcac497e	-0.021031138
206	0x3caaf4e4	0.020868726
207	0xbc02a8b1	-0.0079747895
208	0x3c26db55	0.010184129
209	0xbd6187ab	-0.055061024
210	0xbab31def	-0.0013665537
211	0xbd16b11a	-0.03678999
212	0x3ca91f8b	0.020644924
213	0x3ba503e6	0.005035865
214	0x3d6fe043	0.058563482
215	0x3c9196db	0.017772129
216	0x3ba76916	0.0051089628
217	0xbbe005b3	-0.006836617
218	0x3cba2f08	0.022727504
219	0xbd1dfc76	-0.038570844
220	0x3d15d5ef	0.036580976
221	0xbc5f3f46	-0.013625925
222	0x3d6a5dc7	0.05721834
223	0x3d152aca	0.03641776
224	0xbcfeba8b	-0.03109481
225	0x3ccd3aac	0.025052391
226	0xbcecba31	-0.028897377
227	0xbc3a4f5a	-0.011371458
228	0xbcf7277e	-0.030170199
229	0xbc4f6fb9	-0.012660914
230	0x3c9b1cc8	0.018934622
231	0xbce17275	-0.027520398
232	0xbc04c289	-0.008103021
233	0xbafa03e2	-0.0019074643
234	0x3c4c7e8b	0.012481342
235	0x3d0ba9ea	0.03409759
236	0x3b045760	0.002019368
237	0xbd3e8637	-0.046514716
238	0x3cca8a16	0.024724048
239	0x3cec5dbd	0.028853292
240	0xbd153963	-0.03643168
241	0xbd2eea99	-0.0427042
242	0xbd4e58fe	-0.05037784
243	0xbd43d4ce	-0.04781037
244	0xbd13c3eb	-0.036075514
245	0x3c8fb645	0.017542968
246	0x3d2a733b	0.0416138
247	0x3ca30c4a	0.01990332
248	0x3c0dd4d6	0.008656701
249	0xbc2cc70d	-0.010545504
250	0xbc946936	-0.018116575
251	0x3d865624	0.06559399
252	0x3d074235	0.033022124
253	0x3d73277c	0.059363827
254	0xbc37d6b4	-0.011220623
255	0xbc8c9648	-0.017161503

fc4.weight f4 [3, 400]
0	0xbcee2382	-0.029069666
1	0x3a25efb8	0.00063299714
2	0x3a38a7f0	0.00070440676
3	0xbaacd41f	-0.0013185776
4	0xbcca66b4	-0.024707176
5	0xbcfbbd4b	-0.03072991
6	0xbca3b9d6	-0.019986074
7	0xbd012aee	-0.03153508
8	0xbcd5cb56	-0.026097935
9	0xbb04cd10	-0.0020263828
10	0xbd1de5cb	-0.038549226
11	0xbd1cb109	-0.03825477
12	0xbcffe705	-0.031238088
13	0xba6c7484	-0.0009020048
14	0xbcc5ecd2	-0.024160776
15	0xb9d42878	-0.00040465943
16	0xbcf718cd	-0.030163193
17	0xbcfa21e6	-0.030533742
18	0xbd6c8903	-0.057747852
19	0x3a6df3a0	0.00090771355
20	0xbcbd66a8	-0.02312024
21	0xbcb1aa08	-0.021687523
22	0xbcc11141	-0.023567798
23	0xbcc1b153	-0.023644125
24	0xbcd16438	-0.025560483
25	0xbce244e2	-0.027620737
26	0xbcf21ca3	-0.02955467
27	0xbcc56bc5	-0.02409924
28	0xba8cb32d	-0.0010734551
29	0xbce540de	-0.027985033
30	0xbcb35598	-0.0218914
31	0xbd2e5673	-0.042562913
32	0xbd2d6586	-0.04233315
33	0xbd3fc5ab	-0.04681937
34	0xbd05aa99	-0.032633398
35	0xbcaf0068	-0.021362498
36	0xbd28a4e9	-0.041172896
37	0xbcbab29b	-0.022790244
38	0xbca68703	-0.02032805
39	0xbcc7990d	-0.024364972
40	0xbcda8c36	-0.026678186
41	0xbcf1b59b	-0.029505542
42	0x3a9d1dd4	0.0011987039
43	0xbcd7ea86	-0.026356947
44	0xbcf2a001	-0.029617311
45	0xbc87dfba	-0.016586173
46	0xbc5c0398	-0.013428591
47	0xbd423eed	-0.047423292
48	0xbcbc7811	-0.02300647
49	0xbcc7bd77	-0.024382336
50	0xbcf17dd4	-0.029478945
51	0xbcc5f7ad	-0.024165953
52	0xbd000252	-0.031252213
53	0xb9b75238	-0.00034965738
54	0xbce7c575	-0.028292397
55	0xbcd6459b	-0.026156237
56	0xbd4b6436	-0.049656115
57	0xbda6b713	-0.081403874
58	0xbcf364d3	-0.029711163
59	0xbce68a7d	-0.028142208
60	0xbd065553	-0.032796215
61	0xbb27c546	-0.0025599762
62	0xbcca8779	-0.024722802
63	0xbcf77527	-0.03020723
64	0xbd3dae02	-0.046308525
65	0x39bab480	0.00035611168
66	0xbc94bdad	-0.01815685
67	0x3aa3c4f0	0.0012494605
68	0xbcc890fd	-0.024483198
69	0xbc9c3568	-0.019068435
70	0xbcc6170d	-0.024180913
71	0xbd2f9fce	-0.04287701
72	0xbbf4a98d	-0.007466501
73	0xba559688	-0.0008147736
74	0xbd008f85	-0.03138687
75	0xbd159890	-0.036522448
76	0xbd021dab	-0.031766575
77	0xbcc92763	-0.024554914
78	0xbcd82c5c	-0.02638834
79	0xba25432c	-0.000630426
80	0x3aff8684	0.0019495045
81	0xbd101a34	-0.03518124
82	0xbd0be242	-0.034151323
83	0xbd33541f	-0.043781396
84	0xbd582e81	-0.052778725
85	0xbd1c9575	-0.03822847
86	0xbceaf5ca	-0.028681654
87	0xbd12646b	-0.035740297
88	0xbd175c2a	-0.03695313
89	0xbcd381b7	-0.025818689
90	0x3ab19e5c	0.0013551223
91	0xbd0eb190	-0.034837306
92	0x3a1ae254	0.00059083593
93	0xbd10aca3	-0.03532089
94	0xbcef8d92	-0.02924231
95	0xbcd4ddac	-0.025984608
96	0xbca64379	-0.020295845
97	0xbcda868f	-0.02667549
98	0xbd2b27ea	-0.041786112
99	0xbcc7d7ca	-0.024394888
100	0xbd0839af	-0.033258136
101	0xbce31857	-0.027721567
102	0xbce3707f	-0.027763603
103	0x3a202c7c	0.00061101443
104	0xbd3e1fa3	-0.04641689
105	0xbce16c26	-0.02751739
106	0xbd1f42e2	-0.038882144
107	0xbd08a2c7	-0.03335836
108	0xbcd44391	-0.025911124
109	0xbce79f57	-0.028274221
110	0xba9f78ed	-0.0012166776
111	0xbb25b63a	-0.0025285617
112	0xbcf56e83	-0.029959923
113	0xbd25ebdd	-0.04050814
114	0xbae61cfb	-0.0017556244
115	0x35fc7459	1.8809325e-06
116	0xbccfa8c9	-0.025349038
117	0xbd06b5bb	-0.032888155
118	0xbcb3e67e	-0.021960493
119	0xbcde143a	-0.027109254
120	0xbcd97d09	-0.02654888
121	0xbd0344c4	-0.032048002
122	0xbd03aaa3	-0.032145154
123	0xbcc3c9bb	-0.023899904
124	0xbcef991a	-0.02924781
125	0xbd059e93	-0.03262193
126	0xbd17d873	-0.037071656
127	0xbce59209	-0.028023737
128	0xbcd1318b	-0.02553632
129	0xbcfcf1dd	-0.030877048
130	0xbcf2a115	-0.029617826
131	0x3a427745	0.0007418285
132	0xbcb887b1	-0.02252564
133	0xbcef64ba	-0.029222835
134	0xbcc70be0	-0.024297655
135	0xbce39cae	-0.027784672
136	0xbd835b1b	-0.06413861
137	0xba7775a8	-0.00094398344
138	0x3b135f03	0.0022487051
139	0xbceeb583	-0.029139286
140	0xbd2c2596	-0.042028032
141	0xbd148529	-0.036259804
142	0xbcc64475	-0.024202565
143	0xbcae3df7	-0.021269782
144	0xbcb1f784	-0.02172447
145	0xbcce124e	-0.025155213
146	0xbcde6123	-0.027145928
147	0xbcb3a488	-0.02192904
148	0xbcb0ef73	-0.021598553
149	0xba162b44	-0.0005728493
150	0xbc3f76ad	-0.011686009
151	0x3b1bdbdc	0.002378217
152	0xbb3b3cb6	-0.0028570122
153	0xbb2498cd	-0.002511549
154	0xbca17d18	-0.01971297
155	0xbccc65a7	-0.024950815
156	0xbd088946	-0.03333404
157	0xbd14b845	-0.036308546
158	0xbcdc158c	-0.026865743
159	0xbb2f33bc	-0.0026733717
160	0xbcbd39b3	-0.023098802
161	0xb9700670	-0.00022890582
162	0xbccce523	-0.025011605
163	0xbd0b4f93	-0.034011435
164	0xb6299000	-2.5266781e-06
165	0xbcc44b84	-0.02396179
166	0x3ab41960	0.0013740472
167	0xbc57fc33	-0.013182688
168	0x3b12e69e	0.002241529
169	0xbd140083	-0.0361333
170	0x387d1063	6.0335162e-05
171	0xbcdc029a	-0.02685671
172	0xbcdaf514	-0.02672819
173	0xbc9acdff	-0.018897055
174	0x3a682a18	0.000885637
175	0xbce8e2ad	-0.0284284
176	0xbccd161a	-0.025034953
177	0xbcc4055d	-0.023928339
178	0xbcd2b14b	-0.025719306
179	0xbd63c9fa	-0.05561254
180	0xbcfed68d	-0.031108165
181	0xba889fda	-0.0010423616
182	0x3b007175	0.0019598876
183	0xbcd6a0b0	-0.026199669
184	0xbd1dc31d	-0.038516153
185	0xbce011d8	-0.027352259
186	0xbcf2c03e	-0.029632684
187	0xbd1a18fc	-0.037621483
188	0xbce90d7a	-0.028448809
189	0xbcec194e	-0.02882066
190	0xbd0309af	-0.031991657
191	0xbcbc1b28	-0.022962168
192	0xbcb1d602	-0.021708492
193	0xbd11e004	-0.03561403
194	0xbcfb535e	-0.030679401
195	0xbcd03218	-0.025414512
196	0xbcb3b5ac	-0.021937214
197	0xbb06a0b1	-0.0020542557
198	0xbcd123e0	-0.025529802
199	0xbd21e367	-0.03952351
200	0xbd341c82	-0.0439725
201	0xbd254503	-0.040349018
202	0x3a9f3cf4	0.0012148903
203	0xbd0f4970	-0.034982145
204	0xbcdc2ff7	-0.02687834
205	0xbd02aa14	-0.03190048
206	0xbce30cf3	-0.027716136
207	0xbd1bf15e	-0.038071983
208	0xbcd093c1	-0.02546108
209	0x3ac596c6	0.0015074841
210	0xbca9550f	-0.020670442
211	0xbd008e1b	-0.031385522
212	0xbd3d7617	-0.046255197
213	0xbd2445c8	-0.04010561
214	0xbcda0af0	-0.026616544
215	0xbcfea93e	-0.03108656
216	0xbd192884	-0.037392154
217	0xbcbba14e	-0.022904065
218	0xbcc946dd	-0.024569923
219	0x3aeb10b8	0.001793406
220	0xbcc52da0	-0.024069607
221	0xbd7262bb	-0.059176188
222	0xbc2e5ba4	-0.010641966
223	0xbcd0e049	-0.025497572
224	0xbcdf293f	-0.027241347
225	0xbb38819d	-0.0028153427
226	0x3aa172b0	0.0012317505
227	0xbcd19471	-0.025583478
228	0x3ab24a9d	0.0013602559
229	0xbca1af4e	-0.019736912
230	0xbcd58cac	-0.026068054
231	0x3b231d6e	0.0024889368
232	0xbd83eebb	-0.064420186
233	0xbd44a1bf	-0.048005816
234	0xbccc1778	-0.024913535
235	0xbcebfbd2	-0.0288066
236	0x385b3a40	5.226792e-05
237	0xbcfdd211	-0.030983957
238	0xbda06ae0	-0.07832885
239	0xbcae8d82	-0.02130771
240	0xbcb35997	-0.021893306
241	0xbd543ceb	-0.05181591
242	0xbce0d148	-0.027443543
243	0xbcdd9d5d	-0.027052576
244	0xbc24bcd0	-0.010054782
245	0xbcc073e1	-0.023492755
246	0xbcf7e6e2	-0.03026146
247	0xbcd600f5	-0.026123503
248	0xbccc0b84	-0.024907835
249	0xbcc4a677	-0.024005158
250	0xbd039792	-0.03212697
251	0xbcf10b07	-0.029424204
252	0xbcbe6f81	-0.023246529
253	0xbcf0f1a6	-0.029412102
254	0xbd04d2aa	-0.032427467
255	0xbaf727dc	-0.0018856484

fc4.bias f4 [3]
0	0xbba2fc0b	-0.0049738935
1	0x3c8eedca	0.017447371
2	0xbd22e6d6	-0.039770924
