checkpoint_actor.pth (torch, 864681 bytes, 8 tensors)

fc1.weight f4 [400, 9]
000000 71 21 e6 bc a5 07 1f bc f7 d8 0f bd 0d c3 75 bd
       -0.028092118 -0.009706412 -0.035119023 -0.060000468
000010 2f 32 73 3c 8f 7f 94 bd 9b 2f 77 3d c5 0a 92 3b
       0.014843508 -0.07250892 0.060348134 0.0044568502
000020 57 95 ca 3c 8a 42 3e bd 79 59 80 3b 3c 19 ac 3d
       0.024729414 -0.046450175 0.003916916 0.084032506
000030 61 65 01 3b 13 a1 83 bd 2d 13 a7 bd 95 b7 23 3d
       0.0019744264 -0.06427207 -0.08157954 0.03997
000040 bb 69 99 3d 67 a4 bc 3c 79 e4 ea bc 91 4a 65 3a
       0.074908696 0.023027612 -0.028673397 0.0008746768
000050 cd d3 1f bc 23 5e 49 bd 97 79 60 bd 74 f0 75 bd
       -0.009755087 -0.04916204 -0.054803457 -0.060043767
000060 e8 ee a1 3b 79 a4 c3 bc 7b f4 24 3b e2 98 e4 3c
       0.00494181 -0.023882138 0.0025170136 0.027904931
000070 3a 60 c0 bc 9a e8 2a bd 5d d4 04 3d d7 5c ed bc
       -0.023483384 -0.041725732 0.032429088 -0.028974934
000080 43 a1 ff bc 00 28 08 bb 3a 4c 17 bd 3a 07 fa bc
       -0.031204825 -0.0020775795 -0.03693793 -0.030521024
000090 e8 d8 32 bd d9 a2 18 3d 33 36 e4 bc 06 d1 a3 3c
       -0.04366389 0.03726468 -0.027857875 0.019997131
0000a0 50 4f 1a bb 95 9c 06 bd d3 60 39 bd d6 ac 8c bc
       -0.002354581 -0.032864172 -0.045258354 -0.017172258
0000b0 10 78 e9 3b 01 c9 2f 3d a3 df 73 3d 21 ba 36 bc
       0.0071249083 0.0429163 0.05953945 -0.011152775
0000c0 37 ff 8d bb d3 53 e0 bc f8 47 6d 3d 98 68 c1 3d
       -0.0043334025 -0.02738372 0.057929963 0.09443778
0000d0 3d bb 43 bc 0e c5 65 3c 00 2c 6a bb 9f 33 34 3d
       -0.011946497 0.014024032 -0.0035731792 0.043994542
0000e0 38 0b 7c bc ab d1 3b 3d a3 53 02 3d 54 02 57 3c
       -0.015383534 0.04585425 0.031818043 0.013123114
0000f0 2c 5c 07 3c c7 5d b6 bc 4d 5f 03 3d 1e 08 03 bd
       0.008261722 -0.022261513 0.032073308 -0.031990163
000100 10 a5 8e 3b c1 81 d0 3d 11 4b 4d 3d 44 ff c8 3d
       0.004353173 0.101809986 0.050120417 0.09814313
000110 d2 85 88 3d da 73 a5 bd 27 ff 20 3d db 26 b0 bd
       0.06666149 -0.080787376 0.039305832 -0.08601161
000120 80 8f d2 3d c8 a9 9c 3d dd 2a f9 3d a9 2a cf 3b
       0.10281277 0.07649571 0.12166379 0.006322224
000130 e8 b5 02 3d 86 f9 ac 3c 86 18 97 3c 71 d0 36 3c
       0.03191176 0.021115076 0.01844431 0.011158095
000140 1b 71 44 bd 83 57 83 bd d9 88 01 be a4 d9 f4 3d
       -0.04795943 -0.06413176 -0.1264986 0.11955574
000150 c8 4f 16 bd 28 f1 41 bd b6 dc 91 bc 71 47 c0 bd
       -0.03669718 -0.047349125 -0.017805438 -0.09388626
000160 36 53 54 bd 08 4f ef 3c b0 bf e2 bc a6 4e bc bd
       -0.05183717 0.02921249 -0.027679294 -0.091946885
000170 d4 43 c2 3d 01 b4 ad bd 81 82 83 bd 06 99 d6 3b
       0.094855934 -0.08481599 -0.06421376 0.0065490035
000180 02 43 42 3d 4a 7f d0 bc 81 a0 68 3d 02 d1 11 bd
       0.047427185 -0.025451321 0.056793693 -0.035599716
000190 42 57 b9 bd ab b5 53 3d ef e7 03 bd b3 3f 1b bc
       -0.09049846 0.051686924 -0.03220361 -0.009475636
0001a0 f9 e1 07 bd 58 b6 90 3d 6f ef 41 bd e6 79 37 3d
       -0.03317449 0.07066029 -0.047347482 0.044793986
0001b0 fd 53 0d bd 2e 37 77 3d 96 63 5e 3d 25 b7 64 3d
       -0.034503926 0.060355358 0.05429419 0.055838723
0001c0 82 9e be 3d bc f2 2c 3d 35 42 9a bd 84 42 d3 bc
       0.09307577 0.042223677 -0.07532159 -0.025788553
0001d0 15 5d 63 bd 29 68 7a bc 3d 8d 34 3b 93 1c 1d 3d
       -0.05550869 -0.015283623 0.0027550005 0.03835733
0001e0 b1 d6 47 bd f8 5d 46 3d 42 db c2 bd f5 ba 75 3d
       -0.04878873 0.04842946 -0.09514476 0.05999275
0001f0 03 d4 88 3d 16 58 cb 3c 2a 20 1e be df 7c c9 3d
       0.06681063 0.024822276 -0.15441957 0.098382704
000200 02 f9 01 3e 97 1b 97 3d 2a e7 16 3c 6c 14 c3 3c
       0.12692645 0.07378309 0.009210387 0.023813449
000210 20 c7 ab 3c 5a 46 69 3b 4b a8 b6 bd 48 41 e2 3c
       0.020968974 0.0035594911 -0.08918818 0.02761902
000220 64 ee 57 bd 45 91 85 3c 91 b9 06 3d 98 8f 9d bd
       -0.05271758 0.016304621 0.032891814 -0.07693404
000230 ef de d4 3c 97 0e 3a 3d 37 de 60 3c c8 ca 19 bd
       0.02598521 0.04542407 0.013724855 -0.037546903
000240 4e 11 65 3d cd 5c 58 bd 23 bf 7a 3d 04 32 5d 3b
       0.055924706 -0.052822877 0.06121744 0.0033751735
000250 c9 10 86 bd b7 91 e1 bd 9e 77 d0 ba 1e c4 c0 3c
       -0.0654617 -0.11014121 -0.0015904789 0.023531016
000260 47 8f 97 3c 53 56 be bc 4b ec 61 bd 38 c6 03 3e
       0.018500937 -0.023234522 -0.055156987 0.12868583
000270 ed 73 aa bc 93 90 66 3d 01 35 ab 3c 4c 05 8a bd
       -0.02080723 0.05629022 0.020899298 -0.067392915
000280 a2 63 14 bd ea 48 f5 ba 46 36 ed 3c 83 11 cf bc
       -0.03622783 -0.0018713747 0.028956544 -0.025276905
000290 58 bd dd 3b 08 a6 17 bc d2 d2 8c 3c 80 74 34 3b
       0.0067669563 -0.0092558935 0.01719037 0.002753526
0002a0 fa f4 b1 bc e3 f3 35 bd 8a cb cc 3c c5 dc 88 3d
       -0.02172326 -0.04442204 0.024999399 0.066827334
0002b0 0c b5 2e bd 59 54 c7 bc fe e5 71 bd 1b a6 1a bd
       -0.04265313 -0.024332212 -0.05905723 -0.037756067
0002c0 24 d1 50 bd 78 15 00 bc 96 fd 13 3d f5 db 7f 3d
       -0.050980702 -0.007817619 0.03613051 0.062465627
0002d0 8a 67 a6 3c 5d 48 af bc b9 14 2d 3d b8 4b 10 3c
       0.020313043 -0.02139681 0.04225609 0.008807115
0002e0 9e c1 94 3c ca fa d7 bc e2 d6 b7 3c 60 d8 96 3a
       0.01815873 -0.026364703 0.022441331 0.0011508577
0002f0 4f 9a 42 bd 22 ad 99 3d 38 1a 94 bc b5 af b4 bd
       -0.04751044 0.075037256 -0.018078908 -0.08822576
000300 10 ca 8f 3c 58 1f 85 3d a4 1c a8 3d ee 80 92 3d
       0.017552406 0.06500119 0.08208588 0.07153498
000310 b8 4d 0e 3d ae a0 b1 bc a3 7f 1c bd 98 c6 44 bd
       0.034742087 -0.021683063 -0.03820766 -0.048040956
000320 1d 8c 48 bd 89 46 0f 3d c7 04 fd bc 2c b1 7f 3c
       -0.048961747 0.034979377 -0.030886067 0.015606206
000330 b0 7d a4 bb 00 a6 b2 3b 5d 10 e5 bc 36 11 d7 bd
       -0.005019866 0.0054519176 -0.027961904 -0.105013296
000340 17 f0 9d 3d 7c d0 2e 3e 49 e8 9c 3d ed e3 3c bb
       0.07711809 0.17071718 0.076614924 -0.0028822378
000350 4f c1 7d 3d 82 60 24 3c 04 96 05 bd 58 24 1f bc
       0.06195193 0.010032775 -0.03261377 -0.009713255
000360 b0 a3 a6 3b a8 35 e0 bb 83 cf d8 bc 64 14 62 3c
       0.005085431 -0.006842334 -0.026466137 0.013798807
000370 ed dc b1 bc e6 85 05 bd c0 4b 07 3c 4c d5 57 3c
       -0.021711791 -0.0325984 0.008257806 0.0131734125
000380 30 ae f1 bb 49 25 76 bc 2b f1 55 3d 81 14 d0 3c
       -0.007375501 -0.015023538 0.05223195 0.025400402
000390 26 b6 d4 bd 51 af 2c 3d e2 ba f5 3d c7 b2 4e 3d
       -0.103863046 0.042159382 0.11998536 0.050463464
0003a0 24 cb 86 bc ce 4e 0d 3d 5c 45 80 bc 01 02 2e 3d
       -0.016454287 0.034498982 -0.015658073 0.04248238
0003b0 92 0e b5 3c 4c d0 40 3c 80 bc 76 bc 57 98 39 bd
       0.022101674 0.011768412 -0.01505959 -0.0453113
0003c0 24 ed 00 bd ad 05 32 3d 8a b8 c5 bc 46 eb 80 bc
       -0.031476155 0.043462444 -0.024135847 -0.015737187
0003d0 00 b0 f1 bc 69 a0 42 3d b1 f6 0c 3d 41 9f 11 3d
       -0.029502869 0.04751626 0.03441495 0.035552267
0003e0 2f f1 30 3d d4 e8 0f bc 79 84 32 3d f0 41 8f 3b
       0.04319876 -0.008783538 0.043583367 0.004371874
0003f0 a4 bc 53 3c 6b 2f 59 bd 0e 2f 86 3d a1 ac a9 bb
       0.012923393 -0.053023737 0.06551944 -0.0051780497

fc1.bias f4 [400]
000000 9f 89 43 3e b1 a8 d0 bd 09 ac 32 3e 53 62 66 be
       0.19095467 -0.10188425 0.17448439 -0.22498445
000010 6e b0 99 be ba ab d5 3d 3b 32 a3 be 07 2a 3d 3e
       -0.30017418 0.10433145 -0.3187426 0.18473063
000020 d2 6f 01 3c b3 26 0a 3d 2a 6a 33 be 84 a2 04 3d
       0.007900195 0.033728313 -0.17520967 0.03238155
000030 5e f1 15 be b3 93 7a 3e 10 c1 2c bd 15 78 41 3d
       -0.14642856 0.24470405 -0.042176306 0.04723366
000040 86 29 63 3d e9 41 c8 bd 1a 51 88 be 8f 92 21 bd
       0.05545952 -0.09778196 -0.26624376 -0.03944641
000050 96 99 82 be 2e c7 e0 3c f3 5b 6d be 47 02 d2 bd
       -0.25507802 0.027438726 -0.23179607 -0.102543406
000060 ac 70 8a be ae d6 13 3e 5b 08 8f be 3b 97 3f be
       -0.27039087 0.14437363 -0.27936062 -0.18710034
000070 9d 4d ed bb 68 2d dc 3d 70 90 9b 3e a9 0c 77 bd
       -0.0072419182 0.10750848 0.30383635 -0.060314808
000080 13 eb 99 3e 52 c1 df bd 0d 30 05 3e c5 b1 82 3d
       0.3006216 -0.10925545 0.13006611 0.06381563
000090 d6 34 95 3e 71 21 52 3d b0 08 b8 bd cf 4b 9d 3e
       0.29141873 0.051301423 -0.08986032 0.307219
0000a0 8e b8 96 3e 10 79 9c be 7c 0b 93 3e bc 09 93 bd
       0.2943768 -0.30561113 0.287197 -0.07179591
0000b0 8d b3 af 3e 77 f2 b4 3e 7b 08 a0 be 86 75 8d 3e
       0.34316674 0.35341236 -0.3125647 0.27628726
0000c0 54 8a ed bb 6a c5 39 3e fc a5 fc bb 61 3a 06 be
       -0.007249156 0.18141714 -0.0077102166 -0.13108207
0000d0 f3 df 8c be e5 ae 02 3e 39 49 11 3e 9c 24 e6 3d
       -0.2751461 0.1276203 0.14188088 0.112374514
0000e0 43 4b 6c be 9a 38 a6 be 06 54 5f be 3e 56 84 be
       -0.23075585 -0.3246506 -0.21809396 -0.25847048
0000f0 56 0b a6 3d 4a 34 84 be de 66 5f be b7 25 a4 be
       0.08107631 -0.25821143 -0.21816584 -0.32060024
000100 9f 9a 81 3e 9c 1e 82 be d6 65 b7 bd 56 aa 82 bc
       0.2531328 -0.25413978 -0.089549705 -0.015950363
000110 32 6e 86 3e 1a 57 69 3e be f9 57 be fc c9 01 bd
       0.26255947 0.22787133 -0.21091363 -0.031686768
000120 96 1a b7 3e aa 7d b3 bd 51 1a 87 bd dd 87 98 bd
       0.3576247 -0.08764203 -0.06596816 -0.07447789
000130 8e 82 4a 3e 8b 7f 5d 3d cb ad 8b 3d 10 b3 20 be
       0.19776365 0.054076713 0.06820258 -0.15693307
000140 ca ea a8 3e 68 69 00 3e b6 e1 97 bd f7 81 c9 3d
       0.3299163 0.1254021 -0.07416098 0.09839242
000150 b1 eb 74 3e f2 b1 16 bd 43 ed 8f be b4 8e 89 be
       0.23918034 -0.036790796 -0.28110704 -0.26866686
000160 d3 8d 9a 3e f4 05 16 be 00 56 8f be 28 d1 a0 be
       0.30186328 -0.14650708 -0.279953 -0.31409574
000170 c3 ad 70 3e c2 08 e9 bd 18 5d 0d 3a 24 d1 76 3e
       0.23503785 -0.113786235 0.0005392595 0.24103218
000180 10 a6 4c 3e 48 ab 4f be bc ab f7 bc 54 9a 81 be
       0.19985223 -0.20280182 -0.030233257 -0.25313056
000190 7e 21 80 3e d6 9d 24 3e 68 b4 88 be 02 03 64 3e
       0.25025553 0.16075835 -0.2670014 0.22266772
0001a0 3a de 2a b9 53 4e 17 be 3a d8 88 be 9c 09 81 3e
       -0.00016295249 -0.14775972 -0.26727468 0.25202644
0001b0 f3 05 86 be 15 ce a9 3e 38 f0 cb 3d a3 6d 65 be
       -0.26176414 0.3316504 0.099579275 -0.22405104
0001c0 60 d4 50 be cb e2 56 be 1a 4d a9 3d 55 a0 b8 3d
       -0.20393515 -0.20984952 0.08266659 0.09014956
0001d0 64 88 b5 bd 53 ab a8 ba 19 8d 98 3d cc 9d 3c 3e
       -0.08863905 -0.0012868441 0.07448787 0.1841957
0001e0 ca 5a 8e 3e 6c 65 9c 3e 52 8d b1 bc 7f 47 a7 3e
       0.27803642 0.3054613 -0.021673832 0.32671735
0001f0 6f 45 2f 3e 90 2a 96 3e d7 01 d4 bd 02 44 b6 bd
       0.1711633 0.29329348 -0.103519134 -0.0889969
000200 0e b0 8f bb fe c1 90 be 67 9a c4 bd 88 66 30 be
       -0.004385001 -0.28273004 -0.095997624 -0.17226613
000210 06 a2 27 3c d5 11 ac 3e c3 91 98 be 6f ce 0b be
       0.0102315005 0.33607355 -0.29798707 -0.13652967
000220 1a be 97 be 6d 1b a2 3e 9c 79 9d 3b 59 05 38 3e
       -0.29637223 0.3166155 0.0048057567 0.1797079
000230 cf 53 6d 3e 0a 0a 5c bd e4 b9 41 3e 56 c5 5e be
       0.23176502 -0.05372051 0.18918568 -0.21754965
000240 1b 5d 7f be 33 82 02 3d d3 ae af 3e 35 e6 83 3e
       -0.2493786 0.03186245 0.34313068 0.25761572
000250 d2 d8 ed 3c 32 f5 5c 3d 91 d1 84 3e 53 91 9a 3d
       0.029034052 0.053944774 0.25941136 0.0754725
000260 79 e5 6a 3e 9b d8 1d be ee 6e 1e 3e 58 0f 2a 3e
       0.229391 -0.1541466 0.15472004 0.16607416
000270 31 78 9e 3e 35 88 a9 3e fc fa 88 3e c6 f2 a4 3e
       0.30951074 0.3311173 0.26753986 0.3221647
000280 76 ce 11 be 6d 1a af bd e9 1d 96 3e e0 c5 94 3d
       -0.14238915 -0.08549962 0.29319695 0.07264304
000290 a3 52 6a 3e 35 4f c8 bd 4d 49 83 3e 2b 75 99 3e
       0.22883086 -0.097807325 0.25641862 0.29972205
0002a0 d2 15 29 bd 7a cb 99 be 51 f2 81 3b 1c d1 90 3e
       -0.041280575 -0.30038053 0.003965654 0.28284538
0002b0 c8 eb 73 be 77 6e e2 bd c2 4f 3e 3e c8 ab 83 3e
       -0.23820412 -0.11056226 0.18585113 0.25716996
0002c0 63 4d 2a be 7d eb 48 3e b3 01 87 3d c8 85 ab 3e
       -0.16631083 0.19621082 0.06592121 0.33500504
0002d0 17 a3 9b 3e ec ab 14 3e b3 21 16 be 2b 99 0a 3e
       0.30397865 0.14518708 -0.14661293 0.13534991
0002e0 99 fc 4d 3e fd 09 d8 3d d3 bf 2f 3e 3a bc 1b bd
       0.2011589 0.1054878 0.17163019 -0.038021304
0002f0 9f 03 9b be 2e 16 3e be 1e 06 74 be d0 c0 56 3e
       -0.302762 -0.18563148 -0.23830459 0.2097199
000300 7c 62 a1 be 1f 38 25 be 56 e4 29 be 40 8f 8a 3d
       -0.3152045 -0.1613469 -0.1659101 0.06765604
000310 e5 d0 c1 3d 96 dc 8d be 62 82 8d bb 8f 08 a8 3e
       0.094636716 -0.27707356 -0.0043185214 0.3281903
000320 05 29 43 bd 43 04 cf 3d 92 83 8c be 5f f3 18 3d
       -0.04764654 0.10108235 -0.2744413 0.03734147
000330 e3 8e 1a bc 16 36 4f 3e e9 77 10 3d b8 2d 3e be
       -0.009433481 0.20235476 0.035270605 -0.18572128
000340 20 e9 39 be b5 6b 49 bd 0d f4 05 3e 83 0f 5c be
       -0.18155336 -0.049174983 0.13081379 -0.21490292
000350 07 24 62 3e a9 55 c7 bd 32 7f 81 3e db a9 28 3d
       0.22084056 -0.09733135 0.25292355 0.04117761
000360 36 e6 2a bc 91 56 eb bd 13 e8 48 be 07 a7 87 be
       -0.010430863 -0.114911206 -0.1961978 -0.2649462
000370 37 cf 8e 3e 38 fd 94 be 7b 43 8d 3e 56 fc 44 be
       0.27892467 -0.2909944 0.27590546 -0.19236884
000380 c3 72 1a be db d5 8b 3e 66 6f 95 be 52 17 cc 3c
       -0.1508284 0.27311596 -0.29186553 0.024913464
000390 80 f0 9d 3e e7 a5 a3 be fe c6 6a be 50 fc 18 be
       0.3084755 -0.3196251 -0.22927472 -0.1494
0003a0 09 ed 11 be d7 1e ad bd 62 80 9e be ad 5e 09 bb
       -0.14250578 -0.08453148 -0.30957323 -0.0020960972
0003b0 60 e7 c0 bd f9 bb 85 3e cd 13 6e 3e 76 e1 2d 3e
       -0.09419131 0.26119974 0.23249741 0.16980538
0003c0 1b 40 94 be f4 5d 83 be 78 be 7f 3e dc 2d a6 3e
       -0.2895516 -0.25657618 0.24975002 0.32456863
0003d0 ee fd 12 3e 10 4c 33 be 75 8c 89 3e b1 ad 40 be
       0.14354679 -0.17509484 0.26864973 -0.18816258
0003e0 73 8a a0 be 26 8b 44 3e a8 a1 6d be 96 60 85 be
       -0.31355628 0.19193706 -0.23206198 -0.26050252
0003f0 eb cd a3 be 81 b3 a4 bd f0 a2 43 3e 2f 00 08 bd
       -0.3199304 -0.0804205 0.19105124 -0.0332033

fc2.weight f4 [300, 400]
000000 ec f4 5c 3d 99 bd 14 3d c3 90 4e 3d c0 a5 14 bd
       0.053944513 0.036313627 0.050431024 -0.036290884
000010 cb a8 46 bd 1e e2 1f 3c 5c a8 2a bd c1 11 6b bd
       -0.048500817 0.0097585 -0.041664466 -0.05738998
000020 6c 56 66 3c 2f 4d 9d 3d ef 32 d1 3c 32 6a 11 bd
       0.0140586905 0.07680737 0.025536982 -0.035501666
000030 77 d7 88 3c 83 c6 ca bc 4f d8 59 bd 7d 62 69 3d
       0.016704304 -0.02475286 -0.053184804 0.05697869
000040 cf a3 8b 3d 54 3e ad 3d 50 66 47 3d 37 bb da 3c
       0.068183534 0.08459154 0.048681557 0.0267006
000050 20 8b 42 bc 94 bf 0a 3d ec 5d df 3c ed 9a 8b 3a
       -0.01187399 0.03387411 0.027266465 0.001065103
000060 b0 d7 07 bc 9d 8b 06 bc 00 98 35 3c 9c 3f 33 3d
       -0.00829117 -0.008211997 0.011083603 0.043761835
000070 21 90 0d bd 87 06 62 bd ec 0d 97 3b 8c 26 82 3d
       -0.03456128 -0.055182006 0.004609814 0.063550085
000080 10 e3 aa bb cf f6 95 bd 2d 29 f0 3c 4f 09 19 3d
       -0.0052150562 -0.07322466 0.02931651 0.037362393
000090 18 43 a0 3c 30 07 93 3d a1 66 a3 3d bc f3 3d 3d
       0.019563243 0.07179105 0.07978559 0.04637502
0000a0 48 83 26 bd 80 e7 bb 3c 0e 5d e7 3c e1 10 60 3d
       -0.040652543 0.022937536 0.028242614 0.054703597
0000b0 fb 80 12 bd 9d 79 22 bd ae 55 29 3d 08 0e 91 bc
       -0.035767537 -0.03966676 0.041341476 -0.017706886
0000c0 b3 ab 23 bd d8 71 27 bd 06 58 eb 3d c1 67 67 bd
       -0.039958667 -0.040880054 0.114913985 -0.05649543
0000d0 ce 8a 49 bd ed 3c 86 3c 3b 2b 36 bd 3c 51 66 3d
       -0.04920464 0.016386474 -0.04447482 0.056229815
0000e0 3e a7 45 3d cc b3 d8 bc 0d bf 66 bd c0 19 4c 3d
       0.048255198 -0.026452921 -0.056334544 0.049829245
0000f0 dd ad c3 bc 03 13 fe bc f8 23 1b 3d 60 34 00 3c
       -0.023886615 -0.031014925 0.0378761 0.007824987
000100 24 12 bb bc 40 26 6c bb 1e f0 f5 bc 03 85 e1 bb
       -0.022835799 -0.003603354 -0.030021723 -0.0068823113
000110 c3 7e e6 3c e5 9f d6 3c 00 51 cf 3b dd b0 0c 3d
       0.028136617 0.02619929 0.0063267946 0.034348357
000120 b8 9b c5 bc 54 30 3b 3d 7c fb 5c 3d 9c bf 17 bd
       -0.024122104 0.045700386 0.05395077 -0.037047967
000130 fd 76 0f 3d 00 a4 82 3d 72 11 c9 3c 27 ca ee 3d
       0.035025585 0.06378937 0.024544451 0.11659651
000140 07 1c 08 3d de e6 91 bb cc 5a 60 be f2 32 63 bc
       0.033229854 -0.0044525703 -0.21909636 -0.013867127
000150 16 42 a0 3c a5 7f 0d 3d e2 1f 5d 3d e5 38 f1 bc
       0.019562762 0.03454556 0.053985484 -0.029446075
000160 4d 3b 3c 3c 90 95 d3 bb 52 80 11 3d 2e a0 25 3d
       0.011488748 -0.006457038 0.035522766 0.040435962
000170 38 98 1d 3d 02 9c 1a 3d 2a 21 5b 3d a1 bc 43 3d
       0.038475245 0.037746437 0.053498425 0.047787312
000180 d2 49 23 3d a0 41 13 3d 92 fd 25 3d c3 f6 15 bd
       0.039865322 0.035951257 0.040525027 -0.036612283
000190 ab 01 71 3d 4b 5a 4e 3d 84 7e 83 3c 43 82 9b 3c
       0.05883948 0.05037908 0.016051538 0.018983012
0001a0 45 9a 81 3d 08 08 0b bc 74 d6 06 3d 47 5d 08 3d
       0.06328253 -0.0084858015 0.032919362 0.03329208
0001b0 30 50 8c 3b 96 90 3d bd 6f 8b 7c 3b 68 42 06 bd
       0.00428202 -0.046280466 0.0038535257 -0.032778174
0001c0 80 bb 48 ba 2c b1 0c 3d 47 f1 8d 3b ff 6f 3a ba
       -0.0007657334 0.03434865 0.004331741 -0.00071120256
0001d0 5e b7 01 3e 86 89 71 bb 87 82 bb 3d f7 79 15 3c
       0.12667605 -0.0036855652 0.091557555 0.009123317
0001e0 0d 5b c0 3c 7c 9b 36 3d 24 c7 e1 3d bf b3 ad 3c
       0.023480916 0.044581875 0.11024311 0.021203874
0001f0 b5 9f 89 3d e0 56 80 3c 04 7a 0c 3e 37 3a 3d 3e
       0.06719915 0.015666425 0.1371842 0.18479238
000200 33 64 66 3d a4 a8 39 bd 5a 85 a0 bd 08 3b 20 bd
       0.0562479 -0.045326844 -0.07837935 -0.039118797
000210 f0 60 3c 3c 74 da 48 3b 8e e5 d7 bc 8a 30 08 be
       0.011497721 0.0030647786 -0.026354577 -0.13299766
000220 3c d3 b9 bc 80 37 4b 3d a2 6c dc 3d 92 de f6 3b
       -0.022683732 0.049613476 0.107629076 0.0075338567
000230 0e 99 92 3c 1b f1 c1 bd 0c ae 08 bd e5 5d 32 bd
       0.017895248 -0.09469815 -0.03336911 -0.043546576
000240 38 14 0b 3d 78 7e 65 b9 da 86 d0 3c 7d 91 9c 3c
       0.03395483 -0.00021886255 0.025454927 0.019112343
000250 e5 76 a7 3c 52 87 9e bc dd 0e 31 bd 64 96 9e 3d
       0.020442436 -0.019351635 -0.043227065 0.077435285
000260 8b 49 00 bd 83 56 df 3d f1 85 d5 3c 2a af 15 3d
       -0.031320136 0.10905173 0.026064845 0.036544003
000270 a2 24 08 3c e7 4f 1e 3c e0 8d 09 3d 32 e3 53 bc
       0.008309515 0.009662605 0.03358257 -0.012932586
000280 24 d3 ae bd dd f7 97 bd 97 c9 39 3d e7 80 88 3d
       -0.08536366 -0.07420323 0.045358267 0.06665211
000290 61 12 ae 3c 7c 06 68 bd 3e 8c f8 3c ef f3 6f 3d
       0.021248998 -0.05664681 0.03034031 0.058582243
0002a0 2e 85 ab bd 0a 1e 42 bd f6 8e 14 be b9 f5 7c 3d
       -0.083750114 -0.04739193 -0.1450766 0.061757777
0002b0 2e 05 3d 3d b0 17 73 3c 28 bd 0b 3a 9c ea 3a 3d
       0.046147518 0.0148371905 0.00053306157 0.045633897
0002c0 1e 7c 0c bd 60 2d 80 bd 14 9b a9 3d f2 c5 db 3b
       -0.034298055 -0.062586546 0.08281532 0.0067069465
0002d0 8e f8 82 bb d1 7b 0a bd d2 51 ea bd f3 05 18 bd
       -0.003996915 -0.033809487 -0.11441387 -0.03711505
0002e0 cb 9a 27 bd 52 3e 81 bc a2 4a 4d bb ea f3 92 bb
       -0.040919106 -0.015776787 -0.0031325002 -0.004484643
0002f0 b2 d0 12 3d 1e b1 5f 3d d0 c0 64 3c e0 ee d9 3c
       0.03584356 0.05461227 0.013961986 0.026603162
000300 98 e3 6a 3c 09 db c7 3d 5a 5f e9 bc 3c 14 4a 3d
       0.014336489 0.097585745 -0.02848785 0.049335703
000310 c1 42 c4 3c e8 d3 7a 3c 58 c5 df 3c 8b 0b 4d bc
       0.023957612 0.015309311 0.02731578 -0.012514959
000320 bc 64 c5 3d 0c ac ca 3d 16 2e 46 3d d6 f8 05 3e
       0.09638354 0.098960966 0.048383795 0.13083205
000330 85 d0 d9 bc 10 e7 01 bb 8d fa 93 3d 0e 6e ff bc
       -0.026588688 -0.0019821562 0.07225523 -0.031180408
000340 25 f4 ba 3d 1a 90 65 3d 35 39 52 3d 84 59 eb 3c
       0.09128598 0.05604563 0.051324088 0.028729208
000350 44 81 e6 bc 7a 42 cd 3d 78 05 c4 bc 6c 43 f4 3c
       -0.02813781 0.10022445 -0.023928389 0.029817306
000360 07 6c 01 3e 9a 82 32 3e 4c bb 26 3d da 0e 5d 3d
       0.12638865 0.17432633 0.040705964 0.05396924
000370 bf ab 09 3d 9c 42 8a 3c 5b 08 43 3d 71 0a 73 3d
       0.033611055 0.016877465 0.04761539 0.05933613
000380 38 5a de bb cd a9 01 bd 78 a7 57 bc 94 be 3e 3d
       -0.0067856573 -0.031656075 -0.013162486 0.04656847
000390 b1 cd 5c 3d 78 f5 52 3d 60 69 bd ba 78 b0 26 bd
       0.0539071 0.05150363 -0.001445096 -0.040695637
0003a0 cc 46 83 3d 58 6d f4 3d c3 ac 0d bd ef 68 d3 bd
       0.06409988 0.11934918 -0.034588587 -0.10322749
0003b0 9c 93 fe 3d 90 43 ef bb 23 f4 06 bd 03 20 6c 3d
       0.12430498 -0.0073017552 -0.03294767 0.057647716
0003c0 fc f7 2e bc b8 33 b5 bb 0b f3 36 3d da 45 d2 bc
       -0.010679241 -0.005529847 0.044665378 -0.025668073
0003d0 5d 65 05 bd d8 aa 5e 3c 9f 57 ee bc a9 cb cf 3b
       -0.03256737 0.013590537 -0.029094515 0.006341417
0003e0 8c b2 be bc e4 32 07 3d da 35 2d bd 58 6b 98 3b
       -0.023278497 0.033007517 -0.042287685 0.0046514682
0003f0 bc 46 dd bc 96 93 5f bd fd 24 b1 3c dd af d2 3a
       -0.027011268 -0.05458411 0.021624083 0.001607414

fc2.bias f4 [300]
000000 51 94 00 bc 2f a5 2d 3d 8c 9a 40 3d 6b 96 b6 3c
       -0.007847861 0.04239386 0.047022387 0.022288522
000010 3f 16 97 bb 80 f5 54 3d a6 53 31 3d 00 5c b2 38
       -0.0046108062 0.05199194 0.043292664 8.504838e-05
000020 21 dc be 3c fa 36 1f bb 53 6e 4d 3d 62 59 da 3c
       0.023298325 -0.0024294243 0.05015404 0.02665395
000030 6c 9c 69 bc c3 50 a6 bb 88 17 51 bc 1a 9d dd 3c
       -0.014258485 -0.0050755455 -0.012761958 0.02705245
000040 27 c4 79 bb 46 46 9e bc 9f 82 5b 3d 08 a8 31 3d
       -0.00381113 -0.019320618 0.053591367 0.043373138
000050 36 8b 1e bc 27 88 14 bd 55 84 39 3d 68 58 34 bc
       -0.009676745 -0.036262657 0.045292217 -0.011007406
000060 ae e5 c9 3c 79 03 a2 bb 41 45 64 3d e9 1a da 3c
       0.024645653 -0.0049442616 0.05573011 0.02662416
000070 da a2 bf bc 2a a1 24 3d 1b 53 1e 3d df f0 3d 3d
       -0.023393083 0.04019276 0.038653474 0.04637229
000080 b7 19 d1 bc ae f1 af ba d9 be 5b 3c d7 00 68 bc
       -0.025524957 -0.0013423467 0.013412201 -0.0141603565
000090 07 2b 8c 3d a5 1d 88 3d 32 02 44 3d a4 f0 68 3d
       0.06844144 0.06646279 0.047853656 0.056870118
0000a0 48 8c a0 3c 46 4c 80 3c 46 10 02 3d f3 b7 00 bd
       0.019598141 0.01566137 0.0317538 -0.031425428
0000b0 d8 2c 9a bb c9 43 55 3d dd 17 29 3d 8c 11 08 bd
       -0.004705053 0.052066598 0.041282523 -0.03321986
0000c0 39 63 1a bd 49 7e ad 3b e0 a2 e7 3c f2 27 dd 3c
       -0.037692282 0.0052945954 0.028275907 0.026996586
0000d0 a8 2c d2 bb 17 d5 19 3d ef b1 e8 3c 00 16 80 3a
       -0.006414015 0.037556734 0.028405158 0.0009772182
0000e0 99 cb 5f bc e3 9f 4c 3d ae 32 81 3c 86 11 25 bc
       -0.013659381 0.049957167 0.015771236 -0.010074979
0000f0 6e 39 26 3d 79 3a 3f 3c 79 2f 6f 3d 5d 73 3b bd
       0.040582113 0.011671656 0.058394883 -0.045764316
000100 c6 6d 69 3d 5b 7b 7f bd 60 71 ae bb fe 07 67 bc
       0.056989454 -0.0623735 -0.005323574 -0.014101027
000110 b6 88 60 3d 58 49 52 3c ab b6 0b 3c 9d cb 53 3d
       0.054817878 0.012834869 0.008527438 0.051707853
000120 ee 32 13 bd 28 dc 69 b9 4e ab b4 bb 75 bf 9c 3c
       -0.035937242 -0.00022302626 -0.005513585 0.019134263
000130 b1 c0 b4 3c 20 b8 52 3d da 7e 60 3d 60 fe 5c bc
       0.022064539 0.051445127 0.054808475 -0.013488382
000140 84 d1 29 3d 4f 81 94 ba 5d a0 f3 bc 71 7b 3d bd
       0.041459575 -0.0011330041 -0.029739553 -0.0462603
000150 a8 0f f1 3b f3 4b df bc ad 79 be bc 0b d5 87 3d
       0.0073566027 -0.027257895 -0.023251379 0.066324316
000160 70 d9 57 3d be a0 ce 3c 69 e5 38 3d be 4f 39 bd
       0.0526976 0.025223132 0.045140658 -0.045242064
000170 3e b6 ed bc 45 0e 3b bd b9 f5 c9 ba 8e 13 0a 3d
       -0.029017564 -0.045667905 -0.0015408314 0.033710055
000180 32 70 49 3d ba a9 48 3d 99 ff 14 3d f8 3a 3f bd
       0.049179263 0.04898999 0.03637657 -0.046687096
000190 c2 bc 1d bc 82 0c 09 3d e9 7c 91 3c f8 16 09 3d
       -0.009627523 0.033459194 0.017759757 0.03346917
0001a0 0a 66 13 3c 5c f9 f0 bc c3 86 e2 3c 04 15 10 bd
       0.008996496 -0.029415779 0.02765215 -0.035176292
0001b0 20 93 8f bc 80 b6 c4 bc 13 94 c1 bb 17 17 fa 3c
       -0.01752621 -0.024012804 -0.0059075444 0.030528588
0001c0 09 83 57 bb 2c 0a 69 3d d3 04 34 bd 87 48 04 3d
       -0.00328845 0.056894466 -0.043949913 0.03229573
0001d0 c0 21 c2 bc 09 86 86 3d 9a a2 09 3d c9 bb b0 bc
       -0.023697734 0.06568534 0.033602335 -0.021573918
0001e0 99 86 97 bc 2e 95 87 3d da b4 c2 3c b0 5f 49 3d
       -0.018496798 0.06620251 0.023767877 0.04916352
0001f0 0f f3 8b 3b 44 b8 c0 3b e8 6c 21 3d 58 cd f3 bb
       0.004270918 0.005881341 0.0394105 -0.0074402504
000200 27 78 74 3d 7d 21 e8 bb cd 73 c5 3c 85 1d 8c 3c
       0.0596849 -0.0070840702 0.02410307 0.01710392
000210 f8 a0 0e bc 44 40 ef bb f3 bf 79 3c 9f e8 59 3c
       -0.00870537 -0.007301362 0.015243518 0.01330009
000220 90 cb 1f bb 1b 03 47 3d 28 2e 56 3d 55 e7 4b 3d
       -0.0024382807 0.048586946 0.05229011 0.049781162
000230 10 a4 2f 3d 2a 51 06 3d 28 41 da 3b 05 4a f4 bb
       0.04288107 0.032792248 0.0066605993 -0.007455113
000240 ca b6 b0 bc 3c 23 99 3d 77 ed 18 3c c1 48 0f bd
       -0.021571536 0.074774235 0.00933396 -0.034981493
000250 da 9e e2 bb 33 4c 6a 3d 9f 64 02 3d 3d 93 8f 3d
       -0.0069159092 0.057201575 0.03183424 0.07010505
000260 97 56 c8 bb ad ae 53 bc 5f fb 54 3d 7c c9 22 3d
       -0.006113838 -0.012920064 0.05199754 0.03974293
000270 f1 ba 88 3c 23 a5 a1 3d 64 af 5c 3d 86 c6 e4 3c
       0.016690703 0.078928255 0.053878203 0.027926695
000280 e4 fa 9b 3d db 66 b2 3c f7 09 fd bc 80 b3 72 bc
       0.07616213 0.021777561 -0.03088854 -0.014813304
000290 39 e3 2d bd f2 7b 01 3d 67 7d a2 3c 04 8c 51 3c
       -0.042453025 0.031612344 0.019835187 0.01278973
0002a0 0c b7 6a 3d f5 00 a4 bc d3 e1 4b 3d 96 1d 9c 3c
       0.057303473 -0.020019988 0.04977591 0.019057076
0002b0 f9 35 17 bd bf a5 34 3d 3e 84 59 bc 8a 96 1e bd
       -0.036916707 0.04410338 -0.013276158 -0.038717784
0002c0 6b 47 43 bd 8d 7f 87 3d fa 40 11 bd 5d 25 a1 bb
       -0.04767553 0.06616125 -0.035462357 -0.004917784
0002d0 fa b7 57 bd a4 84 55 3d d3 e6 cc bc 88 13 77 3d
       -0.052665688 0.05212845 -0.02501241 0.06032136
0002e0 a5 5e 71 3d 65 d3 01 3b a0 39 60 3d e6 f8 98 3c
       0.05892815 0.001980984 0.054742455 0.018673372
0002f0 ac 0c cb bc 0a 03 d5 3c 3e 0a 25 3d 5a e6 1e 3b
       -0.024786316 0.026002426 0.04029297 0.0024246187
000300 e9 0e 73 3d fa 8a 45 3d b8 2a 52 bc 5e 49 43 3d
       0.05934039 0.04822824 -0.012827568 0.04767739
000310 58 11 15 3a 12 a0 d8 3b b9 45 1f 3d b1 3a 07 3c
       0.00056864833 0.0066108787 0.038884852 0.008253739
000320 8e 44 4d 3d 3c 4f 2d 3d e5 bd e8 bc 33 3d 3b bc
       0.050114207 0.042311892 -0.028410861 -0.011428165
000330 81 90 6e 3d 0c a3 03 3d f3 08 bd 3c 42 52 5d bb
       0.05824328 0.032137915 0.023075556 -0.0033770953
000340 dd 09 3f 3c 8c 7b d3 bc d5 50 9c 3b 7f d4 04 3a
       0.011660066 -0.025815748 0.004770378 0.0005067065
000350 60 ef 80 ba 2f fa d8 bb 50 0f da bc 43 49 61 3b
       -0.0009836964 -0.006621621 -0.02661863 0.0034375943
000360 52 d8 b0 bc 62 4c 29 bd ac 7b 80 bc a2 d5 2a bc
       -0.021587525 -0.04133261 -0.015683971 -0.010426911
000370 9b 98 aa bc 03 73 99 3c 93 2d bf bc 9f 0c fe bb
       -0.020824721 0.0187316 -0.023337161 -0.0077529694
000380 75 bd 9b bc 9b bb 85 bc 59 00 2a b9 7a dd 45 bd
       -0.019011239 -0.016324809 -0.00016212593 -0.04830692
000390 ed 8a d7 3a 66 ea bd bc 64 60 34 3d 97 26 d0 3c
       0.0016444601 -0.023183059 0.044037238 0.025409026
0003a0 95 a2 94 3b e4 e1 84 3c 76 f7 a2 3c 83 01 10 3d
       0.004535983 0.016220994 0.01989339 0.03515769
0003b0 c7 46 9c 3c 91 51 29 3d cc ff 03 bd ab 1c 06 3d
       0.019076718 0.041337553 -0.03222637 0.032742184
0003c0 9c ab 0f 3a 11 d6 4f bd e2 bd 14 bd 06 da a0 3a
       0.0005480589 -0.05074126 -0.0363139 0.0012272007
0003d0 38 66 de 3c 5a 84 fe bc 01 82 78 3c e1 ae b4 bc
       0.027148351 -0.03106897 0.015167714 -0.022056045
0003e0 10 75 03 3d 86 3f d7 3b e1 9f 94 3c 37 58 22 3d
       0.03209406 0.006568852 0.018142642 0.03963491
0003f0 60 23 dd 3c db 4e 96 3d d7 bd 98 bb 58 de 2b 3c
       0.026994407 0.07339259 -0.0046613025 0.010490023

fc3.weight f4 [300, 300]
000000 93 6f bc 3a f4 0a e0 3d 79 db 59 3d 90 4d dc 3c
       0.0014376513 0.10939589 0.05318782 0.026892453
000010 ba 02 db 3c 18 7b 9d bd ba b1 3d bd db 8a 69 bd
       0.026734699 -0.07689494 -0.04631207 -0.05701719
000020 15 0e 13 3d a4 6c ff 3c a9 58 a1 bd ac c8 2a bd
       0.0359021 0.031179734 -0.07878239 -0.041695282
000030 7e fa c0 3d 45 f9 5e 3d e1 0f 24 bd 53 0a f4 3c
       0.094227776 0.05443694 -0.040054206 0.02979008
000040 c8 46 24 bd 47 49 b6 3d 93 c0 9a 3d d1 7e b3 3c
       -0.040106565 0.08900695 0.07556262 0.021911057
000050 3e 03 64 bd cc 90 a2 3d ea 38 19 3d 54 7f db 3c
       -0.055667154 0.07937774 0.037407793 0.026794113
000060 e2 e7 e6 3c 2c 45 2a 3d 81 e5 3a bd da b6 8f bc
       0.028186742 0.041569874 -0.04562903 -0.017543245
000070 90 00 2a 3b 41 f9 03 bd 70 5f 9f bc 00 de 3d 3c
       0.0025940277 -0.03222013 -0.019454688 0.011588573
000080 58 8c 42 3d a5 b5 5b 3d d0 62 a5 3d fc 05 b4 bc
       0.047497123 0.053640027 0.080754876 -0.02197551
000090 b3 1a 36 3d 2c 79 98 3d 78 38 40 3d 82 85 06 3d
       0.044459056 0.07444987 0.046928853 0.032842167
0000a0 31 06 ba bd 2f 5b 64 bd c0 5b 23 3d 65 5c 87 3c
       -0.09083212 -0.055751022 0.03988242 0.01652355
0000b0 30 87 ad 3b 7e bf 10 3d 84 87 db 3c 2f 16 2e 3c
       0.0052956566 0.03533887 0.026798017 0.010625406
0000c0 8c 1a e3 3d 69 d7 9b 3c b4 10 80 3b 4a 29 79 3d
       0.11089048 0.019023614 0.003908241 0.060830392
0000d0 72 ef 67 3d 3a 9c 4b bd 88 02 b6 3d 0e 8c 5b 3d
       0.056624837 -0.049709536 0.088872015 0.053600363
0000e0 84 d5 7c bd 1b 20 8f bd 55 73 63 3c 4e 14 41 3c
       -0.061727062 -0.069885455 0.013882478 0.011784626
0000f0 15 ec 76 3d 22 c5 56 3d 71 71 96 bd 78 02 30 3d
       0.06028374 0.052434094 -0.07345856 0.042971104
000100 4f 33 48 bd fd 0e 69 bc 6b 05 a3 3d 73 da 3c bd
       -0.048877057 -0.014224765 0.07960018 -0.046106767
000110 98 8f 11 bd d2 da 98 3d ca 14 f9 bc 1b 89 1f 3d
       -0.035537332 0.07463612 -0.03040542 0.038949113
000120 e0 de 19 bb f8 6f 85 3d 25 5d 40 3c 21 65 41 bd
       -0.002347879 0.06515497 0.011740957 -0.047215585
000130 13 81 31 bd 40 b9 30 3c 08 ed 95 bd c0 d7 59 bd
       -0.043335985 0.010786355 -0.07320601 -0.05318427
000140 b5 e5 22 3d cc 6b 53 bd 1c 5e 08 3c af 8a ca 3d
       0.039769847 -0.051616475 0.008323219 0.09889733
000150 d5 c0 89 3d e0 33 a9 3a e5 09 c4 bc 1f 63 07 3c
       0.06726233 0.0012909137 -0.0239305 0.008263378
000160 3e d1 14 bc a5 94 e4 3c d9 4a d6 bb cb ca 05 3d
       -0.00908309 0.02790291 -0.0065396843 0.0326641
000170 f2 d1 8d bd 46 1c ad 3d 4c 49 43 bd 15 f3 e0 3b
       -0.069248095 0.08452658 -0.047677323 0.006864915
000180 11 d9 85 3d 94 e0 48 bb a1 f8 ee 3c 8b 69 01 3e
       0.06535543 -0.0030651437 0.02917129 0.12637918
000190 ff 0a c6 3d 25 b8 32 3d a8 8d 13 bd 1b 3d b2 bc
       0.09670066 0.043632645 -0.036023766 -0.021757653
0001a0 33 42 94 bc 27 2f a5 3d d5 2a 4e bd ee ad 80 3b
       -0.018097972 0.08065634 -0.050333817 0.003926984
0001b0 80 40 aa 3c 34 96 96 3c f3 69 7a b9 a4 60 12 3e
       0.02078271 0.01838217 -0.00023881327 0.14294678
0001c0 88 96 a7 bb 94 d4 9a bd 18 2e 18 bc d9 53 07 be
       -0.0051143803 -0.07560077 -0.009288333 -0.13215579
0001d0 29 11 d9 bc 80 89 a6 3d 4c 06 76 3c fd b7 1f bc
       -0.02649744 0.08131695 0.01501615 -0.009748456
0001e0 a6 2e 11 be af 53 22 3d c2 06 ae 3d 55 d7 09 be
       -0.14177951 0.03963059 0.08497383 -0.13461049
0001f0 4e 6d eb 3b 58 98 64 3d c5 bd d8 3c 90 f2 b9 3c
       0.007184661 0.05580935 0.026457677 0.02269867
000200 5e 1e 89 3d c7 10 8e 3d 44 03 d1 3c 22 e5 44 bc
       0.06695245 0.06936794 0.025514252 -0.01201752
000210 11 4c 5e 3d ef 40 9e bd cf 36 63 bd 3d 19 5b 3a
       0.05427176 -0.07727229 -0.05547219 0.0008357948
000220 69 c3 17 bd 2e d1 d2 bd a7 40 1a 3d c1 f4 cb bb
       -0.037051592 -0.10293804 0.037659314 -0.0062242453
000230 f0 0a 7a bb 04 5b 5a bd dc 7e 6b bc f7 3c c3 3c
       -0.0038153492 -0.053309456 -0.014373507 0.023832781
000240 de 2d 23 bd 75 05 14 bd cd 6d 10 ba 95 af f3 bb
       -0.039838664 -0.036138017 -0.00055095257 -0.0074367025
000250 a7 dc df bc 1d 56 05 bd 18 a6 bd bc 81 5f 75 3d
       -0.027326895 -0.032552827 -0.023150489 0.059905533
000260 2a f3 9b bd de 41 6d 3d 4c c0 5b 3d 66 8b 91 bd
       -0.07614739 0.057924144 0.053650185 -0.07106666
000270 43 e8 43 3c 62 03 4b bb 0f 7f f8 3b c7 29 ca 3c
       0.011957231 -0.0030977358 0.007583506 0.024678124
000280 d8 8c a1 3b ec 61 0f 3c af 22 1a 3b 90 a4 9f 3b
       0.00493012 0.008751374 0.0023519208 0.0048719123
000290 a5 0d 05 3e 5d 58 85 bc f7 77 94 3d 32 03 15 3d
       0.12993486 -0.016277486 0.07249444 0.03638
0002a0 20 a9 90 bc 48 5e b2 3c c8 a2 80 bc 06 c4 c8 3c
       -0.01765877 0.021773472 -0.01570262 0.024507534
0002b0 b2 40 39 3d 81 46 9b 3b af b2 29 bd 02 26 ab 3d
       0.045227714 0.0047386293 -0.04143017 0.08356859
0002c0 68 b5 d1 bc b0 9d 6a bd 59 5b 5a bd ef fe df 3c
       -0.025599197 -0.05727929 -0.053309772 0.027343241
0002d0 df e9 6c 3d a0 68 32 bc f6 e4 3a 3d 2a 54 1d bd
       0.057840224 -0.010889202 0.04562851 -0.038410343
0002e0 d7 ec 4f 3d 46 a5 77 3c 73 35 a5 bd 78 e8 b4 bb
       0.050762977 0.015115088 -0.08066835 -0.0055208765
0002f0 9d 66 13 3d 9c d2 95 3c 5f 65 e6 bc 77 8a 1c 3b
       0.03598653 0.018288903 -0.02812451 0.0023886242
000300 62 07 0f 3d 61 a1 43 bc 30 1e 8f 3b 25 43 b5 3c
       0.03491915 -0.011940331 0.0043676123 0.022126744
000310 4f 08 a4 3a 58 c1 3b 3c 3d 04 65 3d 7d 9f 1a bd
       0.0012514683 0.011459671 0.055912245 -0.037749756
000320 14 d3 78 3d da 22 66 3d 34 07 10 3d fc 0e 71 3c
       0.060748175 0.05618558 0.03516312 0.014713045
000330 42 ba f4 38 aa f3 03 3d fb 1b 68 bc f2 2c ce bc
       0.0001166952 0.032214798 -0.014166827 -0.025167916
000340 aa 17 1e 3d e6 29 29 3d b9 3d 0b 3a 7b 3d b1 3c
       0.038596787 0.041299723 0.00053116266 0.021635761
000350 fe 0a 6a bd 4f f3 18 3d 95 2c e9 bc 91 97 09 bc
       -0.05713939 0.037341412 -0.028463641 -0.008397953
000360 47 f6 36 3c f4 b5 1e 3c 40 3c 2d 3c 52 e6 80 3c
       0.0111671155 0.009686936 0.010573447 0.015734825
000370 21 f5 ae bc 03 d3 c1 3d d0 8f 47 bd 17 86 9e bb
       -0.021357121 0.094640754 -0.048721135 -0.004837762
000380 31 09 d5 bc 63 07 3b 3b db 6f 26 3d 1b 5c 2d bd
       -0.02600536 0.0028538338 0.040634017 -0.042324167
000390 f7 9b 80 3d bf e1 28 bd 33 c3 6e 3d 6f e1 a9 b9
       0.06279748 -0.041230913 0.058291625 -0.00032402153
0003a0 4b 1d 07 3d 92 49 17 3b e5 30 e1 bd 60 0f b3 3c
       0.03298692 0.0023084623 -0.10995654 0.021857917
0003b0 62 83 02 3c a5 20 69 bc 1a 8c c1 bc f0 4c c3 3c
       0.007965894 -0.0142289745 -0.023626376 0.023840398
0003c0 5f 51 b9 bd d0 c7 75 bc 0e 19 b0 3c 6e 01 08 3d
       -0.090487234 -0.015001252 0.021496322 0.03320449
0003d0 b9 d0 29 3d 01 aa 67 bd f2 c7 1f bd 7b 42 60 bd
       0.04145882 -0.056558613 -0.039009042 -0.0547509
0003e0 e6 d0 b2 3d 38 db e1 3c f8 fc 1c 3b 3c ce 57 3d
       0.087312505 0.027570352 0.0023954492 0.052686915
0003f0 22 1a 34 bd 64 73 94 3d 40 5c df 3c 28 c7 c8 3c
       -0.043970235 0.072485715 0.027265668 0.024509028

fc3.bias f4 [300]
000000 0a 4d a1 3a 0e c0 ff 3c 10 80 98 bc 87 ff b4 bc
       0.0012306285 0.031219508 -0.018615752 -0.022094501
000010 55 2d 0c 3d 22 ec b7 3c aa b1 4b bd 4a 35 48 3c
       0.03422292 0.022451464 -0.04972998 0.012219736
000020 36 a9 bd bb 25 ad d9 3b 7f a5 99 bc 11 e1 49 3d
       -0.005787994 0.006642955 -0.018755672 0.049286906
000030 24 6a 0d 3d cd e8 b0 bc 8f 66 1b 3d 5b 32 2b 3d
       0.03452505 -0.021595383 0.037939604 0.04179607
000040 f6 9f df 3c b7 d2 74 3d 48 0b 5a 3d 61 86 81 3c
       0.027297955 0.059771266 0.053233415 0.015811147
000050 14 2e c8 3c 09 57 3c 3d 9e 4a 80 3c ee 1b d5 b6
       0.024436034 0.04598144 0.01566058 -6.351146e-06
000060 01 bb 74 3d 5b 8d 0b 3d 5f 51 50 3b e8 46 58 bc
       0.059748653 0.034070354 0.0031786782 -0.013200499
000070 6e 09 e1 3c ea ec 82 bc 5a 87 25 3d d4 b6 43 bc
       0.027470317 -0.01598211 0.040412284 -0.011945445
000080 ee ce 11 bc 64 8f b6 bc 87 db 47 3d fc 8c de bc
       -0.008899434 -0.02228517 0.048793342 -0.027166836
000090 4b ee 63 3d 35 1c 30 3c 62 f3 08 bd da 0f 81 bc
       0.055647176 0.010748913 -0.033435233 -0.015754629
0000a0 6e 36 15 bd 7c d2 20 3c fc eb 23 bd 0e de 50 3d
       -0.03642886 0.009815808 -0.040019974 0.050993018
0000b0 2b 8f f7 bc 29 58 af bc c9 2b 49 3a 40 1e dd 3c
       -0.030219635 -0.021404343 0.0007674066 0.026991963
0000c0 d7 b8 8d 3c f2 6b e9 3c 6e 14 68 3b a5 b4 e4 bc
       0.017300053 0.028493855 0.0035412568 -0.02791817
0000d0 ee 6c 18 bd 8c 72 88 3c a5 70 2f bc a7 71 35 3d
       -0.03721326 0.016656183 -0.010708009 0.04429784
0000e0 b1 08 22 3d ff c4 cb 3c 7f 80 f2 3b 44 89 5d bc
       0.03955907 0.024874208 0.007400572 -0.013521496
0000f0 3c 01 3f bd cc 14 60 bc c6 49 61 3d f0 aa b7 bc
       -0.046632037 -0.013676833 0.055001996 -0.022420377
000100 cf 6b 4b bd f7 12 93 bc 45 38 c8 3c 2d 62 53 bc
       -0.04966336 -0.01795338 0.024440894 -0.012901825
000110 0d 4c 8b 3c a0 a5 12 bd c7 05 3d 3d bb 05 6e 3c
       0.017004037 -0.035802484 0.046148088 0.014527733
000120 3c f9 82 3c 5e a1 65 3d 87 65 08 3d a5 19 25 bd
       0.015987985 0.056062095 0.03329995 -0.04030766
000130 75 d7 93 3c ae a9 94 bb f0 0e 9f bb 55 71 a7 3c
       0.018047074 -0.004536829 -0.0048540756 0.020439783
000140 b0 14 f4 3c a8 5b b6 bc 9d c3 04 bc 5c 2f dc 3c
       0.02979502 -0.022260502 -0.008103278 0.026878051
000150 f9 b9 0e bd 80 a4 f5 3b e5 a0 0d 3d 5d 7a a3 3c
       -0.034845326 0.0074964166 0.03457727 0.019955808
000160 b0 f0 72 bd 84 7d 47 3d bb 49 49 3d 88 52 d2 ba
       -0.05931157 0.048703685 0.04914258 -0.0016046325
000170 45 e3 60 3c 82 05 8d 3c 96 62 81 3d 25 7f 77 3d
       0.01372606 0.01721454 0.06317632 0.06042399
000180 7b fa f4 bc d8 13 90 bc 4e b9 37 bd 07 87 68 3a
       -0.029904595 -0.017587587 -0.044854455 0.00088702183
000190 a4 c4 15 bc 17 50 fc 3c db 76 07 3d 3c f7 b9 3c
       -0.009141121 0.030799909 0.033072334 0.022700898
0001a0 24 ba b9 bc 92 e3 8e bc 5c 5f 1f 3c 7d 60 e0 bc
       -0.022671767 -0.017442498 0.009727325 -0.02738976
0001b0 54 20 32 3d 9f 20 a5 3c 3f a8 2e 3d 08 5a 50 3d
       0.04348786 0.020157157 0.04264092 0.05086711
0001c0 d9 ae d1 3a eb 19 11 bd eb 5e af 3c 3e c3 6d 3d
       0.0015997543 -0.035425108 0.021407565 0.058047526
0001d0 80 23 3e bb cd 14 ba 3b 8f 14 37 bd 9a f2 cc bc
       -0.002901286 0.005678749 -0.04469734 -0.025018025
0001e0 74 40 20 3d bd 6a 28 3d 04 8b 6c 3d cd a4 da 3c
       0.039123967 0.04111742 0.057749763 0.026689911
0001f0 ca de 02 3d 00 4d 19 3c 7b 8c 3d 3d b1 0e de 3c
       0.03195075 0.009356737 0.04627655 0.027106615
000200 fa 4a 2f bd 0b 91 c3 3c 8c ee 18 3d 93 c7 ee bc
       -0.042796113 0.023872873 0.03733687 -0.029147899
000210 e8 7e 70 3d 9c 4d 81 bc 49 ea 3b 3d a6 9e 42 3d
       0.058714777 -0.015784077 0.04587773 0.04751458
000220 3f 6f 3e 3c 33 dd a3 bc 13 60 41 3c d8 46 ac bc
       0.011623203 -0.020002937 0.011802691 -0.021029875
000230 c7 cb 35 bd e3 59 c3 bc d3 3a 14 bb 18 c8 18 bd
       -0.04438379 -0.023846572 -0.002261807 -0.0373002
000240 7a c8 bf bc ed eb f6 bc b4 ab 6b 3c dd f0 d2 3b
       -0.023411024 -0.030141795 0.014384199 0.0064374045
000250 a3 af d0 bc 1d 32 12 3d 0b 31 3b bd 77 5e b9 3c
       -0.025474375 0.035692323 -0.045701068 0.022628052
000260 65 a9 6c bc e4 58 94 bc 85 61 fc bc 64 a3 02 bc
       -0.014444684 -0.018108793 -0.03080822 -0.007973526
000270 f9 42 2a bd 5d 8d f9 3a c1 45 40 3d 03 1b 85 ba
       -0.041567776 0.0019039322 0.046941523 -0.0010155145
000280 78 55 2b bd ca 9e 13 bd 05 ea 8a 3b d3 8d bd 3c
       -0.041829556 -0.036040105 0.004239323 0.023138916
000290 c6 12 78 3c 71 d8 37 3c 89 a2 9f 3c 22 3b 3d 3d
       0.015141195 0.011221037 0.019486682 0.04619897
0002a0 a8 42 ef bc 71 6c 0b 3d 9b 7b d3 b8 40 e2 48 bc
       -0.029206589 0.034038965 -0.00010084287 -0.012260973
0002b0 7e dd ed 3c 8e 0f 56 3d 30 86 87 bc 2c 5a 9e 3c
       0.02903628 0.052260928 -0.016543478 0.019330107
0002c0 43 72 52 3d 62 2b f8 3c 42 5b 64 3d 34 4e 19 3d
       0.0513785 0.030294124 0.055751093 0.037428096
0002d0 82 b9 e9 3a a2 6c e8 bc 56 8a 1f 3b 99 c7 38 bd
       0.0017831775 -0.028372113 0.002434393 -0.045112226
0002e0 0c b1 2b bc d6 ba 3f bc 23 ac 7f 3d fd 50 09 bd
       -0.010479223 -0.01170226 0.06242002 -0.033524502
0002f0 fc fd cc 3c 97 8e ba bc 36 4f 59 bd 3b 99 22 3d
       0.025023453 -0.02277307 -0.053054057 0.039696913
000300 68 10 07 bd eb 34 3c 3d 53 28 6e b8 e0 97 6d 3d
       -0.03297463 0.045948904 -5.6781177e-05 0.058006167
000310 51 1a be 3c 2b 65 1f 3d 26 ee 11 3b 9d 73 ce bb
       0.023205908 0.03891484 0.0022267192 -0.0063004033
000320 ae 0c d3 3b 01 9a 19 3d 3c a6 75 ba cb 9f c9 bc
       0.0064407205 0.037500385 -0.0009370779 -0.024612328
000330 a0 7e fc 3c fe 46 83 3d 97 d2 f1 3c 63 36 21 bd
       0.030822098 0.06410025 0.029519362 -0.039358508
000340 2b 93 97 bc 52 15 00 3d 50 42 18 bc 10 ff c2 3c
       -0.018502792 0.031270333 -0.009293154 0.023803264
000350 d3 b7 15 3d f8 40 0b bd 5f 82 d7 bb e7 b8 94 bc
       0.03655226 -0.033997506 -0.0065768207 -0.018154575
000360 ad 36 32 3d 61 90 7d 3d fe ef c2 bb ec e5 08 bd
       0.043509174 0.06190527 -0.0059490195 -0.033422396
000370 bd 0d ec 3c 7b 06 52 3d 37 f6 23 bd 41 47 fb 3b
       0.028815145 0.05127571 -0.04002973 0.0076684062
000380 6f a3 40 3d 58 0b 15 3d c5 a6 ca bc af 3e 13 bd
       0.047030862 0.03638777 -0.024737725 -0.03594845
000390 d7 93 23 bd 3c d8 75 3d 6b c5 1a bc f0 f7 c1 3c
       -0.039935913 0.06002067 -0.009446482 0.023677796
0003a0 b7 d4 15 3d c0 a3 a2 3c 75 4c 29 3c 8f 5b 6b 3c
       0.036579814 0.019853473 0.01033317 0.014365091
0003b0 4e 4e 1a bd 5b e6 08 3b e4 19 d7 3c a8 11 0d 3d
       -0.037672333 0.0020889256 0.026257463 0.034440666
0003c0 13 92 de 3c 82 da 7b 3c e0 3e fc 3c 0a 15 3e 3d
       0.027169263 0.015371921 0.0307917 0.046406783
0003d0 37 65 e2 bc c8 4a ae bc eb 81 8f bb 47 94 0f 3d
       -0.027636154 -0.021275893 -0.004379501 0.035053518
0003e0 0a 7d 32 bd f0 9c f7 bc 1f 77 16 bd 55 12 7a 3d
       -0.043576278 -0.0302262 -0.036734696 0.06105264
0003f0 88 ca 22 3c bc 4f b4 bd 72 80 24 3c 89 75 85 3d
       0.0099359825 -0.088042706 0.010040389 0.06516559

fc4.weight f4 [3, 300]
000000 2b a3 c6 bc 35 e1 a2 bc a5 30 09 3c 5c ee 8c ba
       -0.024247726 -0.019882778 0.008373414 -0.0010752189
000010 76 2b 53 3c ae 0a ec bc 1b 1c 7a be b7 2f b0 bc
       0.01288878 -0.028813686 -0.24424784 -0.021507127
000020 6b a6 bb 3d 49 64 a8 bd ab 32 de bc df e0 28 bc
       0.09162601 -0.08222253 -0.02712377 -0.01030752
000030 d6 b2 d8 bd 44 9f ad bc 42 e4 b9 3c 97 92 fb bc
       -0.10580985 -0.021194108 0.02269185 -0.030709548
000040 27 3b d1 bc 32 65 06 3c 9d da 5c bc dd d2 17 3c
       -0.025540901 0.008202838 -0.013479856 0.009266582
000050 72 ab de bc c6 27 07 bd aa ee 65 3c b7 c1 aa bb
       -0.02718136 -0.032996915 0.014033953 -0.005211081
000060 37 dc 01 bb 28 29 05 3c 94 27 ea 39 75 18 c9 bc
       -0.0019815096 0.008127488 0.00044661446 -0.024547795
000070 6e 55 22 3c 9a 8e 91 3d c3 85 fb 3c 96 49 ed ba
       0.009908063 0.07107277 0.030703431 -0.0018103595
000080 3e 7c e3 bb e2 a6 c9 ba 36 0f 09 3c 9c 9b af bc
       -0.006942301 -0.0015384818 0.008365443 -0.021436505
000090 91 17 17 bb b3 71 2e bd 6d 47 3e bc e5 25 9e 3d
       -0.0023054818 -0.0425889 -0.011613709 0.077220716
0000a0 2a db ce bc 08 d3 ac bc df 6d 9c ba c1 58 9a bd
       -0.02525099 -0.021096721 -0.00119346 -0.0753646
0000b0 12 dc 32 bd ac da f6 bc 85 2f d1 bc 8a c3 d8 ba
       -0.043666907 -0.030133568 -0.025535354 -0.0016537767
0000c0 10 ea cf 3b 16 87 de 3a 7a d2 0a 3d 7d 06 29 bb
       0.006345041 0.0016977515 0.033892132 -0.002579122
0000d0 aa 25 1b bc 48 db ea bc 17 24 b3 3d fd 05 15 ba
       -0.009469429 -0.028669015 0.08747118 -0.0005684791
0000e0 2e ac dc bb e7 36 29 bc 09 20 2a 3d cb 54 1f 3d
       -0.0067343926 -0.010328031 0.041534457 0.038899224
0000f0 58 68 0b ba e2 d3 ee bc 42 27 1a bc 94 8c 5f 38
       -0.00053179776 -0.029153768 -0.009408774 5.3298267e-05
000100 21 d5 5b bc 7d 01 ca 3c f8 70 57 bc e0 91 eb bc
       -0.013417513 0.024658913 -0.013149492 -0.028756082
000110 64 e8 de 3d f8 8f 34 3a d4 74 3c bd da ca 30 bd
       0.10884169 0.0006887908 -0.046009853 -0.043162204
000120 1f 91 19 bb 1c a9 e8 bc e1 39 03 bd 40 01 62 bc
       -0.0023432446 -0.02840095 -0.03203762 -0.013794243
000130 ae 3b 89 bc 98 e3 31 3c 86 13 d0 3c b3 d7 a6 3d
       -0.01675209 0.010857485 0.025399935 0.0814661
000140 82 79 61 3d 10 ff de bc 70 64 c5 bc ff 83 a0 3c
       0.05504752 -0.027221233 -0.024095744 0.01959419
000150 e0 f3 84 39 68 c6 3a 3b 03 9e 3e bd 90 32 8d 3d
       0.00025358703 0.0028499607 -0.04653741 0.0689441
000160 83 55 47 bd 59 6d 40 3b 2d 13 1e bd e8 21 7b ba
       -0.048665535 0.0029362051 -0.038592506 -0.00095799426
000170 e5 80 b5 3c ed 45 e4 bc 20 83 cf bd 06 8a 13 3c
       0.022156188 -0.027865374 -0.10132432 0.009005075
000180 e1 eb 3d bd cd ad 6e bb 34 61 d5 3a 16 b3 ef bc
       -0.04636753 -0.0036419511 0.0016279579 -0.0292602
000190 a4 94 13 bb 15 0d 09 3a 78 9e 3e 3c 0a b7 43 3b
       -0.0022519017 0.00052280846 0.011634462 0.0029863738
0001a0 1a 9b 43 3b 48 46 91 bb 15 d6 fb bc fe 31 db 3d
       0.0029847086 -0.004433427 -0.03074173 0.10702895
0001b0 37 35 20 3c 78 f7 21 3a 9a 07 11 3c 4e a4 d6 3c
       0.009778312 0.00061785383 0.00885191 0.026201393
0001c0 63 eb 6e bc 59 fb c1 3d 2a 65 d6 bc 1e 09 20 3b
       -0.014582488 0.09471769 -0.026171286 0.0024419497
0001d0 68 33 6d 3a 67 c8 83 3b 25 b2 2e bd f0 09 b1 bc
       0.00090484926 0.0040216926 -0.04265036 -0.021611184
0001e0 7a 5d 1a bb 25 77 ab 3c 85 b9 f2 3c 98 2d 20 3d
       -0.0023554252 0.020930836 0.029629478 0.03910598
0001f0 34 04 0e bd c3 b8 9e bd 8e 94 0c 3d 3b a1 a5 bb
       -0.034671977 -0.07750084 0.03432136 -0.0050546206
000200 d0 12 ea bc e8 52 c6 3b 84 2a e0 bb 34 82 e5 bc
       -0.028573424 0.0060523637 -0.0068410058 -0.028016187
000210 42 65 e4 3a f0 61 c2 3a ec 1d 2a 3c ab cc 9c bb
       0.0017425197 0.0014830213 0.0103831105 -0.0047851405
000220 3b 5b 83 bc 2c 3e a9 bc bf e6 11 3d c5 fd 03 bd
       -0.016034713 -0.020659529 0.035620447 -0.032224435
000230 d8 90 2a bb 8f 94 4b 3b 74 ff 0c bd f4 88 62 ba
       -0.0026026275 0.003106389 -0.034423307 -0.00086416234
000240 58 b1 19 3b 0d ba f2 bb dd e2 02 bd d9 10 9d 3b
       0.0023451652 -0.007407433 -0.031954635 0.004793268
000250 74 7c f7 bc ef ba d7 bc 06 12 ef 3b ed 95 76 3c
       -0.030210711 -0.026334254 0.0072958497 0.0150503935
000260 79 f9 e2 bc ce 18 42 3b 1c ef 92 3d e8 57 99 3a
       -0.027706848 0.0029616836 0.07174513 0.0011699172
000270 b6 6a 7b bb 12 c8 94 3d 28 c2 93 3c a5 af 30 bb
       -0.0038363165 0.07264723 0.018036917 -0.002696016
000280 ec b8 77 bb 01 fd 46 bd bd 9e 5d bd 65 2d b2 3c
       -0.003779943 -0.048581127 -0.054106463 0.021750161
000290 7b e5 00 bd 70 47 3a bb 33 73 34 be 97 b7 de bc
       -0.03146885 -0.0028423928 -0.1762207 -0.027187152
0002a0 72 e1 29 bb 7b b4 88 bc 45 71 96 bd 99 7e 4a bc
       -0.002592173 -0.016687622 -0.07345823 -0.012359285
0002b0 7b 30 10 bd d0 8a 03 bd 38 40 1c 3a 18 1f ed 39
       -0.035202485 -0.032114804 0.0005960497 0.0004522733
0002c0 30 24 fd bc 85 a4 c5 3a 3e 97 0d 3c b2 a5 ff bd
       -0.030901045 0.0015078938 0.008642016 -0.12482776
0002d0 89 72 42 3c 30 cc 76 bc bf bf 1b 3a 8c d9 22 3d
       0.011868128 -0.0150633305 0.0005941353 0.03975825
0002e0 8a ce e2 ba 87 e6 c2 3c f1 9d 9c 3b fa 63 7a bb
       -0.0017303985 0.023791565 0.0047795703 -0.0038206563
0002f0 68 50 e3 bc 8d fd d7 3b 10 f3 c6 bc 4b ed 8a 3b
       -0.027748302 0.006591505 -0.024285823 0.0042397133
000300 ca 9b cb bc ae 3e d7 b9 ce b1 05 3c dd cc 00 be
       -0.02485456 -0.00041054696 0.008160068 -0.12578149
000310 56 1c c6 bc be 0c 51 bc 64 3c 7f bb 4e 04 a0 3d
       -0.024183434 -0.012759386 -0.0038945908 0.07813321
000320 2c 0b 2c bd f6 e7 39 bc 12 e8 9f 3a d5 b3 26 bd
       -0.04200284 -0.011346808 0.00121999 -0.040698845
000330 3e fc 22 bd 72 46 89 bd 60 72 7c bd 94 60 f0 bc
       -0.03979134 -0.067028895 -0.061632514 -0.029342927
000340 03 c3 80 3c 62 fc 2d 3c 6d 94 23 be d8 ba a4 3a
       0.015717989 0.010619255 -0.15974589 0.0012567891
000350 72 cc 6b bc fb 0e dd bc d6 f1 b1 bc c6 f3 98 bc
       -0.014392005 -0.026984682 -0.021721762 -0.018670928
000360 b8 e3 97 3b 4d 00 4e bc 24 92 8d 3d 14 5f e9 bc
       0.0046353005 -0.012573314 0.0691264 -0.02848772
000370 fd 20 9f bc 20 9e 45 bc 28 4b a5 ba 93 03 02 bd
       -0.01942491 -0.012061626 -0.0012610899 -0.03174169
000380 f5 5e 60 3c 06 ad f7 bb a9 a3 07 bc 3e 44 ee bc
       0.0136945145 -0.007558468 -0.008278766 -0.029085275
000390 65 8f 3c bc e6 6d d4 bc 87 5d ac ba dc 0e bc bc
       -0.011508797 -0.02593131 -0.0013150432 -0.022956304
0003a0 c9 68 2a bd 77 72 e5 bd c5 57 bb 3b c0 8f 08 bd
       -0.041603837 -0.11203473 0.00571725 -0.033340216
0003b0 ab 45 9e bc 25 24 a9 bc a8 b3 e3 bc e8 df 38 bb
       -0.01932033 -0.020647118 -0.027795628 -0.002820963
0003c0 0d 32 08 bc 48 b6 d4 bc 20 f4 d4 bc 35 d1 8b bc
       -0.008312714 -0.025965825 -0.025995314 -0.017067531
0003d0 f4 01 14 3c ce 16 e3 bc 68 75 df bc 1a aa 72 3d
       0.009033669 -0.027720835 -0.027277663 0.059244253
0003e0 80 c5 84 bc 04 e3 60 bd 2e 2c 32 bb d4 a2 0f bd
       -0.016207457 -0.054904 -0.0027186978 -0.035067394
0003f0 54 bc b9 bb 4f 4e 1b 3d 77 4d ae 39 52 65 ec bc
       -0.0056682024 0.037916478 0.00033245582 -0.028856907

fc4.bias f4 [3]
000000 bd ac f2 bc 14 73 6a 3d cd df d0 bc
       -0.029623384 0.057238653 -0.025497342
