checkpoint_actor.pth (torch, 864681 bytes, 8 tensors)

fc1.weight f4 [400, 9]
000000 86 09 19 bd e6 f3 84 3c cf 69 01 3d c0 90 80 bd
       -0.037362598 0.016229581 0.031595048 -0.06277609
000010 cd e0 9c 3c 25 28 ec bb 1c ab 57 3d 40 67 8c 3c
       0.019150162 -0.007206934 0.052653417 0.017139077
000020 ab 3c 68 3d 16 58 fb bc d7 25 a0 3d 4b 90 a9 3d
       0.056698482 -0.030681651 0.078197174 0.08279475
000030 e6 aa 9c bd 42 2f 96 bb f4 2b d7 37 2c a0 2c 3d
       -0.07649784 -0.0045832703 2.5650465e-05 0.04214494
000040 cf 6b aa 3c 31 ef 73 3d 08 13 0d bd e0 dc 81 bd
       0.02080336 0.059554283 -0.034441978 -0.06340957
000050 e8 c1 3f bc e9 14 bc bc 33 7a 38 bd ba ff b8 bd
       -0.011703946 -0.02295919 -0.045038413 -0.09033151
000060 40 c6 5e 3d 28 ac d0 bc d7 89 c7 3a e2 98 e4 3c
       0.054388285 -0.025472715 0.0015223575 0.027904931
000070 3a 60 c0 bc 9a e8 2a bd 5d d4 04 3d d7 5c ed bc
       -0.023483384 -0.041725732 0.032429088 -0.028974934
000080 43 a1 ff bc 00 28 08 bb 3a 4c 17 bd 3a 07 fa bc
       -0.031204825 -0.0020775795 -0.03693793 -0.030521024
000090 e8 d8 32 bd d9 a2 18 3d 33 36 e4 bc 06 d1 a3 3c
       -0.04366389 0.03726468 -0.027857875 0.019997131
0000a0 50 4f 1a bb 95 9c 06 bd d3 60 39 bd d6 ac 8c bc
       -0.002354581 -0.032864172 -0.045258354 -0.017172258
0000b0 10 78 e9 3b f6 25 b6 bc 13 fb d7 3d 56 97 95 3b
       0.0071249083 -0.022234898 0.105459355 0.00456516
0000c0 94 68 47 3a 71 12 eb 3c d2 80 9a 3d a3 3d 8d 3d
       0.0007606831 0.028695317 0.07544102 0.06896522
0000d0 89 74 d4 3a 81 6e 33 3c 00 2c 6a bb 9f 33 34 3d
       0.0016209047 0.010951639 -0.0035731792 0.043994542
0000e0 38 0b 7c bc ab d1 3b 3d a3 53 02 3d 54 02 57 3c
       -0.015383534 0.04585425 0.031818043 0.013123114
0000f0 2c 5c 07 3c c7 5d b6 bc 4d 5f 03 3d 73 92 a9 3c
       0.008261722 -0.022261513 0.032073308 0.020699715
000100 ea 6c 18 bd ec 11 45 3d 3b 74 d1 ba 1f 4e 83 bd
       -0.037213244 0.048112795 -0.0015980074 -0.06411385
000110 80 f1 48 bc 2c 48 86 bc be f0 06 bd 9c 0e 47 bd
       -0.012264609 -0.016391836 -0.032944433 -0.048597917
000120 d5 6e 94 3d 08 06 2f 3d 3e ac 81 bc 5b c7 5b bd
       0.07247702 0.04273036 -0.015829202 -0.053656917
000130 34 fe 98 bc 7c f1 2c bc 9b 3a 57 3d dd 9a e3 bb
       -0.018675901 -0.010555621 0.052546125 -0.0069459514
000140 44 98 96 3b 58 72 ce bd 81 ec 94 bd 30 64 70 3d
       0.004595788 -0.10080403 -0.07271672 0.058689296
000150 57 d8 ee bb d3 c0 73 bc e0 e1 6a bd b4 2a 18 bd
       -0.0072889733 -0.014877516 -0.057344317 -0.0371501
000160 35 4f b3 bc 43 2d c6 3c ea c7 98 bd 9b 51 21 bd
       -0.021888355 0.024191504 -0.074600056 -0.039384466
000170 9f e6 4f 3d d8 ff 9d bd b1 b3 83 bc 86 00 67 3d
       0.050757047 -0.07714814 -0.016076894 0.056396984
000180 34 82 c0 3d ad 37 86 bc 22 6b a2 3d 07 c7 fd 3d
       0.09399834 -0.01638397 0.0793059 0.12391477
000190 58 ae 2a bc 4d c8 ad bd 28 d2 96 bc 3c 29 5f 3d
       -0.010417543 -0.0848547 -0.018410757 0.054482684
0001a0 7a 24 d9 bc 07 5b 64 3d 92 27 c3 bc 07 7d 25 3d
       -0.026506651 0.055750873 -0.02382258 0.04040244
0001b0 26 8e 2a 3e 4a cc ae 3d c3 60 1f 3e 44 1d 19 3d
       0.16655788 0.08535059 0.15564255 0.037381425
0001c0 09 9e 0a 3e 17 8f 90 3c 50 db 38 bd 08 82 29 bc
       0.13536848 0.017646356 -0.045131028 -0.010345943
0001d0 12 72 cb bc 89 77 b1 3d 8a 4e 6e bb 73 51 25 3d
       -0.024834666 0.08665378 -0.003636273 0.04036088
0001e0 ef 1e 0e bd 66 f4 05 3e 8e 56 2f bb 2e bf 1e 3c
       -0.03469747 0.13081512 -0.0026754471 0.0096891355
0001f0 fb 0f 1a 3c 64 b5 6b bb b3 16 4f bd 62 4e 64 3d
       0.009403224 -0.0035966272 -0.050558757 0.055738814
000200 e7 d5 af bc 62 02 31 3d e8 aa ce bb f0 67 02 3e
       -0.021464301 0.043215163 -0.0063069947 0.12734962
000210 32 60 d3 3c 45 ac 83 bd 8a 32 a2 bd 80 cc 37 3d
       0.025802705 -0.06429342 -0.07919796 0.04487276
000220 79 cb ed bc 73 41 a8 bb 29 cc 30 3d 84 ec 8c bd
       -0.029027687 -0.0051347553 0.043163452 -0.06881049
000230 f9 1a 50 3a 4b 70 25 3d 93 09 52 3d c2 6e 18 bd
       0.00079385896 0.040390294 0.051278662 -0.037215002
000240 c5 29 21 bd 35 0a 01 bd aa bc 6a 3d 15 95 0f 3d
       -0.039346475 -0.031503875 0.05730883 0.035054285
000250 9f 54 5e bd 02 f6 81 bd ae 85 5e bc aa ef 0e bd
       -0.05427992 -0.063457504 -0.013581676 -0.03489653
000260 6a 9e f9 bb 33 00 d4 3d fd 0f 6e bd 08 b9 ef 3c
       -0.0076177614 0.103516005 -0.058120716 0.029263034
000270 4f 7e d0 bc da b7 82 3d 12 0d 82 bc 58 26 0c 3d
       -0.025450854 0.06382723 -0.015875373 0.034216255
000280 56 e6 6a bc d9 29 78 3b 46 36 ed 3c 83 11 cf bc
       -0.014337143 0.003786674 0.028956544 -0.025276905
000290 58 bd dd 3b 08 a6 17 bc d2 d2 8c 3c 80 74 34 3b
       0.0067669563 -0.0092558935 0.01719037 0.002753526
0002a0 fa f4 b1 bc e3 f3 35 bd 8a cb cc 3c 2b 9c 53 bd
       -0.02172326 -0.04442204 0.024999399 -0.051662605
0002b0 93 22 a5 bd 9c ab db bd 99 de 4b bd 84 b9 f3 3d
       -0.08063235 -0.10726091 -0.049772833 0.11900619
0002c0 c6 1a dc bd 07 b4 93 bd 34 93 c6 3d 46 dc cd 3d
       -0.10747294 -0.07212072 0.096960455 0.100517794
0002d0 8a 67 a6 3c 5d 48 af bc b9 14 2d 3d b8 4b 10 3c
       0.020313043 -0.02139681 0.04225609 0.008807115
0002e0 9e c1 94 3c ca fa d7 bc e2 d6 b7 3c 60 d8 96 3a
       0.01815873 -0.026364703 0.022441331 0.0011508577
0002f0 4f 9a 42 bd 3f 9b 0f 3d 4c 8e 2a 3d 76 bc ba bd
       -0.04751044 0.035060164 0.04163961 -0.09117977
000300 9d 37 e8 3c ae 80 01 bb 43 6e 86 3d 7e dc b1 3d
       0.028346831 -0.0019760537 0.065639995 0.08684634
000310 15 c8 5f 3c 68 a9 71 bc a3 7f 1c bd 98 c6 44 bd
       0.013658543 -0.014749862 -0.03820766 -0.048040956
000320 1d 8c 48 bd 89 46 0f 3d c7 04 fd bc 2c b1 7f 3c
       -0.048961747 0.034979377 -0.030886067 0.015606206
000330 b0 7d a4 bb 00 a6 b2 3b 5d 10 e5 bc e7 40 ca bb
       -0.005019866 0.0054519176 -0.027961904 -0.0061722877
000340 3a cb b3 3d d1 f3 03 3e 2a 22 02 3d 75 1d 1f bd
       0.08778997 0.12885977 0.031770863 -0.03884645
000350 73 9f d7 3d 27 9f 72 3c f9 97 7e bc 75 01 15 3d
       0.105284594 0.014808453 -0.015539163 0.036378343
000360 b0 a3 a6 3b a8 35 e0 bb 83 cf d8 bc 64 14 62 3c
       0.005085431 -0.006842334 -0.026466137 0.013798807
000370 ed dc b1 bc e6 85 05 bd c0 4b 07 3c 4c d5 57 3c
       -0.021711791 -0.0325984 0.008257806 0.0131734125
000380 30 ae f1 bb 14 57 aa bb cc 5d 07 3d cb b3 2d bd
       -0.007375501 -0.005198369 0.033048436 -0.042407792
000390 bb 6c 56 bd 35 05 2e 3d 9d 3d 5c 3d 0e 7a 32 3d
       -0.052349787 0.042485435 0.053769697 0.04357343
0003a0 57 27 b3 3a 86 89 87 3c 5c 45 80 bc 01 02 2e 3d
       0.001366834 0.016545068 -0.015658073 0.04248238
0003b0 92 0e b5 3c 4c d0 40 3c 80 bc 76 bc 57 98 39 bd
       0.022101674 0.011768412 -0.01505959 -0.0453113
0003c0 24 ed 00 bd ad 05 32 3d 8a b8 c5 bc 46 eb 80 bc
       -0.031476155 0.043462444 -0.024135847 -0.015737187
0003d0 00 b0 f1 bc 69 a0 42 3d b1 f6 0c 3d 41 9f 11 3d
       -0.029502869 0.04751626 0.03441495 0.035552267
0003e0 2f f1 30 3d d4 e8 0f bc 79 84 32 3d f0 41 8f 3b
       0.04319876 -0.008783538 0.043583367 0.004371874
0003f0 3a 87 b4 3d 20 c5 26 bd b9 83 9a bd ad ff 43 3b
       0.08814855 -0.040715337 -0.07544655 0.0029907033

fc1.bias f4 [400]
000000 21 39 43 3e 84 fd f4 bd 94 27 34 3e 53 62 66 be
       0.19064762 -0.11962417 0.17593223 -0.22498445
000010 6e b0 99 be 7e 02 f1 3d 3b 32 a3 be a3 d6 1c 3e
       -0.30017418 0.117680535 -0.3187426 0.15316252
000020 9a b1 a1 3d 08 f6 84 3d cd 37 a8 bd a3 54 75 bc
       0.07895203 0.06492239 -0.08213768 -0.014973792
000030 6f 80 b5 bd 95 02 82 3e b8 d2 94 bd 75 f9 fb 3c
       -0.088623874 0.25392595 -0.07266754 0.030758599
000040 96 c2 3f 3d 4b 01 27 be 1a 51 88 be 83 1a 63 3c
       0.04681643 -0.16309087 -0.26624376 0.013861301
000050 96 99 82 be b8 00 4e 3d f3 5b 6d be cf 71 71 bc
       -0.25507802 0.050293654 -0.23179607 -0.014736607
000060 ac 70 8a be 05 21 3c 3e 5b 08 8f be 3b 97 3f be
       -0.27039087 0.18371971 -0.27936062 -0.18710034
000070 01 98 5e bd c4 35 19 3d 74 f9 9d 3e 1c 42 eb bd
       -0.05434418 0.03740479 0.3085438 -0.11487219
000080 32 78 96 3e f0 2f c2 bd 22 8e 01 3e 15 4e 77 3d
       0.29388577 -0.094817996 0.12651876 0.0603772
000090 df d7 95 3e 44 d0 13 3c 7d 08 ad bd 8f 54 99 3e
       0.2926626 0.009021822 -0.08448885 0.29947326
0000a0 b6 96 9e 3e 10 79 9c be 0c 3e a5 3e 8a 08 b2 bd
       0.30974358 -0.30561113 0.322739 -0.08693035
0000b0 d8 50 b6 3e 10 a9 ae 3e 7b 08 a0 be e9 dd 94 3e
       0.35608554 0.3411336 -0.3125647 0.29075554
0000c0 50 41 40 bd 62 e8 43 3e 07 36 4e bd 17 a9 0f be
       -0.046937287 0.19131616 -0.050344493 -0.14029346
0000d0 f3 df 8c be 2f fe 04 3e 66 97 08 3e 93 91 10 3e
       -0.2751461 0.12987588 0.13339004 0.14118032
0000e0 43 4b 6c be 9a 38 a6 be 06 54 5f be 3e 56 84 be
       -0.23075585 -0.3246506 -0.21809396 -0.25847048
0000f0 6c 0a 4f 3d 4a 34 84 be de 66 5f be b7 25 a4 be
       0.05054705 -0.25821143 -0.21816584 -0.32060024
000100 14 08 7e 3e 9c 1e 82 be d9 7f 84 bd d7 9a af 3c
       0.24807769 -0.25413978 -0.064696975 0.021436138
000110 27 90 81 3e 63 c1 6a 3e 75 c5 58 be 77 26 33 bd
       0.25305292 0.22925334 -0.21169074 -0.043737855
000120 f6 44 b3 3e fd 2e 5d bd 3b ff a0 bc 84 87 c5 bd
       0.3501355 -0.05399989 -0.019652953 -0.09644988
000130 fb eb 55 3e 11 35 4b 3d a6 70 d9 3c c4 23 22 be
       0.208908 0.049611155 0.026542973 -0.15833956
000140 6a ee a7 3e ee 9c 03 3e 69 06 08 be c3 d3 92 3d
       0.32799083 0.12852833 -0.13283695 0.071692966
000150 e1 60 84 3e 5b 76 bf bc 43 ed 8f be b4 8e 89 be
       0.25855163 -0.023371866 -0.28110704 -0.26866686
000160 b0 ef a5 3e c3 f8 a6 bd 00 56 8f be 28 d1 a0 be
       0.3240943 -0.08152916 -0.279953 -0.31409574
000170 9b ad 88 3e 7a 75 2a be dd f3 71 3c e5 6a 8d 3e
       0.2669495 -0.16646376 0.014767614 0.27620617
000180 ce 83 5a 3e 48 ab 4f be 3e 78 d6 bd 54 9a 81 be
       0.21339342 -0.20280182 -0.10472153 -0.25313056
000190 c0 33 89 3e ad 3f 32 3e 68 b4 88 be 16 3c 6a 3e
       0.26797295 0.17407103 -0.2670014 0.22874483
0001a0 0d 3c 88 3d 89 f0 cf bd 3a d8 88 be 0d 19 8d 3e
       0.06652079 -0.101533 -0.26727468 0.27558175
0001b0 f3 05 86 be c2 53 a4 3e b3 38 c9 3d a3 6d 65 be
       -0.26176414 0.32095152 0.09825268 -0.22405104
0001c0 60 d4 50 be cb e2 56 be c2 91 c0 3d 6a a8 08 3e
       -0.20393515 -0.20984952 0.09402801 0.13345495
0001d0 1a 45 c4 bd 16 36 ea 3d 29 32 ed 3d 82 e7 5f 3e
       -0.095834926 0.11436097 0.11581833 0.21865657
0001e0 61 ee 92 3e d4 2e 98 3e 65 9e 4b 3d 7b 92 af 3e
       0.28697494 0.29723227 0.049711604 0.34291443
0001f0 35 6f 50 3e 61 8d 9c 3e 92 b4 a8 bd 6a 62 0b bd
       0.20354922 0.30576614 -0.08237566 -0.0340294
000200 c9 0d fe 3c fe c1 90 be c4 e6 0b be 88 66 30 be
       0.031012433 -0.28273004 -0.13662249 -0.17226613
000210 2b b8 15 3d 13 65 bc 3e c3 91 98 be 12 dd 1d be
       0.03655259 0.36795864 -0.29798707 -0.15416363
000220 1a be 97 be 69 aa aa 3e bf 7d c4 3c 9d 76 42 3e
       -0.29637223 0.33333138 0.023985742 0.1899056
000230 ee e7 7c 3e 32 89 c4 bd 39 3c 3c 3e 56 c5 5e be
       0.24697849 -0.095964804 0.18382348 -0.21754965
000240 1b 5d 7f be 1b 5b 8e 3d 0f 50 b2 3e 7b f3 87 3e
       -0.2493786 0.06950971 0.34826705 0.26552948
000250 ca d1 61 3d 10 61 9a 3c 69 00 87 3e cf 5b 70 3d
       0.05513171 0.018845111 0.263675 0.058681305
000260 f0 79 6f 3e 17 bc 29 be c0 87 34 3e ec 6d 54 3e
       0.23386359 -0.16575657 0.1762991 0.20745057
000270 9f b7 b7 3e 33 45 ae 3e da 50 94 3e 72 46 a7 3e
       0.3588228 0.3403717 0.28967935 0.32670933
000280 34 92 28 be 7f 6f 32 be 69 df 93 3e 07 17 c8 3d
       -0.16462022 -0.17425345 0.28881386 0.09770017
000290 b4 b5 84 3e d1 58 8a bd 38 6d 71 3e 39 75 a4 3e
       0.25919878 -0.06755222 0.2357682 0.32120684
0002a0 f3 50 cf bc 7a cb 99 be 81 b7 ff 3c 64 2b 9a 3e
       -0.025307154 -0.30038053 0.031215431 0.3011123
0002b0 c8 eb 73 be 64 08 d7 bd 9a 2f 62 3e b6 5c 8c 3e
       -0.23820412 -0.10499647 0.22088471 0.27414483
0002c0 63 4d 2a be 6b cc 46 3e fd f1 00 3e 7d 52 b3 3e
       -0.16631083 0.19413917 0.12592311 0.3502387
0002d0 d4 ac 9c 3e 5a 16 15 3e c6 ca 93 bd 2c b6 f7 3d
       0.30600607 0.14559308 -0.0721641 0.120952934
0002e0 f7 a8 68 3e 48 43 e5 3d cd c5 20 3e d4 1d 31 bd
       0.22720705 0.111944735 0.15700455 -0.043241337
0002f0 9f 03 9b be 2e 16 3e be 1e 06 74 be 2c c2 35 3e
       -0.302762 -0.18563148 -0.23830459 0.17749852
000300 7c 62 a1 be 46 13 10 be 56 e4 29 be 04 a9 2b 3d
       -0.3152045 -0.14069852 -0.1659101 0.041909233
000310 a5 ed c2 3d 96 dc 8d be 4c bc 68 3c c4 c7 ac 3e
       0.09517983 -0.27707356 0.01420505 0.3374616
000320 f9 be fb bd 26 89 f4 3d 92 83 8c be d7 12 d3 3d
       -0.122922845 0.119402215 -0.2744413 0.10306328
000330 65 c0 0a bc 52 bc 53 3e 52 11 a9 3d b8 2d 3e be
       -0.008468722 0.20677307 0.08255257 -0.18572128
000340 ee d0 2f be 14 88 fd bc 24 71 43 3e 83 0f 5c be
       -0.17169544 -0.030948676 0.19086128 -0.21490292
000350 3e c7 4c 3e 37 09 aa bd d9 0b 84 3e 11 70 e6 3c
       0.1999788 -0.08302539 0.2579029 0.02812961
000360 12 3e 62 3b 78 61 bd bd 13 e8 48 be 07 a7 87 be
       0.003452186 -0.09247106 -0.1961978 -0.2649462
000370 cf 78 8d 3e 38 fd 94 be 63 ea 8d 3e 31 9b 1b be
       0.27631232 -0.2909944 0.27717885 -0.1519592
000380 c3 72 1a be 10 dd 8a 3e 66 6f 95 be 99 f7 79 3d
       -0.1508284 0.27121782 -0.29186553 0.061027143
000390 98 18 9e 3e e7 a5 a3 be fe c6 6a be 50 fc 18 be
       0.3087814 -0.3196251 -0.22927472 -0.1494
0003a0 3a c3 5f be 40 a5 bc bd 62 80 9e be d8 2d 44 3c
       -0.21851817 -0.092112064 -0.30957323 0.011973821
0003b0 23 fd 19 be de d2 83 3e 0c 07 79 3e ec 54 3d 3e
       -0.1503797 0.25746816 0.24319094 0.18489426
0003c0 1b 40 94 be f4 5d 83 be 8b 06 88 3e b1 19 ae 3e
       -0.2895516 -0.25657618 0.26567492 0.34003976
0003d0 71 cb 18 3e 10 4c 33 be 13 6e 8c 3e 10 11 54 be
       0.14921357 -0.17509484 0.2742773 -0.20709634
0003e0 73 8a a0 be 5b ae 5b 3e a8 a1 6d be 96 60 85 be
       -0.31355628 0.2145323 -0.23206198 -0.26050252
0003f0 eb cd a3 be df a5 9f bd eb 82 50 3e 95 65 d7 bc
       -0.3199304 -0.07795309 0.20362441 -0.026293555

fc2.weight f4 [300, 400]
000000 8b 96 3a 3d 2c a7 ca 3c fa 1c 39 3d c0 a5 14 bd
       0.045553725 0.024737917 0.04519365 -0.036290884
000010 cb a8 46 bd ae 10 c2 3c 5c a8 2a bd fd f0 a0 3c
       -0.048500817 0.023689594 -0.041664466 0.019646162
000020 f7 5e 18 3d 11 f1 97 3d ae 46 12 bc 24 ff f7 bc
       0.03719994 0.07419027 -0.008927984 -0.030273028
000030 a0 c3 18 bd 8f e0 a5 bc 6d 36 c9 bd 9d f9 03 3d
       -0.037295938 -0.02024868 -0.09824834 0.03222047
000040 85 38 2d 3d 99 59 ca 3d 50 66 47 3d 93 5b 93 bc
       0.04229023 0.09880371 0.048681557 -0.017988002
000050 20 8b 42 bc 7f ba be 3c ec 5d df 3c 25 39 27 3c
       -0.01187399 0.023282288 0.027266465 0.010206495
000060 b0 d7 07 bc 1f 76 ce b9 00 98 35 3c 9c 3f 33 3d
       -0.00829117 -0.0003937939 0.011083603 0.043761835
000070 46 e4 5f 3c d4 a1 10 bc da d7 e9 3c 0f e7 a0 3c
       0.0136652645 -0.008827645 0.028545309 0.019641427
000080 82 08 78 3c cd fa 6c bd f1 bc 73 3d 43 4c 89 3d
       0.015138747 -0.05785637 0.05950636 0.06703999
000090 77 0b ec 3c 7f 7c 54 3d 04 f3 a9 3d c5 b9 55 3d
       0.02881406 0.05187654 0.08298305 0.052179117
0000a0 2a 3e 2e bd 80 e7 bb 3c eb 5b 06 3d 4a 05 58 3a
       -0.042539753 0.022937536 0.032802504 0.0008240534
0000b0 01 0a dc bc b3 52 c3 bc ae 55 29 3d 3f 7b f0 39
       -0.026860239 -0.023843145 0.041341476 0.00045868193
0000c0 42 b4 96 bd b1 1f af bc 9e 0f e7 3d e0 2c 52 bd
       -0.073586 -0.021377416 0.112822756 -0.051312327
0000d0 ce 8a 49 bd d2 88 9d 3c da f8 fe bb a6 f1 78 3d
       -0.04920464 0.01923028 -0.0077811303 0.06077733
0000e0 3e a7 45 3d cc b3 d8 bc 0d bf 66 bd c0 19 4c 3d
       0.048255198 -0.026452921 -0.056334544 0.049829245
0000f0 f3 e3 de bb 03 13 fe bc f8 23 1b 3d 60 34 00 3c
       -0.006802076 -0.031014925 0.0378761 0.007824987
000100 77 f6 61 bc 40 26 6c bb de 53 e6 3c 7c 08 0a bd
       -0.013791672 -0.003603354 0.028116163 -0.033699498
000110 6e 7f 52 3d 50 a0 3d 3d 71 8e ce 3b 73 61 aa bc
       0.051391058 0.046295464 0.0063036014 -0.02079842
000120 25 4c 2b bc 9e a2 ce bc e0 df 17 3d 1b 3a 80 bd
       -0.010455166 -0.025224026 0.03707874 -0.06261083
000130 82 e3 13 3d b2 7c a4 3c a6 66 93 3d f4 d2 b9 bd
       0.03610564 0.02007899 0.07197313 -0.09073439
000140 f5 54 37 3d aa 0d e5 3b 00 f6 5b bd 1d dc 2b bc
       0.044758756 0.0069901543 -0.0537014 -0.010489491
000150 aa 96 7b 3c 7b 39 56 bd e2 1f 5d 3d e5 38 f1 bc
       0.015355745 -0.05230091 0.053985484 -0.029446075
000160 3b 36 ce 3b 86 2f 9b bc 52 80 11 3d 2e a0 25 3d
       0.006293086 -0.01894356 0.035522766 0.040435962
000170 2b 55 5d 3d ec 72 48 be 1c b9 ce bc 47 8f 51 3d
       0.0540363 -0.19575089 -0.025234751 0.05116203
000180 09 4d 64 3d a0 41 13 3d c6 4e 9e bd c3 f6 15 bd
       0.05573753 0.035951257 -0.077298686 -0.036612283
000190 f6 d7 8e 3d e8 a1 2c 3d 84 7e 83 3c a3 f9 e9 3c
       0.06974785 0.042146593 0.016051538 0.028561419
0001a0 49 20 03 3d 49 94 98 bd 74 d6 06 3d 96 cd 35 3d
       0.03201321 -0.07450158 0.032919362 0.044385515
0001b0 30 50 8c 3b 5f 0a 00 bd 25 85 17 3c 68 42 06 bd
       0.00428202 -0.03125989 0.009248053 -0.032778174
0001c0 80 bb 48 ba 2c b1 0c 3d 11 7a 39 bd 5f a1 a6 3c
       -0.0007657334 0.03434865 -0.045282427 0.02034062
0001d0 91 36 ea bc 8e 2a 9e 3c 5e ab 54 3d 7a f0 0b 3c
       -0.028590472 0.019307401 0.05192124 0.008541221
0001e0 8c 7c 19 3d 4f 8a 7b 3d a0 c5 80 3d 26 fe e5 3c
       0.037472293 0.0614112 0.06287694 0.028075289
0001f0 22 60 91 3d 40 30 c0 3c eb a8 b7 3d b3 99 9d 3a
       0.07098414 0.023460507 0.089677654 0.0012023955
000200 b2 0c 17 3c a4 a8 39 bd 64 97 4d be 08 3b 20 bd
       0.009219335 -0.045326844 -0.20077282 -0.039118797
000210 d1 54 0c 3b 38 43 b6 3c 8e e5 d7 bc d1 07 32 3d
       0.002141286 0.02224885 -0.026354577 0.043464486
000220 3c d3 b9 bc 7e 9a 49 3d a7 43 9a 3d f4 b2 07 3d
       -0.022683732 0.0492196 0.07532435 0.033129647
000230 42 00 0c 3d 42 f3 b9 bd a9 ab d9 bc e5 5d 32 bd
       0.034179933 -0.09079601 -0.026571112 -0.043546576
000240 38 14 0b 3d 92 5a 79 bd c8 a2 f0 3c 96 7c f4 3c
       0.03395483 -0.06087739 0.029374495 0.029844563
000250 6a 9b 41 3c a5 b2 e7 bc b3 a8 04 bd c5 43 d8 3d
       0.011816839 -0.028283427 -0.032387447 0.10559801
000260 0f 6c ca bc 44 79 d1 3d 91 f4 aa 3b 33 fb 22 3d
       -0.02470973 0.10228208 0.005217143 0.039790343
000270 78 44 0e 3c 4b 58 6e 3c 48 43 2f 3d 4d 78 0d 3b
       0.008683316 0.014547418 0.042788774 0.0021586597
000280 11 b3 a4 bd 6c f7 33 be 31 62 88 3d 90 7a 5a 3d
       -0.08041967 -0.17574853 0.066593535 0.05333954
000290 da cf 61 3c e7 f1 54 bd 88 06 06 3d f6 31 75 3d
       0.013782466 -0.05198851 0.032721072 0.0598621
0002a0 d5 c7 a3 bd 0a 1e 42 bd ff c6 ea 3a 5a d4 7a 3d
       -0.07997099 -0.04739193 0.0017912089 0.06123767
0002b0 2e 05 3d 3d f5 a9 6a bd 54 5b b4 3c 2f e7 78 3d
       0.046147518 -0.05729099 0.022016205 0.06076735
0002c0 1e 7c 0c bd e8 4d fd bc b1 46 89 3d 73 97 be 3c
       -0.034298055 -0.030920938 0.067029364 0.023265576
0002d0 a6 bc e3 ba ad 7d 29 bc 47 b2 91 bd ef fd 8e bc
       -0.0017374947 -0.010344905 -0.07114082 -0.01745507
0002e0 0a ab af bc 60 db b1 3c 27 b6 c0 bc e0 bc 2c bd
       -0.021443862 0.021711051 -0.023524357 -0.042172313
0002f0 b2 d0 12 3d 1e b1 5f 3d d0 c0 64 3c 83 45 96 3d
       0.03584356 0.05461227 0.013961986 0.07337477
000300 98 e3 6a 3c 65 de b1 bd 5a 5f e9 bc 33 7d a2 bc
       0.014336489 -0.086849965 -0.02848785 -0.01983509
000310 8c 47 0c 3d e8 d3 7a 3c 8d 4a b5 3c 15 53 72 3b
       0.03424792 0.015309311 0.022130275 0.003697579
000320 f9 b7 90 bd f7 fb ad 3d 16 2e 46 3d 7e dd 19 3d
       -0.0706634 0.08495324 0.048383795 0.037564747
000330 35 60 45 3d c5 0f 28 3c bc ae dd 3c 0e 6e ff bc
       0.048187453 0.010257666 0.027060859 -0.031180408
000340 e0 b7 5e bd 48 cb 08 3b 25 5f 07 3d 84 59 eb 3c
       -0.054374576 0.0020873118 0.03304972 0.028729208
000350 cb 30 fe 3b a3 98 8e 3a 73 74 fa bc 7c 6c 10 3d
       0.0077572814 0.001087923 -0.030573105 0.03525971
000360 92 1e 64 3c 12 e0 85 bd 4c bb 26 3d da 0e 5d 3d
       0.013923304 -0.06536879 0.040705964 0.05396924
000370 f0 7c 75 3d 9c 42 8a 3c 61 43 81 3d ee 75 2a 3d
       0.059933603 0.016877465 0.0631168 0.041616373
000380 38 5a de bb 51 10 12 bd 78 a7 57 bc 86 bd 63 3d
       -0.0067856573 -0.03566009 -0.013162486 0.055600666
000390 6a 4f 84 3d 78 f5 52 3d 60 69 bd ba 78 b0 26 bd
       0.064604595 0.05150363 -0.001445096 -0.040695637
0003a0 48 c7 0d 3e 77 3b 91 bc c3 ac 0d bd 07 f5 47 bd
       0.13845551 -0.01772855 -0.034588587 -0.04881766
0003b0 e6 46 06 3e 2e 7c fc 3b 44 08 af bc c4 0e 4c 3d
       0.13112983 0.007705233 -0.021366246 0.04981877
0003c0 fc f7 2e bc b8 33 b5 bb 9e 75 78 3d 41 2e da bc
       -0.010679241 -0.005529847 0.060659043 -0.026633384
0003d0 80 64 b8 bc d8 aa 5e 3c 4e 10 ed bc 5a cb 0c bd
       -0.02250886 0.013590537 -0.028938439 -0.03437362
0003e0 8c b2 be bc a9 84 2e 3d da 35 2d bd 58 6b 98 3b
       -0.023278497 0.042606983 -0.042287685 0.0046514682
0003f0 bc 46 dd bc 8d f9 1e 3d 57 0d 23 3d e4 36 6f 3d
       -0.027011268 0.03881221 0.039807644 0.058401957

fc2.bias f4 [300]
000000 04 e5 7d 3b 76 f5 3d 3d 9a c2 35 3d 80 29 16 3d
       0.003874124 0.046376668 0.04437504 0.03666067
000010 1a 63 70 bc 0b 49 31 3d 80 bd 27 3d 00 5c b2 38
       -0.014672065 0.04328255 0.040952206 8.504838e-05
000020 83 5c 19 3c 65 20 0c 3c b4 27 41 3d 62 59 da 3c
       0.009360435 0.008552645 0.047157004 0.02665395
000030 8c d2 c4 3b a7 2a 59 bb 52 9d 11 bd 69 7f c2 3c
       0.0060065445 -0.0033136995 -0.035550423 0.023742395
000040 e9 a5 51 3c 8a 0c 17 bb dd 6f 79 3d e8 92 3a 3d
       0.012795904 -0.0023048245 0.060897697 0.045550257
000050 ed 60 07 bc 13 b4 f9 ba 3f 85 72 3d 68 58 34 bc
       -0.008262855 -0.0019050859 0.059209105 -0.011007406
000060 89 ce 09 3d 94 28 89 bc 82 6a dc 3c 53 73 11 3d
       0.033644233 -0.016742982 0.026906256 0.035510372
000070 da a2 bf bc d3 58 39 3d e2 00 18 3d 94 49 62 3d
       -0.023393083 0.045250725 0.037110217 0.05524595
000080 b5 69 85 bc 21 86 6e 3a 28 80 78 3b 57 15 81 bc
       -0.016285757 0.0009098966 0.0037918184 -0.015757246
000090 56 32 68 3d 01 a0 7f 3d fc 58 46 3d 5c cc 59 3d
       0.05668863 0.06240845 0.048424706 0.053173408
0000a0 e7 01 b8 3c 46 4c 80 3c 1b d0 09 3d b9 44 d2 bc
       0.022461845 0.01566137 0.03364573 -0.025667535
0000b0 d8 2c 9a bb 9f 37 82 3d 8e bb 48 3d fa 5d 49 bd
       -0.004705053 0.06358265 0.04900699 -0.04916189
0000c0 8a 24 fc ba 5a 44 45 bc c2 5a 0e 3d 08 2c e9 3c
       -0.0019236964 -0.012040222 0.034754522 0.028463379
0000d0 93 39 ad 3a cb 31 1e 3d dd 24 2a 3d 00 16 80 3a
       0.0013216011 0.038621705 0.04153906 0.0009772182
0000e0 19 1f d0 bb ee d0 3d 3d 07 a5 ff 3c d4 d8 08 bb
       -0.0063513634 0.04634183 0.03120662 -0.0020881193
0000f0 4b 85 24 3d 50 a2 b4 3c 9f 00 a5 3d 5d 73 3b bd
       0.04016618 0.022050053 0.08056759 -0.045764316
000100 0f dd 11 3d 7c ce 3d bc ea 4d 27 bb 8f 26 57 bb
       0.03561121 -0.011584874 -0.0025528618 -0.003282938
000110 b6 53 49 3d 2a 2d ab 3c d3 e5 80 3c e1 7a 5d 3d
       0.0491521 0.02089556 0.015734589 0.054072265
000120 ee 32 13 bd df fc 2f 3d d2 ae 87 3b 3d 93 4f 3d
       -0.035937242 0.042965766 0.0041407133 0.050677527
000130 6f fb f9 3c 1e fc 83 3d e0 b6 4d 3d f0 27 62 bc
       0.0305154 0.06444572 0.05022323 -0.013803467
000140 10 68 80 3d f9 6e b5 bb bd c1 c1 bc 52 91 21 bd
       0.06269848 -0.0055369106 -0.023651952 -0.03944523
000150 14 97 1a 3b 3c 62 4f bc 06 b5 45 bc 21 05 9a 3d
       0.0023588585 -0.012657698 -0.012067085 0.075205095
000160 71 9e 6d 3d 43 d3 46 3d 86 a4 5a 3d 08 8b 17 bd
       0.05801243 0.04854132 0.053379558 -0.036997825
000170 71 4b 99 bc e1 32 b2 bb 14 53 05 bb 3d 99 53 3d
       -0.018712731 -0.005438194 -0.0020343708 0.05165981
000180 57 9d 5e 3d 06 23 7f 3d 8c e0 59 3d ef 58 c3 bc
       0.05434927 0.06228926 0.05319266 -0.023846118
000190 8f 64 1f bd 13 99 46 3d f6 2f 97 3c 05 93 32 3d
       -0.03891426 0.048485827 0.018455487 0.04359724
0001a0 ef bd af 3c 8f d8 43 3c 49 3e c8 3c eb fa e3 bc
       0.021452872 0.011953487 0.024443762 -0.027829608
0001b0 80 cf 1d bc f7 5b 01 bb 8e 4c 1f bc 16 56 f3 3c
       -0.009631991 -0.0019738653 -0.009722842 0.029704135
0001c0 c8 23 32 bc aa 10 68 3d d3 04 34 bd f9 24 56 3c
       -0.010872789 0.056656517 -0.043949913 0.013070338
0001d0 f1 34 c9 3c 2d 12 81 3d 43 9f 3e 3d 64 2a 16 bd
       0.024561377 0.06302295 0.046538603 -0.03666152
0001e0 f9 32 b8 bc 5f 5a 91 3d 2b 10 fa 3b 38 35 5b 3d
       -0.022485243 0.07097315 0.007631322 0.05351755
0001f0 8c 26 c3 3c 20 9b 9a 3c 3d c6 24 3d 58 cd f3 bb
       0.023822092 0.018872797 0.040228117 -0.0074402504
000200 52 74 83 3d 93 b2 a3 bb 56 06 04 3c 5a 79 8a 3c
       0.06418671 -0.004995653 0.008058151 0.016903568
000210 df 75 91 3b 00 d2 d4 bb 92 2d d3 3c 1f 1a ff 3c
       0.0044391 -0.0064947605 0.025778566 0.031140385
000220 eb 0a 0d 3c 61 58 1b 3d 78 70 37 3d 80 2e 81 3d
       0.00860856 0.03792608 0.044784993 0.06307697
000230 91 35 53 3d 6e 50 fa 3c 28 41 da 3b 59 2a a1 39
       0.051564757 0.03055593 0.0066605993 0.00030739864
000240 ca b6 b0 bc d0 84 9e 3d 3a 01 2e bc eb 40 26 bd
       -0.021571536 0.07740176 -0.01062041 -0.040589254
000250 67 ff 0d bd 86 38 7b 3d e0 10 55 3d 25 7f 84 3d
       -0.0346674 0.0613332 0.052018046 0.064695634
000260 da 5f e8 bc 27 68 61 bb 5c 5d 3b 3d 39 67 c4 3c
       -0.028366018 -0.0034394355 0.04574333 0.023975002
000270 20 ac 33 3c d8 45 a0 3d a4 d3 e7 3c bb d9 08 3d
       0.010966331 0.07825822 0.02829916 0.03341077
000280 86 9b a4 3d 8e 75 40 3d 57 d0 f5 bc 80 b3 72 bc
       0.08037476 0.04698711 -0.03000657 -0.014813304
000290 65 eb 42 bd 18 40 43 3d 4d ba 56 3c 04 8c 51 3c
       -0.04758777 0.047668546 0.013105941 0.01278973
0002a0 23 27 a0 3d bd 87 a2 bc 32 5f 59 3d 8a 25 ac 3c
       0.07819965 -0.019840116 0.0530693 0.021013994
0002b0 0d 75 0a bd a9 b6 53 3d 23 72 b6 3a e5 a7 b4 bc
       -0.033803035 0.05168787 0.0013919513 -0.022052715
0002c0 6b 47 43 bd 9a 89 6a 3d fa 40 11 bd 92 54 00 3b
       -0.04767553 0.057260133 -0.035462357 0.0019581658
0002d0 bb 2b 88 bc ee cd 36 3d d3 e6 cc bc 81 8d 92 3d
       -0.016622415 0.044629984 -0.02501241 0.07155896
0002e0 aa 96 64 3d 9d 05 46 3c 88 7e 88 3d 72 10 80 3c
       0.055807747 0.012086299 0.06664759 0.015632842
0002f0 25 44 96 bc 43 47 eb 3c 17 d9 4c 3d c0 3f dd 3b
       -0.01834304 0.028720504 0.05001172 0.0067519844
000300 38 3b f9 3c b5 9d 41 3d b8 2a 52 bc e6 b3 8c 3d
       0.030423746 0.04726954 -0.012827568 0.068702504
000310 54 6e dd ba f6 ac 22 3c 4d 09 31 3d 00 f1 85 bc
       -0.0016893842 0.009928932 0.04322176 -0.01635027
000320 be 35 7b 3d bf eb a5 3c 6f 0c c4 bc 6f 16 91 bc
       0.06133055 0.020254014 -0.02393171 -0.017710892
000330 fd 98 65 3d 03 5a b6 3c b9 95 d3 3c cb cd fd 3c
       0.056054104 0.022259718 0.02582823 0.030981919
000340 c6 88 e7 3c 58 4f d2 bc f7 ad f5 bb 51 cc c8 3b
       0.02826346 -0.0256726 -0.007497545 0.006127872
000350 60 ef 80 ba 2a 88 35 3c 53 4c ac bc 88 54 31 bc
       -0.0009836964 0.011079827 -0.021032488 -0.0108233765
000360 d2 80 17 bd d2 14 39 bb 94 6d a3 bb cd 2d bd bb
       -0.036988087 -0.002824117 -0.004987428 -0.005773282
000370 84 26 ca bc 3d 59 d1 bb 76 82 7b bc 27 c6 a3 bc
       -0.024676569 -0.006388812 -0.0153509285 -0.019991947
000380 3b fe 2d bc de 08 0a bc 46 bb 5a 3c 7a dd 45 bd
       -0.010619695 -0.008424966 0.0133503135 -0.04830692
000390 f2 ec e4 bb 4c 9c ed bc c4 cd 51 3d 97 51 1c 3d
       -0.006986254 -0.029005192 0.051221624 0.038163748
0003a0 c5 46 5b 3c 2e 5e 82 3c 40 a9 e6 3c 9b 4b 0e 3d
       0.013383572 0.015914049 0.028156877 0.03474007
0003b0 08 d9 80 3d 6f 1e fd 3c cc ff 03 bd 2b 30 12 3d
       0.062913954 0.0308983 -0.03222637 0.035690468
0003c0 e2 27 51 3b c5 15 15 bd e5 1c 09 bd 17 1f 3e 3c
       0.003191464 -0.036397714 -0.03347482 0.011604092
0003d0 00 5f d3 3c 63 8d 0f bd dd b1 8e 3c 74 a7 1d bc
       0.025802135 -0.035046946 0.017418796 -0.0096224435
0003e0 34 bd 3c 3d 20 ef c4 3b cf e7 2a 3c 4f 5b 63 3d
       0.046078876 0.0060099512 0.010431244 0.055507
0003f0 05 77 a5 3c 01 ad 93 3d 7d 27 42 3c d5 a5 cd 3c
       0.020198354 0.07210732 0.011850235 0.025103489

fc3.weight f4 [300, 300]
000000 24 ca c4 3c 89 67 b0 3d e7 8a a3 3d 77 7a 6a 3d
       0.02402217 0.08613498 0.07985478 0.057245698
000010 ba 08 8b 3c 50 49 d2 3c 40 12 00 bb db 8a 69 bd
       0.016971935 0.025669724 -0.0019542128 -0.05701719
000020 af 92 c0 3d aa cf 81 bc 2b 36 21 bd ac c8 2a bd
       0.09402978 -0.015846092 -0.0393583 -0.041695282
000030 59 ea 3d 3d 2f eb 70 3d 80 bd 02 bb ed 8f a1 3d
       0.04636607 0.05881804 -0.0019949377 0.0788878
000040 62 3e f9 39 66 d0 c5 3d e9 8b be 3d 99 d2 54 bc
       0.0004753946 0.096588895 0.093040295 -0.0129896635
000050 a2 6a 16 bd 14 8e 92 3c 91 5f 10 be 54 7f db 3c
       -0.036722787 0.017890014 -0.14098956 0.026794113
000060 38 65 38 bd 2f 2c 27 3d f3 46 03 be b0 32 80 3c
       -0.045018405 0.04081362 -0.12820034 0.01564917
000070 90 00 2a 3b 7a 99 69 bd 94 68 9f bc 21 80 0a 3d
       0.0025940277 -0.057031132 -0.019459046 0.0338136
000080 ce a5 7d be 8c bf 8c 3d 2c aa de 3d de 11 16 be
       -0.2477028 0.06872472 0.108723015 -0.14655253
000090 31 cf 6a 3d 8c 9d 53 3d 2d 98 f1 3d a7 e4 76 bc
       0.0573265 0.05166392 0.11796603 -0.015069163
0000a0 1f e5 48 bc 2f 5b 64 bd a2 1e 13 3d f4 73 92 3d
       -0.012261658 -0.055751022 0.035917886 0.071510226
0000b0 30 87 ad 3b 4c 5f 83 bc f5 3b 85 3d 3c 74 03 3d
       0.0052956566 -0.016036652 0.065055765 0.03209327
0000c0 df 80 06 3d 4e 95 aa 3c 4d b8 2e 3d 8b bc 6f 3c
       0.032837745 0.020823147 0.04265623 0.0146323545
0000d0 c3 cd ae 3d 3a 11 91 bd 64 9d d9 3d 0e 8c 5b 3d
       0.0853534 -0.07083364 0.10625723 0.053600363
0000e0 86 6a db bc c6 36 75 bc 62 c5 b9 3c 9f c5 83 bd
       -0.026784193 -0.014966672 0.022677127 -0.064341776
0000f0 77 a9 a4 3d 4e 5f 29 3d e7 a2 a4 bc 78 02 30 3d
       0.08040135 0.041350655 -0.02009721 0.042971104
000100 aa 81 f6 bc 77 b3 f8 bc cd 18 e9 3c 01 28 03 3c
       -0.030091126 -0.030359013 0.028454209 0.008005143
000110 98 65 d0 bc 30 0f 3b 3c 49 76 c3 3c 37 54 ff 3a
       -0.025439069 0.011417195 0.023860114 0.0019480054
000120 e0 de 19 bb 1b 8a 70 bb 0e a7 99 3c 99 09 ba bd
       -0.002347879 -0.003670341 0.018756416 -0.09083862
000130 1a 39 0b 3d 91 4a 5b 3d 3b bc c8 3b 0a d6 59 bd
       0.033990003 0.05353791 0.0061259544 -0.05318264
000140 ae 4d b1 3d 4b 22 85 bc f5 cb ca 3c 08 42 7a 3c
       0.08657394 -0.016251704 0.024755457 0.015274532
000150 3b 8a 83 3d 4d 6b d9 bc a1 f5 09 3c ef 28 ec bc
       0.0642285 -0.026540423 0.008420379 -0.028828112
000160 1c 50 04 3d ae 3e 85 3d 43 5b 38 3d 23 5e cb 3d
       0.03230296 0.06506096 0.04500891 0.099300645
000170 bb 31 19 bd 46 d9 96 3c 0d 02 36 3d b3 c5 3f bd
       -0.037400942 0.01841415 0.04443555 -0.0468194
000180 c0 df a5 3c 31 76 9d bd c3 f8 0e bd d2 3d b8 3d
       0.020248294 -0.07688559 -0.034905206 0.08996166
000190 71 0c ca 3c 3f e9 ab 3d 66 2f 32 3c a0 33 25 3d
       0.024664136 0.083940975 0.0108755585 0.040332437
0001a0 6b f5 0f 3d 01 fc 87 bd 02 0f 1c bc 7f a7 0c 3d
       0.03514616 -0.06639863 -0.0095250625 0.034339424
0001b0 54 93 8f 3d 29 54 40 3e cd fc 8d bd 90 fc d3 3c
       0.070105225 0.18782105 -0.069329835 0.025877267
0001c0 77 c4 3b bd 5e 25 9b bc 18 2e 18 bc 8b fc fe bc
       -0.04584166 -0.018938717 -0.009288333 -0.031126281
0001d0 e3 7a d2 3d 52 57 8d 3d 9a 86 a3 3d 98 e6 4d 3d
       0.10277345 0.06901421 0.079846576 0.05026874
0001e0 51 ff 7a bc f0 b8 3b 3c 5a b5 d0 bc 1d d5 2c bb
       -0.015319661 0.011457667 -0.0254771 -0.0026372143
0001f0 11 07 eb 3c db 4e a2 3d 83 e1 d1 3c 90 f2 b9 3c
       0.028689893 0.07925197 0.025620228 0.02269867
000200 ae 59 46 3d 0b ad c5 3d 3c 81 0d bc 34 24 45 3d
       0.04842537 0.09652146 -0.008636769 0.04813023
000210 e3 48 d4 bb 4a d0 57 bc d6 25 8d 3a 53 34 2c 3d
       -0.0064784153 -0.013172219 0.0010768722 0.042042088
000220 3a 3a 7a bc 6d 96 b3 bc 18 9f 83 3d 5e 8c df 3c
       -0.015272671 -0.021922315 0.06426829 0.027288612
000230 dd 54 3f bc bd 6a 3d 3d dc 7e 6b bc 4a 43 85 3d
       -0.011677948 0.04624437 -0.014373507 0.06506975
000240 de 2d 23 bd 64 04 84 bd 49 77 44 3d 28 e8 69 3d
       -0.039838664 -0.0644615 0.04796532 0.057106167
000250 55 64 92 be 48 85 1c 3d dc 67 ee 3c 67 3f 72 3d
       -0.28592172 0.038213044 0.029102258 0.059142496
000260 c0 fa 99 bc 3f b1 bd 3d f1 ff af 3d 31 b6 30 be
       -0.018796325 0.09262323 0.08593739 -0.17257
000270 b3 d6 20 3d 09 cc f7 bc 8f aa 12 b8 e3 88 62 3d
       0.039267253 -0.030248659 -3.4967958e-05 0.055306327
000280 6d d5 80 bc 92 4e c3 3c f0 02 17 3b 90 a4 9f 3b
       -0.01572677 0.023841176 0.0023042522 0.0048719123
000290 20 43 33 bc f8 74 32 3c 1e be 9b 3d 32 03 15 3d
       -0.010941297 0.010892145 0.07604621 0.03638
0002a0 27 d7 02 bb 48 5e b2 3c df 13 ee bc 31 bc c2 3d
       -0.0019964667 0.021773472 -0.02906221 0.09508551
0002b0 cf 47 a9 3d c2 56 ad bb d4 ce 23 be 54 66 a2 3d
       0.082656495 -0.0052898834 -0.15996867 0.07929674
0002c0 68 b5 d1 bc fc 80 82 bc 59 5b 5a bd bf a8 e8 3d
       -0.025599197 -0.015930645 -0.053309772 0.11360311
0002d0 b9 27 a5 3d 43 ed 11 bd f6 e4 3a 3d c9 08 c0 3d
       0.08064217 -0.03562666 0.04562851 0.09376676
0002e0 6c 65 93 3c f6 c6 00 3d 84 ec 90 bc 72 e3 a0 bc
       0.017992698 0.031439744 -0.017690904 -0.019639704
0002f0 2f c0 c1 3d 30 b9 d4 3d f7 b2 96 3b 5c f3 40 3d
       0.09460484 0.10386884 0.004598971 0.047107086
000300 e9 f4 26 3d 9c 0f 4e bd 30 1e 8f 3b e2 ae 2d bd
       0.04076091 -0.050307855 0.0043676123 -0.04240311
000310 0b e8 11 3c 24 f6 fa 3c 8a e2 da 3b 84 a1 0e bd
       0.008905421 0.030634947 0.0066798376 -0.034822002
000320 0d 4d c5 3d 70 6e be bd be 82 b1 3d da 52 0a bd
       0.09633837 -0.09298408 0.08667515 -0.03377042
000330 39 c3 e6 bb 5f 40 47 bc cf 95 18 3d b5 c1 b4 bd
       -0.0070423153 -0.012161343 0.037252244 -0.08826009
000340 24 c1 7a 3d 00 09 23 3d fc 65 86 ba bd 4f 96 3c
       0.06121935 0.039803505 -0.0010253782 0.018348569
000350 fe 0a 6a bd 69 65 ef 3d e1 19 9d bb 20 17 95 3c
       -0.05713939 0.11689264 -0.004794345 0.018199503
000360 c8 0b 00 3d 16 94 7e bd 3e 58 0b bd 17 73 bd 3c
       0.031261235 -0.062152945 -0.0340197 0.023126168
000370 29 bc ac 3b 9a 1e e5 bb 51 7d 40 bc c0 78 53 3c
       0.005271454 -0.0069921734 -0.011748628 0.012907207
000380 e8 3d 19 bd 2e 83 e9 3b 1d b6 d3 3d 1b 5c 2d bd
       -0.037412554 0.0071262335 0.1033747 -0.042324167
000390 fd e2 cd 3d 1a dd cb 3c 03 c0 4f 3b 1a ee 86 3d
       0.1005306 0.024885703 0.0031700141 0.06588383
0003a0 cf 22 4b 3d 4a d4 1b 3d ab 00 2f 3c 2f 05 9b 3d
       0.049593743 0.03804425 0.010681312 0.07569348
0003b0 78 65 81 3c 2d 98 0a 3d 1a 8c c1 bc 19 a7 d9 3d
       0.015795454 0.033836532 -0.023626376 0.106275745
0003c0 75 61 e3 bc 23 9d 60 3d 28 fa 86 3d b8 52 46 3d
       -0.027756432 0.054837357 0.06590682 0.04841873
0003d0 26 9f 42 3c 3a c5 90 3d ef 4e a1 bc 80 09 bf bd
       0.011878764 0.07068868 -0.019690959 -0.09327984
0003e0 eb 32 82 3c 29 a5 c9 3c 77 38 94 3d a9 3c fb 3c
       0.01589342 0.024614887 0.07237332 0.030668573
0003f0 f6 4f 4f 3c 63 d5 99 3d b9 c1 1f 3d c0 9f b8 bd
       0.0126533415 0.075114034 0.039003108 -0.09014845

fc3.bias f4 [300]
000000 67 5d 26 3d 64 de 00 3d 92 21 f4 bc 34 12 03 bd
       0.04061642 0.03146209 -0.029801164 -0.03199978
000010 5e e8 7f 3c 70 3a 59 3c 41 db 23 bd 63 32 46 3c
       0.0156193655 0.0132585615 -0.04000402 0.012096974
000020 1d e9 73 3b b9 c9 0b 3a 7f 20 c0 bb 1a e1 14 3d
       0.0037217804 0.0005332488 -0.005863249 0.036347486
000030 fb 81 46 3d 1f 50 c4 bc 9d e3 54 3d ef 44 0d 3d
       0.048463803 -0.023963986 0.05197488 0.03448957
000040 bc 7c 62 3d d2 9b 5c 3d a7 91 36 3d 66 0d f1 3b
       0.055294737 0.05385954 0.0445725 0.0073563335
000050 01 ac 7b 3c fe e4 51 3d a0 e2 28 3c 16 8c 35 3d
       0.015360833 0.051243775 0.010307938 0.04432305
000060 68 9c af 3d c8 6e d8 3c 9b 71 cf 3c ac dc 0c bd
       0.08574754 0.026420012 0.025322726 -0.034390137
000070 6c cd 4b 3c 14 ef a6 bc c5 6f 82 3c d4 b6 43 bc
       0.012439113 -0.020377673 0.015922436 -0.011945445
000080 e5 da 44 bc 64 8f b6 bc f9 26 ff 3c e2 cb 95 bc
       -0.012015079 -0.02228517 0.031146513 -0.018285695
000090 d7 e2 60 3d ed 38 c2 3c 33 a1 19 bd 72 de 10 bd
       0.05490383 0.023708785 -0.037507247 -0.03536839
0000a0 83 ad 50 bd b7 e8 e0 3c fc eb 23 bd 61 5f 6d 3d
       -0.050946724 0.027454717 -0.040019974 0.05795229
0000b0 36 0c d6 bc 93 27 f3 bc c2 b4 18 3d 40 1e dd 3c
       -0.02612887 -0.029681956 0.03728176 0.026991963
0000c0 f6 12 9f 3c 63 28 38 3d 67 6d 9d bc 41 27 e3 bc
       0.019418221 0.04496039 -0.019217206 -0.027728679
0000d0 7d 4a e0 bc 94 81 cc bc 88 33 06 bd 28 06 e9 3c
       -0.027379269 -0.024964131 -0.032763988 0.028445318
0000e0 f0 e1 25 3d d7 02 c5 3c 2e 5b af bc f3 75 31 bd
       0.040498674 0.024049206 -0.021405783 -0.043325376
0000f0 3c 01 3f bd 8f 6d bc bc 86 d2 3d 3d af 77 b7 bc
       -0.046632037 -0.02300146 0.04634335 -0.022395937
000100 24 a3 02 bd 36 e8 af bc 48 af c6 3c 11 22 dd 3c
       -0.031893864 -0.021473031 0.024253502 0.026993783
000110 00 0d a0 3b a0 a5 12 bd 98 98 4b 3d b9 8d de 3c
       0.004884362 -0.035802484 0.04970607 0.027167188
000120 3c f9 82 3c 65 55 3c 3d b5 01 e1 3c d4 7f 0d bd
       0.015987985 0.045979876 0.027466634 -0.034545735
000130 c9 46 e9 ba 0b 05 44 bc 3f 57 fc 3c 93 ff 88 3c
       -0.0017797585 -0.011964093 0.03080332 0.01672343
000140 4d 4b 25 3d 27 a2 e0 bc eb 72 73 bc 64 06 6c 3c
       0.040355016 -0.02742107 -0.014858942 0.0144058205
000150 f9 b9 0e bd 80 a4 f5 3b 6e 0a 1c 3d 7d 1d 1e bc
       -0.034845326 0.0074964166 0.038095884 -0.009650585
000160 c2 ef 37 bd 89 b2 36 3d 67 2d 11 3d 7f 8f 14 3c
       -0.044906385 0.04460386 0.03544369 0.009067415
000170 44 1e 7a 3c 28 e7 9b ba 83 f1 1b 3d c2 ab 71 3d
       0.015266005 -0.0011894451 0.03807212 0.05900169
000180 76 24 eb bc 98 a2 90 bc 4e b9 37 bd 3e 57 6e bc
       -0.02870391 -0.017655656 -0.044854455 -0.014547167
000190 a4 c4 15 bc 39 7f b8 3c 1d f9 c5 3c 42 0f 3f 3d
       -0.009141121 0.022521602 0.024166638 0.04664541
0001a0 1e d1 56 bc 1e 9e 1e bd 11 e6 0a 3d bd 6e 40 bd
       -0.013111381 -0.03872501 0.033910815 -0.04698061
0001b0 f5 1e 5d 3d 35 40 24 3d fd 8a e2 3c 80 45 ef 3c
       0.0539846 0.040100295 0.027654165 0.029207945
0001c0 02 56 ed bb 72 cb 5e bd cd a5 9c 3c f8 b3 60 3d
       -0.007242919 -0.05439324 0.019122029 0.05485913
0001d0 80 23 3e bb 2c 36 f2 ba 31 d5 10 bd 9b f0 3d bd
       -0.002901286 -0.0018479279 -0.035359565 -0.046372037
0001e0 74 40 20 3d 1a a4 d5 3c 6d 1e 24 3d f8 72 01 3d
       0.039123967 0.026079226 0.04006808 0.031603783
0001f0 7e 58 ae 3c bc 51 5a bc 80 0a 22 3d 5c 4b 98 3c
       0.02128243 -0.013325151 0.039560795 0.018590622
000200 7a 1f 23 bd 39 d2 ae 3c f0 96 1f 3d 97 cb 1a bd
       -0.03982494 0.021340476 0.038962305 -0.037791815
000210 c5 1e 6a 3d 9c 4d 81 bc 4c 18 25 3d b2 6b 75 3d
       0.05715825 -0.015784077 0.040306374 0.05991716
000220 7b 50 82 3c 71 95 dc bc 41 63 82 3c 38 0e c0 bc
       0.015907517 -0.026926728 0.015916469 -0.02344428
000230 c7 cb 35 bd d7 db 09 bd 9a 98 84 3c 18 c8 18 bd
       -0.04438379 -0.03365692 0.016186047 -0.0373002
000240 ad bb a6 bc 2c 56 0d bd 10 3e 1d 3d 9a 8a f7 3b
       -0.020353163 -0.034506008 0.038389266 0.0075543644
000250 f7 a9 e5 bc 60 46 31 3c 27 d9 ed bc 33 e6 4e 3c
       -0.028035147 0.010820001 -0.02903421 0.012628126
000260 41 b1 8b bc e4 58 94 bc c9 ae 1f bd 64 a3 02 bc
       -0.017052295 -0.018108793 -0.038985047 -0.007973526
000270 9b 66 8f bc 2c 11 c0 bc 5a 94 f6 3c 9d e9 b0 ba
       -0.01750498 -0.023445688 0.030100036 -0.0013497357
000280 50 9f 06 bd 18 b9 1b bd d9 42 1f 3a 62 08 1c 3d
       -0.032866776 -0.038018316 0.000607533 0.038093932
000290 2f ce 98 3c f1 2c 8a bb b4 bb cd 3c b0 75 1f 3d
       0.018653003 -0.004216783 0.025113918 0.038930595
0002a0 a8 42 ef bc 61 aa 15 3d 6a 8f ae ba 29 d5 94 bb
       -0.029206589 0.03653944 -0.0013317887 -0.0045420122
0002b0 bf d9 f6 3c 53 a0 80 3d 72 9a 3c bc 2c 5a 9e 3c
       0.030133126 0.062805794 -0.011511432 0.019330107
0002c0 a2 5c 10 3d 23 e5 01 3d 8d 61 52 3d 34 ff 49 3d
       0.03524459 0.031712662 0.051362563 0.049315646
0002d0 cc 09 8a 3b 5c 57 19 bd 8a 6b 3e 3c b2 6e 43 bc
       0.0042125937 -0.037436828 0.011622319 -0.011928247
0002e0 56 82 c0 bc 0f b2 37 ba 48 a1 62 3d ec f0 3b bd
       -0.023499649 -0.0007007429 0.05532959 -0.045884058
0002f0 49 58 74 3c 01 ec 07 bd 0c 3e 2c bd 76 c0 1c 3c
       0.014913627 -0.033184055 -0.04205136 0.009567371
000300 bf 8a 9d bc 32 dd 4b 3d a0 5b c3 bb 03 71 61 3d
       -0.019231198 0.049771495 -0.0059618503 0.055039417
000310 b3 d4 da 3c 1b f9 1e 3d ff 21 4f bc 35 5d 23 3c
       0.026712751 0.038811784 -0.012642383 0.009970953
000320 31 72 0f 3c 73 bb 60 3d 50 3d 9d 3b 7b 82 f9 bc
       0.008755253 0.054866266 0.004798569 -0.030457726
000330 51 59 82 3d d6 cb 68 3d d4 c1 db 3c f6 c5 e0 bc
       0.06364692 0.056835018 0.026825823 -0.027438145
000340 59 d2 bf bc 5a c5 ee 3c f0 b0 36 bc 10 ff c2 3c
       -0.023415731 0.029146839 -0.011150584 0.023803264
000350 7f 3b 96 3d fe dc 08 bd 5b c8 9d bc 8a 86 d5 bc
       0.07335567 -0.03341388 -0.019260576 -0.02606513
000360 27 ea 1b 3d 35 31 6f 3d 6d 9e c2 bc 90 6c 42 bd
       0.038065102 0.058396537 -0.023757184 -0.047466815
000370 0c ff 06 3d 71 32 ba 3d 37 f6 23 bd d5 05 0d 3c
       0.032958075 0.09091652 -0.04002973 0.0086073475
000380 0d 38 a6 3c a9 90 27 3d 23 60 0c bd e2 c3 5c bd
       0.020290399 0.040909443 -0.03427137 -0.053897746
000390 32 80 15 bd e8 aa 32 3d 00 2d fe bb a7 ef 4e 3c
       -0.03649921 0.04362002 -0.0077568293 0.01263038
0003a0 b7 36 0d 3d 9c d4 d5 3c dd e7 80 bb 78 3a 38 3c
       0.03447601 0.026102357 -0.0039338903 0.011244409
0003b0 45 be 01 bc b6 c2 da 3c cc 30 17 3d a8 11 0d 3d
       -0.007918899 0.026704174 0.03691177 0.034440666
0003c0 0a 97 e4 3c 6f 43 2b 3c 20 cb ae 3c da 8a 32 3d
       0.027904052 0.010453089 0.021337092 0.04358945
0003d0 18 a0 1a bd a9 03 1f bd bc 7f 21 bd 88 bb 7b 3c
       -0.037750334 -0.03882185 -0.039428458 0.015364535
0003e0 20 ee 37 bd 08 9f a5 bc 1f 77 16 bd 2e da 79 3d
       -0.044904828 -0.020217434 -0.036734696 0.060999088
0003f0 83 0c 8d 3b a4 82 83 bd ff e5 c0 3c b8 b2 61 3d
       0.00430447 -0.06421402 0.02354717 0.05510208

fc4.weight f4 [3, 300]
000000 68 ec 8d 3c fd 67 c5 bd db 4e d8 bd 8b f5 cd bd
       0.017324641 -0.09638975 -0.105619155 -0.10056599
000010 e3 8d e4 bd 3e 0f 07 be 0d 2f 9b 3c 23 ef d5 bd
       -0.11159875 -0.13189408 0.018943334 -0.10446002
000020 78 da 59 3d 66 71 e6 bd 76 29 5f 3d 5a 6a 0a be
       0.053186864 -0.11252098 0.0544829 -0.13517132
000030 48 f5 86 bd f3 2d 03 be 6c cb 92 bd 82 ca 04 be
       -0.065897524 -0.12810497 -0.07167706 -0.12967876
000040 70 5c fe 3c 9b 4f bb bd 96 a8 01 be 5d 95 04 be
       0.031049937 -0.09146043 -0.12661967 -0.12947603
000050 b9 32 8a bd d5 f1 ea bc be fc 0f be 7e ed 44 3c
       -0.06747956 -0.028679768 -0.14061257 0.012019513
000060 12 8c a9 3b d0 4c 36 be d1 91 84 bc b5 df e9 bd
       0.0051741684 -0.17802739 -0.016182812 -0.11419622
000070 39 03 fe bd d2 82 2e 3d 12 e9 8e bb 96 49 ed ba
       -0.124029584 0.04260523 -0.0043612802 -0.0018103595
000080 9f cf 08 be e2 a6 c9 ba d5 da 19 be d1 3f b8 3c
       -0.13360451 -0.0015384818 -0.15024884 0.022491368
000090 2e 24 c9 bd 6d 79 b7 bd 5d b4 d3 bd 4b 04 89 3b
       -0.09821354 -0.08958707 -0.10337136 0.00418142
0000a0 c2 5a 21 be f3 64 25 3d df 6d 9c ba ef 65 8b bd
       -0.15757278 0.040379476 -0.00119346 -0.06806552
0000b0 25 dc ba 3c b3 c0 11 3d 62 2f 09 3c 8a c3 d8 ba
       0.022810051 0.035584163 0.008373113 -0.0016537767
0000c0 2f bc 41 3d 60 e8 08 3d 37 97 ce 38 07 3f 39 bb
       0.047298606 0.033424735 9.8510114e-05 -0.0028266327
0000d0 1d 20 ad bd 87 71 cc 3c 54 6e 84 ba a8 9e 0b be
       -0.08453391 0.024956478 -0.0010103681 -0.13634741
0000e0 a3 5c e8 bd b5 6a cf bd 20 3a cf 3a 33 01 cb 3b
       -0.11345794 -0.101277746 0.0015810169 0.0061952113
0000f0 58 68 0b ba 41 40 36 3d 05 bb 08 be b4 c8 73 38
       -0.00053179776 0.04449487 -0.13352592 5.8122634e-05
000100 93 5d 49 bc b2 cd 41 bb 28 7b cc bd b4 ef b5 3b
       -0.012290376 -0.0029572067 -0.09984428 0.0055522565
000110 ae f2 3a 3b f8 8f 34 3a 5c 16 0c 3d f9 10 7f bd
       0.0028525996 0.0006887908 0.03420101 -0.062272046
000120 1f 91 19 bb bf 2f b2 bd 30 17 05 be 92 71 bd bd
       -0.0023432446 -0.08700513 -0.12997127 -0.092501774
000130 e4 24 57 3d cf c9 be bd bd 3a c1 bd 44 4d 5f 3d
       0.052525416 -0.09315836 -0.094350316 0.054517046
000140 25 4b b5 3b 3f 4d b7 3c 04 1e fe bd 24 bc f5 bd
       0.0055326396 0.022375701 -0.12408069 -0.119987756
000150 e0 f3 84 39 68 c6 3a 3b d8 50 bd 3c 4b 2f 1c be
       0.00025358703 0.0028499607 0.023109838 -0.15252416
000160 9b 8d ba bd 8d cc ce bd 33 4b 1f be e1 1f 66 3c
       -0.0910904 -0.10097609 -0.1555603 0.014045686
000170 25 d6 b4 bd bc 6e 21 3d be 90 0f be bf 30 94 bd
       -0.08829907 0.039412245 -0.14020059 -0.0723586
000180 b5 37 81 3c 3c e4 39 ba 34 61 d5 3a 6e 44 12 be
       0.015773633 -0.00070911995 0.0016279579 -0.14283916
000190 a4 94 13 bb e8 df 04 be 11 09 cc 3c 6d d3 33 bc
       -0.0022519017 -0.12976038 0.024906667 -0.010975701
0001a0 92 7e dd bd 05 e5 aa 39 27 df 9a 3a 82 47 5b 3b
       -0.10815157 0.0003259556 0.0011815772 0.003345937
0001b0 06 ab a2 bd 0c b9 69 3d 78 d3 ca bd 40 b2 e8 3a
       -0.079427764 0.05706124 -0.09903616 0.0017753318
0001c0 99 72 04 be b0 70 e6 b9 84 f1 1d 3b 33 35 ba bd
       -0.1293434 -0.00043952977 0.0024100253 -0.09092178
0001d0 68 33 6d 3a 63 0c e7 bd ef 11 08 3d 8a a1 f4 bd
       0.00090484926 -0.112816595 0.033220228 -0.11944874
0001e0 7a 5d 1a bb b5 cf 07 be ca f6 ee bc b7 48 46 3b
       -0.0023554252 -0.13262828 -0.029170413 0.0030255744
0001f0 92 ce f0 bd 54 71 08 bb 10 42 fd bd 95 e5 5e bd
       -0.1175815 -0.0020819502 -0.12366116 -0.054418165
000200 b2 38 bb 3c c7 17 e2 bd 99 01 bd bd 97 63 6b 3c
       0.022854183 -0.110396914 -0.0922882 0.014367006
000210 2c 3f a0 bd f0 61 c2 3a c9 13 ba bd a8 66 01 bd
       -0.07824549 0.0014830213 -0.09085805 -0.03159204
000220 35 f4 a0 bd 56 f5 18 3d 95 c6 7b 3a 54 01 ef bd
       -0.07859079 0.037343346 0.0009604481 -0.11670175
000230 d8 90 2a bb ff 80 d7 bd d6 a9 e3 3b f4 88 62 ba
       -0.0026026275 -0.10522651 0.0069477363 -0.00086416234
000240 e1 56 29 3c c2 d5 01 be 6e e2 29 3c 15 2b 7c 3c
       0.010335655 -0.12679198 0.010368926 0.015391131
000250 67 21 c4 bd 68 da 8d 3a e7 5f ad 3c 7c 6c cd bd
       -0.095766835 0.0010822536 0.021163894 -0.100304574
000260 81 5f 00 be ce 18 42 3b 69 ae 5c bd e8 57 99 3a
       -0.12536432 0.0029616836 -0.053877268 0.0011699172
000270 e3 ad b7 3c e7 80 59 bd 6e 8d 01 be 37 b2 c8 bd
       0.022421783 -0.053101446 -0.12651607 -0.09799617
000280 70 07 f9 39 6a c3 04 be 5d 43 14 be 06 62 8c bd
       0.00047498522 -0.1296517 -0.14478822 -0.06854634
000290 d1 18 ca bd af 2a 05 be e2 31 29 3b cb 72 ed bd
       -0.098680146 -0.13004564 0.0025817086 -0.11594161
0002a0 72 e1 29 bb 57 db 00 3d 7c 32 19 be 24 66 c9 3b
       -0.002592173 0.03145918 -0.14960665 0.0061462093
0002b0 80 db d0 3c 4a a9 50 3b db 32 62 3c 18 1f ed 39
       0.02549529 0.0031839185 0.01380607 0.0004522733
0002c0 bd 83 97 bd 39 88 8d bd a5 3f a7 bd 2e f7 32 3c
       -0.07398174 -0.06910748 -0.08166436 0.01092319
0002d0 e7 a5 90 bd 3c fa 98 3a 4e b3 61 bd 87 cb f0 bd
       -0.07062893 0.0011671255 -0.05510264 -0.1175757
0002e0 0a 99 b3 bc 5f 85 30 3d 24 0f f0 bb 2c ea c8 bd
       -0.02192356 0.043095943 -0.0073260237 -0.0981029
0002f0 07 1c 00 be 3e 4f e7 bd 52 dd a3 bd c3 8f 10 3d
       -0.12510692 -0.11294411 -0.08001198 0.03529335
000300 e3 72 2a 3d 8d 26 8e bd 11 71 f9 bd 4f 67 0c be
       0.04161347 -0.06940947 -0.12179769 -0.13711284
000310 1f 3a 06 be 69 78 cb bd d3 9d fb bd ed dc 7b 3b
       -0.13108109 -0.09935076 -0.12285962 0.0038431243
000320 a2 96 ff bd 23 6f e7 3c dd bd 43 bd 19 10 00 be
       -0.12479903 0.028251236 -0.04778849 -0.12506141
000330 02 e7 fa 3c 87 8a bf bd ad 73 07 be 9a 59 0d 3c
       0.030627731 -0.09352594 -0.1322772 0.00862732
000340 b9 c1 0c be 2c d7 b9 bd 91 c6 07 be d8 ba a4 3a
       -0.13745774 -0.09074244 -0.13259341 0.0012567891
000350 fb 80 23 3c ab ab 18 3c 73 5e b7 3c 30 81 70 ba
       0.009979482 0.009318273 0.022383904 -0.0009174524
000360 e2 05 d2 bd 5d 57 cf 3c 81 36 06 3d e0 9b 31 bb
       -0.10255028 0.025310213 0.032766823 -0.0027100965
000370 0e 9a a0 bd e2 51 8b 3c 28 4b a5 ba b0 c4 9c bd
       -0.078418836 0.017006818 -0.0012610899 -0.07654703
000380 f3 67 ff bd 4b da aa bd 77 c4 0e be 1e e7 d1 3c
       -0.124709986 -0.08342417 -0.13942133 0.0256229
000390 3d 31 8d 3c ab 13 ed bd dc d7 68 ba 0d 1e 36 bc
       0.017235393 -0.11576017 -0.0008882263 -0.011115563
0003a0 e2 9a 14 be b0 6a 08 3d 56 cb ed bd 70 c3 49 bd
       -0.14512208 0.03330487 -0.11611049 -0.04925865
0003b0 e7 54 29 3b 9a 32 d1 bd ae 8a 4b bc e8 df 38 bb
       0.002583796 -0.102147296 -0.0124232005 -0.002820963
0003c0 77 cf 05 3d 4f 72 f1 bd 41 45 14 3d db a4 df bd
       0.032668557 -0.11789381 0.03619886 -0.109201156
0003d0 b6 57 19 be 0c 7f f6 3c 35 61 58 3d 2c 76 4b 3c
       -0.14974865 0.030089878 0.05282708 0.012418311
0003e0 45 cb 05 be 7f 58 02 bd 2e 2c 32 bb 25 32 d9 3c
       -0.13065822 -0.031822678 -0.0027186978 0.026513169
0003f0 d3 69 ea bd 86 2d de bd b9 3a 40 3c 48 b6 b1 3c
       -0.114459656 -0.10848527 0.011732751 0.021693364

fc4.bias f4 [3]
000000 4b 03 8b 3c 50 07 e3 3c 3a 4d 6b bd
       0.016969344 0.027713448 -0.057446696
