checkpoint_critic.pth (torch, 504167 bytes, 5 tensors)

fcs1.weight f4 [400, 9]
000000 f2 46 40 bd c7 1d 92 bd 23 b3 94 bb 57 72 43 bd
       -0.04694266 -0.07134586 -0.0045379563 -0.047716465
000010 2b 9a db bd 11 16 8f be 9e 7b 02 3d 05 86 f6 3d
       -0.107227646 -0.27946523 0.03185617 0.12037281
000020 37 30 8a 3d 6e 80 78 3e 95 e0 58 3d 8f c6 16 3e
       0.067474775 0.24267742 0.052948553 0.14724182
000030 f5 2c e4 bc ad 8d 51 be 52 c8 92 bb 68 16 fb bd
       -0.027853468 -0.20464201 -0.0044794464 -0.12260133
000040 6b 0e 44 3c 82 fe 0e bd 38 df 7d bc fe 7b d3 bd
       0.011966328 -0.034910686 -0.015495114 -0.10326384
000050 23 c0 1d bd db 01 2a 3d e7 1d 3c 3d 73 4c 51 be
       -0.038513314 0.041505676 0.045926955 -0.2043932
000060 f7 2b 7e 3d 3c dd 73 3c 35 53 83 bd 58 9c 51 bc
       0.062053647 0.014884289 -0.06412355 -0.012793623
000070 3e 6c 0f bd e0 f7 5b bc d5 51 0c 3d 68 77 de bb
       -0.035015337 -0.013425797 0.03425773 -0.0067891367
000080 c1 f6 18 3d 46 a6 97 3c b9 d6 39 3d 79 14 16 3d
       0.037344698 0.018511903 0.04537079 0.036640618
000090 8c 71 0e bc fa 66 4c bd b7 37 c7 bc f0 a4 ed bb
       -0.008694064 -0.049902894 -0.02431856 -0.007252328
0000a0 fc ef 8b bc dc 67 66 3c 38 d6 38 bd 58 d2 2b bd
       -0.017082207 0.014062848 -0.04512617 -0.041948646
0000b0 92 2f b8 3c 9f 28 21 bd b1 e7 51 bd 08 d7 c6 3c
       0.02248362 -0.03934538 -0.05124635 0.024272457
0000c0 b7 b6 31 3c 5a 71 84 bd be 5e 7c be 22 66 c4 3c
       0.010846785 -0.064669326 -0.24645516 0.023974482
0000d0 c8 8f 08 3e ef 34 16 3d 98 10 58 bc 60 d6 4c bc
       0.13336098 0.036671575 -0.01318755 -0.012502283
0000e0 6c a4 10 3c 90 4c a7 bb 63 56 a0 bc da 59 97 bc
       0.008828264 -0.0051055625 -0.019572442 -0.018475462
0000f0 00 b8 51 3b 10 95 ac 3b 4a 34 c9 bc 35 c9 04 be
       0.0032000542 0.005266793 -0.024561066 -0.1296738
000100 79 a4 43 bb 89 5a 5f 3d d0 8a 45 bc 59 87 69 be
       -0.0029852672 0.0545297 -0.012057021 -0.22805537
000110 8d 2b 77 3d 0f e7 86 3d c5 81 43 3d 61 aa e6 3c
       0.060344268 0.0658704 0.04773118 0.028157415
000120 34 cc e3 bd b2 89 12 3c e6 70 30 be e9 03 98 bc
       -0.11122933 0.008943962 -0.17230567 -0.018556552
000130 9f cb 84 be 26 b5 93 bd 29 38 e7 3d 9a fd 25 3d
       -0.259366 -0.07212286 0.112900086 0.040525056
000140 7d 0d 08 bd 6e ea df bb 6d ed 6c 3d e4 8b 4a bd
       -0.03321599 -0.006833366 0.057843614 -0.049449816
000150 50 60 75 bd cb 87 62 be 70 7e 67 3e 0d 94 09 3e
       -0.059906304 -0.22122113 0.22606826 0.13435383
000160 7a de 25 3d 92 42 59 3d 4e 15 a4 3d 16 3e f2 bd
       0.040495373 0.053042002 0.08011876 -0.11828248
000170 79 6c 69 3c e8 9c 8c bd a1 6a 90 bd 06 ee 59 3d
       0.014247053 -0.06865865 -0.07051588 0.053205512
000180 5b 60 be 3c d0 6f f0 3d 44 80 27 3e 99 7c 2e 3e
       0.023239305 0.117400765 0.16357523 0.17039718
000190 17 8b 00 3c d4 f6 c4 bd 33 58 8f 3d 01 bd 26 3d
       0.007845662 -0.09617391 0.069992445 0.040707592
0001a0 a1 54 9d bc 8e 69 09 bd e3 03 ba 3c 69 38 1a bd
       -0.019205393 -0.03354793 0.022706931 -0.037651453
0001b0 99 56 4e 3c 89 96 b4 3d 16 59 84 3b bd b3 f0 3d
       0.012593889 0.08817775 0.00403894 0.11753032
0001c0 58 e0 b3 3c 5f a6 1e bb 4c 2e 32 3d 1c 21 f3 3d
       0.021957561 -0.0024208052 0.043501183 0.118715495
0001d0 21 c9 29 bd 55 08 a5 bd e6 26 4b bd 8e 2b 3c 3a
       -0.041451577 -0.0805823 -0.049597643 0.0007178121
0001e0 e3 75 af bc 3b 8a 6f be d0 24 e4 3b ac b0 b2 bd
       -0.021418517 -0.23392574 0.006962396 -0.08725104
0001f0 1d 50 6b 3c e6 f7 1a ba 3b 30 3d bd b3 4c 0b bc
       0.014362362 -0.00059115735 -0.046188574 -0.008502173
000200 3a 5f 12 be 4c b7 10 bd 6f 36 c3 3d d9 7a ab 3c
       -0.14294139 -0.035331056 0.09531867 0.020932602
000210 94 6b 81 3d 32 87 aa bc b8 44 0d 3d 34 fb b2 bb
       0.06319347 -0.02081642 0.034489363 -0.0054620747
000220 53 17 8b 3c af bb f3 3d ce 1e 48 bd 63 31 30 be
       0.016978895 0.11901032 -0.048857503 -0.1720634
000230 f1 d7 83 be 06 95 89 3d f4 1b a8 3d fb aa 76 3d
       -0.25750688 0.06717877 0.08208457 0.060221653
000240 a3 24 b3 bc d9 ed fd bc 02 cc 89 bd 42 a2 7c 3d
       -0.021868056 -0.030997204 -0.067283645 0.06167818
000250 83 72 56 be 2d f0 96 be 27 a9 0d 3e 34 6c 10 3d
       -0.2094212 -0.29480115 0.13834058 0.03525944
000260 95 84 07 bd 07 5b 28 3e c9 18 1c bd e2 13 dc 3d
       -0.033085424 0.16440974 -0.038109574 0.1074598
000270 7c 20 85 3d 43 d7 65 be 3c 40 34 3c c3 82 32 be
       0.065003365 -0.22445397 0.011001643 -0.17432694
000280 da f5 37 bd 56 5f da bc 1e 32 9b 3c d5 41 3f bd
       -0.044912197 -0.026656788 0.018944796 -0.04669364
000290 bb 58 0d bd 93 de a1 bc fe 1c 0e bd ad b5 fc bc
       -0.034508448 -0.019759452 -0.034695618 -0.030848349
0002a0 84 ce 8c bc c0 59 4a 3c d8 78 0a bd 52 8f 11 be
       -0.017188318 0.0123505 -0.03380665 -0.14214829
0002b0 d5 bb 64 bd 02 f9 60 ba c4 1e 12 bc 03 36 b8 bc
       -0.055843193 -0.0008582027 -0.008918468 -0.022486692
0002c0 db 5a 78 be 9e e1 85 3d 4b db 16 bd db 79 11 bc
       -0.24253409 0.06537174 -0.036830228 -0.00887915
0002d0 ac cc 71 3c d6 18 ac 3c e2 7e a2 3c 00 e1 32 bb
       0.01475827 0.021007936 0.019835893 -0.0027294755
0002e0 18 03 4a bc e2 e3 ae 3c 80 55 da bc f8 c7 19 bd
       -0.012329839 0.021348897 -0.026652098 -0.03754422
0002f0 ac 5b 10 bc 19 b1 0f be 88 a1 85 bd 69 5e 50 3d
       -0.008810919 -0.14032401 -0.0652495 0.050871287
000300 ac d2 64 3d 5c 50 5b be 7d 10 cb 3d 69 22 ac 3d
       0.055864975 -0.21417373 0.09915254 0.08405001
000310 c6 29 c5 3c 51 4c 9d bd aa 8c 83 3c 4a e9 c8 bc
       0.02406777 -0.07680572 0.016058285 -0.024525303
000320 e6 07 b0 3c d0 51 09 bb b4 35 4a 3c 95 16 3a bd
       0.021488141 -0.0020953305 0.012341905 -0.045431692
000330 63 65 4c bd 1d 86 bf bc ac 15 65 bc 80 33 0e bc
       -0.049901377 -0.02337938 -0.013982218 -0.008679271
000340 d0 42 03 bb 40 bf 39 3a e0 bb 74 bb a5 d6 3a bd
       -0.0020028837 0.00070856884 -0.0037343428 -0.045614857
000350 23 fb ca bc 14 8f 3f bc e7 c8 b6 bc 4a 34 80 bc
       -0.024777954 -0.011691827 -0.022312595 -0.015649933
000360 7a fd be bc e8 97 37 3c de 5b f3 3c 68 56 99 3b
       -0.023314226 0.011205651 0.029706892 0.00467949
000370 d3 ad 3d bd c0 cc d1 bc 70 b7 9b 3b a8 cb e5 bb
       -0.04630835 -0.025610328 0.004752092 -0.007012803
000380 74 28 64 bc c4 98 84 3d 7f 4e 95 bd 0d 0f 77 bc
       -0.01392566 0.0647445 -0.072903626 -0.015079272
000390 45 57 b0 3c 3f e0 90 bd 76 84 78 be 5a fc 09 bc
       0.021525988 -0.070740215 -0.2426928 -0.008421982
0003a0 2c 76 16 bd 91 ee f0 bd e8 fa 18 3c 34 07 5a bc
       -0.03673379 -0.11764253 0.009337164 -0.013307381
0003b0 b0 ac 8e 3b de 88 2a bd a3 4f cd bc 63 3d cb bc
       0.004354082 -0.041634433 -0.025062388 -0.024809545
0003c0 f2 5d b5 3c d8 90 25 3c 3f e8 3f bd 3c 39 91 bd
       0.022139523 0.010105334 -0.046852347 -0.07090995
0003d0 e7 26 08 bd 9a da f8 3c 4a e4 7a bd fa e3 0f be
       -0.033240225 0.030377675 -0.06125287 -0.1405181
0003e0 d0 57 96 be 4c 6d 0e 3e a9 54 e4 3c a9 c7 e0 ba
       -0.2936387 0.13908881 0.0278724 -0.0017149347
0003f0 b8 69 3f 3c e3 6f 48 bc fe 08 38 be 2e ea d2 3b
       0.01168292 -0.012233707 -0.1797218 0.006436608

fcs1.bias f4 [400]
000000 c4 dd c0 3d 0a 32 1a be a6 ec 5c 3e 53 62 66 be
       0.094172984 -0.15058151 0.21574649 -0.22498445
000010 6e b0 99 be 80 cd 29 3d 3b 32 a3 be 17 38 c3 3d
       -0.30017418 0.041455746 -0.3187426 0.09532183
000020 f1 b7 0a bd 03 b2 46 3c 23 40 d8 bd b6 4f 3b 3d
       -0.033866826 0.012127402 -0.10559108 0.045730315
000030 0d 35 4e be 2b 6f 46 3e a9 55 e6 bd 07 b5 c9 bc
       -0.20137425 0.19378345 -0.11246807 -0.024622453
000040 e6 b2 51 bc 1c df 3b be 1a 51 88 be 82 b6 97 bc
       -0.012799 -0.18346828 -0.26624376 -0.018519644
000050 96 99 82 be 3f 08 8a bd f3 5b 6d be 36 f0 d9 bd
       -0.25507802 -0.06739854 -0.23179607 -0.1064152
000060 ac 70 8a be 22 7a 4a 3e 5b 08 8f be 26 3c 5b be
       -0.27039087 0.19773152 -0.27936062 -0.21409664
000070 f5 00 40 bd a9 11 c0 3d 07 b7 c3 3e 80 42 1e be
       -0.046875913 0.093783684 0.38225576 -0.15455055
000080 54 eb 83 3e 7a 40 cb bd 9c 91 cb 3d ed a4 89 bd
       0.2576548 -0.09924407 0.09939882 -0.0672091
000090 9b 12 af 3e c1 30 f4 3d 21 21 bf bd 74 03 af 3e
       0.34193882 0.119233616 -0.09332491 0.34182322
0000a0 43 c4 c1 3e 10 79 9c be 70 e2 c7 3e 05 32 d0 bd
       0.37845048 -0.30561113 0.39039946 -0.101657905
0000b0 b2 a4 c2 3e 6e 9d b9 3e 7b 08 a0 be da ce ad 3e
       0.38016278 0.36252922 -0.3125647 0.33946878
0000c0 32 f0 a2 ba 82 8a 62 3e 9c b6 8a bc f5 c7 2e be
       -0.0012431203 0.22123149 -0.016932778 -0.17068465
0000d0 f3 df 8c be 8a ec 05 3e fc 75 ce 3d 38 d2 58 3d
       -0.2751461 0.13078514 0.100810975 0.052934855
0000e0 43 4b 6c be 9a 38 a6 be 06 54 5f be 3e 56 84 be
       -0.23075585 -0.3246506 -0.21809396 -0.25847048
0000f0 ad 89 5f bc 4a 34 84 be de 66 5f be b7 25 a4 be
       -0.013643664 -0.25821143 -0.21816584 -0.32060024
000100 e0 38 8d 3e 9c 1e 82 be 19 2a 92 bc bd 57 54 bd
       0.27582455 -0.25413978 -0.01784234 -0.051841486
000110 3f 31 82 3e 20 0a 96 3e 6e ff 7c be ef d2 00 be
       0.25428197 0.293046 -0.24706814 -0.12580465
000120 b6 0c c9 3e 66 42 0a be 2d 5a 0d bd f8 bd e4 bb
       0.3926751 -0.13501891 -0.034509826 -0.006980654
000130 a3 3a 0f 3e 96 33 5c 3d e0 b1 23 3d 10 ad 37 be
       0.13987212 0.053760134 0.039964557 -0.17937112
000140 36 05 bc 3e f5 db 5e 3e 66 b0 06 be c1 4a 8f 3d
       0.36722726 0.21763594 -0.13153228 0.0699668
000150 80 38 85 3e 9f d1 fd bc 43 ed 8f be b4 8e 89 be
       0.2601967 -0.030983744 -0.28110704 -0.26866686
000160 eb bc be 3e 8e f1 09 be 00 56 8f be 28 d1 a0 be
       0.37253508 -0.13471052 -0.279953 -0.31409574
000170 7e 2a 59 3e 4e f7 b9 3c 4f 0d a2 3d b1 c8 af 3e
       0.21207616 0.022700932 0.07912695 0.34332803
000180 62 3b 84 3e 48 ab 4f be 6a 86 0e 3c 54 9a 81 be
       0.25826555 -0.20280182 0.008699039 -0.25313056
000190 6a 5f 93 3e c2 c3 cc 3d 68 b4 88 be 3e 82 72 3e
       0.28783733 0.09998275 -0.2670014 0.23682496
0001a0 ad 66 18 3e 1f ec 1b be 3a d8 88 be 54 41 40 3e
       0.14882918 -0.15226792 -0.26727468 0.1877492
0001b0 f3 05 86 be 7f ee a9 3e 52 d8 ce bc a3 6d 65 be
       -0.26176414 0.3318977 -0.025249634 -0.22405104
0001c0 60 d4 50 be cb e2 56 be 9c 48 25 3d 2c ab 35 3c
       -0.20393515 -0.20984952 0.04035245 0.011088174
0001d0 37 e9 b6 bd c0 a4 41 3d a2 0f ba bc fe 96 3f 3e
       -0.08931201 0.04727626 -0.022712532 0.18709943
0001e0 dd 4b b9 3e 75 8f b9 3e 12 c0 08 3c e7 6b b9 3e
       0.36190692 0.36242262 0.008346574 0.36215135
0001f0 42 55 31 3e 05 9c e2 3e 4e d2 25 be 1e c6 25 bd
       0.1731768 0.44259658 -0.16193506 -0.040472142
000200 43 19 41 bd fe c1 90 be c6 44 e2 bd 88 66 30 be
       -0.047143232 -0.28273004 -0.11048274 -0.17226613
000210 91 15 d4 3c dc 91 d9 3e c3 91 98 be bb 92 3b be
       0.02588919 0.42494094 -0.29798707 -0.18317692
000220 1a be 97 be c2 47 bd 3e 88 9c c5 bc 04 74 0e 3e
       -0.29637223 0.3696881 -0.024122491 0.13911444
000230 aa f6 2e 3e c2 00 8f bc 06 30 85 3e 56 c5 5e be
       0.17086282 -0.017456416 0.260132 -0.21754965
000240 1b 5d 7f be 57 7f 67 bd 2b 18 a5 3e 77 78 4b 3e
       -0.2493786 -0.056517925 0.32245 0.19870172
000250 a6 50 e3 bc 17 60 c7 bc 29 73 a1 3e a9 f5 9b bc
       -0.027748417 -0.024337811 0.31533173 -0.019038038
000260 6c 65 a0 3e 53 2a 22 be d1 41 25 3e b8 d2 8a 3e
       0.3132738 -0.15836458 0.16138388 0.2711389
000270 40 02 cb 3e 25 f1 ca 3e fb ca a2 3e 60 b5 90 3e
       0.39650154 0.39637104 0.31795487 0.28263378
000280 16 00 78 be 5e c1 92 3c 80 a4 6b 3e 71 46 10 3d
       -0.24218783 0.01791447 0.2301197 0.03522343
000290 b3 43 ac 3e ae d7 b4 3c 87 bb 93 3e b3 8b b1 3e
       0.336454 0.0220755 0.2885401 0.34676895
0002a0 4f f3 2a bd 7a cb 99 be 4a 89 76 bd 67 1f 74 3e
       -0.041735943 -0.30038053 -0.060189523 0.23840104
0002b0 c8 eb 73 be 05 b2 c6 bd dc ab 69 3e 11 77 3f 3e
       -0.23820412 -0.09701923 0.22819465 0.18697764
0002c0 63 4d 2a be aa 07 40 3e 2f 2e 31 3e 61 04 b8 3e
       -0.16631083 0.18752924 0.17302774 0.3594084
0002d0 b0 5f a8 3e cb f3 34 3e 67 b1 4d be 2d 33 8b 3d
       0.32885504 0.17671125 -0.20087205 0.067968704
0002e0 e8 36 4a 3e 0a 22 51 3c 89 88 2c 3e ac 60 80 bd
       0.19747508 0.012764463 0.16848959 -0.06268439
0002f0 9f 03 9b be 3a 2d 48 be 1e 06 74 be bd c1 4b 3e
       -0.302762 -0.19548503 -0.23830459 0.19898124
000300 7c 62 a1 be 1b 2a 2d be 56 e4 29 be 60 18 94 3d
       -0.3152045 -0.16910593 -0.1659101 0.07231212
000310 a1 67 49 3e 96 dc 8d be 90 16 d7 bd eb c0 e3 3e
       0.19668438 -0.27707356 -0.1050235 0.44483122
000320 9e b1 bf bc 83 aa 37 3e 92 83 8c be 7f 14 1d bd
       -0.023400124 0.17936139 -0.2744413 -0.038349625
000330 53 e8 a9 bc 20 8d 0f 3e df e2 f6 3c b8 2d 3e be
       -0.020740664 0.14018679 0.030137477 -0.18572128
000340 23 a0 39 be c7 39 19 be ba 90 31 3e 79 91 7f be
       -0.18127494 -0.14963447 0.17340365 -0.24957837
000350 ef 26 8e 3e e1 e4 8a bd 60 0a 8b 3e e1 6e 31 3e
       0.2776408 -0.067819364 0.27156353 0.17327453
000360 c7 03 9a bd d2 d3 28 be 13 e8 48 be 07 a7 87 be
       -0.07520252 -0.16487053 -0.1961978 -0.2649462
000370 27 ba 8b 3e 38 fd 94 be 74 32 8e 3e 18 a8 5c be
       0.2729046 -0.2909944 0.27772868 -0.21548498
000380 c3 72 1a be 9a 1d a8 3e 66 6f 95 be 56 e2 0c bd
       -0.1508284 0.32835084 -0.29186553 -0.03439554
000390 36 9c b9 3e e7 a5 a3 be fe c6 6a be 2f f7 0c be
       0.36251992 -0.3196251 -0.22927472 -0.13766168
0003a0 d8 f6 23 be f6 49 cf bd 62 80 9e be 54 c6 93 3d
       -0.16012132 -0.10121529 -0.30957323 0.072155625
0003b0 e1 5e 39 be 8c 4a 97 3e d1 7f 82 3e 61 6e 55 3e
       -0.181026 0.29549062 0.2548814 0.20842887
0003c0 1b 40 94 be f4 5d 83 be 88 5e 5b 3e 13 26 c7 3e
       -0.2895516 -0.25657618 0.2142278 0.38896236
0003d0 1c db 49 3d a7 b8 39 be 3f 16 87 3e 10 11 54 be
       0.049281225 -0.18136846 0.2638416 -0.20709634
0003e0 73 8a a0 be 42 62 3b 3e a8 a1 6d be 96 60 85 be
       -0.31355628 0.18299201 -0.23206198 -0.26050252
0003f0 eb cd a3 be bc 0b 55 be e0 55 52 3e db 67 0f 3d
       -0.3199304 -0.20805258 0.20540571 0.035011154

fc2.weight f4 [300, 403]
000000 b9 24 77 bd db f4 1e bd 94 54 51 bd 48 b7 c2 bb
       -0.060337756 -0.03880773 -0.05110605 -0.005942259
000010 a8 ad 9d 3c 25 c6 df bb 20 f8 4d 3b dc 7d 25 3d
       0.019247845 -0.0068290406 0.0031428412 0.040403232
000020 14 f3 41 bd 60 b1 45 3c 56 4e 32 bd 3d 4a 7b bd
       -0.047350958 0.012066215 -0.04353174 -0.061350096
000030 90 ad e5 3c ce 04 c0 3c 6c 1f ad 3c 40 20 ad bb
       0.028036863 0.023439791 0.021133147 -0.0052833855
000040 5c a2 c5 bc 7c 8a 15 bd 4c 52 08 bd da d5 ad bc
       -0.02412527 -0.036509022 -0.03328161 -0.021220136
000050 f9 cf 58 bd 0c 3b c4 3c dc aa 0c bd a2 93 3c bd
       -0.052932713 0.023953937 -0.03434263 -0.04603923
000060 d2 5c 52 bd 3f cf 45 bd 38 9b 9e 3c a8 19 0f bc
       -0.05135805 -0.04829335 0.019361123 -0.008734144
000070 88 b8 09 bd cd 0a b8 3b 21 af cc bc e8 e7 4c 3c
       -0.03362325 0.005616522 -0.024985852 0.012506463
000080 4d 4a 14 bb f7 c9 65 bd d0 1f b6 3c cc 2d 2d bd
       -0.0022627295 -0.05610081 0.022231966 -0.042280003
000090 f4 b3 33 3c 74 24 d0 3c fc ab ed 3c 73 ea c6 bb
       0.010968197 0.025408007 0.029012673 -0.006070429
0000a0 7c 22 89 bc de 66 57 3d 01 c1 3a bd 56 83 9f bc
       -0.016740076 0.052588336 -0.04559422 -0.019471806
0000b0 6c ca 93 bc f0 cc 7a bd 1e ec 01 3d 2e 62 91 bc
       -0.018040858 -0.0612306 0.03171932 -0.017747011
0000c0 20 66 38 bb 64 b1 7a 3c 64 4e d3 3c 7c 7f d1 3c
       -0.0028137043 0.015301082 0.025794216 0.025573485
0000d0 a0 d3 d7 bb a6 08 06 3d f4 bb c8 3c 26 e7 5f 3d
       -0.006586507 0.03272309 0.024503686 0.0546638
0000e0 02 84 9b bc 29 48 43 bd f8 65 20 3c 9d 7c 31 bd
       -0.018983845 -0.04767624 0.009789936 -0.04333173
0000f0 8c 5d 0b bd e0 a8 14 3c 28 80 9d 3c 04 08 f1 3c
       -0.03402476 0.009073466 0.019226149 0.029422767
000100 30 68 c3 bc 90 34 5f 3c 77 17 a6 3a f0 26 26 bd
       -0.023853391 0.013623372 0.0012671788 -0.040564477
000110 15 a6 0e bc 8b f4 c4 bc 92 73 54 bd 36 0a 54 bd
       -0.008706589 -0.024042388 -0.05186803 -0.05176755
000120 55 d0 27 bd f8 ae c5 3c 7c b4 08 3d 80 c0 8d bc
       -0.040970165 0.024131283 0.03337525 -0.017303705
000130 78 0d 50 3c 57 80 23 bb 7b fe 22 bd 80 8d 4f bd
       0.012698524 -0.0024948323 -0.039793473 -0.050672054
000140 8c 43 cb bc 9c 3f 14 bd d0 dd 4b 3d d8 49 55 3c
       -0.024812482 -0.036193475 0.049772084 0.013018094
000150 b0 2b cd 3c fe 16 8d bc 00 52 ac b9 c8 2e 5c 3c
       0.025045246 -0.017222878 -0.0003286749 0.013438888
000160 e9 34 d0 bc fc da 2b bd b2 6b 22 3d a4 c7 ff 3c
       -0.025415855 -0.041956887 0.039653488 0.031223126
000170 95 cc 55 3c a4 b3 1c bc ae ce 22 3d 90 7c 73 bc
       0.013049264 -0.009564314 0.039747886 -0.014861241
000180 9b e7 48 bd 50 12 69 3c d2 7b 1c 3d 54 16 6b bd
       -0.049049 0.014225557 0.03820402 -0.05739434
000190 0b 49 ee 3c c0 7a e3 3b 18 61 10 3c 86 1b 59 3d
       0.029087564 0.006942123 0.008812211 0.053004764
0001a0 0c 7f c4 3c e0 a2 8e 3a b2 2a 5f 3d ce 51 52 3d
       0.023986362 0.0010882281 0.054484077 0.051347546
0001b0 80 0b dd bc 58 e4 54 bd 16 7b b4 bc 16 a7 46 3d
       -0.026983023 -0.051975578 -0.022031348 0.04849919
0001c0 76 4f d6 bc fe 65 0a 3d 78 32 30 bc f8 f3 e7 3c
       -0.026160937 0.033788674 -0.01075422 0.028314576
0001d0 b0 12 21 bb 28 dc 3e bd c4 67 b8 bc cf eb 71 bd
       -0.002457779 -0.046596676 -0.022510417 -0.059062775
0001e0 45 85 b5 bb aa 71 4b 3d 44 57 22 bd 46 8c 50 3d
       -0.0055395686 0.049668945 -0.039634004 0.050915025
0001f0 66 fe 92 bc da 83 73 bd f0 de eb bb bc 3e 28 3d
       -0.017943572 -0.059451915 -0.007198207 0.041075453
000200 12 b7 c5 bc a0 de 09 3c 67 4f 5f bb 06 4e 38 bd
       -0.024135146 0.008414894 -0.0034074427 -0.044996284
000210 20 6d b9 3b b1 a6 8a 3c ff 2a 48 bd c4 c3 a1 3c
       0.0056587607 0.016925188 -0.04886913 0.019746669
000220 af 50 16 bd 2b 5e 75 bd 60 39 00 3d 39 0c d8 bc
       -0.03669804 -0.05990426 0.031304717 -0.026373016
000230 ae 86 cd 3b 77 7a 56 bb d4 ae 10 bd 08 00 73 3c
       0.0062721586 -0.0032726803 -0.03532298 0.01483155
000240 0c a0 01 3d 18 02 06 3d 47 1d a9 3c 40 16 a7 3a
       0.031646773 0.03271684 0.020643843 0.001274772
000250 72 28 4c 3d 98 12 25 3d 6a 60 c7 bc 6f 19 9a 3b
       0.04984326 0.040300936 -0.024337966 0.004702739
000260 0a 38 93 3b c2 8e 8e bc c4 42 ad 3c 72 8e 50 bc
       0.0044927644 -0.017402057 0.02115 -0.012729274
000270 6f 93 62 3b aa 87 89 bb f7 df e8 3c a4 71 28 bc
       0.003457274 -0.0041970806 0.028427107 -0.010281
000280 c4 e1 24 3d 21 8b 3d bd 8f e3 25 bc e3 df da bc
       0.04025437 -0.04627526 -0.010125055 -0.026718086
000290 08 4a d3 3b c2 34 cb bc fd fd 34 3d 1d d3 41 bc
       0.006448034 -0.02480543 0.044187535 -0.0118301185
0002a0 5f 67 27 3b 66 d1 24 bd d2 ad 67 3d 37 62 e9 bc
       0.0025543792 -0.04023876 0.056562252 -0.028489215
0002b0 e0 3a 6a bd 98 7a eb bb 11 56 ee 3a b8 85 b0 3c
       -0.057185054 -0.007186245 0.0018183609 0.021548137
0002c0 68 ba 1b bd e2 5d cd ba 5f b8 0d bc e3 5b 62 bd
       -0.038019568 -0.0015668238 -0.0086499145 -0.05526341
0002d0 ab ac c6 bc 18 78 8e bb e6 e8 49 bd 39 d0 08 3d
       -0.024252256 -0.0043478124 -0.049294375 0.0334017
0002e0 ba 6b 2d 3d 69 f8 26 bd d1 19 f3 bb b5 28 06 bd
       0.042339064 -0.040764246 -0.007418849 -0.032753665
0002f0 34 bc 35 3d 6f 57 88 3c ca ed 29 bd b0 31 1b 3d
       0.044368938 0.016643254 -0.04148654 0.037889183
000300 fd 09 59 bd 46 25 45 3d ca 0d 25 3d 18 40 9c bc
       -0.05298804 0.04813125 0.040296353 -0.019073531
000310 04 bc d7 bc 50 33 2e bd 20 91 56 bc 71 09 80 3c
       -0.02633477 -0.042529404 -0.013096124 0.015629502
000320 70 39 19 3d 9e fd fe 3c d0 e1 18 3d 46 d8 3c bd
       0.037408292 0.031126793 0.037324727 -0.046104692
000330 b9 b6 b6 3c e0 ce a6 3b a0 8d 2f 3c 00 cf 81 3c
       0.022303926 0.0050905794 0.010714918 0.015845776
000340 aa 7e 5d 3d ff 89 4e bd 1f 4a 17 3d 42 f5 f9 bc
       0.054075874 -0.050424572 0.03693592 -0.030512456
000350 86 cf 67 3c 04 9d 12 bc 72 0d 56 bd 80 92 b9 3c
       0.014148599 -0.008948568 -0.052258916 0.022652864
000360 ea 76 1e bd a2 a7 d3 bc f0 55 c3 3c 7c bb da 3c
       -0.038687624 -0.02583677 0.02384469 0.026700728
000370 65 40 37 bd d0 9b 30 3d 34 9f 95 bc 3c 73 aa bc
       -0.044739146 0.043117344 -0.01826439 -0.020806901
000380 88 61 df bc 15 d1 35 3d 40 61 1b bb 7a a5 67 bd
       -0.027268186 0.04438885 -0.0023709089 -0.056554295
000390 44 4f a2 bc d0 63 8b bb 78 40 5f 3c ac e7 b1 3c
       -0.019813187 -0.004253842 0.01362621 0.021716915
0003a0 6f ac 51 bd 24 b1 35 bd f0 53 d9 3b f8 6d 6a bc
       -0.051189836 -0.044358388 0.0066323206 -0.014308445
0003b0 60 51 8a ba 5b ea 47 bd 69 cd eb 3c 20 5b 46 bd
       -0.0010552816 -0.048807483 0.02878447 -0.048426747
0003c0 ac d1 20 bd 68 c5 68 3d 58 b5 87 bc ce 1c 24 bc
       -0.03926246 0.056828886 -0.016565964 -0.010016633
0003d0 64 14 37 3d a0 6b 3e bd 10 5a c4 bc 84 58 08 bd
       0.04469718 -0.046489358 -0.023968726 -0.03328754
0003e0 70 bd e8 bb 86 21 bb bc 48 26 46 3d ee d0 68 bd
       -0.007102661 -0.022843134 0.04837635 -0.056839876
0003f0 54 28 16 bc 25 ff f9 bc ff 41 c7 3c d7 be 61 bd
       -0.009164888 -0.03051717 0.024323462 -0.05511364

fc2.bias f4 [300]
000000 ce 93 0a bd ee 9d 25 bc 4b a4 47 3c 42 ee 28 3d
       -0.033832364 -0.010108454 0.012185167 0.041242845
000010 fa 6b 8c 3d 9a 71 29 bb 59 50 9f 3c f1 3e 38 bd
       0.068565324 -0.0025855065 0.019447492 -0.0449819
000020 9e f5 9c 3c 47 51 17 3d f5 fd a1 bc 58 0e 5c 3d
       0.019160088 0.036942746 -0.019774416 0.053724617
000030 b9 db eb 3d 81 de 82 3d 1f 51 96 3d 9c 25 7b 3c
       0.11516518 0.063900955 0.07339691 0.015328791
000040 92 fd 06 3e 22 b1 91 3d 31 13 04 bd e7 df a9 bc
       0.13182667 0.071138635 -0.032244865 -0.020736648
000050 6c 18 75 3d 05 cc 0c bd ec 14 07 3e f5 2e c1 ba
       0.059837744 -0.034374256 0.13191575 -0.0014738726
000060 e5 30 2f 3d ca ac 18 3d 99 cb 19 3d 92 dc 66 bd
       0.04277124 0.03727416 0.03754768 -0.056362696
000070 fc e8 7b 3c ac ca 56 bd 3a 2d 8f 3d d4 00 2b 3d
       0.015375372 -0.052439377 0.06991048 0.041748837
000080 c3 8a 99 bc 57 d5 f8 3d a1 ab 45 3d 83 9d 45 bd
       -0.018742925 0.12150066 0.04825938 -0.048245918
000090 d2 c9 a1 3c 03 0a 59 3d ed 54 68 bd 4a d0 ca 3d
       0.019749556 0.052988064 -0.056721617 0.09903009
0000a0 8d f1 92 3d d3 0d da 3c d3 be e8 3d 54 dc 23 bd
       0.071749784 0.02661792 0.11364522 -0.040005043
0000b0 5e 7c 1d bd 31 0d 64 bc cf 2d eb bc 84 cc 3c 3d
       -0.038448684 -0.013919161 -0.028708367 0.04609348
0000c0 ba f8 81 bb 52 26 63 3d 56 cd 5d bc c4 dd 00 3e
       -0.003966418 0.055456467 -0.013537725 0.12584597
0000d0 f6 67 b1 3c aa 31 a1 bc 54 01 af 3d 8a ae 06 3d
       0.021656018 -0.019677002 0.08545175 0.032881297
0000e0 44 2b 03 3e 33 bf d8 3d 1d 76 bb bb d9 28 17 bd
       0.12809473 0.10583343 -0.0057208673 -0.03690419
0000f0 90 bd 20 bc af 02 d0 3d 1b 7f a3 3d 20 5d 05 3d
       -0.00981082 0.10156762 0.07983228 0.032559514
000100 a5 a3 0b 3e 95 42 40 3d b2 25 d9 3c 6a 3d 03 bd
       0.13636644 0.046938498 0.026507232 -0.03204099
000110 2c f8 41 bb 0e 4c f6 ba f9 5d 30 3d 50 37 2b 3d
       -0.0029597385 -0.0018790977 0.04305837 0.041800797
000120 60 55 46 bb 9e b1 16 3d 8b 96 a2 3d 6e d0 94 bb
       -0.003026329 0.036790483 0.0793887 -0.0045414483
000130 30 14 33 bd 4c db 5a 3c 0d b1 83 3d af c5 ec 3d
       -0.043720424 0.0133579485 0.06430254 0.11561143
000140 2a fb d6 3c 5b e5 56 3c 66 e5 3f 3c 7c 77 01 bd
       0.026242811 0.013116206 0.011712408 -0.03160809
000150 32 7f 22 bd 10 ab db bc 31 9a ef 3c b8 05 74 3b
       -0.039672084 -0.026814967 0.029248329 0.0037234854
000160 83 df 12 3e 91 68 d4 3d 04 75 c4 3d 01 50 86 3d
       0.14343075 0.10371507 0.095926315 0.06558228
000170 45 3b 28 bd a9 b9 ac 3c a9 f9 43 bd 48 fa ea 3d
       -0.04107215 0.021084623 -0.047845516 0.114735186
000180 81 fd c1 3d 3d aa d4 3c 0a e7 8c bc 8a 76 3d 3d
       0.0947218 0.025960082 -0.017200012 0.046255626
000190 28 c1 83 3d 19 87 0e bc c6 d6 11 bd 58 57 8d 3d
       0.06433326 -0.008699202 -0.035605215 0.06901425
0001a0 4d 9c a8 bc 1a 75 97 bc e8 54 47 3c 70 c1 85 bb
       -0.020582343 -0.018488456 0.012166239 -0.0040818974
0001b0 08 8d a7 bc 12 85 2b bb 18 ad 4c bd ef 09 0b bd
       -0.020452991 -0.0026171845 -0.049969763 -0.03394502
0001c0 76 3f bd 3c b9 19 25 bd 14 32 83 bb fe af 0e 3e
       0.02310155 -0.040307734 -0.0040037725 0.13934323
0001d0 58 8b a0 3c bd 24 9f 3d 5f a7 d2 3d ab c3 37 3e
       0.019597694 0.07770679 0.1028583 0.17945735
0001e0 d0 f9 de 3d 1d d1 de bc 69 eb fd 3b de 42 2b bd
       0.10887492 -0.027199322 0.0077490103 -0.041811816
0001f0 16 0b 08 3e 79 52 09 bb 4b 53 f1 3d 8c ed f3 3d
       0.13285479 -0.0020953699 0.11783465 0.11910543
000200 f9 63 5b bd f4 f5 fa 3d dc 56 99 bc 87 1e 0a 3d
       -0.05356214 0.12253943 -0.018718176 0.03372052
000210 71 2f 82 3c fe 4a 68 3b 96 3f d6 bc 85 bb 9f 3d
       0.015891762 0.003544509 -0.026153367 0.077994384
000220 96 bd 9a bc b0 7e da bc 37 ab 5b bd 91 e8 0b bd
       -0.01888923 -0.026671737 -0.05363008 -0.03415734
000230 6f 1c 84 bc fb 82 55 3d b9 1b 96 3d 18 98 8d bd
       -0.01612684 0.052126866 0.073295064 -0.06913775
000240 3c 89 0d 3b b2 b3 3e bd 4d 8b 5c 3b 44 0c 84 3d
       0.002159669 -0.04655809 0.0033652366 0.06447652
000250 14 78 44 bd a4 11 51 3d 69 f6 3a 3d 8c 2f 38 bd
       -0.047966078 0.051042214 0.04564515 -0.04496722
000260 87 18 e8 3a c4 0a 8e 3a b0 59 28 bb 86 22 62 3c
       0.0017707505 0.0010836949 -0.0025688224 0.013802176
000270 2c cd f6 3d 34 92 d6 3d 46 6d 01 3e d3 f2 24 bd
       0.12050852 0.10477105 0.12639341 -0.040270638
000280 92 02 21 3d 91 fd f0 3d d9 cf 11 3c fd 65 d3 bc
       0.039309092 0.11767114 0.008899652 -0.025805468
000290 4a 8b 80 bb 3d 5e f4 3d ef ac 3e 3b bc e8 00 3e
       -0.0039228546 0.11932037 0.0029094776 0.12588781
0002a0 0e 5b ca 3c 41 33 93 3d eb a9 ec bc 36 88 28 ba
       0.024701621 0.0718751 -0.028889617 -0.00064289884
0002b0 2c fa 54 bd 5d 6c 8d 3d 22 5b af bb 0f a7 5f 3c
       -0.051996395 0.06905434 -0.00535144 0.01365067
0002c0 df 39 cf 3d e0 4f ee 3c 91 b1 41 bc 0d 91 1d 3d
       0.1011846 0.029090822 -0.01182212 0.03846841
0002d0 37 4d 63 3c ca e3 13 bb f9 ed 5e 3d 53 9d 1e bd
       0.01387339 -0.0022566193 0.054426167 -0.038724255
0002e0 4a a1 8e 3d e7 b3 9a bc 4c 0a 88 bc 0f 2f 93 3c
       0.06964357 -0.018884612 -0.016606472 0.017966775
0002f0 14 64 1d bc 0e 80 dd bc c7 81 94 3c 4b 53 87 bc
       -0.00960638 -0.0270386 0.018128289 -0.01651921
000300 43 51 91 3d 16 6e 38 bd 93 8c 96 3d 50 af 43 3d
       0.070955776 -0.04502686 0.07351031 0.047774613
000310 3d 8f 77 3d 4a ae 91 3d d1 e5 06 3c f8 c0 60 bd
       0.060439337 0.07113321 0.008233503 -0.05487153
000320 9b 27 a9 bc cf bf c7 bb 4e be e2 3a e2 1c cf 3d
       -0.020648768 -0.0060958634 0.0017299147 0.10112931
000330 89 cb 0d bd 6a 3f 1f bd e8 55 f4 bc d7 7c 8d bc
       -0.034617934 -0.038878836 -0.02982612 -0.017271442
000340 ef ac 89 bd 83 fd 07 3e 2e fe 9a 3d d7 6e 48 39
       -0.067224376 0.13280301 0.07568012 0.00019114777
000350 1f 0e cb 3d a2 35 80 bc 92 74 29 3d 34 e5 2b bd
       0.09914803 -0.015650574 0.041370936 -0.041966632
000360 cd 07 11 3d 44 ba 75 bc a1 a7 93 3d b1 9f c8 3c
       0.03540783 -0.0149980225 0.07209707 0.02449021
000370 00 1d f7 ba cb 22 0b 3e 6b 49 07 bd cb 97 a4 3d
       -0.0018853247 0.13587491 -0.033029 0.08036765
000380 68 1e 01 bd 81 4f d3 bc 09 04 b9 3c 2c 35 13 bd
       -0.03152314 -0.025794746 0.022584932 -0.03593938
000390 4f 22 16 bd 0e 96 b9 3c 51 b1 f3 bc 7b 06 9b 3d
       -0.036653813 0.02265456 -0.029747637 0.075695954
0003a0 5a 35 29 3d 2b 55 e5 3c ff cd 9f 3b c9 a8 77 3d
       0.041310646 0.027994713 0.0048768516 0.0604637
0003b0 8b d1 a4 bc d8 99 c3 bc 9a 24 4c 3c e7 21 8e b8
       -0.02011945 -0.02387707 0.012459898 -6.7774025e-05
0003c0 17 90 97 3c a7 33 0b b9 86 26 c1 3d 80 a5 eb 3d
       0.018501325 -0.00013275315 0.09431176 0.11506176
0003d0 be e1 1d 3a 69 c8 8f 3d 3e 8d d2 bb 32 f6 e2 3d
       0.0006022713 0.07020647 -0.006425529 0.11082114
0003e0 a8 d8 a2 bc a6 60 52 bd ee 7f 1a bd b7 8e 3e 3d
       -0.0198787 -0.051361702 -0.03771966 0.046522822
0003f0 a9 1c c4 bc e4 a8 39 bd b2 91 7a 3d 8a 2b a1 bc
       -0.023939447 -0.045327082 0.061174102 -0.019674081

fc3.weight f4 [1, 300]
000000 ee 63 1e ba 04 44 bc be 0a 49 d3 be 91 83 f7 3e
       -0.00060421124 -0.36770642 -0.41266662 0.48342565
000010 a3 dd c9 3e 7a bc 9c be 49 a2 0f 3a db 73 d5 be
       0.39426908 -0.30612546 0.00054791995 -0.41689953
000020 6b 0c ed be c9 af f4 be 18 2f cd be 5e 54 d2 3e
       -0.46298537 -0.47790363 -0.40074992 0.41079992
000030 95 f9 c9 3e 16 4d ce 3e 79 f6 e5 3e a9 22 99 be
       0.39448228 0.40293187 0.44914606 -0.29909256
000040 21 88 d6 3e 26 e8 d4 3e d3 7a f3 be 99 02 d3 be
       0.41900733 0.41583365 -0.47554645 -0.4121292
000050 5e 3e ca 3e a2 41 26 3b 0d 33 e3 3e 22 7f a2 be
       0.39500707 0.002536871 0.44374886 -0.3173762
000060 64 b2 c6 ba 97 9a e8 be 58 c1 eb 3e b7 f6 d9 ba
       -0.0015159366 -0.45430443 0.46045947 -0.0016629313
000070 5c 7e f1 be 74 2b d4 be 1a 61 cc 3e f3 f2 e4 3e
       -0.47166717 -0.41439402 0.39917833 0.44716606
000080 e1 e6 04 bf 3e 37 e2 3e 26 0d a7 be 5a 87 ac 3a
       -0.51914793 0.4418277 -0.3262722 0.0013162897
000090 ff e1 ba be de 5c d7 3e 12 89 c9 be 5b 44 19 3f
       -0.36500546 0.4206304 -0.3936239 0.5986993
0000a0 f2 aa b5 be 73 76 e8 be 8d 79 04 3f 3e 3c 65 be
       -0.35481983 -0.4540287 0.5174797 -0.22386262
0000b0 5e 75 0e bb b4 31 00 bf ad 7d f0 be af 97 ab be
       -0.0021737437 -0.5007584 -0.46970883 -0.33514163
0000c0 fb 92 15 bf b7 8e c6 3e 86 65 6b be 35 72 d6 3e
       -0.584274 0.38780758 -0.22987947 0.41884008
0000d0 54 78 a6 be 7d 30 6e 3b c2 b9 df 3e 56 e2 c7 be
       -0.32513678 0.003634482 0.4369641 -0.39039868
0000e0 aa 42 c9 3e b3 0f d4 3e 41 c9 f1 be b7 67 30 3a
       0.39308673 0.41418228 -0.47223857 0.0006729322
0000f0 78 38 ce be 25 dc d7 3e b9 65 d0 3e 72 1f f6 be
       -0.40277457 0.42160144 0.40702608 -0.48070866
000100 95 56 c7 3e 87 c7 d7 3e c9 ac ee be ae ce 92 ba
       0.38933244 0.42144415 -0.466162 -0.0011200511
000110 d7 8c d8 be 94 1a 04 ba 8d e2 02 3f 70 ab 0a 3a
       -0.42294952 -0.0005039361 0.5112694 0.00052898284
000120 b1 fc cc be 41 aa f2 be 0c 9f ae be d6 7b d1 be
       -0.40036538 -0.47395518 -0.34105718 -0.40914792
000130 90 dd 31 3b c6 b1 e9 3a 41 20 db 3e 3d 51 bd 3e
       0.0027140118 0.001782947 0.42798045 0.36976042
000140 a2 00 dd be 8e 6e e2 be 22 50 16 bf 06 e6 6c 3f
       -0.43164545 -0.44224972 -0.5871602 0.9253849
000150 0c cc b4 be 74 2d b0 ba cf 07 f7 be 01 d4 cf be
       -0.35311925 -0.001344128 -0.48248145 -0.40591434
000160 34 3f cb 3e a2 3a c3 3e ba 50 db 3e f2 8d f8 3e
       0.39696658 0.3813067 0.42835027 0.48545796
000170 0a 49 cf be 4f d6 f5 be 7f 26 76 39 04 43 c6 3e
       -0.40485412 -0.48015067 0.00023474729 0.38723004
000180 93 08 cb 3e 4d 51 9d 3a 04 cf f9 3a 89 0b ef 3e
       0.3965498 0.0012002379 0.0019058888 0.46688488
000190 28 eb d4 3e 4b 0c 4e 39 1d bf 9b be 47 b9 ab be
       0.4158566 0.0001965027 -0.30419245 -0.33539793
0001a0 f8 cd 18 3b c6 11 de be 04 34 54 3f e4 c3 0c bf
       0.0023316126 -0.43372935 0.8289187 -0.54986405
0001b0 17 65 04 bf 7f 46 0c ba e5 0f 18 3a 9d 80 0b bb
       -0.5171675 -0.0005351081 0.00058007083 -0.0021286376
0001c0 11 9d fe be 55 c1 32 bb d7 25 aa be ed 05 ce 3e
       -0.49729207 -0.002727588 -0.33231995 0.40238896
0001d0 7d 1a bc be 7a 61 c4 be 52 38 da 3e bc a7 20 bf
       -0.3673896 -0.3835562 0.42621094 -0.6275594
0001e0 0a cf d1 3e fd a0 3f b9 2d 5f 8b be f5 f1 c0 ba
       0.4097827 -0.00018275152 -0.2722105 -0.0014720546
0001f0 04 fe c8 3e da 32 2e bf 57 ff d2 3e 93 e2 e3 3e
       0.392563 -0.68046343 0.41210434 0.445088
000200 0b 24 44 3a 50 e2 de 3e 47 5d c6 be af c4 19 bf
       0.00074821775 0.43532038 -0.3874304 -0.6006574
000210 0d 7d f3 be e4 e9 89 be 77 f3 ac be 51 12 e7 3e
       -0.47556344 -0.26936257 -0.337795 0.45131162
000220 33 06 e0 be 38 15 02 bf b0 35 08 3b b8 84 c0 39
       -0.4375473 -0.5081363 0.0020783953 0.00036719977
000230 76 db 1f bb 9f 70 44 bf 89 b2 4e bf 49 39 86 be
       -0.0024392284 -0.76734346 -0.80741173 -0.2621558
000240 3e b6 5b be 47 81 df be 2a a2 d9 be cf 27 f2 3e
       -0.21456239 -0.43653318 -0.42506534 0.47295997
000250 ed 41 e1 39 69 aa dc 3e 80 c8 4e be bd 69 99 be
       0.00042964463 0.43098763 -0.20193672 -0.29963484
000260 44 c2 e5 be 81 8d ee 3a f9 81 e2 be 7d c5 8d be
       -0.44874775 0.001820013 -0.44239786 -0.27689734
000270 0f fd d9 3e 77 29 c6 3e 16 3e c4 3e ec ca cb be
       0.4257588 0.3870351 0.38328618 -0.39803255
000280 ae 68 0e bf f9 48 d0 3e d5 cb f9 be 40 db 4f 38
       -0.5562848 0.40680674 -0.48788324 4.955684e-05
000290 a7 bf a1 ba 9b 53 44 3f 47 85 0a bf 12 9d bb 3e
       -0.0012340442 0.7669007 -0.54109615 0.36643273
0002a0 d9 db de be 20 8e c9 3e 4f 2a d7 be bb 27 ea be
       -0.43527105 0.39366245 -0.42024466 -0.45733437
0002b0 37 96 d2 be f7 c4 e9 3e e3 4f 84 be c9 3e 97 be
       -0.4113023 0.45658085 -0.258422 -0.2954009
0002c0 f5 0a d6 3e 65 ee 27 bf 2c 83 e0 be 28 16 e0 be
       0.41805235 -0.65598136 -0.43850076 -0.43766904
0002d0 39 10 e1 ba 63 5e e2 be a1 2f b2 be e4 49 7d be
       -0.0017170972 -0.44212636 -0.34801963 -0.24735218
0002e0 d5 db d0 3e e4 82 bd 3a 88 11 04 bb 78 69 e1 be
       0.4079272 0.0014458564 -0.002015205 -0.4402578
0002f0 78 22 dc be 9e 3b f5 39 4a b5 09 bb 56 67 75 bf
       -0.42995048 0.0004677446 -0.0021012598 -0.95860803
000300 03 ab 07 3f 88 39 22 3b a0 82 e0 3e d1 90 db 3e
       0.5299532 0.002475353 0.4384966 0.42883924
000310 27 1e c5 3e 3e be dd 3e b9 78 ef be 96 6f b1 be
       0.38499567 0.43309206 -0.46771792 -0.34655446
000320 c0 d6 c9 be 53 5d 07 bf 08 22 df be 5d 45 c9 3e
       -0.39421654 -0.52876776 -0.4358065 0.39310732
000330 dd c4 dd be 95 c6 e4 be b5 5d e2 be 4a 82 e7 be
       -0.43314257 -0.44682756 -0.44212118 -0.4521659
000340 e8 61 8a be 34 9a bf 3e 73 44 cf 3e fd a7 a6 be
       -0.27027822 0.37422335 0.4048191 -0.3255004
000350 c4 d3 ec 3e 25 b2 e8 be 8e 73 c7 be 6e 2c 8b be
       0.46255314 -0.45448413 -0.3895535 -0.27182335
000360 be e5 f6 be 84 c0 89 be 77 c9 f2 3e dc 00 ff be
       -0.48222154 -0.2690469 0.4741933 -0.49805343
000370 14 a3 00 3a 99 4d bc 3e 35 e7 07 bf a9 df ca 3e
       0.0004907113 0.36777952 -0.5308717 0.39623764
000380 37 ff 7a 3b fd f1 ea be 55 67 df be 53 ba ad be
       0.0038299093 -0.45887747 -0.43633524 -0.33931217
000390 0d 26 26 bb 48 67 c7 39 63 fb e5 be 36 db ef 3e
       -0.002535227 0.00038033188 -0.44918355 0.46846932
0003a0 99 78 c9 be f3 6e fa be 7e ae 0e bf 46 26 ea 3e
       -0.3934982 -0.48912773 -0.55735004 0.45732325
0003b0 24 4f c0 be a7 fd 41 bf 1f 6f e0 be 7d c5 ba be
       -0.3756038 -0.7577767 -0.4383478 -0.36478797
0003c0 78 76 62 3c dc bf b1 be 4b 6e d3 3e d3 56 c0 3e
       0.01382219 -0.3471669 0.41295084 0.37566242
0003d0 14 a4 62 be f4 dc ad be cd c8 c2 be 15 cc 17 3f
       -0.22132903 -0.33957636 -0.38043824 0.5929578
0003e0 98 87 df b8 95 aa e8 3a 54 d7 06 3b 78 a4 c2 be
       -0.00010658725 0.0017751033 0.0020575123 -0.38016105
0003f0 c1 50 eb be e4 fb 0c bb 4a fa ec 3e e0 33 00 bf
       -0.45960048 -0.0021512443 0.46284705 -0.50079155
