checkpoint_critic.pth (torch, 745075 bytes, 7 tensors)

fcs1.weight f4 [400, 9]
00000000: 9095 98ba d810 14be 271b 153c 365c 183c
00000010: e954 13bc de99 96bc a5fd 16bd 8151 19bd
00000020: a377 87bd 14ef b63d d8f8 53bd 7ef9 29bd
00000030: e9ec 0c3e a880 c0bd f272 153e 684d c73d
00000040: 5c54 9c3b 88fa c9bd 8420 97ba 6c01 44bd
00000050: 0500 db3c b04b 04bd ac01 9c3c b50f febc
00000060: 984a a1bc 4e35 3abd a8f8 4cbd 5e34 b43c
00000070: af17 303d 529a 8c3c 756a 15bd fbf9 053d
00000080: 38c4 043c 052d 453d 7d55 333d bdf3 f3bc
00000090: 4a51 f5bc f289 cf3c d0f6 bd3b 6d14 0ebd
000000a0: 92ee 1bbd fc8a 8fbc 3950 273d 9ab2 be3c
000000b0: 1958 3d3d 828e 5dbd bd62 0a3d c3e4 a33d
000000c0: 039c 573d a7b4 c2bd 9637 cb3d ed7c 2bbd
000000d0: 3d92 a23c 79fe 2f3c 30f3 e83b 2074 2f3b
000000e0: 0451 83bc ca3f 05bd 406d 9a3a 12cf df3c
000000f0: f52c 07bd 4402 653c 005e 0e39 34e7 89bd
00000100: e42f ddbd 339c 09bc 3b01 87bd 63d2 71bd
00000110: be95 183e 90a9 0bbd ff3b 27ba 069f 43bc
00000120: 2190 66bc 3fcf 89bd 98c8 54bd d4f4 353d
00000130: 2941 d83c bef2 a43d c943 b13d e2c1 863d
00000140: 6a77 d5bc a288 973d 4c5b bc3c 18ec 2cbc
00000150: a7ff b3bd 212b a63c 8cc8 27bd 212d 9dbc
00000160: d1c8 ff3c 8a47 523c 04e1 323d 8c4e 2c3b
00000170: 6612 4f3c 000c 05bd 6f64 023d c789 b93c
00000180: 6e68 b83c 1871 eabc 9a19 0dbc 9958 5abd
00000190: ff0d 59bd f517 db3c b2bd 0abd 5b96 84bd
000001a0: 28d0 cabd 60b7 153d a380 7bbc add7 cfbb
000001b0: 4738 16bd 20ec fa3d 8f5c c83c 2726 c83c
000001c0: f392 e5bc 7aac 32bd dfbd 9dbc d5d3 813d
000001d0: 792a 8d3d a7c3 bb3c 6ad7 b1bd c604 ba3d
000001e0: 7728 c6bb 6607 65bc 3292 b63d b079 f0bc
000001f0: 442b a03d c4a8 78bd 8580 cebd 1bab 8dbd
00000200: 0a45 9fb9 a036 eabc d99a 49bd cf9c f1bd
00000210: 3d10 693d f7cd aa3c 9260 933c e8cc acbd
00000220: ba37 11bd cfe1 2e3c 227a 90bd 69ec 5bbd
00000230: 0e03 cabd c72f 143d 6ac5 083c d336 9cbc
00000240: a43e b2bd 00f5 1a38 9e33 273c 7711 ef3c
00000250: ef47 603c c335 d8bd 42f5 0c3d ed6a 1abb
00000260: 4902 0e3d ca9a 313d ca44 96bc 5454 2dbe
00000270: 631e 293d 9cf8 bd3c 57ad 5abd ec8c 753d
00000280: 6268 793c bd89 a03d 4a44 8cbc a035 f03a
00000290: db23 0c3d de29 ef3c 2a47 2cbd be27 ec3c
000002a0: 3334 f6bc 14e3 533c 5a36 c7bc 0b14 ed3d
000002b0: f0aa 80bd bf5d 51bd 3a71 d2bd 07dc 01bd
000002c0: ac73 3cbd cbb0 22bc 93ae 13bd 5794 e03c
000002d0: 02cf 813c 72f5 2cbd 4245 c33c 2cf4 283c
000002e0: 435e f2bc aedd 12bd 1a29 ddbc 18cd 13bc
000002f0: 7db5 f8bc 8d21 1a3e 874c 4a3d 29fd 063d
00000300: e9e7 18bc 11b9 e8bc cfb0 0b3d 1b73 203d
00000310: 662f c8bd c44a 113c 1cb0 633c 4c7a 89bc
00000320: c89a 4ebc 53b7 d0bc d474 15bc daa4 dc3c
00000330: ff62 453d 1d0f 05bd 492f 163d 6027 b5bd
00000340: 59f4 85bd ab11 5fbb 91c8 1ebd 17f0 4ebd
00000350: 738d e1bd ab9f 6c3d 4ed7 513c feaf 9fb7
00000360: 8c91 6ebc 5db2 02bd 17c9 4a3d c068 f9bb
00000370: 6b78 3fbd 0cb9 63bc f0a0 c13b 0f05 42bd
00000380: 2fdc 2cbd f85e 95bb 1d95 aa3d b170 36bd
00000390: c0f2 02bd 566a debd 6fab 823d 20c9 32bd
000003a0: e911 823d 2993 8c3c 8007 703a 188f 1dbd
000003b0: d763 3b3d 422d 1ebd 683a 1b3c 01c2 493d
000003c0: fd9f 20bd c1f9 3a3d 9e17 ad3c 6536 e2bd
000003d0: a0ab 4ebe c81c 943d 8cab d43c ae51 313d
000003e0: a9f7 033e 337e 163c 0f7b a0bd c4ec 63bd
000003f0: 8c03 11be 5965 913d 1e3c 8a3d 8854 693d
-0.0011641253 -0.1445955 0.009100712 0.009299329 -0.008992412 -0.018383916 -0.036862988 -0.037431244
-0.06614616 0.08932319 -0.051750988 -0.0414977 0.13762249 -0.09399539 0.1459463 0.09731561
0.0047707986 -0.09862238 -0.0011530076 -0.04785292 0.026733408 -0.032298744 0.019043766 -0.03101335
-0.01968889 -0.04546099 -0.050041825 0.021997627 0.042991336 0.01716343 -0.03647848 0.032709103
0.008103423 0.048138637 0.0437827 -0.02977931 -0.029945988 0.025334332 0.0057972446 -0.03468745
-0.038069315 -0.017522328 0.04084799 0.023278523 0.046226595 -0.054090984 0.03378557 0.08002617
0.05263902 -0.09507113 0.099227116 -0.041867185 0.019845122 0.010741823 0.0071090683 0.0026772097
-0.016029842 -0.032531537 0.0011781827 0.027320419 -0.03300186 0.013977591 0.00013577193 -0.067335516
-0.1080015 -0.008399057 -0.065920316 -0.05903853 0.14900872 -0.034097254 -0.00063794845 -0.01193977
-0.014072449 -0.06728982 -0.051949114 0.04442294 0.026398258 0.08054112 0.08655507 0.06579949
-0.026057918 0.073991075 0.022992752 -0.010554336 -0.08788996 0.020284237 -0.04096274 -0.019186558
0.031223686 0.012834439 0.043671623 0.0026291935 0.012638664 -0.032482147 0.031834062 0.022648705
0.022510733 -0.02861838 -0.008612061 -0.05330715 -0.052991863 0.026744822 -0.033872314 -0.064739905
-0.09902984 0.036551833 -0.015350494 -0.006342849 -0.036674764 0.122520685 0.024458198 0.024432255
-0.028024172 -0.043621518 -0.019255577 0.06339232 0.06892867 0.022920443 -0.08683665 0.09082942
-0.0060473043 -0.013978815 0.08914603 -0.0293549 0.07820752 -0.060707822 -0.10083107 -0.069174014
-0.0003037828 -0.0285905 -0.04921994 -0.11797487 0.05690025 0.020850165 0.017990384 -0.0843752
-0.035453536 0.010673954 -0.07054545 -0.053692255 -0.09863864 0.036178377 0.008347848 -0.019069111
-0.08703354 3.6944635e-05 0.010205178 0.029183133 0.013689025 -0.10557129 0.034413584 -0.0023562268
0.034670148 0.04336051 -0.018343348 -0.169267 0.041288745 0.023189835 -0.053387966 0.059948847
0.015222641 0.078387715 -0.017122407 0.0018326528 0.034213882 0.029194769 -0.042060055 0.028827544
-0.030054187 0.012932558 -0.024317909 0.115760885 -0.06282604 -0.051114794 -0.102755025 -0.031703975
-0.04600875 -0.009929846 -0.03605516 0.027414484 0.01584578 -0.042226262 0.023836736 0.010312121
-0.029585963 -0.03585594 -0.026997138 -0.009021066 -0.030359978 0.15051861 0.04938939 0.032956276
-0.009332635 -0.028408559 0.034104165 0.039172273 -0.097746655 0.008867923 0.013896968 -0.016781949
-0.012610145 -0.02547804 -0.009122092 0.026934076 0.048190113 -0.032485116 0.03666619 -0.08845401
-0.06540746 -0.003403763 -0.038765494 -0.050521936 -0.110133074 0.05776946 0.01280768 -1.903623e-05
-0.014561068 -0.03190838 0.04950818 -0.007611364 -0.0467457 -0.013899099 0.005909078 -0.047368106
-0.04220217 -0.0045584403 0.08329222 -0.044541065 -0.031969786 -0.10860126 0.063803546 -0.04364884
0.06351072 0.017160015 0.0009156391 -0.038466543 0.04574951 -0.03861738 0.009474374 0.049257282
-0.039215077 0.04564834 0.021129426 -0.11045531 -0.20182657 0.07232052 0.025960706 0.043290786
0.12887444 0.009185362 -0.078359716 -0.05564572 -0.1416151 0.07099409 0.06749748 0.05696538

fcs1.bias f4 [400]
00000000: 0056 223e 0a3c c8bd fc24 f83d 5362 66be
00000010: 6eb0 99be e5e6 3e3d 3b32 a3be 6931 a93d
00000020: 031b 093c 7a16 c33d 5ef3 1ebe 5ead 07bd
00000030: 8fc8 4fbe 8300 553e 026e 95bd bbb6 e5bc
00000040: f583 91bb 83e6 72bd 1a51 88be 5164 de3c
00000050: 9699 82be bbcb 243d f35b 6dbe 9fed 9bbd
00000060: ac70 8abe 0900 0e3e 5b08 8fbe 1d5e 07be
00000070: d378 11bd f0d9 a23d e473 933e 57f1 5dbd
00000080: 572e 5b3e 6f4e 05be 15af 1e3e 96ce 743b
00000090: 0514 803e f0a1 ee3c ebda 11be f5c4 8a3e
000000a0: 0da3 833e 1079 9cbe 2fa4 843e edd8 0abd
000000b0: ee71 9e3e 5b04 9d3e 7b08 a0be f8d6 6a3e
000000c0: 9798 aebd cf32 123e 5b83 6a3b 5b2a 46be
000000d0: f3df 8cbe 22f6 6a3d f2fa 173e 9fe9 693d
000000e0: 434b 6cbe 9a38 a6be 0654 5fbe 3e56 84be
000000f0: 5ba3 493d 4a34 84be de66 5fbe b725 a4be
00000100: 1813 643e 9c1e 82be 1686 c0bd fc40 0fbc
00000110: c0e4 603e 4880 563e bef9 57be 6622 a3bd
00000120: fb40 af3e 9693 a0bd c758 28bd d74e 99bd
00000130: 626d 373e c6e5 e03d f999 0d3c 10ad 37be
00000140: 6b0a a43e d591 bd3d f83d f4bd 1f68 593d
00000150: ada8 703e 7113 75bd 43ed 8fbe b48e 89be
00000160: 1669 893e bb2b 1ebe 0056 8fbe 28d1 a0be
00000170: 1e4c 553e 30df 00bd 8a64 0ebd 7a82 843e
00000180: afc8 343e 48ab 4fbe 852f e3bd 549a 81be
00000190: fb3f 4e3e c199 fc3d 68b4 88be 2f6e 4d3e
000001a0: 405f 933d c9dc 23be 3ad8 88be b336 7f3e
000001b0: f305 86be cf46 9b3e be52 793d a36d 65be
000001c0: 45fb 53be cbe2 56be eadd cf3d a94d b23d
000001d0: 74a3 ddbd 7277 203d 0c60 ac3d 996f 0f3e
000001e0: db2d 703e a1ab 893e 3d2b 01bb e050 8e3e
000001f0: 54c8 433e 089c 793e 4ed2 25be 53fd a13b
00000200: c1ae 013d fec1 90be 4839 84bd ca7e 36be
00000210: 1b2e c1bc 7963 803e c391 98be bb92 3bbe
00000220: 1abe 97be 7102 973e 0331 9b3d bff6 0c3e
00000230: 462f 2b3e 5ee7 81bd d6cd fa3d 56c5 5ebe
00000240: 1b5d 7fbe bb03 843d 4bbd 9d3e 4a20 743e
00000250: 5b36 22bc ecb8 8a3b 80b5 833e 5b40 1a3d
00000260: 6a63 613e 0853 28be eae5 c53d ea3e e13d
00000270: 2649 923e 2633 923e 2ef2 7e3e 9a7a 923e
00000280: aeb0 56be 3465 b2bc 6bd5 873e 6f1b 083d
00000290: aef0 3e3e f6b7 8abc 26f0 6a3e 4b28 813e
000002a0: 35e3 9abc 7acb 99be 3c58 14bd 67cd 983e
000002b0: c8eb 73be 23d1 81bd a80b 0b3e 8f1c 683e
000002c0: cae7 21be e41d 4a3e b32a 483d d70c 9b3e
000002d0: 1ad6 8f3e d08e 033e d92e 1ebe aedb b83d
000002e0: 6378 1e3e 4308 a53d bd02 243e 60b3 9bbc
000002f0: 9f03 9bbe ca89 41be 1e06 74be 33bb 033e
00000300: 7c62 a1be 83e9 29be bc24 2dbe 1a90 d33c
00000310: 9d5c 5c3d 96dc 8dbe d302 87bd 2a69 963e
00000320: 533c 8fbd 49d4 003e 9283 8cbe b671 6e3c
00000330: d9e1 edbc bc8d 183e e98a 863d b82d 3ebe
00000340: fb65 47be 3902 ecbd 509a 413e 830f 5cbe
00000350: 4f61 413e 7101 bcbd 2c72 3f3e dafc a73c
00000360: 5cc3 99bd 1bd4 57be be26 4cbe 07a7 87be
00000370: 5290 4f3e 38fd 94be ee2d 6a3e 18a8 5cbe
00000380: 11cf 0cbe cf34 813e 666f 95be 41f6 333d
00000390: 5d86 873e e7a5 a3be fec6 6abe c24b 1dbe
000003a0: 8ed1 18be 28b5 20be 6280 9ebe 480f b03c
000003b0: 6f57 45be 87b6 6c3e 0f9e 513e a050 dd3d
000003c0: 1b40 94be f45d 83be 8f6a 423e 1b8a a03e
000003d0: d5f6 273e 5a87 61be 4c18 713e 412a 71be
000003e0: 738a a0be 7024 2b3e a8a1 6dbe 9660 85be
000003f0: ebcd a3be 4a22 f5bd b108 073e 311a 26bd
0.15853119 -0.097770765 0.12116429 -0.22498445 -0.30017418 0.046606917 -0.3187426 0.08261377
0.0083682565 0.095257714 -0.15522525 -0.03312432 -0.20291351 0.20800976 -0.07296373 -0.028041234
-0.0044407793 -0.059301864 -0.26624376 0.027147444 -0.25507802 0.040233355 -0.23179607 -0.07613682
-0.27039087 0.13867201 -0.27936062 -0.13219495 -0.035515618 0.079517245 0.28799355 -0.054185238
0.21404396 -0.13018201 0.15496476 0.003735458 0.25015274 0.029129952 -0.14243667 0.2710339
0.25710335 -0.30561113 0.25906512 -0.033898283 0.30946296 0.30667385 -0.3125647 0.22933567
-0.08525198 0.14277194 0.003578386 -0.19352095 -0.2751461 0.057363637 0.14841822 0.057107564
-0.23075585 -0.3246506 -0.21809396 -0.25847048 0.049228054 -0.25821143 -0.21816584 -0.32060024
0.22272909 -0.25413978 -0.09400575 -0.008743521 0.21962261 0.20947373 -0.21091363 -0.07965545
0.34229264 -0.0784065 -0.04110029 -0.07485741 0.1791282 0.10981326 0.008642667 -0.17937112
0.32039198 0.09256331 -0.11925882 0.053077813 0.23501845 -0.059832994 -0.28110704 -0.26866686
0.26837987 -0.1544637 -0.279953 -0.31409574 0.20829818 -0.03146285 -0.03476385 0.25880796
0.1765468 -0.20280182 -0.11093048 -0.25313056 0.20141594 0.12334014 -0.2670014 0.20061563
0.07195902 -0.16002192 -0.26727468 0.2492321 -0.26176414 0.3032746 0.060869925 -0.22405104
-0.2070132 -0.20984952 0.101497486 0.08706219 -0.10822192 0.039176412 0.08416757 0.14007415
0.23454992 0.26888755 -0.001970961 0.27796078 0.19119388 0.24375927 -0.16193506 0.0049435287
0.0316608 -0.28273004 -0.06456238 -0.17821804 -0.023581555 0.25075892 -0.29798707 -0.18317692
-0.29637223 0.2949405 0.075777076 0.13766001 0.16717252 -0.06342958 0.12246291 -0.21754965
-0.2493786 0.06446024 0.30808482 0.23840442 -0.009900655 0.00423347 0.2572441 0.03765903
0.2201058 -0.16437924 0.09662993 0.10998328 0.28571433 0.28554648 0.24897072 0.28609163
-0.20965835 -0.021776773 0.26530012 0.033229288 0.186465 -0.016933423 0.22943172 0.25226054
-0.018907169 -0.30038053 -0.03621696 0.2984421 -0.23820412 -0.06338718 0.13578665 0.22667144
-0.15811077 0.19737965 0.048868846 0.30283234 0.28093034 0.12847447 -0.15447558 0.090262756
0.15475611 0.080582164 0.1601667 -0.019006431 -0.302762 -0.18900219 -0.23830459 0.1286438
-0.3152045 -0.16592984 -0.16908544 0.025825549 0.05379926 -0.27707356 -0.065923356 0.2937711
-0.06993928 0.1258098 -0.2744413 0.014553478 -0.029038357 0.14897817 0.06569464 -0.18572128
-0.19472496 -0.115238614 0.18906522 -0.21490292 0.18884777 -0.091799624 0.18695897 0.020506311
-0.07507965 -0.21077006 -0.19936654 -0.2649462 0.20269898 -0.2909944 0.22869083 -0.21548498
-0.13750865 0.25235602 -0.29186553 0.043936018 0.264697 -0.3196251 -0.22927472 -0.1536093
-0.14923689 -0.15694106 -0.30957323 0.021491662 -0.19271635 0.23116504 0.20470451 0.108063936
-0.2895516 -0.25657618 0.18985961 0.31355366 0.16402753 -0.22024289 0.23544425 -0.23551275
-0.31355628 0.16713119 -0.23206198 -0.26050252 -0.3199304 -0.11969431 0.1318691 -0.04055232

fc2.weight f4 [300, 403]
00000000: 566f 6abd 0cae 553d 88f5 cebc 0084 f238
00000010: 52f2 85bc e652 d23c 90b8 63bb 49f8 c33c
00000020: 3a3c d33c ddf3 f53b e0e9 1e3c e2a1 2cbd
00000030: b25b 07bd fdb6 1ebc 4d8b 133d c993 5f3d
00000040: 189c d33c a6bc 80bc 3071 d83c b6df 143d
00000050: 98a8 743c bf0a 543d a849 4f3d 0cf4 273c
00000060: d075 093d ffb5 2b3d b237 6b3d 3ff6 3bbd
00000070: eaed a8b9 69fa 323d 66bf 523d b897 04bd
00000080: 9beb b63c a0c4 023c b178 93bc 1df4 533d
00000090: a3e8 a33c 4b63 0fbd 0ad1 343d 1c9c 1bbd
000000a0: cc09 ce3c 7a79 283d b569 b1bc 0c79 013d
000000b0: 1bcd f63c c418 dcbc 72a4 16bd 7eef eabc
000000c0: c802 2eba 7092 91bc 93e2 263d 408e f1bb
000000d0: 2033 1dbc 90de 28bc d602 3cbd 85f5 39bd
000000e0: c026 2f3d aae6 2fbd 20e4 34bd 6898 07bc
000000f0: cda4 73b9 a591 68bd bb0e 1dbd 3d9f 63bd
00000100: 3bfe 1c3b 52aa 573d fe9a 1e3c 0a32 203d
00000110: 06ec aa3c e294 1a3d 8a08 4c3d 9f30 d43c
00000120: 762b 78bb 2ea4 0dbd 933b 5cbd bce5 293d
00000130: 470f 1c3d 2c18 2d3d a522 26bc 6268 6bbd
00000140: d5ad 523d 3895 61bd d0d5 2d3b 8984 3fbd
00000150: f713 56bb 6f21 44bd f904 6abd 5512 45bd
00000160: b197 3d3d 6120 0dbd f054 a43c 940d 353d
00000170: 5ec1 d8ba 919d 003d 816b 59bd 0de8 1b3c
00000180: 1245 2c3d 026b afbc 2a88 0dbd 6ad5 00bd
00000190: f491 ceba 64c6 793c c0bb f23a 5c28 03bd
000001a0: f411 edbc acad 31bc 7e46 303d ab6c a0bc
000001b0: 16ee 103d 8317 00bd efdd 2b3d 7e43 f9bc
000001c0: 341f 8c3c 4696 633d d87b 1bbd 171c 423d
000001d0: 4869 843c 9d10 77bc 82d9 5dbd 7b6e a03b
000001e0: dee2 c5bc 08f6 04bd 0db8 c03b a85b 1abd
000001f0: 347e 233d 45a0 61bd 78de c2bc d4ca 163d
00000200: e58b 453d daa0 8cbc b7dd b937 1721 fcbc
00000210: 08e5 923c d1be 003d e0dc 57bc 002e e0bb
00000220: aa86 3c3d 5d87 563d b136 71bd bcd4 1bbd
00000230: 56bd adbc c508 38bd 6278 08bd 6897 f83c
00000240: 20e4 cd3c 88bb 3ebd 931b 343d e395 2dbd
00000250: 6b8e dbba cfa9 21bd f514 0abc 4564 3ebd
00000260: a9c9 babc 279b 05bd a0ad 6a3c 18c4 233b
00000270: d6e5 5cbd 6325 70bc 1a04 763c a8f1 8cbc
00000280: 888c c53c 4f42 4ebd 3408 80bc 5509 1b3c
00000290: 2a62 cb3c 317c b23c e994 4abd 38a2 acbc
000002a0: 93f4 1fbd dce8 31bd 0bc7 60bd dd01 14bd
000002b0: 80df 29bd 028f 473d e137 a63c fb91 3c3d
000002c0: e428 eabc b25a e7bc 5147 0c3d 39de efbc
000002d0: 3e0c bcbc 8146 15bd a02e f63a c7fc ebba
000002e0: 927b 9ebb b71e 19bd 3da2 7b3c 0b72 533d
000002f0: 76f3 cabc 343f 063d 94dc 063d 9ed3 39bd
00000300: cba1 19bd e228 a8bc bebf 203d 47ab 243d
00000310: 0c5d 3a3d 988c 13bc b7e8 a1bc 65c2 49bc
00000320: cdb6 2ebd 6f9c f8bc 38e2 bc3c 5a05 37bd
00000330: a0db 603d 5345 bdbc 9578 7dbc 22a5 3c3d
00000340: 5883 b73c 56e1 61bd 7058 433d f017 273c
00000350: 1f13 31bd ec49 5f3d f6a5 c93c 8776 0cbc
00000360: 8d73 39bd 370b 65bd aea9 02bd a22e 30bd
00000370: 160c 34bd 2c56 21bc 56e5 26bc f402 a7bc
00000380: 8de1 4b3d 5359 fcba f8ee 043c dd70 0c3d
00000390: 88f3 a9bc e000 47bd 72a9 313d 74e2 bdbc
000003a0: e0e8 b93a f432 3d3d 3667 5fbd 000f e83c
000003b0: 885d efbb fdc1 72bd faef b2bc 0cf6 553c
000003c0: 2cf0 e7bc 4810 c53c 3dd1 a2bc b72a d5bb
000003d0: 0eba 04bc 3059 33bb b1e7 e4bb 1c6e 533d
000003e0: 0a91 5c3d b65b 423d 7386 39bd 6c7a a7bc
000003f0: bc2e 863c 0004 c33a d7e3 acbc f0e5 29bd
-0.057235084 0.052167937 -0.025263563 0.00011564046 -0.016350899 0.025674295 -0.003474746 0.023922103
0.025785554 0.0075058774 0.009699315 -0.04214657 -0.03304643 -0.0096871825 0.03602152 0.0545843
0.025831267 -0.015714955 0.02642116 0.03634616 0.014932774 0.05176806 0.050607353 0.010251056
0.03355962 0.041921612 0.057426162 -0.045889135 -0.00032220717 0.04369584 0.051452063 -0.032371253
0.022329142 0.007981449 -0.018001886 0.051746476 0.02000839 -0.035006803 0.044144668 -0.037990674
0.025151156 0.041131474 -0.02165685 0.03160958 0.030127099 -0.026867278 -0.03677792 -0.028678652
-0.00066379877 -0.017770022 0.04074342 -0.007371694 -0.009594709 -0.010306969 -0.045901142 -0.04540016
0.042761564 -0.042944588 -0.04416287 -0.008276083 -0.00023235679 -0.056779522 -0.038344126 -0.055571783
0.0023955244 0.052652664 0.009680508 0.03911022 0.020864498 0.037739642 0.04981283 0.02590209
-0.0037867702 -0.034580402 -0.053767752 0.041478857 0.038100507 0.04225938 -0.010140096 -0.057472594
0.05143531 -0.055073947 0.0026525147 -0.046757255 -0.0032665709 -0.047883447 -0.05713365 -0.048113186
0.046287242 -0.034454707 0.020060033 0.044202402 -0.001653712 0.031400267 -0.05308104 0.009515774
0.042058058 -0.02141333 -0.034553684 -0.031453528 -0.001576005 0.015245054 0.0018519089 -0.03202091
-0.028939225 -0.010844629 0.043035977 -0.019583067 0.035383306 -0.031272423 0.0419597 -0.03042769
0.017104723 0.055563234 -0.037959903 0.04739007 0.016163483 -0.0150796445 -0.05416251 0.004895983
-0.02415603 -0.032461196 0.0058813156 -0.037685066 0.03991528 -0.055084486 -0.023787722 0.036814526
0.048229117 -0.017166544 2.2156963e-05 -0.030777497 0.017931476 0.031431977 -0.013175219 -0.006841421
0.046026863 0.052375186 -0.05889005 -0.038044676 -0.021208446 -0.04493024 -0.03331793 0.030345634
0.025133193 -0.046565562 0.04397161 -0.04237927 -0.0016750818 -0.039468583 -0.008427848 -0.046482343
-0.022801237 -0.032618668 0.014323622 0.0024988707 -0.053930126 -0.014657351 0.015015626 -0.017205074
0.024114862 -0.050356206 -0.015628912 0.009462674 0.024827082 0.021787735 -0.049458418 -0.021073446
-0.039051604 -0.043434963 -0.054877322 -0.03613459 -0.04147291 0.048720367 0.020290317 0.046037655
-0.028583951 -0.02824149 0.0342477 -0.029280769 -0.022955056 -0.03644419 0.0018782206 -0.0018004411
-0.004836508 -0.037382808 0.015358505 0.05162243 -0.024774294 0.03277512 0.032925203 -0.04536783
-0.037507813 -0.020527307 0.03924536 0.040202405 0.045498893 -0.009005688 -0.019764287 -0.012314414
-0.0426548 -0.03034803 0.023057088 -0.044682838 0.05489695 -0.023104345 -0.0154706435 0.04605592
0.022401497 -0.055146538 0.047691762 0.010198578 -0.043231126 0.054513857 0.02461527 -0.008573181
-0.045276213 -0.0559189 -0.0319001 -0.043013223 -0.04395684 -0.009847205 -0.010186514 -0.02038715
0.04977565 -0.0019252695 0.008113615 0.034287322 -0.020746008 -0.04858482 0.043374486 -0.02317927
0.0014183782 0.04619117 -0.05454179 0.028327465 -0.007304851 -0.059267033 -0.021842945 0.01305915
-0.028312765 0.024055615 -0.019875163 -0.006505336 -0.0081009995 -0.0027366392 -0.0069856276 0.05161868
0.053849258 0.047450744 -0.045294236 -0.020444117 0.016379707 0.0014878511 -0.021104736 -0.04147905

fc2.bias f4 [300]
00000000: 7349 0bbd 1891 ceb9 23ee 683d 8de7 83bc
00000010: 0b1e cf3b 6e26 b83c c000 813c 12a6 23bd
00000020: 5e14 183d ebef 713d 25c9 9ebc ebd8 20bd
00000030: 7ec3 613d 8d71 d1bc e2ad ccbc 6005 623d
00000040: 5eb2 9b3d c3fe f63c 16c4 873b 1493 353d
00000050: c559 28bd ccbe b43c 7ad1 133d c450 523d
00000060: 2c13 ac3c 19e0 923d b069 cfbb 529a bfbc
00000070: cb93 983d c467 f5bb 3c04 09bd ce70 053b
00000080: af15 c0bc 1a9f 033d 45ea 433c a6c8 f43c
00000090: 21d3 313c 0cb4 3dbd 14fa 4ebd aedd 0939
000000a0: c7be 873d 4535 a83d dceb aa3b 80ba b7bc
000000b0: 9488 2fbd 275b e5b9 64d2 d33c a6f1 2e3d
000000c0: 1714 323c 58e5 273c 25d2 ff3c d63d b73d
000000d0: 59e7 9a3c 3584 423c 7825 0dbc e25e 903c
000000e0: fa2f 8b3d e423 553d 2536 603d 9298 16bd
000000f0: c975 cebb ee4e 7a3b b7f7 593c cf6e ac3d
00000100: 8e46 463d 6056 15bd 7d97 103d f20d 7e3a
00000110: 3e84 aebb a8eb 503c e080 82bd d961 433d
00000120: b0a6 493b 50b3 ac3d ee4c 863d 99f7 813c
00000130: 4340 93bb 15df 8b3c c7fa 02bd f311 823c
00000140: bc11 153d 20e6 b73b bdc7 8c3c fd52 3ebd
00000150: fbc6 933a 8473 cabc d58b af3d 7e12 da3b
00000160: b237 523d a40a 6e3d ad7e d53c 64ad 873c
00000170: 7340 133c 9aa5 e83c 01d1 213b ca3c 9e3c
00000180: 24db 2cbb 179f e23c eedf 8ebc 301a 18bd
00000190: e677 053c 66df d1bb 9086 83bc 832d f73c
000001a0: f4b8 c3bc 6ce6 123d 85f4 1dbd 2254 2f3c
000001b0: e446 8f3a 02b9 16ba c822 1bbd 6108 a7bb
000001c0: 307d a83d 783a 13bd ddbe 0c3d f7c6 143d
000001d0: e100 12bc 7262 393d 3f92 243c 3047 223d
000001e0: f507 c03c b3e6 f2bb 0015 e63c 6ee9 3fbd
000001f0: 2127 b63d f0a0 2b3c c2f1 133d cd8a 013d
00000200: 16eb 1dbc 5f07 d83c 7a4f 8cbb 7b28 a13d
00000210: 72f5 5f3d 231a 883d 2168 cd3c 3887 80bc
00000220: 1461 5e3c 6c5b b1bc e10a 08bd ac86 21bd
00000230: a87b 54bc 8812 d83c 8213 e33d 67b2 83bb
00000240: 0694 5d3d 0920 3fbc a77d 083d 0891 7c3d
00000250: 5d02 2fbd 589f dbba 0d5b 9f3d 4cf3 97bc
00000260: 8468 07bc 3c83 82bb f0e7 72bc 4864 223d
00000270: 19c9 b13c e9c3 783c 564c 993d db89 a4bc
00000280: b427 793d badd 3c3d cccd 753b c8d2 c63c
00000290: d81c b5bb 5ba6 f33c 50c5 1f3b 9b5d 533d
000002a0: 7ea1 0c3d 1703 d2bc 1ad3 003d 8ab5 d63b
000002b0: 169a 00bd 61fc 66bc 2759 763c 01c1 943d
000002c0: 7224 3d3d a3d8 4a3c 7620 ba3c 3482 ad3d
000002d0: fa08 973d 7f40 483d 7887 e03c 232c 1dbd
000002e0: ab8d 92bc c65b adbc 0250 0bbc 565e b33c
000002f0: c24d d53c 78f7 ddbc de13 9a3c cffd 2cbd
00000300: 0e92 d7bb a9ba 51bd ce3e a9bc 24ed 54bd
00000310: 9a0d 9fbc c030 8dbc 0e7b a93c 051a 8cbc
00000320: f801 a3bb cb3c 303d 1530 7c3d b3f5 a73a
00000330: 33e0 183c 391a fa3b 93a0 be3b f97c 8ebb
00000340: 1eb7 12bd 079b 863d a9f4 1abb cefd b83c
00000350: fa9c 1d3d 0d62 d2bc c7b9 9f3c 403f 7cbc
00000360: 7b46 313d 0f0f 433d f972 8cb9 a1f6 a83c
00000370: 6c3e 20bb 9c06 243d a109 5a3c 0338 8b3c
00000380: d526 373c 7c59 31bd 39ce 103d 427b 32bc
00000390: 4404 01bd c294 a03d 9d52 03bc c027 5cbc
000003a0: 0e43 f43c 7f5f 423d 0f82 08bc eedf eebc
000003b0: 0c7d 13bc 13c1 f3bc c59f 6c3d 54c8 e93c
000003c0: 7f8f 883d 2c30 023d fe0f 3e3a 6dd3 253d
000003d0: 0781 b73c 7aff e73c 0ba7 c73c 321a fe3c
000003e0: 2ca7 f9bc c8b9 39bd ef5b 7dba 96c5 503d
000003f0: 6f03 7abc 0069 63bd 4c08 0abd 4484 2dbc
-0.034005594 -0.00039399485 0.05686773 -0.016101623 0.00632072 0.022479262 0.015747428 -0.0399533
0.0371288 0.059066694 -0.019383023 -0.03926937 0.055118077 -0.02556684 -0.024985258 0.055180907
0.0760238 0.030150777 0.0041432483 0.044329718 -0.041101236 0.022063635 0.036088444 0.051346555
0.021005236 0.071716495 -0.0063297376 -0.023389015 0.07450064 -0.0074891765 -0.033451304 0.0020361426
-0.02344784 0.032134153 0.01195771 0.029880833 0.01085356 -0.046314284 -0.05053146 0.0001314792
0.06628185 0.08213285 0.005216105 -0.022427797 -0.04285486 -0.00043746197 0.025857158 0.042710923
0.010869048 0.010247551 0.031228134 0.08947341 0.018909143 0.011872341 -0.00861489 0.017623369
0.0679626 0.05203618 0.054739136 -0.036766596 -0.006300662 0.0038194018 0.013303689 0.084195726
0.04840713 -0.036459327 0.03530072 0.0009691409 -0.005325823 0.012751497 -0.06372237 0.047700737
0.003076952 0.08432639 0.06557642 0.015865134 -0.0044937446 0.017074147 -0.03197744 0.0158777
0.036393866 0.00561215 0.017185086 -0.046465863 0.0011274511 -0.024713285 0.08571593 0.0066550365
0.051322646 0.058115616 0.02606138 0.016562171 0.008987534 0.028399277 0.0024691226 0.019316096
-0.0026375735 0.02766375 -0.017440762 -0.03713435 0.008146262 -0.006404805 -0.016055375 0.030173069
-0.023891903 0.03586428 -0.03856327 0.010701211 0.0010931161 -0.0005749614 -0.037874967 -0.0050974344
0.082270026 -0.035944432 0.03436171 0.03632256 -0.008911342 0.0452599 0.010044633 0.03961867
0.023441294 -0.0074127554 0.028086185 -0.046853475 0.08894182 0.010475382 0.03611923 0.03162651
-0.009638568 0.026370702 -0.0042819353 0.07869049 0.054677434 0.0664561 0.025074067 -0.015689477
0.01357295 -0.021650039 -0.0332135 -0.039435074 -0.012968935 0.026376024 0.11087705 -0.00401907
0.054096244 -0.011665353 0.033322956 0.06166175 -0.042726863 -0.0016755862 0.077810384 -0.01854863
-0.008264665 -0.0039829295 -0.014825806 0.039646417 0.021702336 0.015183427 0.07485263 -0.020085266
0.06082888 0.046109892 0.0037506698 0.02427043 -0.00552712 0.02974241 0.0024379082 0.05160294
0.0343337 -0.025636239 0.031451322 0.006552403 -0.031396948 -0.014098258 0.015035904 0.07263375
0.046177335 0.012380752 0.022720557 0.084721 0.07374759 0.048889633 0.027408347 -0.03837217
-0.017889818 -0.021161925 -0.008502962 0.021895569 0.026038054 -0.027095541 0.018808302 -0.04223424
-0.0065786904 -0.051203404 -0.02065983 -0.051983967 -0.019415665 -0.01723516 0.02068856 -0.01710225
-0.0049746 0.043026727 0.061569292 0.0012814313 0.009330797 0.0076325205 0.005817482 -0.004348394
-0.035819165 0.06572538 -0.0023644364 0.022581961 0.038479783 -0.02568152 0.019497765 -0.015395939
0.043280106 0.047621783 -0.00026788542 0.020625414 -0.002445127 0.040045366 0.01330796 0.016994482
0.011178692 -0.04329823 0.03535292 -0.010893645 -0.03149821 0.07840873 -0.008015302 -0.0134372115
0.02981713 0.047454353 -0.00833179 -0.029159512 -0.0090019815 -0.02975515 0.057769556 0.028537907
0.06667995 0.03178422 0.0007250308 0.040484834 0.022400392 0.028320063 0.024371644 0.03101835
-0.030475222 -0.04534319 -0.0009664883 0.050969683 -0.015259608 -0.055520058 -0.03369932 -0.010590617

fc3.weight f4 [200, 300]
00000000: 746c b2bc dc50 e13d 6484 e93d 85ce c93d
00000010: cc32 d7be c8cd 5fbc d4da 85bc 2cbd 9b3c
00000020: 87bd a0be 0222 1b3e d923 6f3d 8e17 673d
00000030: 8ea5 63be 40e5 abbb 2389 953c d634 843e
00000040: 088a 69be 9073 b73d 9b4e 89bb 41dc 05bd
00000050: 3abe d63d 471f 073e ce3d f23d d43f babe
00000060: de67 953e 0ab0 46be 3968 5dbe f492 92be
00000070: a4a9 32be 556e f33b 16ae 4a3d 4fbc a23d
00000080: bb99 d43d 2d62 4c3d 6781 f1bd 56f8 303e
00000090: f887 48be e9bf 04bd 2190 8e3d 802e 0a3a
000000a0: 110d 6fbe aa80 9dbc 3384 13be 269b 4bbd
000000b0: 7521 8a3e a1d2 efbc 1675 89be 294d 9c3d
000000c0: e123 2d3d 7a2d 3c3d 4a97 243e e67c a33d
000000d0: 0f2a 033e ceab 8dbc 41bb 643d 1a03 4e3d
000000e0: de7d 84be 4d13 0b3d b215 993d aa2f ccbc
000000f0: 8b1a 8b3c db1f da3d ca16 4d3e 5d78 03bd
00000100: 38b4 883e 010a 2a3d a8c3 ce3d 16d4 86be
00000110: cded 0e3e 54ec 593e 1a55 63be 4dfc 903d
00000120: 29ae 44bd 0374 913d fe37 053d 2140 bdbe
00000130: fc73 83be 2b58 77bd 990a 67bc f891 7c3d
00000140: aa93 f93b 42d6 e13c 388a 94bc 0015 ea3a
00000150: b166 1e3d 4e01 5c3d e903 a538 4b8f 8f3d
00000160: 75bc 953d e37b 083d e8b5 6dbe f1c8 6ebe
00000170: 6e18 95be 8276 5fbd 190a 123e cb11 51be
00000180: 7310 17bd fca0 863c 3f8a 5b3d 800f c63b
00000190: 4823 313d 9ec2 d1bd 5741 883d 096d cfbd
000001a0: 647b 42bc af6c 1a3d 1047 93bc 7447 183e
000001b0: 001c 983d 3c79 46bb ad51 783d a1bd 89be
000001c0: 5662 9f3d 3d1b c0bc e416 c93d 2ecd 3a3d
000001d0: e6a0 b1be 8c69 823d fc54 bcbc 2a38 8dbe
000001e0: d746 8a3d 253d 4fbe 428c ab3e 185c af3d
000001f0: c4bf b93d df8a cb3d dff4 4b3e 456c 873d
00000200: 3450 40be d0dc 9a3d 0880 efbc af89 71be
00000210: 6acf 24be 392f 03be c3d5 60be 198c 97bd
00000220: db06 80be 8ff7 f03c 723c 51be 147e 0d3e
00000230: e002 353d d012 3d3e 1ae0 1c3d 184b f1bd
00000240: 8f30 853d 613d a53d e83d aebe 3879 5bbe
00000250: 6d56 c73d fe17 e83c d174 52be da28 8f3e
00000260: 4462 193d e71a e43c 2f98 05bc e563 2cbe
00000270: d061 883d bc28 33bd b67c 263d 4052 793e
00000280: 85df 813d cddd aebe b164 91be 5613 28bd
00000290: 5c2c f83c 174f ee3d d10e c73c b545 963d
000002a0: 9298 20bd fc26 2abd 2681 03b8 ceb2 a73d
000002b0: e286 033d bc88 e53d 40be 02bd 127b 37be
000002c0: b781 51be d4f0 703c fce5 7f3d 71da 58be
000002d0: 73ec 8a3d f23c 8fbe 1f4f 303e a853 86bd
000002e0: 0a82 0dbd fc2a d83c 39a1 ddbd dc08 b13c
000002f0: 6d5a 843d 08bd 4d3c 5c47 f03c 0008 1e3a
00000300: ba87 28be fcf8 eabb 18a0 54bd 205d 65bd
00000310: 0b89 db3c 4e63 3bbd 6323 043d 872d 9ebe
00000320: 00a0 a2ba b46f 4b3c 4bdd 983d 1820 e6bc
00000330: 02c4 e0bd 045d 70be c9ec 49be 3eab 2b3d
00000340: f235 563d e7b4 6cbe ebf5 973e 374c 2dbc
00000350: 8263 58be 9f5a d63d 1ee3 a1bc d549 56bd
00000360: 001d b03d c499 99be d12c 20be 714b c93d
00000370: 49bf be3d 8850 65bc ea1f 1bbd a67b 64be
00000380: 0a12 cd3d 60a0 083b e502 5c3d 70ae eabb
00000390: 16c3 5b3d 5d15 0f3e 41b2 fe3c ad74 36bc
000003a0: 984b 36bc 1317 1ebd de26 553d fdf1 fcbb
000003b0: 0ef4 27bd 38dd db3d 402d 0dbe 2bf7 983d
000003c0: c9b4 233d 6a0a 8c3e 6224 603d 585d 083e
000003d0: 0640 a23d 7fed 463d 2748 a43d 002d 323d
000003e0: 038c 1ebe 309a e63c c2fb 83be 88ce 973d
000003f0: 2491 cf3c c38d 063c bca3 8e3c c4cf df3c
-0.02178023 0.11001751 0.11402205 0.098538436 -0.42030942 -0.013659902 -0.016339697 0.019011103
-0.31394598 0.15149692 0.058383796 0.056418948 -0.22231123 -0.0052458346 0.018253868 0.2582156
-0.22806561 0.08957589 -0.0041902787 -0.032680754 0.104855016 0.13195525 0.118281946 -0.36376822
0.29180807 -0.19403091 -0.21621789 -0.2862774 -0.17447525 0.007428924 0.049482428 0.07946073
0.10380884 0.049898315 -0.1179226 0.17282233 -0.19583118 -0.032409582 0.06961084 0.0005271211
-0.23344828 -0.01922639 -0.14405899 -0.049708508 0.2697865 -0.02927524 -0.26847142 0.07631905
0.042270545 0.045941807 0.16073337 0.07982807 0.12809013 -0.017293837 0.05584264 0.050295927
-0.2587728 0.033953954 0.07474841 -0.024925072 0.01698043 0.10650607 0.20028225 -0.03209721
0.26699996 0.041513447 0.10095912 -0.26333684 0.13957901 0.21281558 -0.22200432 0.070793726
-0.048017655 0.071022056 0.0325241 -0.3696299 -0.25674427 -0.060386818 -0.014101648 0.061662644
0.00761648 0.027567986 -0.018132314 0.0017859042 0.038672153 0.05371218 7.8685414e-05 0.07009753
0.07311336 0.033321273 -0.23213923 -0.2331884 -0.291202 -0.054556377 0.14261664 -0.20416944
-0.03688092 0.016434185 0.05359864 0.006044328 0.043246537 -0.102421984 0.066530876 -0.10128219
-0.011870239 0.037701305 -0.017978221 0.14871007 0.074272156 -0.0030284664 0.060624767 -0.26902488
0.07782428 -0.023450488 0.09818819 0.04560583 -0.34693068 0.06367788 -0.022989742 -0.27581912
0.06751793 -0.20238169 0.33505446 0.08562487 0.090697795 0.09938597 0.1991763 0.06612448
-0.18780595 0.07561648 -0.029235855 -0.23587678 -0.16094747 -0.12810983 -0.21956544 -0.073997684
-0.2500523 0.02941492 -0.20433214 0.13817626 0.044192195 0.18464208 0.038299657 -0.11781901
0.065034024 0.08068348 -0.34031606 -0.2143296 0.09733281 0.028331753 -0.20552374 0.27960855
0.03744723 0.02784486 -0.008153959 -0.16834982 0.06659281 -0.04374002 0.040646277 0.24347782
0.06341461 -0.34153596 -0.28397134 -0.041034065 0.03029459 0.11636179 0.024299057 0.07337514
-0.039208002 -0.041541085 -3.1353113e-05 0.08188401 0.032111056 0.11207721 -0.031919718 -0.17918041
-0.20459639 0.014705855 0.06247519 -0.21177079 0.0678338 -0.27976185 0.17217682 -0.06558925
-0.034547843 0.026387684 -0.108217664 0.02161067 0.0646256 0.012557276 0.029330902 0.0006028414
-0.16458026 -0.0071707945 -0.05191049 -0.055997014 0.026798746 -0.045749 0.03226031 -0.3089411
-0.0012407303 0.012416769 0.07464083 -0.028091475 -0.109748855 -0.23472983 -0.19719233 0.041911356
0.05229754 -0.23115884 0.29679808 -0.010577253 -0.21131709 0.10466503 -0.019761618 -0.052316505
0.08599281 -0.30000126 -0.15642096 0.098288424 0.093138285 -0.013996251 -0.037872232 -0.22312793
0.10013206 0.0020847544 0.053713698 -0.007161908 0.053652845 0.13972993 0.031090857 -0.011136216
-0.011126421 -0.038596224 0.05203902 -0.007719277 -0.041004233 0.107355535 -0.13786793 0.074690185
0.039967332 0.27351695 0.054722197 0.13316858 0.07922368 0.048566338 0.080215745 0.043499947
-0.15483098 0.028149694 -0.25778013 0.074124396 0.025337763 0.00821251 0.017412059 0.02732075

fc3.bias f4 [200]
00000000: b271 643c b43b 1e3d d778 a33d 3317 fa3c
00000010: 5cb7 39bc 4008 3b3d ce33 a03c 26bc 003d
00000020: 6a90 763c 25ef d93c 9d05 d4bc b080 09bb
00000030: 14d3 d33c 8471 6e3d 8152 693d 8991 7a3d
00000040: 8ff0 483d 3939 2e3d abfa 153c bddc 4d3b
00000050: 5153 1cbc 4100 ef3d 8a2c fa3d 81ed a03b
00000060: 7920 363d 43d1 593d d661 10bd 8edd 88bc
00000070: 737c c53b fb0d 883d 5409 663b 8d35 8f3c
00000080: d5ad 923d b761 803d c5cf 2f3d 5a0b 1d3d
00000090: ea7a 47bc 7929 9ebc 335f 63bc ae63 be3d
000000a0: 3834 d9bc e7b6 5b3d 3f93 113d eca8 483d
000000b0: 5703 8b3d ddb5 b13c d07d 71bc 2641 60bd
000000c0: 3729 a73d f2e5 b83c d686 aa3d ef61 813d
000000d0: 4d22 163d 98ac 803d 9488 3dbd 6daa 3dbd
000000e0: 2690 5cbd e790 9ebc 644a d3bc fcfa 903c
000000f0: c7a0 c03d b64f 0abb 32e8 313d 63c4 1f3d
00000100: 8ae1 923d 489e 36bc bcef 523b 6b4e 8e3d
00000110: ae5a 353d 9822 783c e402 7dbc 7df4 793b
00000120: 3d19 f03d c514 31bd 6780 5fbd 9dfa 983d
00000130: d1f1 a03b 51a1 b03c 1797 873b 2276 603d
00000140: 10cb 7ebb 5fd5 b83d c1f3 4e3d ec97 e63d
00000150: 7e2b 43bd b758 22bd 5de7 c33d fb3b 093d
00000160: 2868 693d 4c3f bc3d 6949 c13d b34e 663d
00000170: ac70 75bd f20b b13d dc37 8a3d c5bd 70bd
00000180: 7ebd 413c dbe1 a83c 269a 08bd 322e 19bd
00000190: 4b9e aa3d 46f0 053d d480 203d b9c7 9b3d
000001a0: d233 02bc 1876 69bd cae3 74bd d50d 6f3d
000001b0: 68e5 963d 6a81 7a3d b02c 663d 1a2b 56bb
000001c0: 9eee 9fbc 24f1 c13c f2e0 eebc 88b0 33bd
000001d0: 38a8 173c beb3 903d 761a 9e3d 1299 963d
000001e0: fdef 843c 4a03 273d 554d bebc c4de 4b3b
000001f0: 28d2 4b3d 3af5 aa3d fe55 663c bb5b 893c
00000200: c038 41bd a22c c13d 399a 7b3c 79c3 1f3d
00000210: b06d 8a3d c556 113d 52a6 72bd 9029 063c
00000220: bc6e afbc 375d 373d 7a5e 4a3c 419e 9d3d
00000230: c841 033b ad3a 8d3d 1d7b 3b3c fca9 35bc
00000240: cbe6 903d d96f e8ba 3dc0 983d f152 583d
00000250: 8007 353d 1c31 173d d38c 65bd 34ef e7bc
00000260: 2182 173c 7489 c53a 766a 1bbd fa59 53bd
00000270: 286c 863c 97cf 3cbc 8c63 213c e89f 363d
00000280: a432 46bd affd 543d 14b3 4cbc 550b 9e3d
00000290: 0a51 7a3d 1333 dd3c a055 803d 1aae a83d
000002a0: f31e b9bd 751c a7bb 4628 783d 36d8 cb3d
000002b0: 90ef 323d 0445 003e 178c 07bc 9a56 ec3b
000002c0: 65c6 003e 30bd cabc c3af 8e3d 3cc0 a03c
000002d0: 66e1 53bb 75e7 983d 4696 25bd dd43 1f3d
000002e0: 82dd f23d 1ad8 833d 090a a23c f892 c43d
000002f0: 0e16 2ebc 9d38 9a3d c5b6 983c 5e42 22bd
00000300: b56f 9d3c 182e 053d 6310 0b3d 8e84 703d
00000310: 415a bc3c 2aa2 5bbd 99c6 3cbc dea5 2c3d
0.013943123 0.038631156 0.07982033 0.03052864 -0.01133522 0.045662165 0.019555952 0.031429432
0.015049079 0.02660329 -0.025881583 -0.0020981245 0.025857486 0.058213726 0.056963447 0.06117395
0.04905754 0.04253504 0.009154002 0.0031412088 -0.009541349 0.1166997 0.122155264 0.004911125
0.044464562 0.053178083 -0.035249554 -0.016707208 0.0060267984 0.066432916 0.0035100775 0.01748159
0.07162062 0.062686376 0.042922754 0.038340904 -0.012175301 -0.019306885 -0.013877678 0.09296356
-0.026514158 0.053641226 0.035540815 0.04898922 0.067877464 0.021693164 -0.014739469 -0.05474963
0.08162158 0.022570584 0.08326499 0.063175075 0.036653806 0.0628292 -0.04627283 -0.04630511
-0.05384841 -0.019356204 -0.025792308 0.017697804 0.09405666 -0.002110464 0.04343433 0.03900565
0.071719244 -0.011146136 0.003218635 0.06948551 0.044275932 0.015144967 -0.015442584 0.003814011
0.11723564 -0.043232698 -0.054565813 0.07469676 0.0049116393 0.021561297 0.0041378844 0.05480016
-0.003887836 0.09025072 0.05052543 0.112594455 -0.0476489 -0.039635386 0.095656134 0.033504467
0.056984097 0.091917604 0.0943783 0.056227397 -0.059921905 0.086448565 0.067489356 -0.05877473
0.011824964 0.020615509 -0.033350132 -0.03739757 0.08330973 0.032699846 0.03918536 0.076064534
-0.007946925 -0.05699739 -0.05978755 0.0583628 0.073679745 0.061158575 0.05619496 -0.00326795
-0.019522961 0.023674555 -0.029159997 -0.043869525 0.009256415 0.07065533 0.07719891 0.073534146
0.016227717 0.04077462 -0.023230234 0.003110812 0.049760967 0.083475545 0.014058588 0.016767373
-0.04717326 0.09432341 0.015356594 0.039004777 0.067592025 0.03548314 -0.059240647 0.00818862
-0.021415107 0.04476663 0.0123516265 0.076962 0.0020028222 0.06895957 0.011442927 -0.011087891
0.0707527 -0.0017733529 0.074585415 0.052813474 0.044196606 0.03691207 -0.056042504 -0.028312303
0.009247334 0.0015070871 -0.037943326 -0.05159948 0.016408995 -0.011524103 0.009850394 0.044586092
-0.04838814 0.051999744 -0.012493867 0.07717005 0.06111244 0.027001893 0.06266332 0.08236332
-0.09039106 -0.005099828 0.060585283 0.09953348 0.043685496 0.12526327 -0.008273146 0.007212472
0.12575682 -0.024748415 0.06967118 0.019622914 -0.0032330393 0.07466022 -0.040426515 0.03888308
0.118586555 0.064377025 0.019780176 0.095983446 -0.010625375 0.075303294 0.018641839 -0.039614074
0.019218305 0.03251466 0.033951174 0.058720164 0.022992255 -0.05362145 -0.011521959 0.04215037

fc4.weight f4 [1, 200]
00000000: 21b7 c6be cc9e 31bb 1679 a3be 8344 35be
00000010: d6ee dbbe e7a3 a9be 0b21 dfbe 01f9 2a3e
00000020: d8fc cabe 5ca9 48b9 8ae5 fdb9 1103 c9be
00000030: a02c ddb8 662b 533e 5bbd 663e dc67 ddbe
00000040: 0848 0b3b f6f7 45be 42b4 33be e420 bbbe
00000050: 35b0 9136 8385 c9be 28e5 c2be d5b2 d9be
00000060: 170f 01bb 0001 5c3e 6880 daba e612 3eba
00000070: b0c8 d9be 199d d8be 8d8f 3eb6 a745 473e
00000080: 97e7 623e efcd e2be 25ec c5be eea9 c8be
00000090: 591c c3be 4ddd 2c38 ab1e dcbe 885b cfbe
000000a0: bfc9 3fbe 5654 5a3e 4214 bfbe 0c19 5b3e
000000b0: 4fad 3bbe 826d 543e f33f 96ba 38f8 f63a
000000c0: 538d 663e 998d c7be 1632 afbe 053f f0be
000000d0: d252 e3be d209 703e aff9 72bb 57ce 8db9
000000e0: d490 0cba 79f9 3dbe 94cf 21bb 330c 6b3e
000000f0: 70b8 ccbe 0465 42be 18f0 553e 811d d6be
00000100: 3186 6d3e b9dd 2dba e845 d0be 0fbe eebe
00000110: 5b2d c7be f689 36be 371a b9be dce9 e2be
00000120: a557 5a3e 7e99 c6be 33ad a3ba ed24 c4be
00000130: 9f35 e7be 5940 40be d311 ecbe e498 cfbe
00000140: b43d a73a 9ab5 663e 8001 573e 5563 583e
00000150: 9aec 7c39 e864 c2be 7103 533e 46e6 3fbe
00000160: 8d14 babe d85a 653e 91ec ccbe 93e2 d9be
00000170: ae8e 873a 730a 623e ece6 e2be a11e 23ba
00000180: 2955 c5be fe87 ccbe 099c e1be 1a68 1abb
00000190: 73c5 cbbe e85b 653e a009 4d3e f822 5e3e
000001a0: 4bb9 e0be 4e33 0bba ac8c d63a 1adf cdbe
000001b0: 1916 d2be c2ea 4e3e 0f9c d3be 98af e1be
000001c0: f4ea 1138 37b0 5a3e 15aa dabe 30c3 ad3a
000001d0: 0792 85b9 50f3 5c3e ca7a 643e 91df 6f3e
000001e0: eecf 2ebe 3cf2 03bf dbcf d1be b79c b339
000001f0: 0400 5e3e 31ff c0be 9eb6 ccbe 5837 573e
00000200: 067f a63a 1f04 623e e14f cfbe 23dc d1be
00000210: 037a eebe 5146 debe 65d4 6a3a 6f7b e6be
00000220: 932e d0be 7459 f8be 4da9 d2be 86a9 c2be
00000230: 7b2a c6be 3e8b e4be 47b5 d5be 86cf 343b
00000240: 4756 29be b0c9 b03a ef89 43be f4e6 613e
00000250: 36ff 693e f54f 2fbe 27d8 4dbb 4608 39be
00000260: 48b5 dabe 0404 eabe 59ca 003b 27f1 013a
00000270: 14e2 5e3e 84f7 ddbe a49f 483e 71ae debe
00000280: 1ddc b83a 9c06 cebe d9f6 8dba 8d12 543e
00000290: b286 e7be 302e 43be 4730 dcbe 0f38 99be
000002a0: 92de 09bf 8612 38ba 4a9d 97be 2e2a 643e
000002b0: a70c 623e e2f9 4c3e 769b 263a b05e d93d
000002c0: cd48 c7be 109a 36be f415 debe c99c cabe
000002d0: d1c8 a2ba 0d85 f5be e42a 2fbb 54b6 563e
000002e0: cdad 693e f7f1 f0be 8776 d0be 3016 c9be
000002f0: 9678 6c3b 25dc 97be 5f34 e4be c8ca 253a
00000300: febb cbb8 874d a9ba 8338 543e d8a0 e1be
00000310: 74e9 583e c094 e539 4fbc d53a 6181 d2be
-0.3881159 -0.0027102707 -0.3192832 -0.17701916 -0.42955655 -0.3313286 -0.43579897 0.1669655
-0.3964603 -0.00019136578 -0.0004842694 -0.39260152 -0.00010546413 0.20622024 0.22533171 -0.432433
0.002125265 -0.19332871 -0.17549232 -0.3654853 4.34185e-06 -0.39359674 -0.38065457 -0.4251925
-0.0019692832 0.21484756 -0.0016670348 -0.0007250741 -0.42535925 -0.42307356 -2.8395764e-06 0.19460164
0.22158657 -0.4429774 -0.38656726 -0.39192146 -0.38107565 4.1214098e-05 -0.42992148 -0.4049952
-0.18729304 0.21321234 -0.37320143 0.21396273 -0.1832783 0.20744899 -0.001146315 0.0018842285
0.22514848 -0.38975218 -0.342179 -0.4692308 -0.44399124 0.23441246 -0.0037075093 -0.0002704735
-0.0005362157 -0.18552198 -0.0024690377 0.22953872 -0.39984465 -0.18983847 0.2089237 -0.41819385
0.23195721 -0.00066324655 -0.40678334 -0.46629378 -0.3890179 -0.17826065 -0.36152813 -0.44319046
0.21322496 -0.3878898 -0.001248753 -0.38309422 -0.45158097 -0.18774547 -0.4610735 -0.40546334
0.0012759478 0.22530213 0.20996666 0.21131642 0.00024120734 -0.3796761 0.20606782 -0.18740186
-0.36343804 0.22397935 -0.40024236 -0.42555675 0.0010342204 0.22074299 -0.44316804 -0.00062225206
-0.38541535 -0.39947504 -0.44064358 -0.0023560585 -0.3979908 0.2239834 0.20023203 0.21693027
-0.43891367 -0.0005310074 0.0016368828 -0.40209275 -0.41032484 0.2020674 -0.4133 -0.4407928
3.478951e-05 0.21356283 -0.42707887 0.0013257023 -0.00025476536 0.21577191 0.22312465 0.23425128
-0.17071506 -0.51541495 -0.40978894 0.00034258302 0.21679693 -0.37694696 -0.39983076 0.21017206
0.0012702651 0.22071885 -0.4049063 -0.40988263 -0.46577463 -0.43413022 0.0008958041 -0.45016047
-0.40660533 -0.48505747 -0.4114479 -0.3801996 -0.38704285 -0.44637483 -0.41739866 0.0027589514
-0.16536818 0.0013487842 -0.19095586 0.22060758 0.22851261 -0.17120345 -0.0031409354 -0.18069562
-0.42716432 -0.4570619 0.0019651859 0.0004956894 0.2176593 -0.43352902 0.19592148 -0.43492463
0.0014103685 -0.40239418 -0.0010831013 0.20710202 -0.45219952 -0.19060588 -0.43005583 -0.29925582
-0.5385524 -0.0007021803 -0.2961219 0.22281715 0.22075139 0.20017198 0.0006355563 0.10613763
-0.3892273 -0.17832208 -0.43376124 -0.39572743 -0.0012419467 -0.47953072 -0.0026728446 0.2096799
0.22820206 -0.47059605 -0.4071543 -0.3927474 0.0036082617 -0.29660144 -0.44571206 0.0006324467
-9.7148106e-05 -0.0012916782 0.20724683 -0.44068027 0.21182805 0.0004378911 0.0016306731 -0.41114333
