checkpoint_critic.pth (torch, 745075 bytes, 7 tensors)

fcs1.weight f4 [400, 9]
0.03159275 -0.029405411 0.0119304415 -0.0051475405 0.03552383 -0.037102904 -0.0077318535 -0.051406935
-0.000337229 0.25815758 -0.0390086 0.05541473 0.076185375 0.067530766 0.04071353 0.018694263
-0.023998884 -0.12140467 -0.06257929 -0.04952095 0.049135502 -0.052554905 -0.08827327 -0.0085015185
-0.03730201 -0.043923393 -0.051124424 0.021997627 0.042991336 0.01716343 -0.03647848 0.032709103
0.008103423 0.048138637 0.0437827 -0.02977931 -0.029945988 0.025334332 0.0057972446 -0.03468745
-0.038069315 -0.017522328 0.04084799 0.023278523 0.046226595 -0.07892383 0.07578477 0.0144347055
0.10398299 -0.12270946 0.03552968 -0.026016282 0.07007084 0.039316587 0.0071090683 0.0026772097
-0.016029842 -0.032531537 0.0011781827 0.027320419 -0.03300186 0.013977591 0.00013577193 -0.035460904
-0.06859045 -0.05825707 -0.07566807 -0.11989403 0.03804376 0.05150682 0.01978709 0.09763616
0.0046393853 -0.019811932 -0.015138983 0.09507893 0.046811983 0.10371267 0.071152076 -0.031570576
-0.051104534 -0.08776352 -0.017776884 -0.07010868 -0.053352777 -0.07003323 0.18136972 -0.025254693
0.008518576 0.0042693913 0.013620366 0.09717249 -0.10529482 -0.15006883 -0.060435675 0.18524708
0.03261986 -0.04485768 0.10219767 -0.056993093 -0.018810412 0.0031272518 0.009152625 -0.15246715
-0.16321556 0.013357533 -0.0059292326 -0.056443088 -0.055600345 0.17292032 -0.0006018529 0.027158417
-0.036009185 0.025358047 -0.03937191 0.052693456 0.0013545423 -0.09645012 -0.10059237 -0.018995201
0.022699298 0.009770048 -0.02425824 0.019019136 0.036076322 -0.061498303 -0.1024651 -0.01288466
0.009388684 0.0048875953 -0.12861371 -0.18300486 0.031536497 0.03968711 0.010224646 -0.04191253
0.004031752 0.03791258 -0.027815681 -0.1370217 -0.16807598 0.052622672 0.027222227 -0.029908769
-0.068287715 0.012522946 0.0066898596 0.022746302 -0.022772674 -0.14741851 0.018128568 0.0022280584
0.017469361 -0.032940302 -0.006678087 -0.018996852 0.055257197 -0.028739814 -0.10679068 0.03756742
0.034927044 -0.016970815 -0.017122407 0.0018326528 0.034213882 0.029194769 -0.042060055 0.028827544
-0.030054187 0.012932558 -0.024317909 0.094138734 0.029453995 -0.047417026 -0.07965718 0.03499363
-0.10325628 -0.00020045832 -0.059495274 0.03032121 0.01584578 -0.042226262 0.023836736 0.010312121
-0.029585963 -0.03585594 -0.026997138 -0.009021066 -0.030359978 0.10485243 -0.09803368 0.105690144
-0.089214936 -0.0034585916 0.040899396 0.020952288 -0.10206082 0.00045363573 0.013896968 -0.016781949
-0.012610145 -0.02547804 -0.009122092 0.026934076 0.048190113 -0.032485116 0.03666619 -0.083446
-0.06687764 0.056224216 -0.022742735 -0.1011852 -0.1316156 0.03292146 0.018120715 -0.0015432041
-0.014561068 -0.03190838 0.04950818 -0.007611364 -0.0467457 -0.013899099 0.005909078 -0.047368106
-0.04220217 -0.07908605 7.315791e-05 -0.06939935 -0.050318908 -0.13959053 0.24260078 -0.020402076
0.011257319 0.022065384 0.0009156391 -0.038466543 0.04574951 -0.03861738 0.009474374 0.049257282
-0.039215077 0.04564834 0.021129426 -0.04893447 -0.040868748 0.032351755 0.0149469385 0.02868467
-0.010099775 -0.010413933 -0.021546116 -0.020514453 -0.09999035 0.016758857 -0.0051853997 0.0046711587
00000000: 6667 013d 9ee3 f0bc e677 433c b3ac a8bb
00000010: 7081 113d 37f9 17bd 7d5b fdbb 1490 52bd
00000020: 1cce b0b9 3b2d 843e 7bc7 1fbd 8efa 623d
00000030: 1407 9c3d 924d 8a3d 3bc3 263d b624 993c
00000040: 4f99 c4bc 03a3 f8bd 9229 80bd 7bd6 4abd
00000050: 4f42 493d d043 57bd 9ec8 b4bd f449 0bbc
00000060: fec9 18bd 04e9 33bd d867 51bd 5e34 b43c
00000070: af17 303d 529a 8c3c 756a 15bd fbf9 053d
00000080: 38c4 043c 052d 453d 7d55 333d bdf3 f3bc
00000090: 4a51 f5bc f289 cf3c d0f6 bd3b 6d14 0ebd
000000a0: 92ee 1bbd fc8a 8fbc 3950 273d 9ab2 be3c
000000b0: 1958 3d3d d1a2 a1bd 0c35 9b3d 8b7f 6c3c
000000c0: 09f5 d43d 194f fbbd 9287 113d 1920 d5bc
000000d0: 4d81 8f3d 6e0a 213d 30f3 e83b 2074 2f3b
000000e0: 0451 83bc ca3f 05bd 406d 9a3a 12cf df3c
000000f0: f52c 07bd 4402 653c 005e 0e39 743f 11bd
00000100: 2679 8cbd f79e 6ebd dcf7 9abd 008b f5bd
00000110: c6d3 1b3d d1f8 523d 8918 a23c 78f5 c73d
00000120: fc05 983b a24c a2bc 7f09 78bc beb8 c23d
00000130: ecbd 3f3d 4f67 d43d 2eb8 913d 2650 01bd
00000140: fd52 51bd 5cbd b3bd d4a0 91bc 2495 8fbd
00000150: 7188 5abd 956d 8fbd fcb8 393e eee2 cebc
00000160: 7f91 0b3c 40e6 8b3b f527 5f3c 5f02 c73d
00000170: d0a4 d7bd a5ab 19be 668b 77bd 69b1 3d3e
00000180: 679c 053d b0bc 37bd 034d d13d 9771 69bd
00000190: 4b18 9abc 94f2 4c3b e4f4 153c 5920 1cbe
000001a0: fb21 27be 8ed9 5a3c 024a c2bb de30 67bd
000001b0: 30bd 63bd 0612 313e aac5 1dba 547b de3c
000001c0: 5e7e 13bd aebb cf3c 7144 21bd 18d5 573d
000001d0: e68a b13a a487 c5bd 5f03 cebd d39b 9bbc
000001e0: e1f3 b93c 8d12 203c 37b9 c6bc 05ce 9b3c
000001f0: c4c4 133d a5e5 7bbd 39d9 d1bd 2e1a 53bc
00000200: ffd2 193c 1f28 a03b 50b3 03be a065 3bbe
00000210: 6a2c 013d f38e 223d 4685 273c 79ac 2bbd
00000220: c91c 843b 394a 1b3d b6dd e3bc 6b4f 0cbe
00000230: 1c1c 2cbe df8a 573d 2601 df3c 3c03 f5bc
00000240: 6eda 8bbd 0b2d 4d3c 9c36 db3b 7456 ba3c
00000250: c28d babc e1f4 16be 5d82 943c 9e04 123b
00000260: e81b 8f3c 69ec 06bd dbd3 dabb 499f 9bbc
00000270: 5f55 623d c26f ebbc 12b5 dabd 4ce0 193d
00000280: a90f 0f3d 6106 8bbc 4a44 8cbc a035 f03a
00000290: db23 0c3d de29 ef3c 2a47 2cbd be27 ec3c
000002a0: 3334 f6bc 14e3 533c 5a36 c7bc cfcb c03d
000002b0: 8149 f13c 5b38 42bd 4e23 a3bd 7b55 0f3d
000002c0: 0778 d3bd 1f32 52b9 51b1 73bd 3064 f83c
000002d0: 02cf 813c 72f5 2cbd 4245 c33c 2cf4 283c
000002e0: 435e f2bc aedd 12bd 1a29 ddbc 18cd 13bc
000002f0: 7db5 f8bc dfbc d63d e2c5 c8bd 1374 d83d
00000300: 52b6 b6bd 8aa9 62bb 2086 273d 22a4 ab3c
00000310: 4305 d1bd f5d5 ed39 1cb0 633c 4c7a 89bc
00000320: c89a 4ebc 53b7 d0bc d474 15bc daa4 dc3c
00000330: ff62 453d 1d0f 05bd 492f 163d bde5 aabd
00000340: 25f7 88bd 5d4b 663d f94e babc 303a cfbd
00000350: 3dc6 06be a7d8 063d e571 943c 5645 caba
00000360: 8c91 6ebc 5db2 02bd 17c9 4a3d c068 f9bb
00000370: 6b78 3fbd 0cb9 63bc f0a0 c13b 0f05 42bd
00000380: 2fdc 2cbd def7 a1bd 5b6c 9938 3f21 8ebd
00000390: 331b 4ebd d2f0 0ebe 576c 783e 4122 a7bc
000003a0: 9e70 383c 77c2 b43c 8007 703a 188f 1dbd
000003b0: d763 3b3d 422d 1ebd 683a 1b3c 01c2 493d
000003c0: fd9f 20bd c1f9 3a3d 9e17 ad3c 836f 48bd
000003d0: fd65 27bd 4683 043d 01e4 743c 1dfc ea3c
000003e0: 8779 25bc 339f 2abc 7b81 b0bc ed0d a8bc
000003f0: bec7 ccbd df49 893c 49ea a9bb 8510 993b

fcs1.bias f4 [400]
0.19997813 -0.034774274 0.1276467 -0.22498445 -0.30017418 0.0771584 -0.3187426 0.045606866
0.055126134 0.052651983 -0.14880806 -0.017080082 -0.21085687 0.24037986 -0.076705836 -0.044221897
-0.04058412 -0.0823522 -0.26624376 0.0138615435 -0.25507802 0.008895358 -0.23179607 -0.113763794
-0.27039087 0.093959816 -0.27936062 -0.20593256 -0.07202761 0.08014999 0.2967582 -0.037211243
0.16944668 -0.13399152 0.13754873 0.05683293 0.27104092 0.012332176 -0.08303134 0.24826473
0.27334487 -0.30561113 0.2968645 0.005501991 0.32119736 0.27399424 -0.3125647 0.26752266
-0.14729123 0.10510535 -0.023177322 -0.19010243 -0.2751461 0.063475676 0.10873559 0.07385828
-0.21613696 -0.3246506 -0.21809396 -0.25847048 0.0712456 -0.25821143 -0.21816584 -0.32060024
0.23689516 -0.25413978 -0.05871943 -0.041732572 0.22654146 0.17358953 -0.21091363 -0.051035482
0.35098812 -0.07153591 -0.055641312 -0.11424674 0.20905256 0.09765554 0.018272055 -0.17937112
0.31874424 0.124244615 -0.11240297 0.05213607 0.23887807 -0.042527456 -0.28110704 -0.26866686
0.22051841 -0.1544637 -0.279953 -0.31409574 0.24520738 -0.09013993 -0.069584385 0.26490602
0.15419003 -0.20280182 -0.112975396 -0.25313056 0.16653164 0.17234662 -0.2670014 0.15929288
0.021127785 -0.17177765 -0.26727468 0.26668626 -0.26176414 0.31999862 0.07909931 -0.22405104
-0.16384953 -0.20984952 0.106839664 0.09141165 -0.10650833 0.08128802 0.0575666 0.096961476
0.22719626 0.27973017 0.0147947 0.3300113 0.19013762 0.2902724 -0.16193506 -0.067403466
0.044115234 -0.28273004 -0.053905006 -0.1674431 -0.037831217 0.32352445 -0.29798707 -0.18317692
-0.29637223 0.29646114 0.084488295 0.11621552 0.21719524 -0.088769354 0.1132702 -0.21754965
-0.2493786 0.062538736 0.33697656 0.21843775 0.031058114 -0.014766964 0.2438126 0.053064242
0.24465805 -0.16426069 0.15448864 0.14789404 0.26325828 0.26197895 0.20735575 0.31487134
-0.20965835 -0.07663405 0.2758426 0.058429044 0.23837042 -0.05348456 0.2584925 0.28233176
0.036080424 -0.30038053 -0.024616417 0.30295137 -0.23820412 -0.11558763 0.20318218 0.22065027
-0.17264292 0.19388886 0.09484074 0.32474202 0.29478827 0.14794338 -0.1575007 0.11807957
0.16057137 0.069098085 0.14812332 -0.0383219 -0.302762 -0.1943778 -0.23830459 0.16811559
-0.3152045 -0.16910608 -0.16897044 0.007858774 0.07363624 -0.27707356 -0.04160217 0.26585492
-0.0655258 0.13167284 -0.2744413 0.013885295 -0.000797989 0.13921706 0.029414719 -0.18572128
-0.1410663 -0.128925 0.20464762 -0.21490292 0.17608011 -0.12847829 0.16650565 0.02255124
-0.12034392 -0.1284267 -0.21925153 -0.2649462 0.18706037 -0.2909944 0.23985508 -0.21548498
-0.19360569 0.29878962 -0.29186553 0.046728972 0.27482897 -0.3196251 -0.22927472 -0.15517724
-0.1759876 -0.09172092 -0.30957323 -0.032812882 -0.20697545 0.24425012 0.14117324 0.16504487
-0.2895516 -0.25657618 0.1641914 0.32270455 0.11281663 -0.16095771 0.25689685 -0.11079446
-0.31355628 0.15275492 -0.23206198 -0.26050252 -0.3199304 -0.24856994 0.1305502 0.0022949318
00000000: 11c7 4c3e 786f 0ebd d1b5 023e 5362 66be
00000010: 6eb0 99be 3905 9e3d 3b32 a3be 44ce 3a3d
00000020: f1cb 613d 9ba9 573d 2461 18be 87eb 8bbc
00000030: ddea 57be 2326 763e f317 9dbd 0522 35bd
00000040: 893b 26bd 45a8 a8bd 1a51 88be 871b 633c
00000050: 9699 82be d6bd 113c f35b 6dbe fefc e8bd
00000060: ac70 8abe 016e c03d 5b08 8fbe fcdf 52be
00000070: 3683 93bd ae25 a43d b1f0 973e d16a 18bd
00000080: 6e83 2d3e 1335 09be 93d9 0c3e a5c9 683d
00000090: e0c5 8a3e e50c 4a3c 560c aabd 1c39 7e3e
000000a0: dcf3 8b3e 1079 9cbe a0fe 973e 0c4a b43b
000000b0: fb73 a43e f948 8c3e 7b08 a0be bbf8 883e
000000c0: 83d3 16be 7941 d73d 5ede bdbc 36aa 42be
000000d0: f3df 8cbe 89ff 813d c4b0 de3d 0343 973d
000000e0: 0253 5dbe 9a38 a6be 0654 5fbe 3e56 84be
000000f0: 37e9 913d 4a34 84be de66 5fbe b725 a4be
00000100: a594 723e 9c1e 82be c983 70bd c6ef 2abd
00000110: 7cfa 673e 74c1 313e bef9 57be 950a 51bd
00000120: b7b4 b33e 6b81 92bd 25e8 63bd 32fa e9bd
00000130: e011 563e a1ff c73d 47af 953c 10ad 37be
00000140: 7232 a33e f673 fe3d 8733 e6bd a28c 553d
00000150: 749c 743e 4531 2ebd 43ed 8fbe b48e 89be
00000160: 94cf 613e bb2b 1ebe 0056 8fbe 28d1 a0be
00000170: a517 7b3e 499b b8bd 4282 8ebd c3a1 873e
00000180: fee3 1d3e 48ab 4fbe a55f e7bd 549a 81be
00000190: 4587 2a3e a27b 303e 68b4 88be ac1d 233e
000001a0: 2d14 ad3c 7be6 2fbe 3ad8 88be 1a8b 883e
000001b0: f305 86be dcd6 a33e d2fe a13d a36d 65be
000001c0: 2cc8 27be cbe2 56be c1ce da3d 0836 bb3d
000001d0: 0a21 dabd 557a a63d f5ca 6b3d bd93 c63d
000001e0: 23a6 683e cb38 8f3e 7865 723c 3ef7 a83e
000001f0: 70b3 423e 969e 943e 4ed2 25be d40a 8abd
00000200: 2db2 343d fec1 90be 7fcb 5cbd 3476 2bbe
00000210: e8f4 1abd ffa4 a53e c391 98be bb92 3bbe
00000220: 1abe 97be c1c9 973e 3308 ad3d 6702 ee3d
00000230: 6e68 5e3e b5cc b5bd 35fa e73d 56c5 5ebe
00000240: 1b5d 7fbe 4f14 803d 3188 ac3e 25ae 5f3e
00000250: 966d fe3c 23f1 71bc 03aa 793e e459 593d
00000260: a487 7a3e f433 28be 4532 1e3e 8971 173e
00000270: cac9 863e 1b22 863e 1155 543e d136 a13e
00000280: aeb0 56be 50f2 9cbd 3e3b 8d3e 4b53 6f3d
00000290: 6017 743e a012 5bbd 2159 843e ca8d 903e
000002a0: 11c9 133d 7acb 99be 5ea8 c9bc 711c 9b3e
000002b0: c8eb 73be 35b9 ecbd fd0e 503e 25f2 613e
000002c0: 4ec9 30be cd8a 463e dd3b c23d 9644 a63e
000002d0: 7dee 963e 787e 173e dd47 21be b4d3 f13d
000002e0: d26c 243e 4c83 8d3d a4ad 173e 6df7 1cbd
000002f0: 9f03 9bbe f90a 47be 1e06 74be 7e26 2c3e
00000300: 7c62 a1be 252a 2dbe 9606 2dbe 16c2 003c
00000310: 99ce 963d 96dc 8dbe 0967 2abd 231e 883e
00000320: 6432 86bd 3fd5 063e 9283 8cbe 267f 633c
00000330: 2330 51ba eb8e 0e3e 23f7 f03c b82d 3ebe
00000340: af73 10be ea04 04be 258f 513e 830f 5cbe
00000350: 584e 343e d08f 03be 7580 2a3e 61bd b83c
00000360: e076 f6bd 4a82 03be 7983 60be 07a7 87be
00000370: c18c 3f3e 38fd 94be 929c 753e 18a8 5cbe
00000380: 9240 46be f4fa 983e 666f 95be e166 3f3d
00000390: 62b6 8c3e e7a5 a3be fec6 6abe c8e6 1ebe
000003a0: 1836 34be 2dd8 bbbd 6280 9ebe cd66 06bd
000003b0: 5ff1 53be b41c 7a3e b88f 103e 8601 293e
000003c0: 1b40 94be f45d 83be ca21 283e 8839 a53e
000003d0: 680c e73d 19d2 24be fc87 833e 35e8 e2bd
000003e0: 738a a0be c96b 1c3e a8a1 6dbe 9660 85be
000003f0: ebcd a3be 1e89 7ebe f4ae 053e 9166 163b

fc2.weight f4 [300, 403]
-0.07713795 0.49606657 -0.005419058 0.00011564046 -0.016350899 0.059250515 -0.003474746 0.044435006
0.1159369 0.049345884 -0.08147468 -0.0150767015 -0.06197102 -0.010951959 0.05841251 0.072414845
0.047818728 0.0030789475 0.02642116 -0.3380142 0.014932774 -0.26009357 0.050607353 0.06320047
0.03355962 0.07962883 0.057426162 0.0047288467 0.009332034 0.034185406 0.033359956 -0.06257649
0.02543064 -0.4381166 -0.21104191 0.025227496 0.037507016 -0.029560553 0.025138088 -0.01988103
0.029159777 0.041131474 0.021628957 -0.31075957 0.04551052 -0.009398983 -0.03677792 -0.033553403
0.08817966 -0.013628322 -0.015266589 -0.16002727 -0.009594709 0.010120914 0.008270927 -0.027981248
0.083548516 -0.042944588 -0.04416287 -0.008276083 -0.0324043 -0.056779522 -0.038344126 -0.055571783
0.012932264 0.052652664 0.021114793 0.039042454 0.01941214 0.0893871 0.04981283 0.041029233
-0.00679773 0.022284413 -0.026518535 0.08085797 0.0035515276 -0.05434321 -0.0063916184 -0.057472594
0.053850807 -0.03259425 0.025098292 -0.055468775 0.002545045 -0.018567665 -0.05713365 -0.048113186
0.0791664 -0.034454707 0.020060033 0.044202402 0.061467204 -0.4034658 -0.037441976 0.013759841
0.06734745 -0.02141333 -0.111769095 -0.031453528 0.012974913 0.009495219 0.0018519089 -0.0011096963
-0.2103767 0.07740277 0.043035977 -0.040456094 0.035383306 -0.042579852 0.051162157 -0.03042769
0.06819016 0.055563234 -0.03860782 0.044609264 0.0172659 -0.033576015 -0.03178398 0.030882528
-0.033936586 0.00603446 -0.0422374 -0.061659038 0.02356327 -0.039583176 -0.023787722 -0.31088603
0.060737908 -0.017166544 -0.23688458 -0.12399814 0.035209447 0.009209013 -0.013175219 -0.006841421
0.046026863 0.06703363 -0.2078126 -0.011722958 -0.045075897 -0.311796 -0.0024772882 0.030345634
0.025133193 -0.08667331 0.025690189 0.016672794 0.025432998 -0.029398667 -0.019324457 -0.027881268
-0.04534074 -0.032618668 0.019020483 -0.018365188 -0.040120505 -0.011969185 0.051889863 -0.026515838
0.024114862 -0.16746199 -0.01357467 0.01247881 0.04215857 0.048507974 -0.108884394 -0.01018159
-0.6428476 -0.043434963 -0.015860677 -0.04264298 -0.04147291 0.9709717 0.009920306 0.0646636
-0.028583951 -0.05262437 0.021423943 -0.02156085 -0.04592382 -0.070207484 0.0018782206 0.028283859
0.025578244 -0.022588363 0.0084336335 0.07075279 -0.024774294 0.026767032 0.032925203 -0.015173201
-0.037507813 -0.020527307 0.03924536 0.03481912 0.03487507 -0.009005688 -0.012132861 0.0004966156
-0.20191762 -0.06785976 0.023057088 -0.056408808 0.049384225 -0.011433287 0.01810682 0.04605592
-0.019225596 -0.05240506 0.024784436 0.010198578 0.02581718 -0.035089914 0.039522648 0.019773254
0.01590445 -0.1734326 -0.13679609 -0.043013223 -0.042303633 -0.009847205 0.0056346236 -0.02038715
-0.39969012 -0.020869402 0.008113615 0.07751468 -0.021963231 -0.04858482 0.043374486 -0.026337996
-0.16029167 -0.31548128 -0.05454179 -0.18065362 0.17239864 -0.03103031 -0.013785523 0.027927142
-0.028312765 0.024055615 0.013677079 -0.02001812 0.033015553 0.05266068 0.0036560716 -0.029314192
0.053849258 0.083457574 -0.045294236 -0.020444117 0.016379707 0.39589703 -0.025894355 -0.11452868
00000000: 80fa 9dbd 70fc fd3e 5a92 b1bb 0084 f238
00000010: 52f2 85bc abb0 723d 90b8 63bb 7b01 363d
00000020: 5370 ed3d e91e 4a3d 32dc a6bd 4504 77bc
00000030: 53d5 7dbd d86f 33bc f541 6f3d 3c4e 943d
00000040: 92dd 433d 2bc8 493b 3071 d83c 3210 adbe
00000050: 98a8 743c fc2a 85be a849 4f3d 3f6f 813d
00000060: d075 093d 7114 a33d b237 6b3d 71f4 9a3b
00000070: 63e5 183c ff05 0c3d 73a4 083d 1a28 80bd
00000080: eb53 d03c d250 e0be 5f1b 58be e5a9 ce3c
00000090: f5a0 193d f928 f2bc 64ee cd3c 8bdd a2bc
000000a0: 7ce0 ee3c 7a79 283d 362f b13c e11b 9fbe
000000b0: 3d69 3a3d 31fe 19bc 72a4 16bd 4b6f 09bd
000000c0: 8a97 b43d 5349 5fbc b720 7abc 30de 23be
000000d0: 2033 1dbc 31d2 253c c882 073c ee38 e5bc
000000e0: 7c1b ab3d aae6 2fbd 20e4 34bd 6898 07bc
000000f0: 5fba 04bd a591 68bd bb0e 1dbd 3d9f 63bd
00000100: d9e1 533c 52aa 573d eef8 ac3c fbea 1f3d
00000110: 3506 9f3c 9510 b73d 8a08 4c3d 450e 283d
00000120: 7ebf debb cd8d b63c 663d d9bc dd98 a53d
00000130: bfc0 683b fc96 5ebd c870 d1bb 6268 6bbd
00000140: aa92 5c3d 8c81 05bd ef9a cd3c 3a33 63bd
00000150: c5ca 263b 371b 98bc f904 6abd 5512 45bd
00000160: fe21 a23d 6120 0dbd f054 a43c 940d 353d
00000170: 09c5 7b3d 1293 cebe c25c 19bd f570 613c
00000180: 76ed 893d 026b afbc 32e7 e4bd 6ad5 00bd
00000190: bb94 543c d691 1b3c c0bb f23a 3b73 91ba
000001a0: fd6c 57be 5885 9e3d 7e46 303d 4ab5 25bd
000001b0: 16ee 103d 3668 2ebd 698f 513d 7e43 f9bc
000001c0: 48a7 8b3d 4696 633d 3c23 1ebd 34b8 363d
000001d0: 3771 8d3c 0187 09bd eb2f 02bd 5bfd fc3c
000001e0: 1701 0bbd b8bc c53b 2001 2dbd 308e 7cbd
000001f0: c207 c13c f821 22bd 78de c2bc 742c 9fbe
00000200: 50c8 783d daa0 8cbc df91 72be bdf2 fdbd
00000210: c837 103d 66e1 163c e0dc 57bc 002e e0bb
00000220: aa86 3c3d ee48 893d d4cc 54be a611 40bc
00000230: 81a1 38bd baa3 9fbe 005a 22bb 6897 f83c
00000240: 20e4 cd3c c781 b1bd 3b74 d23c 6295 883c
00000250: dd58 d03c 79d5 f0bc 534e 9ebc 4267 e4bc
00000260: 36b7 39bd 279b 05bd d8d0 9b3c 9772 96bc
00000270: 6655 24bd 671a 44bc 778a 543d be37 d9bc
00000280: 888c c53c 287b 2bbe 4b68 5ebc ec73 4c3c
00000290: 77ae 2c3d 4cb0 463d c8fe debd afd0 26bc
000002a0: a991 24bf dce8 31bd 40ee 81bc 68aa 2ebd
000002b0: 80df 29bd 9a91 783f c788 223c 596e 843d
000002c0: e428 eabc a78c 57bd 4481 af3c 61a0 b0bc
000002d0: 9e1a 3cbd f1c8 8fbd a02e f63a 8db3 e73c
000002e0: 7789 d13c 3b0b b9bc 392d 0a3c d7e6 903d
000002f0: 76f3 cabc 8946 db3c 94dc 063d 0599 78bc
00000300: cba1 19bd e228 a8bc bebf 203d 7e9e 0e3d
00000310: 29d9 0e3d 988c 13bc e8c8 46bc 4f2f 023a
00000320: 7ec3 4ebe 0ffa 8abd 38e2 bc3c ec0c 67bd
00000330: 1d47 4a3d ae52 3bbc c154 943c 22a5 3c3d
00000340: ff7e 9dbc b0a6 56bd bb08 cb3c f017 273c
00000350: 8d7e d33c 71ba 0fbd 80e2 213d 85fb a13c
00000360: 0d4a 823c 5198 31be 4614 0cbe a22e 30bd
00000370: 9346 2dbd 2c56 21bc a6a2 b83b f402 a7bc
00000380: 2fa4 ccbe 4ff6 aabc f8ee 043c 04c0 9e3d
00000390: 3cec b3bc e000 47bd 72a9 313d c8c2 d7bc
000003a0: 8023 24be c386 a1be 3667 5fbd 43fd 38be
000003b0: 4589 303e 4733 febc addc 61bc 76c7 e43c
000003c0: 2cf0 e7bc 4810 c53c d415 603c 0afd a3bc
000003d0: 513b 073d bab2 573d b49a 6f3b 5124 f0bc
000003e0: 0a91 5c3d ceeb aa3d 7386 39bd 6c7a a7bc
000003f0: bc2e 863c 04b3 ca3e 6620 d4bc 038e eabd

fc2.bias f4 [300]
-0.033862043 0.03809057 0.023844758 -0.04829355 0.012617738 0.024858357 0.022925602 -0.028273959
0.06921684 0.041430518 -0.021300353 -0.039270256 0.05921509 -0.02556684 -0.026744615 0.08525831
0.07573395 0.02705903 0.018146152 -0.008117169 -0.04612276 -0.011550629 0.028787736 0.05118681
0.04346339 0.07027581 -0.0064238682 -0.047486015 0.07246868 -0.009889217 -0.01938664 -0.009266124
-0.02810068 0.0467785 0.038633395 -0.04632518 0.013892656 -0.02512745 -0.016388863 0.00043473704
0.024569774 0.03095772 0.022934219 0.001918926 -0.041115362 -0.0026090355 0.027529368 0.037165053
0.013309097 -0.04454395 0.058063667 0.06791304 0.007678213 -0.011056014 -0.016674154 0.018536828
0.022260638 0.044196002 0.047573145 -0.037584797 0.019873396 -0.007396798 -0.011248005 0.08040367
0.030638237 -0.05412491 0.0427865 -0.0018789581 -0.0068712616 0.001266796 -0.019945119 0.03720609
0.049314335 0.09078429 0.026775379 0.0123972185 -0.025118189 0.01604796 -0.040294327 0.063214205
0.041295983 0.005418761 0.01808435 -0.049629625 -0.032986775 0.021746967 0.08942173 0.05591439
0.04482055 0.05492234 0.03166939 -0.016383577 0.012647635 0.026713148 -0.056258358 0.017544989
-0.003243384 0.030817669 -0.018590014 -0.03713435 0.015749885 0.035952564 -0.016055375 0.00904582
-0.019147372 -0.035954833 -0.035483807 0.024331108 -0.020066775 -0.007991229 -0.053541843 -0.012042522
0.03864437 -0.004173539 0.059292007 0.07282559 -0.0009988595 0.09038143 0.011886153 0.028126242
0.04626845 0.018755017 0.031089608 -0.05759224 0.08218689 0.006174402 0.06119672 0.022995396
-0.05186167 0.018548882 0.021869132 0.056146745 0.051959455 0.06715773 0.02628401 -0.016449362
0.030699998 -0.030392932 -0.034046058 -0.02233298 -0.0026960154 0.07264302 0.0766077 -0.032496855
0.026798002 0.0014120924 0.03271873 0.072092 0.0048081516 -0.03439344 0.038071793 0.010717224
0.012927078 -7.85791e-05 -0.01920482 0.07626411 0.024579998 0.004940674 0.0702612 -0.003238474
0.080259025 0.0154394405 0.05215192 -0.035152066 0.034257967 0.026640076 -0.0020656134 0.04231269
0.075016916 -0.012935112 -0.027380072 -0.0012733102 -0.03381626 -0.022134861 0.048284963 0.078076266
0.0064341114 0.041836057 -0.017392067 0.08925369 0.020288615 0.048911832 0.013112383 -0.0012006396
-0.024270663 -0.030307034 -0.01994822 0.06692417 0.001206159 -0.026708398 0.025430331 -0.04223424
-0.022242192 -0.04829549 -0.018972889 -0.043829877 -0.031043652 -0.01723516 0.015716888 -0.017331133
-0.0049746 0.004841319 0.022722939 0.0013014607 0.022868201 0.012812026 0.0073565375 0.025626892
-0.035819165 0.032472827 0.0039645154 0.022309879 0.041673653 -0.032615416 0.044310525 -0.012242436
0.0371763 0.05702832 -0.008129567 0.0866021 0.039572533 0.09437345 0.005444361 0.017683981
-0.029031545 -0.040261466 0.036550783 -0.007718332 -0.034058042 0.06558481 0.010374817 -0.0054021263
0.030106975 0.07782233 0.029461447 0.017851138 -0.009955521 -0.023617122 0.059932016 0.0075239036
0.06512484 0.008920052 0.00013944108 0.029808661 0.016766332 0.023583042 -0.009517823 0.028752172
-0.01438899 -0.04534319 -0.0033948661 0.045666132 -0.006351549 -0.0027231188 -0.03369932 -0.011962515
00000000: edb2 0abd dc04 1c3d 1556 c33c 75cf 45bd
00000010: a1ba 4e3c c1a3 cb3c 79ce bb3c ca9e e7bc
00000020: 8fc1 8d3d 0cb3 293d 147e aebc d9d9 20bd
00000030: 868b 723d 8d71 d1bc 8617 dbbc e99b ae3d
00000040: 671a 9b3d e6aa dd3c 3da7 943c e0fd 04bc
00000050: 38eb 3cbd d93e 3dbc 42d4 eb3c 43a9 513d
00000060: ab06 323d c4ec 8f3d 507f d2bb b280 42bd
00000070: 766a 943d 6206 22bc bbd0 9ebc f1d0 17bc
00000080: 6633 e6bc d09a 3f3d 0d3e 1e3d 79bf 3dbd
00000090: 069e 633c 15d8 cdbc f041 86bc 6bed e339
000000a0: 8d46 c93c 0b9b fd3c 8be0 bb3c 7984 fb3a
000000b0: 9568 28bd 5afc 2abb 4585 e13c 623a 183d
000000c0: 660e 5a3c b873 36bd 2bd4 6d3d fe15 8b3d
000000d0: 8599 fb3b 4924 35bc 3c98 88bc 8cda 973c
000000e0: f15b b63c de06 353d 0fdc 423d 84f2 19bd
000000f0: 88cd a23c d760 f2bb 8d49 38bc aeaa a43d
00000100: 0afd fa3c 15b2 5dbd e640 2f3d 5f47 f6ba
00000110: 5228 e1bb 9f0a a63a f263 a3bc 6a65 183d
00000120: d4fd 493d 1ded b93d 0a58 db3c b41d 4b3c
00000130: a9c4 cdbc 0377 833c aa0b 25bd 7376 813d
00000140: fa25 293d dd8f b13b a125 943c 6f48 4bbd
00000150: 241d 07bd b226 b23c bd22 b73d 7d06 653d
00000160: c195 373d 3ff6 603d c3b7 013d da36 86bc
00000170: 0738 4f3c 88d5 da3c 2a6f 66bd 82ba 8f3c
00000180: f48e 54bb 5675 fc3c 164a 98bc 301a 18bd
00000190: e705 813c ff42 133d 9086 83bc eb34 143c
000001a0: f3da 9cbc 6045 13bd 7857 11bd 0852 c73c
000001b0: 1463 a4bc a5ed 02bc b14e 5bbd 004e 45bc
000001c0: 8f49 1e3d 2fc2 88bb 2ddc 723d 9525 953d
000001d0: 2aec 82ba e619 b93d 24be 423c 0169 e63c
000001e0: fc83 3d3d 1fa4 993c a2af fe3c d7e5 6bbd
000001f0: 9a51 a83d a352 ca3b 69a9 7a3d d760 bc3c
00000200: e76c 54bd d3f3 973c e526 b33c 21fa 653d
00000210: 70d3 543d fe89 893d 9051 d73c d0c0 86bc
00000220: 907e fb3c 99fa f8bc e173 0bbd a7f3 b6bc
00000230: a2af 30bb ddc5 943d 7fe4 9c3d 6c1b 05bd
00000240: 7c87 db3c f515 b93a 1304 063d f8a4 933d
00000250: b38d 9d3b 23e0 0cbd 2bf1 1b3d 4c97 2f3c
00000260: 18cc 533c d5ca a4b8 6d53 9dbc 5c30 9c3d
00000270: fe5b c93c 61e5 a13b 1be5 8f3d 943c 54bb
00000280: d85e a43d b5f5 7c3c 409d 553d 9dfb 0fbd
00000290: 1552 0c3d 4a3c da3c 3e5f 07bb 1250 2d3d
000002a0: 78a2 993d cbed 53bc 2c4c e0bc 33e5 a6ba
000002b0: eb82 0abd 2b54 b5bc 74c6 453d 73e6 9f3d
000002c0: 3dd5 d23b 495c 2b3d cf79 8ebc a3ca b63d
000002d0: 4f34 a63c c657 483d 52d5 563c c85e 9dba
000002e0: 45d3 c6bc 7546 f8bc 736a a3bc 8a0f 893d
000002f0: fb17 9e3a 92cb dabc 4553 d03c cffd 2cbd
00000300: 4235 b6bc 7ed1 45bd 086d 9bbc f586 33bd
00000310: 424f febc c030 8dbc b4c0 803c 05fa 8dbc
00000320: f801 a3bb eda3 9e3b 7525 ba3c c695 aa3a
00000330: 1856 bb3c 88e9 513c 1c0f f13b 7def d13c
00000340: 1eb7 12bd 3a02 053d c4e8 813b 35c3 b63c
00000350: feb1 2a3d be97 05bd f47e 353d 8094 48bc
00000360: 2d46 183d 8796 693d e031 05bc 715c b13d
00000370: cf16 223d de46 c13d 9c66 b23b ffdd 903c
00000380: 90d3 edbc 35e9 24bd 46b6 153d 10ea fcbb
00000390: 7280 0bbd 5451 863d 23fb 293c 5204 b1bb
000003a0: e7a2 f63c 5061 9f3d 2259 f13c 8d3c 923c
000003b0: 7b1c 23bc b278 c1bc 467b 753d 148b f63b
000003c0: 2c60 853d 6925 123c ee36 1239 4b31 f43c
000003d0: 8c59 893c 3931 c13c a5f0 1bbc ad89 eb3c
000003e0: ccbf 6bbc c8b9 39bd 677c 5ebb 690c 3b3d
000003f0: a820 d0bb 5a76 32bb 4c08 0abd 6dfe 43bc

fc3.weight f4 [200, 300]
0.037761346 0.10216222 0.08306719 -0.0003869161 -0.06024534 -0.010421174 0.046774983 -0.015195441
0.029538264 0.13103983 -0.08506968 0.05499998 -0.029454844 -0.0052458346 0.018126003 -0.011322222
0.028704321 0.076501526 -0.04131661 -0.10026285 -0.05107682 0.088230945 0.03439002 -0.017754868
-0.014657044 -0.048724614 -0.036261134 -0.2846338 0.027744822 -0.051926766 0.08225034 0.05475244
-0.06758223 -0.12470976 0.03128206 -0.02052185 0.046141576 -0.009821079 0.065275624 0.0005271211
-0.11726906 -0.061126776 0.040922277 0.061196424 -0.004995731 -0.031449467 -0.050888557 0.07030202
0.027918376 -0.017162401 0.06817876 0.05616354 0.09673158 0.02974317 -0.060211156 -0.05378246
-0.12745854 0.019805662 0.05123611 -0.024635537 0.09530111 0.1770249 -0.022033673 -0.015175541
-0.18156052 -0.08566797 0.084733255 -0.013349672 0.06996629 0.03194801 -0.033515826 -0.08368747
-0.036353983 0.06630129 -0.03011234 0.051887184 -0.042237494 -0.060386818 -0.07004866 0.07415764
0.009973749 0.027343139 -0.103851795 0.0021337573 -0.027629122 0.06558316 -0.0023407824 0.08404418
0.059817825 0.0053865802 0.01804033 0.015626421 -0.061566565 -0.052729342 -0.027121773 -0.024898477
-0.03688092 0.016434185 0.04472507 0.006044328 0.056313552 0.07236263 0.066530876 0.055707745
0.014754299 -0.03338024 -0.017978221 0.039717067 0.028074814 -0.12274887 -0.060945567 0.026869131
0.07261925 -0.011820318 0.014599893 0.03290873 -0.061334666 0.013582113 -0.022989742 -0.007518332
-0.031007593 0.03951407 -0.19020629 0.121659614 0.060907524 -0.035055548 -0.0549232 8.725836e-05
0.06377546 0.055328928 -0.020305548 -0.04832044 -0.013797264 0.047904935 0.04910074 -0.08423064
-0.05654675 -0.053580433 0.012906288 0.08866485 -0.49877217 0.10206863 0.050532937 0.20752555
0.033158965 -0.003080757 -0.06811681 -0.010073513 0.09139536 0.047559604 -0.292552 -0.015445779
-0.12760979 0.0276027 -0.118116386 0.00018346836 -0.11853961 -0.023962464 0.034390964 -0.01873137
0.022112286 -0.015171575 -0.065078445 -0.07824047 0.029250646 0.088928156 0.015547115 0.0547953
-0.03711571 -0.25087133 0.09905294 -0.06678981 -0.021952529 0.23994923 -0.03565317 0.057647984
-0.07268047 0.030945895 -0.022981849 0.0097217 0.035744943 -0.036776964 0.050616484 -0.03531839
0.19981794 -0.10409479 -0.060751267 0.025187911 0.024203977 0.013125849 0.012690982 0.0006028414
-0.051875144 -0.0075013135 -0.05191049 -0.7703474 0.050854757 -0.045749 -0.042737976 -0.035102468
-0.0012407303 0.033859704 0.059685115 -0.028091475 0.062375076 0.024950493 0.015187748 0.054934725
0.05229754 -0.23706172 0.023282906 -0.0107945595 0.00017152747 0.018129839 -0.06240138 -0.052316505
-0.013902328 -0.037689075 0.030873477 0.05087612 0.04982184 0.0064087715 0.053741015 0.041944087
0.08765449 0.0020847544 -0.07726609 -0.007161908 0.053652845 0.08870975 0.020014627 0.027274624
-0.011126421 -0.009667158 0.052636612 0.00032320892 -0.041004233 0.05509192 0.05594845 0.016228681
0.0020076733 -0.17655893 0.054722197 0.109972656 -0.097466715 0.04608882 0.099261254 0.043499947
-0.019177407 0.028149694 -0.066453926 0.053999435 -0.03566912 -0.022339087 0.017412059 0.02732075
00000000: a4ab 1a3d 6d3a d13d 221f aa3d 00db cab9
00000010: d1c3 76bd 92bd 2abc 2097 3f3d 4df6 78bc
00000020: 3bfa f13c 4e2f 063e 0339 aebd a947 613d
00000030: 494b f1bc 40e5 abbb fc7c 943c d780 39bc
00000040: 5325 eb3c d5ac 9c3d 9b3b 29bd 9c56 cdbd
00000050: ed35 51bd 6db2 b43d 8ddc 0c3d a872 91bc
00000060: 1924 70bc 7693 47bd 8e86 14bd 85bb 91be
00000070: 1c49 e33c 29b1 54bd de72 a83d 1844 603d
00000080: 8d68 8abd d567 ffbd 9e21 003d 701d a8bc
00000090: f3fe 3c3d 97e8 20bc 3aaf 853d 802e 0a3a
000000a0: c32a f0bd 1260 7abd 1e9e 273d 1aa9 7a3d
000000b0: 3bb3 a3bb 28d1 00bd 8570 50bd 81fa 8f3d
000000c0: 14b5 e43c 2a98 8cbc 4ea1 8b3d bd0b 663d
000000d0: 351b c63d f3a7 f33c f99f 76bd ff4a 5cbd
000000e0: 7e84 02be 7c3f a23c f5dc 513d 77d0 c9bc
000000f0: 3a2d c33d 0446 353e f67f b4bc d5a2 78bc
00000100: 00eb 39be b072 afbd a188 ad3d 95b8 5abc
00000110: 7c4a 8f3d ebdb 023d e447 09bd 5664 abbd
00000120: eae7 14bd f9c8 873d 27ae f6bc a887 543d
00000130: 3901 2dbd 2b58 77bd ac75 8fbd f6df 973d
00000140: ef68 233c b8fe df3c 40b0 d4bd 82d6 0b3b
00000150: 7856 e2bc 7750 863d d067 19bb 5b1f ac3d
00000160: 8903 753d e981 b03b 50c9 933c fb02 803c
00000170: 392d 7cbd b9fa 57bd 7b2e debc e4f7 cbbc
00000180: 7310 17bd fca0 863c a331 373d 800f c63b
00000190: 0aa9 663d dc32 943d 5741 883d ce2d 643d
000001a0: 04bc 713c b8b9 08bd 1047 93bc 5dae 223d
000001b0: 27fd e53c c263 fbbd 0fa2 79bd a71c dc3c
000001c0: 67b9 943d 02aa 41bc 6434 6f3c 4ecb 063d
000001d0: 0f3a 7bbd 8387 5e3c fc54 bcbc 575c f6bb
000001e0: a303 febc 81d9 213d 70c5 42be ad28 f93d
000001f0: 2b7a 793d 6896 0fbd 26f7 60bd 7afe b638
00000200: b59c 823d 96a0 623d d257 a6bc a7eb 45bd
00000210: eb0d 62bc f737 443d dc1d 493d 1d81 acbd
00000220: 919d 67bd 2877 5bbd e574 533c eb95 b53d
00000230: 115f ffbe 5c09 d13d a0fb 4e3d 9481 543e
00000240: b2d1 073d 87e6 49bb d380 8bbd 600b 25bc
00000250: 7e2d bb3d dccd 423d 60c9 95be 4b10 7dbc
00000260: 24ac 02be 0f1f e23c 01e7 f1bd 6a61 4039
00000270: e5c4 f2bd ee4c c4bc 8add 0c3d 8872 99bc
00000280: d324 b53c 3392 78bc d947 85bd 8a3c a0bd
00000290: 0d9f ef3c f71f b63d 54b9 7e3c 0971 603d
000002a0: a506 18bd 3572 80be 45dc ca3d 19c9 88bd
000002b0: cad5 b3bc 40b5 753e 0f09 12bd 4b20 6c3d
000002c0: 80d9 94bd 3f82 fd3c 6e44 bcbc c447 1f3c
000002d0: 4a69 123d 71a3 16bd 3b53 4f3d 04aa 10bd
000002e0: 139d 4c3e a62f d5bd 52d6 78bd e156 ce3c
000002f0: 6b47 c63c cd0d 573c d6ed 4f3c 0008 1e3a
00000300: 087b 54bd 94cd f5bb 18a0 54bd 7d35 45bf
00000310: 144d 503d 4e63 3bbd 040e 2fbd 9bc7 0fbd
00000320: 00a0 a2ba 79b0 0a3d 6178 743d 1820 e6bc
00000330: 027d 7f3d fa64 cc3c 08d6 783c 3c03 613d
00000340: f235 563d 4fc0 72be cbbb be3c aadb 30bc
00000350: 0edc 3339 0785 943c 9798 7fbd d549 56bd
00000360: 97c6 63bc dc5f 1abd 60ea fc3c 7a63 503d
00000370: fc11 4c3d ac00 d23b 8a1f 5c3d 90cd 2b3d
00000380: 3284 b33d 60a0 083b af3d 9ebd 70ae eabb
00000390: 16c3 5b3d 75ad b53d b7f5 a33c 086f df3c
000003a0: 984b 36bc 0063 1ebc 7d99 573d 5e74 a939
000003b0: 0ef4 27bd 11a8 613d 342a 653d 03f2 843c
000003c0: 2b93 033b ddcb 34be 6224 603d 5839 e13d
000003d0: a19c c7bd a1c7 3c3d 7c49 cb3d 002d 323d
000003e0: f019 9dbc 309a e63c ff18 88bd 832e 5d3d
000003f0: c819 12bd 7600 b7bc bca3 8e3c c4cf df3c

fc3.bias f4 [200]
-0.027366357 0.038631156 0.04421454 0.052608132 -0.06195507 0.017705576 0.0152743105 0.017472997
-0.025975483 0.021966247 -0.003908889 -0.031572767 0.11360781 0.034641255 0.00033938308 0.061017744
0.047124118 0.09566679 0.07317412 0.008443607 -0.008124496 0.07143295 0.06791276 -0.0018536657
0.118250966 -0.005183112 -0.035430923 0.036060747 -0.005144368 0.062731646 0.0022505368 -0.0003135583
0.021751562 0.063530944 0.04071484 0.071801744 0.0064194407 -0.020105593 -0.021779092 0.05359267
0.033881713 -0.005488445 0.035432234 0.0044457926 0.03999061 -0.03231793 -0.012200225 -0.0591535
0.031639155 0.022321291 0.062636636 0.05079072 0.035012517 0.040911112 -0.041260324 -0.043277305
-0.054939296 0.048929755 -0.0060680504 -0.036945894 0.030525824 0.032916132 -0.0032250327 0.038935523
0.024222108 0.035474826 -0.006827487 0.064447805 -0.009376728 0.013140738 0.026476704 -0.0068323324
0.0694016 -0.04341755 -0.0423684 0.059446577 0.012304733 0.099158056 -0.0030729375 0.0043007154
-0.003887836 0.073453285 0.0038131587 0.071145475 -0.045196757 -0.05396924 0.088408865 0.010502384
0.056740884 0.0153147 0.027070012 0.05591131 -0.057002276 0.065560356 0.06771831 -0.059774835
0.016366065 0.016439168 -0.04421069 0.013282931 0.0393257 -0.01780463 -0.014720146 0.024733234
-0.0117355855 -0.0524327 -0.035445035 0.010302806 0.035588242 0.014858963 0.055479027 -0.011811901
-0.019914536 0.043767873 -0.05618292 -0.043869525 0.009248702 0.0032444128 0.0025225293 0.03782467
0.048805825 -0.011587328 -0.023633033 0.003897652 0.029007003 0.07011677 0.014574951 -0.03749262
-0.047694027 0.047291953 0.0118717225 0.08961508 0.0661507 0.036462348 -0.017503604 0.008152659
-0.019109534 0.027392233 -0.006045784 0.03000783 0.0026388068 0.061740182 0.013936577 -0.010587522
0.10688267 -0.0022575618 0.12957627 0.004870169 -0.005273217 0.034920618 -0.035351455 -0.061976653
0.0014787613 -0.052343026 0.05342975 -0.051262207 -0.007865926 -0.019660912 -0.011053054 0.038291942
-0.045376986 0.053467184 -0.011644375 0.06650575 0.05782506 0.07998846 0.06205471 0.05723838
-0.0028533721 0.020601034 0.07511718 0.043062866 0.020624626 0.047834482 0.05218598 0.0061437925
0.0785128 -0.036693867 0.064268485 -0.022780009 -0.004140444 0.06550202 -0.04331201 -0.033990886
0.06795148 0.056496974 0.02641614 0.042373713 -0.009636335 0.09856004 0.012217356 -0.038120925
0.019326575 0.03251466 -0.025919385 0.053814564 -0.015568695 -0.05362145 -0.011579482 0.035990357
00000000: 692f e0bc b43b 1e3d 4e1a 353d a07b 573d
00000010: 99c4 7dbd 490b 913c 1a41 7a3c 8823 8f3c
00000020: 89ca d4bc 8ff2 b33c 2316 80bb 7252 01bd
00000030: 36ab e83d fde3 0d3d 3aef b139 beed 793d
00000040: 3805 413d f3ec c33d 50dc 953d 0e57 0a3c
00000050: 9b1c 05bc 704b 923d d815 8b3d b3f6 f2ba
00000060: 902d f23d 18d7 a9bb 0420 11bd 6fb4 133d
00000070: 1692 a8bb 7379 803d be7d 133b 1565 a4b9
00000080: 5530 b23c 831c 823d 9bc4 263d cb0c 933d
00000090: 2c5a d23b 7cb4 a4bc 116a b2bc fd83 5b3d
000000a0: 8dc7 0a3d 6ad8 b3bb 6421 113d 03ae 913b
000000b0: 32cd 233d ce5f 04bd 74e3 47bc f14a 72bd
000000c0: 0f98 013d 24db b63c a347 803d ee09 503d
000000d0: 4969 0f3d 6992 273d 9600 29bd 8b43 31bd
000000e0: 0708 61bd 916a 483d 7fd6 c6bb 9454 17bd
000000f0: 4b11 fa3c 11d3 063d 125b 53bb db7a 1f3d
00000100: 716d c63c 0d4e 113d 1db9 dfbb 36fd 833d
00000110: d9a0 19bc 404c 573c ace5 d83c c2e1 dfbb
00000120: 6d22 8e3d 9ad6 31bd 7d8a 2dbd 417e 733d
00000130: ca99 493c 6113 cb3d 5663 49bb 04ed 8c3b
00000140: 10cb 7ebb ad6e 963d 30e6 793b b8b4 913d
00000150: 3c20 39bd da0e 5dbd b50f b53d 3112 2c3c
00000160: 2169 683d 82ea 7a3c eec1 dd3c 4203 653d
00000170: 387b 69bd 8244 863d e6af 8a3d 75d6 74bd
00000180: 2012 863c 6fab 863c 4516 35bd a7a0 593c
00000190: fc13 213d 04db 91bc c42c 71bc 5a9d ca3c
000001a0: 9d46 40bc acc3 56bd d02e 11bd 1acd 283c
000001b0: fac4 113d 0273 733c fa3d 633d b486 41bc
000001c0: cf23 a3bc f145 333d 1020 66bd 88b0 33bd
000001d0: de87 173c 37a0 543b 0551 253b 0bee 1a3d
000001e0: 9ee8 473d c7d8 3dbc 109a c1bc c06f 7f3b
000001f0: 18a0 ed3c 6299 8f3d c6cb 6e3c dd91 19bd
00000200: d05a 43bd 35b5 413d 9d81 423c 1c88 b73d
00000210: 057a 873d 8b59 153d b863 8fbc bb92 053c
00000220: 998b 9cbc ad65 e03c b61b c6bb fbd2 f53c
00000230: d5ef 2c3b 46e3 7c3d 3e56 643c 4977 2dbc
00000240: 4de5 da3d 9af3 13bb a4af 043e f095 9f3b
00000250: f3ca acbb ec08 0f3d b0cc 10bd 3bdb 7dbd
00000260: ffd2 c13a a465 56bd 27d9 5a3d 52f8 51bd
00000270: 16e0 00bc ec0f a1bc de17 35bc 03d8 1c3d
00000280: 38dd 39bd 6800 5b3d 0cc8 3ebc 2b34 883d
00000290: f8d9 6c3d fdd0 a33d 142d 7e3d cb72 6a3d
000002a0: a4ff 3abb 80c3 a83c 09d7 993d b062 303d
000002b0: faf4 a83c 17ee 433d f7c0 553d de51 c93b
000002c0: 52cb a03d 4f4c 16bd 329f 833d 249d babc
000002d0: 90ac 87bb ec25 863d ef67 31bd 073a 0bbd
000002e0: 252a 8b3d 5f69 673d a966 d83c 0f90 2d3d
000002f0: b8e1 1dbc d9d9 c93d 4e2b 483c b024 1cbd
00000300: c452 9e3c 182e 053d e454 d4bc a96c 5c3d
00000310: d713 7fbc 2aa2 5bbd deb7 3dbc a06a 133d

fc4.weight f4 [1, 200]
0.112406306 -0.0027102707 -0.4304815 0.22956178 -0.0010704575 -0.26697823 -0.2473764 -0.0004021984
0.24884264 0.00016522568 0.21902318 0.0023996746 -0.5357486 0.24193758 -0.43544328 -0.4484227
0.0005871074 -0.3430968 -0.17830776 -0.41392568 -0.00014876096 -0.47226897 -0.45582354 -0.42180985
-0.24418044 -0.4348493 -0.0013622784 0.3121912 -0.35976428 -0.43231905 0.0022580374 0.21798989
0.26486418 -0.46086696 -0.41887403 0.3068407 0.2652684 0.00048688482 -0.45036906 -0.4659951
-0.1781544 -0.41287783 -0.36549205 0.24203779 -0.0026800546 0.23135172 0.0018745367 0.00214666
0.25733724 -0.44200248 -0.476091 -0.4646715 -0.47244787 0.24201491 0.0010119764 0.0024479046
0.0002660006 -0.17858912 -0.14337403 0.23972447 -7.8825455e-05 -0.20631333 0.2428365 -0.18639128
0.24299456 0.2415993 -0.43879992 -0.47343272 -0.4663681 -0.44549406 0.2590636 -0.42523134
0.24097773 -0.39423278 -0.43768233 -0.41141585 -0.23573272 -0.7117764 -0.43718153 -0.41462263
0.0012759478 0.26102936 0.25304767 0.2432778 0.002693201 0.0005516833 0.30293205 9.786428e-05
-0.44574746 -8.124515e-05 -0.002014755 -0.4549748 -0.0018490809 0.32404214 -0.43080112 0.0004527993
0.24391462 -0.45513538 -0.44970015 0.24114046 -0.47118092 0.24455088 0.22868313 0.23846057
-0.41244435 -0.002725698 0.25093135 -0.45972788 -0.4727603 0.23873915 -0.4313915 -0.3864414
0.00030288106 -0.22517835 -0.0001707247 0.0013257023 0.00031493753 0.0011733338 0.0016520409 -0.1906789
-0.19587085 -0.0014639106 -0.41080475 -0.00041444352 0.25281784 -0.46917495 -0.44000635 0.22785994
0.00094560906 0.2465538 -0.42688262 -0.23317972 -0.44662938 -0.45643196 0.2383988 -0.45324436
-0.40439755 -0.4421472 -0.4266054 -0.45750228 -0.44278988 -0.40514588 -0.44742107 5.1257026e-05
-0.19500144 0.002203998 -0.2167837 0.23431909 -0.21143022 -0.47124466 -0.45402765 0.0024032337
-0.4477578 0.002659218 -0.6770096 -0.0021206925 0.23331927 -0.4004366 0.23251407 -0.46708634
-0.0016454852 -0.42168325 -0.001902419 -0.24081847 -0.4354829 -0.18610996 -0.46461526 -0.4289677
0.24516982 0.25067312 -0.19445872 0.24793802 0.2379977 0.000586612 -0.1802535 0.24991983
-0.47334746 -0.46750715 -0.44655794 -0.45470405 -0.0016715344 -0.45487666 -0.00053956616 -0.0011431456
0.2531342 -0.45109865 -0.15181683 -0.41589662 -0.000582685 -0.18852355 -0.4131441 0.0010700772
-3.2452186e-05 -0.0012916782 0.00061033247 -0.46267167 0.23805965 0.0004378911 -0.00052791875 -0.4176477
00000000: 4735 e63d cc9e 31bb 1268 dcbe 3e12 6b3e
00000010: 984e 8cba 5fb1 88be 3d50 7dbe 28de d2b9
00000020: 9bd0 7e3e 6e40 2d39 9d47 603e dc43 1d3b
00000030: d226 09bf 7cbe 773e 6cf2 debe a997 e5be
00000040: 1ce8 193a 62aa afbe 4f96 36be 11ee d3be
00000050: b7fc 1bb9 3dcd f1be b461 e9be 76f7 d7be
00000060: 700a 7abe 91a4 debe 7a8e b2ba 86d7 9f3e
00000070: 0633 b8be ec58 ddbe 95fb 133b be38 5f3e
00000080: 479c 873e c1f6 ebbe a876 d6be 391a 9d3e
00000090: 42d1 873e 9344 ff39 c696 e6be e996 eebe
000000a0: 1b6e 36be b964 d3be c621 bbbe c1d8 773e
000000b0: dba3 2fbb 77e7 6c3e 04b3 f53a faae 0c3b
000000c0: b5c1 833e 264e e2be 33c2 f3be 6ce9 edbe
000000d0: b0e4 f1be c2d2 773e 4ba4 843a 066d 203b
000000e0: ff75 8b39 11e0 36be a4d0 12be 557a 753e
000000f0: 184f a5b8 cd43 53be 22aa 783e 5bdd 3ebe
00000100: 91d3 783e cf65 773e 62aa e0be c665 f2be
00000110: cdc7 eebe cc17 e4be fca3 843e ecb7 d9be
00000120: dec2 763e e1d8 c9be e617 e0be 19a5 d2be
00000130: eb63 71be fa36 36bf 42d6 dfbe 6b49 d4be
00000140: b43d a73a a4a5 853e 778f 813e d11d 793e
00000150: 6a80 303b d79e 103a e919 9b3e 7c3c cd38
00000160: 0339 e4be 2862 aab8 fb09 04bb 75f2 e8be
00000170: dc5c f2ba dae8 a53e f791 dcbe b165 ed39
00000180: c1c4 793e 8107 e9be 193f e6be 86ed 763e
00000190: a03e f1be 8c6b 7a3e e92b 6a3e 022f 743e
000001a0: e82b d3be a0a1 32bb 137a 803e 7461 ebbe
000001b0: a30d f2be 0978 743e 59df dcbe a6db c5be
000001c0: 02cc 9e39 2795 66be 9004 33b9 30c3 ad3a
000001d0: 331e a539 8dca 993a 4b89 d83a 5441 43be
000001e0: 5e92 48be b0e0 bfba 0055 d2be ab49 d9b9
000001f0: 5771 813e b337 f0be 8348 e1be 1e54 693e
00000200: c0e2 773a 9978 7c3e 5c90 dabe aac6 6ebe
00000210: 9bac e4be 73b1 e9be d11e 743e a50f e8be
00000220: 320d cfbe 1e61 e2be 066c dabe bd3d eabe
00000230: 5bb5 e2be 486f cfbe 6014 e5be d0fc 5638
00000240: 75ae 47be f370 103b 8cfc 5dbe 58f1 6f3e
00000250: 2a81 58be fb46 f1be 5076 e8be 927f 1d3b
00000260: 8340 e5be 4646 2e3b 8050 2dbf 51fb 0abb
00000270: 3feb 6e3e 0706 cdbe 2b18 6e3e f125 efbe
00000280: 52ad d7ba dee6 d7be 975a f9ba 1e99 76be
00000290: 9df7 debe 9c93 3ebe 0de2 edbe a8a1 dbbe
000002a0: cc0d 7b3e 3a58 803e 3020 47be 77e3 7d3e
000002b0: abb5 733e ddc6 193a 6094 38be fcea 7f3e
000002c0: 995a f2be 195d efbe 3ea3 e4be f8ce e8be
000002d0: 6317 dbba 98e5 e8be ac71 0dba 9ad5 95ba
000002e0: ce9a 813e 67f6 e6be df75 1bbe 67f0 d4be
000002f0: 54bf 18ba 510c 41be a087 d3be d541 8c3a
00000300: 451d 08b8 874d a9ba b8fe 1f3a 4de3 ecbe
00000310: e9c5 733e c094 e539 0764 0aba ebd5 d5be
