checkpoint_critic.pth (torch, 504167 bytes, 5 tensors)

fcs1.weight f4 [400, 9]
000000 49 80 98 be 91 d0 ca 3d 17 9d 0c bd ce 92 05 3d
       -0.29785374 0.09903062 -0.0343295 0.032610707
000010 f5 a9 f2 3d 85 27 20 3c 43 39 f9 be 49 35 5d bb
       0.11848823 0.009775047 -0.486765 -0.0033753684
000020 df cf be 3d 4f 66 26 3e 48 26 c9 3e 04 3e bc 3d
       0.09316992 0.16249965 0.3928702 0.09191516
000030 95 37 fa be be d7 16 3f 67 06 36 3f 98 35 95 be
       -0.4887053 0.58922946 0.7110352 -0.2914245
000040 78 0d ab be 96 1b 3a 3d 2c 1c 32 be 42 6a 00 be
       -0.33408713 0.045436464 -0.17393559 -0.12540534
000050 07 a1 d9 3d bb c0 a1 3d d1 2a 88 3e a5 0c 70 be
       0.10626417 0.078980885 0.26595166 -0.23442324
000060 c4 57 0d 3c c8 1f 4a 3e b8 56 82 be 58 9c 51 bc
       0.008626882 0.19738686 -0.25456786 -0.012793623
000070 3e 6c 0f bd e0 f7 5b bc d5 51 0c 3d 68 77 de bb
       -0.035015337 -0.013425797 0.03425773 -0.0067891367
000080 c1 f6 18 3d 46 a6 97 3c b9 d6 39 3d 79 14 16 3d
       0.037344698 0.018511903 0.04537079 0.036640618
000090 8c 71 0e bc fa 66 4c bd b7 37 c7 bc f0 a4 ed bb
       -0.008694064 -0.049902894 -0.02431856 -0.007252328
0000a0 fc ef 8b bc dc 67 66 3c 38 d6 38 bd 58 d2 2b bd
       -0.017082207 0.014062848 -0.04512617 -0.041948646
0000b0 92 2f b8 3c c2 bc 44 be 45 e7 d0 be 93 84 8a be
       0.02248362 -0.1921263 -0.40801445 -0.2705427
0000c0 d9 9d 5b 3e b8 79 98 3c a5 1a 53 be 6e 82 f9 3d
       0.21446933 0.018612728 -0.20615633 0.121830806
0000d0 0e 9e 96 3c 97 6b 26 bd 98 10 58 bc 60 d6 4c bc
       0.018385913 -0.04062995 -0.01318755 -0.012502283
0000e0 6c a4 10 3c 90 4c a7 bb 63 56 a0 bc da 59 97 bc
       0.008828264 -0.0051055625 -0.019572442 -0.018475462
0000f0 00 b8 51 3b 10 95 ac 3b 4a 34 c9 bc 0c 2a 88 be
       0.0032000542 0.005266793 -0.024561066 -0.2659458
000100 f2 18 fc 3c e3 44 6d 3d 7c 51 87 3d 1d ad 92 be
       0.030773614 0.057927024 0.06607339 -0.286477
000110 4c f0 8c 3c 7b 7e 12 3d 11 0e e5 3d 6f 14 87 bd
       0.017204426 0.035765152 0.111843236 -0.06595694
000120 b9 07 95 be a1 d0 37 3e 0c 43 af be 3e 16 a6 bd
       -0.29107454 0.1795068 -0.3423084 -0.08109711
000130 ce e2 e7 bd ee c5 4d be 8e 2c 9e be 5e 64 8d 3d
       -0.113225564 -0.20095035 -0.30893368 0.06903909
000140 08 30 76 bd b5 b4 84 3e 10 37 e2 bd ae 25 89 3d
       -0.0601044 0.2591912 -0.110456586 0.0669664
000150 65 ca 21 3d d4 ba 84 be f8 cb 2d 3e 50 d3 92 bd
       0.03949966 -0.2592379 0.16972339 -0.07169211
000160 ba 6a f4 bd 45 fb 0f bd b2 f9 a7 3e 48 2c 83 be
       -0.11934419 -0.03515174 0.3280769 -0.2561972
000170 0b 36 46 3e a5 f6 73 be 71 b6 07 be 27 0e 10 bf
       0.19356553 -0.23824556 -0.1325319 -0.56271595
000180 00 cc a0 b6 b6 7c 7d 3e a3 47 86 3e 97 34 11 3f
       -4.7921203e-06 0.24754605 0.2622653 0.5672087
000190 ae a7 0d 3e 3b 1c 6a ba e4 dc 9f 3d 4a 8b ec 3d
       0.13833496 -0.0008930598 0.078058034 0.11550005
0001a0 47 ab 16 bf 6a ee 3b 3e a4 c6 b7 3d ce 3c 10 3d
       -0.588551 0.18352666 0.089734346 0.035214238
0001b0 48 5c 5f bc a3 4a c6 bc ee 64 e1 3c eb 84 0d 3d
       -0.013632841 -0.024205511 0.027513947 0.03455059
0001c0 60 06 8b ba 37 e9 d5 bc 09 fd 1a 3d b6 ed fb 3c
       -0.0010606758 -0.026112182 0.03783897 0.030752998
0001d0 00 60 12 39 db a3 26 be ce ae 8a bd 13 54 0e 3e
       0.00013959408 -0.16273443 -0.067716226 0.1389926
0001e0 bc ce b3 3d b4 6b 70 be de 1f 27 3c b1 53 58 be
       0.08779666 -0.23478585 0.010200469 -0.21125676
0001f0 dc e3 2d 3c 72 19 eb bd 67 aa 82 be 05 92 bf bd
       0.010613408 -0.11479463 -0.25520632 -0.09354023
000200 bc 24 82 3e 78 c2 14 3e 41 31 c3 3e 1a 55 e3 3e
       0.2541865 0.14527309 0.38123515 0.44400865
000210 bb d4 18 be 75 76 ab be 3e cc 84 be 77 15 ac be
       -0.149249 -0.33488813 -0.25937074 -0.33610126
000220 9a 5d cb 3d 05 e1 15 3e bd 2e 85 bc 57 20 7e be
       0.099299625 0.1463662 -0.016257638 -0.24817024
000230 41 8c 61 bf 74 47 52 bc 00 8a a2 bd fd 0a 52 3e
       -0.88104635 -0.012834419 -0.07936478 0.20512004
000240 6c d1 b2 be 2d 9f f4 bd 45 09 e2 bd 99 4b 43 3e
       -0.349254 -0.11944423 -0.11036924 0.19071807
000250 e4 80 dc bd 55 ea c1 be a1 c2 8d 3d fa 15 a5 bd
       -0.107667714 -0.37874094 0.06921888 -0.08060832
000260 1c 51 69 3d e3 1e 59 bc f1 fc 9d 3c db 43 a5 3c
       0.056962118 -0.013251993 0.01928565 0.020173958
000270 d8 38 a1 3b d5 de 20 bd b3 e5 f5 bc 0a de b5 bc
       0.0049201064 -0.03927501 -0.030016756 -0.022200603
000280 b6 2f 8b 3c 51 a6 f1 3c 1e 32 9b 3c d5 41 3f bd
       0.016990524 0.029498251 0.018944796 -0.04669364
000290 bb 58 0d bd 93 de a1 bc fe 1c 0e bd ad b5 fc bc
       -0.034508448 -0.019759452 -0.034695618 -0.030848349
0002a0 84 ce 8c bc c0 59 4a 3c d8 78 0a bd b6 ae 20 3e
       -0.017188318 0.0123505 -0.03380665 0.15691647
0002b0 32 9e 12 3f 2e 77 b0 be 3b 48 48 3d b2 ef 9d 3e
       0.57272637 -0.34465927 0.04889701 0.30846936
0002c0 2d bf ec 3e 81 c5 2f bc e1 6b 9c be 47 bd ef 3d
       0.46239606 -0.010728241 -0.30551055 0.11706024
0002d0 ac cc 71 3c d6 18 ac 3c e2 7e a2 3c 00 e1 32 bb
       0.01475827 0.021007936 0.019835893 -0.0027294755
0002e0 18 03 4a bc e2 e3 ae 3c 80 55 da bc f8 c7 19 bd
       -0.012329839 0.021348897 -0.026652098 -0.03754422
0002f0 ac 5b 10 bc 2b 32 4c be f4 a9 2a be cd e0 5a 3e
       -0.008810919 -0.19941013 -0.16666394 0.21374817
000300 5b 84 72 3d 3a f7 9f bc 79 35 68 be cd 90 91 3b
       0.059208255 -0.019527066 -0.22676648 0.0044423104
000310 8f bc 96 3e 00 fe 9a be aa 8c 83 3c 4a e9 c8 bc
       0.29440734 -0.30271912 0.016058285 -0.024525303
000320 e6 07 b0 3c d0 51 09 bb b4 35 4a 3c 95 16 3a bd
       0.021488141 -0.0020953305 0.012341905 -0.045431692
000330 63 65 4c bd 1d 86 bf bc ac 15 65 bc 80 33 0e bc
       -0.049901377 -0.02337938 -0.013982218 -0.008679271
000340 d0 42 03 bb 40 bf 39 3a e0 bb 74 bb a5 d6 3a bd
       -0.0020028837 0.00070856884 -0.0037343428 -0.045614857
000350 23 fb ca bc 14 8f 3f bc e7 c8 b6 bc 4a 34 80 bc
       -0.024777954 -0.011691827 -0.022312595 -0.015649933
000360 7a fd be bc e8 97 37 3c de 5b f3 3c 68 56 99 3b
       -0.023314226 0.011205651 0.029706892 0.00467949
000370 d3 ad 3d bd c0 cc d1 bc 70 b7 9b 3b a8 cb e5 bb
       -0.04630835 -0.025610328 0.004752092 -0.007012803
000380 74 28 64 bc b8 9e 46 3e f2 d1 6e 3e a0 cf 1d bc
       -0.01392566 0.19396484 0.23322275 -0.009632021
000390 f0 eb 2c 3e 77 c7 a5 3e f1 b0 bf 3d ca 71 f0 bc
       0.16886878 0.32378742 0.09359921 -0.029351134
0003a0 c3 68 1e be 64 2a 90 3c e8 fa 18 3c 34 07 5a bc
       -0.15469651 0.017598338 0.009337164 -0.013307381
0003b0 b0 ac 8e 3b de 88 2a bd a3 4f cd bc 63 3d cb bc
       0.004354082 -0.041634433 -0.025062388 -0.024809545
0003c0 f2 5d b5 3c d8 90 25 3c 3f e8 3f bd 22 7b 99 be
       0.022139523 0.010105334 -0.046852347 -0.29976755
0003d0 d4 91 f7 bc 69 ff 80 bb 9e 9d dd bd e3 37 c3 be
       -0.030220903 -0.0039366973 -0.10821079 -0.38128576
0003e0 22 c0 27 bf d7 3f c2 3d 42 fd 11 3e 94 c6 6b 3e
       -0.65527546 0.09484833 0.14256766 0.2302497
0003f0 20 84 e7 bb ea ed 29 3e 1a 17 27 3d e7 81 87 3d
       -0.007065311 0.16594663 0.040793516 0.06616574

fcs1.bias f4 [400]
000000 5d 66 4f 3e ea 08 0b be 18 fa 68 3e 53 62 66 be
       0.20253892 -0.13577619 0.22751653 -0.22498445
000010 6e b0 99 be a8 45 f0 3c 3b 32 a3 be 18 50 22 3e
       -0.30017418 0.02933009 -0.3187426 0.15850866
000020 d7 21 3f be dc 6f e0 3d 67 a4 36 be 15 8f 31 3e
       -0.18665253 0.109588355 -0.17836152 0.17339738
000030 a6 34 24 be 67 f9 62 3e 93 7c 87 bd 65 05 b0 bd
       -0.16035709 0.22165452 -0.066155575 -0.08594779
000040 86 df 78 be 0c d9 1f be 1a 51 88 be a0 5d 34 be
       -0.24304017 -0.1561014 -0.26624376 -0.1761384
000050 96 99 82 be 50 70 ab bc f3 5b 6d be 36 f0 d9 bd
       -0.25507802 -0.020927578 -0.23179607 -0.1064152
000060 ac 70 8a be 57 c4 91 3e 5b 08 8f be 35 cd 54 be
       -0.27039087 0.28470108 -0.27936062 -0.20781405
000070 51 99 37 be 0a 69 4d bd 64 e2 c7 3e b5 1a bb bd
       -0.1792958 -0.050149 0.3903991 -0.09135953
000080 e6 63 48 3e 29 1a e5 bd 69 77 95 3e 06 22 4d 3c
       0.19569358 -0.1118663 0.29192665 0.012520319
000090 3f 6d ac 3e 05 99 1d bd 43 af 33 3e b7 07 84 3e
       0.33677098 -0.03847601 0.17547326 0.25787136
0000a0 2c e5 cd 3e 10 79 9c be c1 c5 ad 3e 62 8b 38 3e
       0.40213907 -0.30561113 0.33939937 0.1802192
0000b0 70 74 ca 3e fb 27 ca 3e 7b 08 a0 be 06 ac f6 3e
       0.3954196 0.39483628 -0.3125647 0.48178118
0000c0 c8 9b 07 be 70 2a 07 3e f1 48 7b bd b5 d4 45 be
       -0.1324302 0.13199782 -0.06134886 -0.19319423
0000d0 f3 df 8c be 74 7a f1 bd 49 79 9d 3d a3 6d de 3d
       -0.2751461 -0.11790934 0.07689149 0.10860755
0000e0 43 4b 6c be 9a 38 a6 be 06 54 5f be 3e 56 84 be
       -0.23075585 -0.3246506 -0.21809396 -0.25847048
0000f0 d2 01 16 3c 4a 34 84 be de 66 5f be b7 25 a4 be
       0.009155707 -0.25821143 -0.21816584 -0.32060024
000100 d2 41 80 3e 9c 1e 82 be 3d eb e9 3c 27 4f 5f bd
       0.25050217 -0.25413978 0.028554553 -0.054518845
000110 dc f3 58 3e a8 b4 b5 3e be f9 57 be e1 70 13 be
       0.21186775 0.35489392 -0.21091363 -0.14398529
000120 b5 fe 17 be 77 81 f3 bd bc 64 b1 bd 8f 08 8d be
       -0.14843257 -0.11889928 -0.08661792 -0.27545592
000130 4c 22 54 3e 3e 49 bc 3e 93 a5 9b 3d 10 ad 37 be
       0.20716208 0.3677463 0.0759994 -0.17937112
000140 80 cc be 3e 73 4e 6f 3e 66 b0 06 be 07 52 3a 3d
       0.37265396 0.2336977 -0.13153228 0.045488384
000150 ca 50 d3 3e 5a db 52 bd 43 ed 8f be b4 8e 89 be
       0.41272575 -0.05147872 -0.28110704 -0.26866686
000160 07 35 a8 3e df 6e 2d be 00 56 8f be 28 d1 a0 be
       0.32852957 -0.16936825 -0.279953 -0.31409574
000170 7b d6 e6 3e 95 f4 af 3d 25 d8 98 3e 46 a7 f4 3e
       0.4508551 0.08591572 0.29852405 0.4778387
000180 30 c2 56 3e 48 ab 4f be e5 37 fb 3c 54 9a 81 be
       0.20972514 -0.20280182 0.030666301 -0.25313056
000190 b8 cf a3 3e ba 66 05 3e 68 b4 88 be d1 49 9d 3e
       0.31994414 0.13027468 -0.2670014 0.3072038
0001a0 37 ac 10 3c 2b ea 1a be 3a d8 88 be dc c1 70 3e
       0.008830122 -0.1512839 -0.26727468 0.23511451
0001b0 f3 05 86 be 20 02 b0 3e 23 69 cd 3d a3 6d 65 be
       -0.26176414 0.3437662 0.10029819 -0.22405104
0001c0 60 d4 50 be cb e2 56 be 03 7b bf bc 4d 92 01 be
       -0.20393515 -0.20984952 -0.023374086 -0.12653466
0001d0 b6 d5 0d be 11 41 8a 3d e9 bd 09 bc ae c5 6d 3e
       -0.13851056 0.06750692 -0.0084070945 0.2321994
0001e0 70 78 d4 3e 47 33 e4 3e e7 21 86 3c bc 11 ec 3e
       0.41498137 0.44570372 0.016373588 0.4610728
0001f0 9d 83 e2 3d 42 2e 4a be 4e d2 25 be f1 18 1f be
       0.110602595 -0.19744208 -0.16193506 -0.15536858
000200 ab d5 16 be fe c1 90 be e4 9e a8 be 88 66 30 be
       -0.14729945 -0.28273004 -0.32933724 -0.17226613
000210 2c a7 a7 be 9b 67 15 3f c3 91 98 be aa 47 5d be
       -0.3274473 0.58361214 -0.29798707 -0.21609369
000220 1a be 97 be 82 b7 de 3e 3a 1b 1e bb 3b 00 7b 3e
       -0.29637223 0.4349938 -0.0024125115 0.24511807
000230 71 97 3a 3e 10 8f 98 3c fc 8f d4 3d 56 c5 5e be
       0.18221833 0.018622905 0.10379025 -0.21754965
000240 1b 5d 7f be db ad 50 be 07 ab a7 3e 34 5a cd 3e
       -0.2493786 -0.2037882 0.3274767 0.40107882
000250 40 42 38 3a 78 10 04 be 72 bc af 3e 7f 33 49 be
       0.0007028915 -0.12896907 0.3432346 -0.1964855
000260 62 4a e1 3e 53 2a 22 be de 23 ed 3c ef dc e3 3e
       0.44002062 -0.15836458 0.028947767 0.44504496
000270 5d 2d e5 3e a4 7c d5 3e e1 10 3e 3e 80 86 44 3e
       0.44761172 0.41696656 0.18561126 0.19191933
000280 ee be 68 be 70 d1 ad 3d 3d 6f f4 3d 10 d7 38 bd
       -0.22729084 0.08487213 0.119352795 -0.045126975
000290 66 99 fd 3e ab 69 69 bd 96 fd b1 3e 66 a8 bb 3e
       0.49531096 -0.05698554 0.34763783 0.36651915
0002a0 d7 13 48 bd 7a cb 99 be 4d 58 35 be 2a 77 8e 3e
       -0.048847046 -0.30038053 -0.17709465 0.2782529
0002b0 c8 eb 73 be 1b b6 7e bd 74 31 bd 3e 9c ee d5 3e
       -0.23820412 -0.062185388 0.36951792 0.41783607
0002c0 63 4d 2a be a5 8d 65 bd e1 a9 98 3d 86 94 b6 3e
       -0.16631083 -0.056043286 0.07454277 0.3566019
0002d0 9e ad 59 3e 79 a5 d8 3d d9 40 25 be a4 00 f8 3d
       0.21257636 0.105784364 -0.16138019 0.12109497
0002e0 8a a2 6c 3e 4f 44 b2 3d 54 84 2b bd 87 c9 99 3c
       0.23108879 0.08704435 -0.041874245 0.018772854
0002f0 9f 03 9b be c0 c9 4b be 1e 06 74 be ea fc 42 3e
       -0.302762 -0.1990118 -0.23830459 0.19041792
000300 7c 62 a1 be 83 e9 29 be 56 e4 29 be d2 8d a6 3d
       -0.3152045 -0.16592984 -0.1659101 0.08132519
000310 29 48 8d 3e 96 dc 8d be c3 de 5a be 00 29 03 3f
       0.27594116 -0.27707356 -0.2137404 0.51234436
000320 cb e2 21 3d 55 8c 95 bd 92 83 8c be 97 c1 72 bd
       0.039522927 -0.07302157 -0.2744413 -0.059266653
000330 41 8e 0e be f6 f2 77 3e 27 89 1b bd b8 2d 3e be
       -0.13921453 0.24213776 -0.037972596 -0.18572128
000340 23 a0 39 be 7d a6 61 be 41 cb 82 3d 83 0f 5c be
       -0.18127494 -0.22036166 0.06386424 -0.21490292
000350 43 82 da 3e e3 81 4b 3b 0d 65 a7 3e a2 30 29 3c
       0.42677507 0.003105276 0.32694283 0.010326536
000360 18 9a c7 3c 48 d0 20 be 13 e8 48 be 07 a7 87 be
       0.02436547 -0.15704453 -0.1961978 -0.2649462
000370 77 c3 a7 3e 38 fd 94 be e0 10 9f 3e 18 a8 5c be
       0.32766315 -0.2909944 0.31067562 -0.21548498
000380 c3 72 1a be ff 32 b3 3e 66 6f 95 be 3c 04 dd bc
       -0.1508284 0.34999844 -0.29186553 -0.026979558
000390 46 ca d9 3e e7 a5 a3 be fe c6 6a be 5f 15 72 bd
       0.42537135 -0.3196251 -0.22927472 -0.059102412
0003a0 2a f0 39 be 99 5e ef bd 62 80 9e be 7e 63 b2 bc
       -0.18158022 -0.11687965 -0.30957323 -0.021775957
0003b0 49 56 3e be 4e f3 91 3e b9 c7 b9 3e f1 61 3e 3e
       -0.18587603 0.2850594 0.3628519 0.18592049
0003c0 1b 40 94 be f4 5d 83 be f2 ff 75 3e f8 b9 81 3e
       -0.2895516 -0.25657618 0.24023417 0.25337195
0003d0 9c d1 3e 3e 79 97 4b be a2 30 c3 3e 10 11 54 be
       0.18634647 -0.19882001 0.3812304 -0.20709634
0003e0 73 8a a0 be 14 5c c8 3e a8 a1 6d be 96 60 85 be
       -0.31355628 0.3913275 -0.23206198 -0.26050252
0003f0 eb cd a3 be 98 48 3b be 60 82 27 3e ae bd 14 be
       -0.3199304 -0.18289411 0.16358328 -0.14525482

fc2.weight f4 [300, 403]
000000 24 8b a9 bd 85 93 11 bd fa cd 95 bd 48 b7 c2 bb
       -0.08278492 -0.035541076 -0.073146775 -0.005942259
000010 a8 ad 9d 3c 4f 6b ec bc 20 f8 4d 3b dc 7d 25 3d
       0.019247845 -0.028859762 0.0031428412 0.040403232
000020 14 f3 41 bd 60 b1 45 3c 56 4e 32 bd 2b 78 9b bd
       -0.047350958 0.012066215 -0.04353174 -0.075912796
000030 90 ad e5 3c f6 10 c6 3a 40 dc 9c bb 40 20 ad bb
       0.028036863 0.0015111256 -0.004786998 -0.0052833855
000040 e1 6e 3d bd 7c 8a 15 bd 4c 52 08 bd 54 1c d9 bc
       -0.04624832 -0.036509022 -0.03328161 -0.026502766
000050 f9 cf 58 bd e0 94 3d 3b dc aa 0c bd a2 93 3c bd
       -0.052932713 0.0028927848 -0.03434263 -0.04603923
000060 d2 5c 52 bd 06 09 8f bd 38 9b 9e 3c a8 19 0f bc
       -0.05135805 -0.06984143 0.019361123 -0.008734144
000070 88 b8 09 bd b0 70 eb 3b ac e1 21 bd e8 e7 4c 3c
       -0.03362325 0.0071850643 -0.039521858 0.012506463
000080 ea f0 c5 bc f7 c9 65 bd d0 1f b6 3c cc 2d 2d bd
       -0.024162728 -0.05610081 0.022231966 -0.042280003
000090 9b f2 37 bc 74 24 d0 3c 3b e7 2b 3b 23 2c e1 bc
       -0.011227275 0.025408007 0.0026230353 -0.027486866
0000a0 da 35 1f bd de 66 57 3d 77 bf 89 bd 62 c6 39 bd
       -0.038869716 0.052588336 -0.06725972 -0.04535521
0000b0 15 0d 25 bd 9d 80 aa bd 1e ec 01 3d 6a 00 23 bd
       -0.04029568 -0.08325312 0.03171932 -0.039795317
0000c0 20 66 38 bb 88 e4 9c 3c 64 4e d3 3c 7c 7f d1 3c
       -0.0028137043 0.019151941 0.025794216 0.025573485
0000d0 a0 d3 d7 bb 75 a8 e2 3b 85 d3 9a 3a 76 a7 ed 3c
       -0.006586507 0.0069170543 0.0011812305 0.029010516
0000e0 02 84 9b bc 29 48 43 bd f8 65 20 3c 9d 7c 31 bd
       -0.018983845 -0.04767624 0.009789936 -0.04333173
0000f0 41 4f 71 bd e0 a8 14 3c 28 80 9d 3c 04 08 f1 3c
       -0.058913473 0.009073466 0.019226149 0.029422767
000100 a9 b9 3c bd 90 34 5f 3c e7 e4 a8 bc f0 26 26 bd
       -0.046075497 0.013623372 -0.020616962 -0.040564477
000110 30 34 fb bc 80 c6 3d bd 92 73 54 bd 36 0a 54 bd
       -0.030664533 -0.046331882 -0.05186803 -0.05176755
000120 7a 43 81 bd f8 ae c5 3c 7c b4 08 3d 80 c0 8d bc
       -0.06311698 0.024131283 0.03337525 -0.017303705
000130 52 1b 15 bc df bd c2 bc 8c 29 7c bd 80 8d 4f bd
       -0.009100752 -0.023772178 -0.06156306 -0.050672054
000140 41 b1 3c bd 9d 79 69 bd d0 dd 4b 3d d8 49 55 3c
       -0.04606748 -0.057000745 0.049772084 0.013018094
000150 e4 93 32 3b fe 16 8d bc 00 52 ac b9 c8 2e 5c 3c
       0.0027248794 -0.017222878 -0.0003286749 0.013438888
000160 bd 80 3f bd fc da 2b bd b2 6b 22 3d a4 c7 ff 3c
       -0.046753634 -0.041956887 0.039653488 0.031223126
000170 87 d5 1d bc 0f a2 0b bd 28 59 8f 3c 9a 8d 13 bd
       -0.009633428 -0.034090098 0.017498568 -0.036023714
000180 e6 85 91 bd 50 12 69 3c d2 7b 1c 3d 54 16 6b bd
       -0.07105617 0.014225557 0.03820402 -0.05739434
000190 07 40 e1 3b cb 5a 94 bc 18 61 10 3c 23 c7 dd 3c
       0.0068740877 -0.0181097 0.008812211 0.027072495
0001a0 0c 7f c4 3c e0 a2 8e 3a b2 2a 5f 3d b6 b2 e6 3c
       0.023986362 0.0010882281 0.054484077 0.028161388
0001b0 80 0b dd bc 35 c0 96 bd a6 3f 2d bd 16 a7 46 3d
       -0.026983023 -0.07360879 -0.042297028 0.04849919
0001c0 76 4f d6 bc fe 65 0a 3d 0b b0 0d bd a2 f6 31 3b
       -0.026160937 0.033788674 -0.034591716 0.0027155061
0001d0 b0 12 21 bb 58 31 8e bd 41 25 30 bd e0 0e a8 bd
       -0.002457779 -0.06943005 -0.043004278 -0.08205962
0001e0 10 00 e2 bc b1 61 e1 3c 44 57 22 bd 28 af eb 3c
       -0.02758792 0.027512403 -0.039634004 0.028770044
0001f0 71 44 24 bd 3d 13 a4 bd f0 de eb bb bc 3e 28 3d
       -0.040104333 -0.08011482 -0.007198207 0.041075453
000200 18 2e 44 bd a0 de 09 3c 00 e9 7c 39 06 4e 38 bd
       -0.04789552 0.008414894 0.00024119392 -0.044996284
000210 20 6d b9 3b f6 9b a6 bb ff 2a 48 bd c4 c3 a1 3c
       0.0056587607 -0.00508451 -0.04886913 0.019746669
000220 af 50 16 bd fe fc a7 bd 39 93 ba 3b 98 e1 bb bc
       -0.03669804 -0.08202551 0.00569382 -0.02293472
000230 00 06 80 bc 4b bd d4 bb 21 10 6c bd 08 00 73 3c
       -0.015627861 -0.006492292 -0.05763257 0.01483155
000240 0c a0 01 3d 18 02 06 3d 74 87 93 ba ef eb c9 bc
       0.031646773 0.03271684 -0.0011255578 -0.024648635
000250 cb f6 c5 3c 98 12 25 3d 31 f9 3d bd 74 d2 73 bc
       0.024165532 0.040300936 -0.046380226 -0.014881719
000260 69 a0 52 bc c2 8e 8e bc e8 8d 9a bb b8 4c 0d bd
       -0.012855628 -0.017402057 -0.0047166236 -0.034496993
000270 9d 1e 99 bc e7 98 d8 bc 01 c8 cd 3b e1 7c 03 bd
       -0.018691355 -0.026440097 0.006279946 -0.032101516
000280 c4 e1 24 3d f2 80 8c bd e5 49 0e bd ce ea 4b bd
       0.04025437 -0.06860532 -0.03473844 -0.049784474
000290 3b f7 6e bc c2 34 cb bc f9 2c b5 3c 1e 7b 0b bd
       -0.0145853115 -0.02480543 0.022116171 -0.03405296
0002a0 20 a0 d2 3b 66 d1 24 bd fd 1a 05 3d f5 ea 4e bd
       0.00642778 -0.04023876 0.03249644 -0.05051704
0002b0 e0 3a 6a bd 98 7a eb bb 02 85 b0 bc 03 b7 38 ba
       -0.057185054 -0.007186245 -0.021547798 -0.0007046314
0002c0 68 ba 1b bd d7 d0 c1 bc 26 99 f7 bc c6 f8 9c bd
       -0.038019568 -0.023659153 -0.030224394 -0.07664637
0002d0 98 16 40 bd 5e 87 ef bc e6 e8 49 bd 41 f8 35 3c
       -0.046896547 -0.029239353 -0.049294375 0.011106552
0002e0 5c ab a7 3c 8a d1 81 bd 01 6e f2 bc 99 ba f0 bc
       0.020467453 -0.063387945 -0.02959347 -0.029385852
0002f0 34 bc 35 3d 68 ec a8 3c ca ed 29 bd 1c f6 81 3c
       0.044368938 0.02062054 -0.04148654 0.015864424
000300 fd 09 59 bd 46 25 45 3d ca 0d 25 3d 18 40 9c bc
       -0.05298804 0.04813125 0.040296353 -0.019073531
000310 7d 67 30 bd 50 33 2e bd 20 91 56 bc 79 29 bc bb
       -0.043067444 -0.042529404 -0.013096124 -0.0057422486
000320 70 39 19 3d 2f 9d 3b 3c d0 e1 18 3d f1 9a 90 bd
       0.037408292 0.01145105 0.037324727 -0.07060803
000330 8c d0 d5 3c e0 ce a6 3b a8 4f 46 bc 00 cf 81 3c
       0.02610042 0.0050905794 -0.0121039525 0.015845776
000340 aa 7e 5d 3d ff 89 4e bd a6 98 6e 3c 42 f5 f9 bc
       0.054075874 -0.050424572 0.014562761 -0.030512456
000350 bb b3 eb bb 04 9d 12 bc 5e c9 99 bd 54 ed 11 3c
       -0.0071930564 -0.008948568 -0.07509111 0.008906681
000360 6a b6 7a bd a2 a7 d3 bc f0 55 c3 3c 7c bb da 3c
       -0.06120912 -0.02583677 0.02384469 0.026700728
000370 4b 01 89 bd d0 9b 30 3d 5b 38 25 bd 3c 73 aa bc
       -0.066897 0.043117344 -0.040336948 -0.020806901
000380 88 61 df bc dd 4d b6 3c 40 61 1b bb 7a a5 67 bd
       -0.027268186 0.022253925 -0.0023709089 -0.056554295
000390 55 98 2b bd d0 63 8b bb 78 40 5f 3c 9c 5c 78 bb
       -0.041893322 -0.004253842 0.01362621 -0.0037896996
0003a0 6f ac 51 bd 24 b1 35 bd f0 53 d9 3b f8 6d 6a bc
       -0.051189836 -0.044358388 0.0066323206 -0.014308445
0003b0 60 51 8a ba 14 d6 39 bd 94 f1 d1 3b 02 1a 95 bd
       -0.0010552816 -0.045370176 0.006406972 -0.07280351
0003c0 ac d1 20 bd 68 c5 68 3d c5 eb 1d bd 45 bd ff bc
       -0.03926246 0.056828886 -0.038554925 -0.03121818
0003d0 b3 f1 b2 3c a0 6b 3e bd 38 61 3d bd 84 58 08 bd
       0.021843767 -0.046489358 -0.046235293 -0.03328754
0003e0 70 bd e8 bb 3e 54 3a bd 48 26 46 3d ee d0 68 bd
       -0.007102661 -0.045490496 0.04837635 -0.056839876
0003f0 54 28 16 bc 25 ff f9 bc 0d 99 0f 3b 3e 5e a5 bd
       -0.009164888 -0.03051717 0.0021911294 -0.08074616

fc2.bias f4 [300]
000000 86 0e 66 bd e5 94 0a bc bd 9c d5 b9 53 93 8a bd
       -0.056166194 -0.008458351 -0.00040743305 -0.06766381
000010 c9 af d2 3e 05 87 89 bc 94 12 eb ba fa 4a 52 bd
       0.41149738 -0.016788015 -0.0017934614 -0.051341034
000020 7e ed 79 3c 2f 4d 29 3c a9 98 35 bd b6 11 d7 bd
       0.015254376 0.010333343 -0.04433504 -0.10501425
000030 24 87 ea 3e 43 1e bb 3e 77 22 88 bd b5 02 d7 3b
       0.4580623 0.36546525 -0.06647199 0.006561602
000040 69 3b 26 3c fc 1d c6 3e dd b3 02 bd 4f e7 67 bc
       0.010146 0.3869475 -0.031909812 -0.014154269
000050 3c 77 a5 bc 83 b0 63 bd 1d 50 cb 3d 7a 8b 01 3c
       -0.020198457 -0.055588257 0.0992739 0.007906789
000060 7d 74 a5 3c d5 5a ce 3c 63 db c9 bd d4 a0 66 bd
       0.020197148 0.025189796 -0.09856298 -0.05630572
000070 37 b4 52 3c 16 0d 10 3e 9e 82 bd 3c 6d f0 83 bd
       0.012860349 0.14067492 0.023133572 -0.06442342
000080 1d f0 21 bd a7 39 ea 3c c5 6d 12 bb cd 35 97 bd
       -0.03953563 0.028591944 -0.002234326 -0.073833086
000090 33 19 3b bd 76 08 04 3d e3 c2 9d bd 46 1e e4 bc
       -0.04567833 0.03223463 -0.07703187 -0.027846467
0000a0 90 92 ed 3d ba ec af 3c 98 b7 1e 3b 9d d1 1e bd
       0.1160022 0.021475185 0.0024218317 -0.03877412
0000b0 04 35 ff 3d 2b 78 13 bd 7e f0 1a bd 04 4a 45 bc
       0.12461284 -0.036003273 -0.037827007 -0.0120415725
0000c0 94 58 a1 bc af a6 c4 3e e4 b2 e3 bc 9e 04 ff bb
       -0.019695558 0.3840842 -0.027795263 -0.007782533
0000d0 81 1e b3 ba c6 50 d9 bd 07 7c 39 bc 9a 3b 42 bc
       -0.0013665707 -0.106111094 -0.011321074 -0.01185503
0000e0 c1 09 05 bb 88 8d 5b 3e 34 b8 37 bd dc 7b 1d bd
       -0.0020300003 0.21440709 -0.044853404 -0.0384482
0000f0 77 7a 11 bc ec aa df 3e 72 30 03 bd 55 ed ce bc
       -0.008879296 0.4368509 -0.032028623 -0.025259653
000100 d3 a8 0d 3e d1 68 cc 3e df 46 9f ba 0e e5 91 bd
       0.13833933 0.3992372 -0.0012151859 -0.07123767
000110 2e af 3b bd 05 e4 a9 bc b8 6d 8c bd bb 94 68 3c
       -0.04582136 -0.020738611 -0.06856865 0.014195616
000120 52 e3 21 bd 07 81 fc 3c 2d e0 cb 3d 53 0b a6 bb
       -0.03952343 0.030823244 0.099548675 -0.005067268
000130 39 90 c3 3c 0a da 9d b9 98 47 da bb 25 71 3c bc
       0.023872482 -0.00030107825 -0.0066613667 -0.011501585
000140 a9 e6 0e 3d b9 3a 4f 3b 8f 20 91 bb bc b6 95 bd
       0.034887943 0.0031620695 -0.00442893 -0.073102444
000150 6c 07 13 3e e5 34 a5 3e 6c 8a 62 3c c0 bf c7 bc
       0.143583 0.32266918 0.013826948 -0.024383426
000160 b1 b3 94 3d e8 8d e5 3e db ba bf bb 2d 63 2c bd
       0.07260836 0.44834828 -0.0058511323 -0.04208677
000170 f3 bc 7e bd 3f 53 cb 3b 31 50 55 bd 5e df 07 bc
       -0.062191915 0.006204992 -0.05207843 -0.008293001
000180 76 b0 04 bc 35 3b aa 3c 26 dc fc bc 84 87 bb 3e
       -0.008098712 0.020780185 -0.030866694 0.36626828
000190 05 2c 0d bd a6 f4 38 bc 80 7d b0 bc 73 a1 0f 3d
       -0.03446581 -0.0112887975 -0.021544218 0.03506608
0001a0 e0 25 16 bd 0d 69 ff bc 38 8d 8a bd d4 83 dd 3e
       -0.036657214 -0.031178022 -0.067652166 0.4326464
0001b0 c7 29 ee 3e a8 61 e5 bc df 36 94 bd 1e 3d 59 bd
       0.4651625 -0.028000668 -0.07237028 -0.0530368
0001c0 5b 78 dc 3b 02 80 49 bd d1 65 78 bd 21 6c f0 3e
       0.0067282147 -0.049194343 -0.060643975 0.46957496
0001d0 6f 1a ae bd 32 d6 64 3c cd ac 88 bc 14 21 0c bc
       -0.085011356 0.013967084 -0.01668396 -0.008552808
0001e0 e3 1b e3 3e c7 4a 47 bd 2c bd 06 bc 44 30 c0 3e
       0.44357213 -0.048655298 -0.008223813 0.37536824
0001f0 f8 3c 89 3c 54 37 2a bc 83 bd bd 3e 06 70 9c 3c
       0.016752705 -0.010389168 0.37058648 0.019096386
000200 17 37 5e bd f2 6d b6 3e d0 6b 3c bd 5b d4 c7 3c
       -0.054251757 0.35630757 -0.046001256 0.024393251
000210 79 4c 62 bc 75 bc ba 3c 9f 36 c9 bc 41 4e 78 3b
       -0.013812178 0.022794941 -0.024562178 0.003788844
000220 52 0b f5 bb 1b d0 91 bd 4c 1e a2 bd 6c 61 5b bd
       -0.007478156 -0.07119771 -0.07915935 -0.053559706
000230 30 44 52 bd a1 4e c4 ba 92 33 56 3c 76 4f 7a bd
       -0.05133456 -0.0014977047 0.013073819 -0.061110936
000240 50 54 6b bc cb 59 9f bd e6 ce 09 bd 74 89 9d 3c
       -0.014363363 -0.077807985 -0.03364458 0.019230582
000250 96 b0 80 bd 7d 02 1e bd 80 57 e3 3c d7 0d 88 bd
       -0.06283681 -0.03857659 0.027751684 -0.06643265
000260 07 29 d4 bd c1 54 10 bd 08 16 62 bc 1e 97 4b bd
       -0.10359388 -0.035237078 -0.013799198 -0.049704663
000270 dd 6c e2 3e 59 b7 e0 3e 93 77 e6 3e db 20 45 3d
       0.4422368 0.43889883 0.45013103 0.048127037
000280 24 36 e0 3c 35 dd 90 be 75 96 49 bc 09 9c 7c bd
       0.027369566 -0.28293768 -0.012303938 -0.061672244
000290 12 f0 1f bc 68 15 14 bd 5a 15 1a 3d a0 a1 92 3d
       -0.009761827 -0.036153227 0.03761802 0.07159734
0002a0 fa 9a ce 3a 48 f5 d7 3e 47 f2 5d bd 36 f0 e7 bc
       0.0015762739 0.42179322 -0.05418613 -0.028312784
0002b0 5f f5 1e bd 11 c8 9f 3d 0e c8 c5 bc 4b 3b ad 3c
       -0.038808223 0.078018315 -0.024143245 0.021146437
0002c0 72 4b 66 bc 67 2b 82 3d 81 83 34 3e 07 dd 25 3d
       -0.0140560735 0.063559346 0.1762829 0.04049399
0002d0 25 5c ea bb a1 c7 e7 bc 82 4b 85 3e 40 6a 6d bd
       -0.0071520978 -0.028293433 0.2603417 -0.057962656
0002e0 68 1d f7 bc a3 84 36 bd 88 0b ad bd 81 e0 9c ba
       -0.03016539 -0.044560086 -0.08449465 -0.0011968763
0002f0 f9 2d 1b bc 02 c5 31 bd 85 41 86 bc 16 b6 10 3d
       -0.00947141 -0.043400772 -0.016388664 0.0353299
000300 46 e2 f3 bc a1 da 06 3d a3 74 9a bd fb 4d cd 3e
       -0.029770982 0.032923345 -0.07541778 0.40098557
000310 c4 dd cc 3d 45 54 07 3e 9a 94 03 bd 63 0f 56 bd
       0.10003236 0.1321574 -0.03212414 -0.052260768
000320 65 e2 2b bd 54 f7 91 bd be c8 d3 bc 1c c6 da 3e
       -0.041963954 -0.07127252 -0.025852557 0.4272927
000330 95 4b 09 bd 62 45 0b bd a2 a4 25 bd b2 5e 1d bc
       -0.033519346 -0.034001715 -0.04044021 -0.009605097
000340 bd 07 75 bd c5 19 10 3b 2b 3d 2d bd 19 3e 9f bd
       -0.059821833 0.0021988016 -0.042294662 -0.07775516
000350 a1 1b 77 bc 28 70 14 bd 4c 18 97 3b 43 c1 e4 bc
       -0.015082271 -0.036239773 0.0046110507 -0.027924186
000360 29 5b b7 bb fb 29 34 3e dd 30 84 bc 5a 0d bd 3c
       -0.005595584 0.1759414 -0.016136581 0.023077656
000370 f9 3f 00 bd 44 15 46 3d 85 0d a9 bd 86 24 91 bd
       -0.03131101 0.048360124 -0.08254532 -0.070870444
000380 f3 9d a0 bd b8 11 86 bd 20 c7 e3 3c f6 3f f8 bc
       -0.078426264 -0.06546348 0.027804911 -0.030303936
000390 52 ff 66 bd 0e 96 b9 3c af 86 b8 be 22 78 89 3d
       -0.056395836 0.02265456 -0.36040255 0.06712367
0003a0 2f f3 ef 3c dd 8a fd 3c f0 b5 75 bc d6 5d 54 bd
       0.029290764 0.030950004 -0.014996991 -0.0518473
0003b0 a7 ed 40 bd a8 0a 65 bd 50 d0 10 3c bc a3 25 3d
       -0.047101643 -0.055918366 0.008838728 0.040439352
0003c0 dc 29 aa bb 17 34 25 bc b5 a0 b8 3c 49 d0 3e 3b
       -0.0051929783 -0.01008322 0.022537569 0.0029115847
0003d0 c9 6e 15 bd a9 e2 a7 bb 0b 98 b9 bc a8 b2 d3 3c
       -0.036482606 -0.0051234555 -0.022655508 0.025842026
0003e0 0b 54 66 3d 07 27 a9 bd de 54 0f bd 2d 82 f6 3e
       0.056232493 -0.08259397 -0.034993045 0.4814619
0003f0 bf e2 ea bc 96 22 96 bd e8 80 35 bd dc 73 67 bd
       -0.028672574 -0.073308155 -0.044312388 -0.056506976

fc3.weight f4 [1, 300]
000000 6d 14 c6 bc fc 2d 11 bf fd 85 11 bf cb 34 6d 3b
       -0.024179662 -0.5671079 -0.56845075 0.0036194797
000010 59 91 7e 3e 0d 7c ca be 3b 29 9d 3c 90 e7 e0 bc
       0.24860133 -0.39547768 0.0191847 -0.027454168
000020 30 90 15 bf 04 d3 ae be 2b 48 d7 be 9b 78 8d bc
       -0.5842314 -0.34145367 -0.42047247 -0.017269423
000030 00 39 87 3e 4e 9d 99 3e 3e 15 09 bc ea 42 21 bf
       0.26410675 0.30002826 -0.008366881 -0.6299273
000040 fd c3 ab bc 94 cf 51 3e 56 28 27 bf 2c 9e 90 bc
       -0.020967478 0.20489341 -0.6529592 -0.017653547
000050 18 91 55 bf 71 ef 97 bc 14 e3 f7 bf 76 d6 1f bf
       -0.8342452 -0.018546792 -1.9366174 -0.62436616
000060 4b b5 ac 3c 0b 29 fa be a8 34 06 bf 10 5a a9 bb
       0.021082541 -0.48859438 -0.524241 -0.005168207
000070 a9 b9 c2 bb 1a 3b 1a c0 35 6a 9f bf 33 e1 ce 3b
       -0.0059425426 -2.4098573 -1.2454287 0.006313467
000080 c2 72 19 bf 63 ff dd 3b a0 20 8e bb 24 36 b7 3c
       -0.5994073 0.0067748292 -0.0043373853 0.022364683
000090 a4 b7 4d bc d6 bf 3d 3f 32 6e 90 bb 08 49 5d bc
       -0.01255599 0.74120843 -0.0044076676 -0.013506182
0000a0 a1 4b fb bf e0 0f 80 3b 11 e2 47 bb 4f 58 1d bf
       -1.9632455 0.0039081424 -0.0030499736 -0.61462873
0000b0 7d 13 c0 bf f8 d4 91 be c4 aa 07 bf 6a fb 42 3b
       -1.5005947 -0.28482795 -0.5299494 0.0029751905
0000c0 fb 44 8b 3c 49 fc 67 3e 1d 80 0d bf c7 b0 e7 be
       0.017000666 0.22654833 -0.5527361 -0.45252058
0000d0 88 15 55 bf 23 84 0c bf 10 0d 94 bb cc 29 0d 3c
       -0.8323598 -0.54889125 -0.0045181587 0.008615922
0000e0 ce 7a e5 bb 56 e7 b1 3e d6 b9 c9 be 19 8e 30 3b
       -0.007003165 0.34746808 -0.39399594 0.0026940166
0000f0 26 e2 a2 3b 04 ab 74 3e d3 e9 03 3c de 1d cc be
       0.0049708067 0.23893362 0.0080513535 -0.39866537
000100 5c b5 0a c0 c7 eb 84 3e 6b 53 c5 be f1 27 5a bc
       -2.1673193 0.25961134 -0.38540205 -0.013315187
000110 09 ea 91 be b4 a5 9e bc 1b f2 10 bc 17 e6 46 bc
       -0.28498867 -0.019366123 -0.008846785 -0.012139819
000120 a7 c3 ee be ab c4 09 bf 52 90 07 c0 67 c7 2f bf
       -0.46633646 -0.53815717 -2.1181836 -0.6866364
000130 f4 09 41 bf 98 69 8f 3c 17 42 59 bf 7f e6 4e bb
       -0.7540581 0.017506406 -0.8486647 -0.0031570492
000140 b3 a8 db bb 29 df 85 3b e0 a3 1b bf a1 46 58 bc
       -0.00670346 0.0040854407 -0.6079693 -0.013200433
000150 04 3c 18 c0 85 2b 0f 3e 5f 83 22 bf bf e9 dc be
       -2.378663 0.13981445 -0.63481706 -0.43147084
000160 1a af cd bf 84 db bb 3e e8 82 a2 3b 28 d8 80 bc
       -1.6069062 0.36690915 0.004959453 -0.015728071
000170 6f 2a c7 be 8c 3a 15 bf a8 75 0a 3c 97 29 97 3c
       -0.38899562 -0.5829246 0.008450903 0.018452449
000180 94 3a 20 ba 04 55 f6 3b 2a 3c 42 bc ec fd d9 3e
       -0.00061122444 0.007517459 -0.011855165 0.4257654
000190 c3 d5 c9 3b e4 19 54 3b 2a 10 18 bf 4e 2d 04 40
       0.0061595156 0.0032364065 -0.59399664 2.0652652
0001a0 4b eb 56 bc 61 ec 07 bf 9e 81 c2 bc 75 e3 80 3e
       -0.013117622 -0.5309506 -0.023743447 0.25173536
0001b0 ce 96 c1 3e 64 86 62 bc c6 2c bd 3c 3e dc ad bc
       0.37810367 -0.013825987 0.023092639 -0.021223184
0001c0 7c d9 28 bf a1 a1 5f bc 6c 55 f4 be a3 8d 73 3e
       -0.65956855 -0.013649375 -0.47721422 0.23784499
0001d0 e7 a1 c2 bb db b9 ee be 39 19 3a bc ca 86 65 bc
       -0.0059397104 -0.4662617 -0.011358553 -0.014009187
0001e0 5d 5c 7a 3e d8 78 b2 3c 30 6b fc be 15 fa b3 3e
       0.24449296 0.021786138 -0.49300528 0.35151735
0001f0 8e 38 ee 3c a5 a4 8f 3a a2 40 5f 3e 3c 4b b8 ba
       0.029079702 0.0010959102 0.21801999 -0.0014060508
000200 83 c4 e5 bb d7 32 80 3e 62 9a c6 bc 9d db b5 bb
       -0.0070119514 0.25038788 -0.024243537 -0.0055498616
000210 22 27 d6 be cb dc 2d bf 5e 04 0b bf ea b0 f5 bf
       -0.4182673 -0.6791503 -0.5430354 -1.9194615
000220 ac a4 37 bf 4e 01 a6 be 9f 59 a3 bc 4c 35 b5 3c
       -0.71735644 -0.3242287 -0.019940196 0.02212014
000230 11 65 b5 bc 81 c4 e6 3c ad f2 a9 bc 52 08 f0 be
       -0.022142919 0.028169872 -0.0207456 -0.46881348
000240 66 c5 d2 be c5 ce c1 be 99 39 e8 be 69 88 5f 3c
       -0.41166228 -0.37853065 -0.45356444 0.013643363
000250 3f f0 c7 39 ca b6 43 bb 2a 9c 92 bb 81 4a d3 be
       0.00038135235 -0.002986359 -0.0044741826 -0.4126778
000260 a5 7d 89 be e4 ce 96 3b 69 c2 9e bb 8a aa a6 be
       -0.26853672 0.0046023 -0.004844953 -0.32551986
000270 91 32 4f 3e db 8c 77 3e c1 a0 61 3e c3 96 70 bf
       0.20234133 0.24174826 0.22033979 -0.93980044
000280 2e eb 1b bf 33 58 86 bf d2 31 1f bf e8 c3 ff bc
       -0.6090573 -1.0495666 -0.62185395 -0.031221345
000290 7c 75 1d 3c bc d5 21 3b 68 4e 00 c0 ab d8 c8 bf
       0.00961053 0.0024694046 -2.0047855 -1.5691122
0002a0 bc b8 db be a7 e9 8f 3e 8f 81 16 bf d6 fa ab be
       -0.4291438 0.2810795 -0.5879144 -0.3358981
0002b0 4c 97 3d 3c ba 81 7f bf 62 19 a6 be 1e db 08 bf
       0.0115717165 -0.9980732 -0.3244124 -0.53459346
0002c0 15 ee f5 bc 71 cc bc bf 5e 7c fa bf fc 61 22 bf
       -0.030020753 -1.474989 -1.9569204 -0.6343076
0002d0 e5 70 94 bb 97 08 b4 be 8d 15 42 3e e8 7a b1 3c
       -0.0045300596 -0.35162804 0.18953533 0.021665052
0002e0 e4 f9 73 3b 86 99 c6 bc 9c 82 98 bc 27 42 23 bf
       0.0037227804 -0.024243128 -0.018616967 -0.63772815
0002f0 a1 a4 f0 be db 37 62 3c 3d a8 ce 3c cf 28 ca 3e
       -0.47000602 0.013807262 0.025226707 0.3948426
000300 3d 58 34 3c ca 64 01 c0 89 92 19 bd 59 10 95 3e
       0.011007366 -2.0217767 -0.037493262 0.29114035
000310 ed 8e ce bf 51 e9 95 bf 20 8c df be 9e 74 f3 be
       -1.6137367 -1.1711828 -0.43661594 -0.4754991
000320 f4 a2 a7 bb ef 2c 92 be 7c 46 05 bf 42 97 b2 3e
       -0.005115861 -0.28549907 -0.52060676 0.34881026
000330 9b a1 32 bf 11 95 3e bf 5f 3f 2f 3c bd f7 c7 bb
       -0.6977784 -0.7444621 0.010696261 -0.0061025308
000340 a4 bd 1d bf 3d 19 13 3c f3 3a b0 3b 51 76 8f be
       -0.61617494 0.008978185 0.005378121 -0.28019956
000350 8a 83 b5 3b 9e 06 b5 3b 2e 80 15 bf 85 57 1f bf
       0.0055393623 0.0055244705 -0.5839871 -0.6224292
000360 12 0d de be fa 8f 9a bf e6 30 9e bb de 42 2d bf
       -0.43369347 -1.2075188 -0.0048276065 -0.67680156
000370 0b cf f3 bc 42 45 0d 3f 18 35 f7 bc 0f 23 7d bf
       -0.029761812 0.55183804 -0.030176684 -0.9888162
000380 12 87 f4 bc 0e fd 13 bc 0f cc 29 bf d2 86 0d bf
       -0.029849563 -0.009032501 -0.66326994 -0.55283844
000390 b6 95 b2 bc 48 67 c7 39 27 a8 7e bf 6d d9 03 c0
       -0.021799903 0.00038033188 -0.9947533 -2.0601456
0003a0 9b dc 97 3b 1c 12 22 bf 1d 13 21 bc b0 da 81 3c
       0.0046344525 -0.6330888 -0.009831217 0.015851349
0003b0 89 3f b0 be 74 66 ba 3c 0a b5 00 bf 12 e2 1e bf
       -0.34423473 0.022753932 -0.50276244 -0.62063706
0003c0 73 c7 f7 3c f7 39 1d bf ad cb bf bf 2a 37 91 bb
       0.030246472 -0.6141657 -1.4984032 -0.004431625
0003d0 13 30 df bd d4 f9 4d bb a6 43 b0 3b 4d 76 9b bb
       -0.10897841 -0.0031429427 0.005379158 -0.004744327
0003e0 80 1f 43 bf 2e 17 e8 3c c3 ed f2 bb 72 28 15 3f
       -0.7621994 0.028331365 -0.0074135973 0.5826484
0003f0 02 84 f3 be 13 3a d0 3c 04 97 37 bc 35 c4 0a bf
       -0.4756165 0.025418317 -0.0112054385 -0.5420564
