checkpoint_actor.pth (torch, 864681 bytes, 8 tensors)

fc1.weight f4 [400, 9]
0	0xbd42c1a3	-0.047547948
1	0xbbb00008	-0.0053710975
2	0xbd2c1282	-0.042009838
3	0xbd31c8bb	-0.043404322
4	0xbabc65f9	-0.0014373652
5	0xbe02ea48	-0.12784684
6	0x3d6bda7c	0.05758141
7	0x3ccbc60d	0.024874711
8	0x3cfc4219	0.030793237
9	0xbd80f850	-0.06297362
10	0xbc12b547	-0.008954353
11	0xbbda8410	-0.006668575
12	0xbbf00404	-0.0073246974
13	0xbdaacf0d	-0.08340273
14	0xbdb8072a	-0.089857414
15	0x3d44f4a2	0.048084863
16	0x3c2d522d	0.010578674
17	0xbc5a9072	-0.0133401025
18	0xbcc12c2c	-0.023580633
19	0xbccde8ef	-0.025135485
20	0xbcd58d89	-0.026068466
21	0xbd26d48c	-0.040730044
22	0xbc42a861	-0.011880965
23	0xbda6b5cf	-0.08140146
24	0xbc116245	-0.008873527
25	0xbafc037e	-0.0019227115
26	0x3bd0351e	0.0063539883
27	0x3ce498e2	0.027904931
28	0xbcc0603a	-0.023483384
29	0xbd2ae89a	-0.041725732
30	0x3d04d45d	0.032429088
31	0xbced5cd7	-0.028974934
32	0xbcffa143	-0.031204825
33	0xbb082800	-0.0020775795
34	0xbd174c3a	-0.03693793
35	0xbcfa073a	-0.030521024
36	0xbd32d8e8	-0.04366389
37	0x3d18a2d9	0.03726468
38	0xbce43633	-0.027857875
39	0x3ca3d106	0.019997131
40	0xbb1a4f50	-0.002354581
41	0xbd069c95	-0.032864172
42	0xbd3960d3	-0.045258354
43	0xbc8cacd6	-0.017172258
44	0x3be97810	0.0071249083
45	0xbc8cb612	-0.017176662
46	0x3d547f7b	0.051879387
47	0xbc61c670	-0.013780221
48	0x3cea0b33	0.028569793
49	0xbd063b74	-0.032771543
50	0x3d5f018f	0.054444846
51	0x3d5bc78c	0.0536571
52	0xbd064595	-0.032781202
53	0xbc7d025f	-0.01544246
54	0xbb6a2c00	-0.0035731792
55	0x3d34339f	0.043994542
56	0xbc7c0b38	-0.015383534
57	0x3d3bd1ab	0.04585425
58	0x3d0253a3	0.031818043
59	0x3c570254	0.013123114
60	0x3c075c2c	0.008261722
61	0xbcb65dc7	-0.022261513
62	0x3d035f4d	0.032073308
63	0xbd2f4d3a	-0.04279826
64	0xbcd44e45	-0.025916228
65	0x3cc26b72	0.023732875
66	0x3bedbaea	0.007254948
67	0xbcfe5fde	-0.031051572
68	0x3df3e342	0.1190858
69	0xbc9171f5	-0.017754534
70	0x3ccf2c64	0.025289722
71	0xbd2e9ee9	-0.042632017
72	0x3d058abe	0.032603018
73	0x3c60c7ef	0.013719543
74	0xba862c08	-0.0010236511
75	0xbc883438	-0.016626462
76	0xbd21da28	-0.03951469
77	0xbd31cc18	-0.04340753
78	0x3d8f64db	0.070016585
79	0xbb04e07c	-0.0020275405
80	0xbd0a892e	-0.03382223
81	0xbdaa4b4b	-0.08315142
82	0xbd7edcbb	-0.062222224
83	0xbbc94e70	-0.0061433837
84	0xbc95f702	-0.018306259
85	0xbc2a8b0d	-0.010409129
86	0xbdb1bad4	-0.08678213
87	0xbd8758aa	-0.06608708
88	0xbcb8763d	-0.022517318
89	0x3ce1fd29	0.027586536
90	0xbda55178	-0.080721796
91	0xbdf75ab1	-0.12077845
92	0x3dbffd35	0.09374467
93	0xbd43aa7e	-0.047770016
94	0x3db8d29a	0.09024544
95	0xbd91f02b	-0.071258865
96	0x3d05b740	0.032645464
97	0x3d83609e	0.06414913
98	0x3d0af52c	0.03392522
99	0xbd4847fb	-0.04889677
100	0x3b6d04d6	0.0036166213
101	0x3d33ee90	0.043928683
102	0xbc44937e	-0.0119980555
103	0x3bd4b36c	0.0064911153
104	0xbe13a67a	-0.14418975
105	0x3dc4a5d2	0.0960194
106	0xbd150fa5	-0.036391873
107	0x3cfd3fb6	0.030914169
108	0xbb43b320	-0.0029861405
109	0x3cf5e73e	0.030017491
110	0x3d26e321	0.04074395
111	0xbbe68930	-0.007035397
112	0x3d1cad49	0.038251195
113	0x3cb6f662	0.022334281
114	0xbd447f82	-0.047973163
115	0xbc2b1380	-0.010441661
116	0x3c06c434	0.008225489
117	0xbcad49c3	-0.021153336
118	0x3d00e0b8	0.03146431
119	0x3d9de40d	0.07709513
120	0xbd17edd6	-0.037092052
121	0x3d8e572a	0.06950219
122	0xbc88ae6d	-0.016684735
123	0x3caa7733	0.020808792
124	0xbc0c3473	-0.008557427
125	0xbc53f055	-0.012935718
126	0xbd295abd	-0.0413463
127	0x3d3f0628	0.04663673
128	0x3bbfc446	0.005852255
129	0x3d5d48da	0.054024555
130	0x3cb17d8a	0.021666307
131	0x3d4d6875	0.050148446
132	0x3d07906d	0.03309672
133	0x3bf63cbd	0.007514565
134	0xbd8647a3	-0.06556632
135	0x3cf42460	0.029802501
136	0xbcc67505	-0.024225721
137	0xbc5ad2e5	-0.013355945
138	0x3cb706a5	0.022342036
139	0xbd9d172e	-0.07670437
140	0xbda3af19	-0.079923816
141	0x3d31fbeb	0.04345314
142	0x3d847942	0.064684406
143	0xbc8e1ac1	-0.017346742
144	0xbcabfe42	-0.020995263
145	0xbcbcd64e	-0.023051407
146	0x3b8d278c	0.004307693
147	0x3d40b97d	0.047051895
148	0xbd043b3d	-0.032283057
149	0xbd8459e6	-0.06462459
150	0x3c07fd95	0.008300205
151	0xbd080f7e	-0.0332179
152	0xbd07710c	-0.033066794
153	0xbcd570c2	-0.026054744
154	0xbd5c182a	-0.053733982
155	0x3d6a28e5	0.057167906
156	0xbd59dbaf	-0.053188022
157	0xbcffde06	-0.031233799
158	0xbd63b54a	-0.055592813
159	0x3d7e34a0	0.062061906
160	0xbcca4e6d	-0.0246956
161	0xbc0725ac	-0.008248728
162	0x3ced3646	0.028956544
163	0xbccf1183	-0.025276905
164	0x3bddbd58	0.0067669563
165	0xbc17a608	-0.0092558935
166	0x3c8cd2d2	0.01719037
167	0x3b347480	0.002753526
168	0xbcb1f4fa	-0.02172326
169	0xbd35f3e3	-0.04442204
170	0x3ccccb8a	0.024999399
171	0x3d888470	0.066658854
172	0xbd90a268	-0.070622265
173	0xbc7da015	-0.015480061
174	0xbca48e62	-0.020087425
175	0x3ca92299	0.02064638
176	0xbd94d235	-0.07266656
177	0x3cbc1f67	0.022964193
178	0x3d928951	0.07155097
179	0x3d0d281e	0.034462087
180	0x3ca6678a	0.020313043
181	0xbcaf485d	-0.02139681
182	0x3d2d14b9	0.04225609
183	0x3c104bb8	0.008807115
184	0x3c94c19e	0.01815873
185	0xbcd7faca	-0.026364703
186	0x3cb7d6e2	0.022441331
187	0x3a96d860	0.0011508577
188	0xbd429a4f	-0.04751044
189	0xbd0c726e	-0.034288816
190	0xbd1e885c	-0.03870426
191	0xbd3acedc	-0.045607433
192	0x3d9b09f5	0.075702585
193	0xbc4dfd68	-0.012572624
194	0x3dcb5f45	0.099302806
195	0x3cbdfb5c	0.023191147
196	0xbd033348	-0.032031327
197	0xbd850781	-0.06495572
198	0xbd1c7fa3	-0.03820766
199	0xbd44c698	-0.048040956
200	0xbd488c1d	-0.048961747
201	0x3d0f4689	0.034979377
202	0xbcfd04c7	-0.030886067
203	0x3c7fb12c	0.015606206
204	0xbba47db0	-0.005019866
205	0x3bb2a600	0.0054519176
206	0xbce5105d	-0.027961904
207	0xbcab4c60	-0.020910442
208	0x3d8e12f4	0.06937209
209	0x3d8e6105	0.06952099
210	0x3d867051	0.065643914
211	0xbcf9b7f8	-0.030483231
212	0x3de5f603	0.11228564
213	0x3d13b86c	0.03606455
214	0xbb120808	-0.002228262
215	0xbc54e29c	-0.012993481
216	0x3ba6a3b0	0.005085431
217	0xbbe035a8	-0.006842334
218	0xbcd8cf83	-0.026466137
219	0x3c621464	0.013798807
220	0xbcb1dced	-0.021711791
221	0xbd0585e6	-0.0325984
222	0x3c074bc0	0.008257806
223	0x3c57d54c	0.0131734125
224	0xbbf1ae30	-0.007375501
225	0xbc4b8177	-0.012421004
226	0x3c44c103	0.012008908
227	0xba8d6929	-0.0010788786
228	0xbd6e2711	-0.058142725
229	0x3d3c3a5b	0.04595409
230	0x3d6f6b01	0.058451656
231	0x3d65c921	0.056100015
232	0x3c80740f	0.015680341
233	0x3cfa5b1c	0.030561022
234	0xbc80455c	-0.015658073
235	0x3d2e0201	0.04248238
236	0x3cb50e92	0.022101674
237	0x3c40d04c	0.011768412
238	0xbc76bc80	-0.01505959
239	0xbd399857	-0.0453113
240	0xbd00ed24	-0.031476155
241	0x3d3205ad	0.043462444
242	0xbcc5b88a	-0.024135847
243	0xbcbbbf38	-0.022918329
244	0xbd6f5b09	-0.058436427
245	0x3d8056cb	0.062665544
246	0x3d6109cf	0.054940995
247	0x3c5d6dce	0.013514949
248	0x3d0a2358	0.033725113
249	0x3c6e59ee	0.014547808
250	0x3ddbe452	0.10736908
251	0xbc80becf	-0.015715985
252	0x3cfb41c0	0.030671
253	0x3d8df8b6	0.069322035
254	0xbc742988	-0.01490248
255	0xbce43985	-0.027859459

fc1.bias f4 [400]
0	0x3e3f8c69	0.18705906
1	0xbdf2b560	-0.11851001
2	0x3e371730	0.17879939
3	0xbe666253	-0.22498445
4	0xbe99b06e	-0.30017418
5	0x3de87e43	0.113522075
6	0xbea3323b	-0.3187426
7	0x3e22da33	0.15903549
8	0x3d006c74	0.03135343
9	0x3d40c6c0	0.047064543
10	0xbdd4f059	-0.10397405
11	0xbb3a88b5	-0.0028462831
12	0xbe2434a6	-0.16035709
13	0x3e808c4b	0.25107035
14	0xbd97be67	-0.07409363
15	0x3cdd8df7	0.027045233
16	0x3d6b4d6c	0.057446882
17	0xbd8cc98b	-0.06874379
18	0xbe88511a	-0.26624376
19	0x3d861489	0.065468855
20	0xbe829996	-0.25507802
21	0x3d52b435	0.05144139
22	0xbe6d5bf3	-0.23179607
23	0xbd6774b4	-0.05650778
24	0xbe8a70ac	-0.27039087
25	0x3e253262	0.16132501
26	0xbe8f085b	-0.27936062
27	0xbe26f632	-0.16304854
28	0xbc16b74c	-0.009198975
29	0x3d96d986	0.07365708
30	0x3e96496c	0.2935289
31	0xbcc191aa	-0.023629028
32	0x3e9d7aa8	0.30757642
33	0xbdefa2c0	-0.11700964
34	0x3e11259d	0.14174505
35	0x3d5c36d7	0.053763237
36	0x3e98dc2b	0.29855475
37	0x3d2cbf4e	0.04217463
38	0xbd99a346	-0.07501845
39	0x3e979545	0.2960607
40	0x3e9ed6bd	0.31023207
41	0xbe9c7910	-0.30561113
42	0x3ea06e20	0.3133402
43	0xbd8d199c	-0.0688965
44	0x3eb323e2	0.34988314
45	0x3ea3cab6	0.31990594
46	0xbea0087b	-0.3125647
47	0x3e926508	0.28592706
48	0xbd81027b	-0.06299301
49	0x3e33a0c1	0.17541791
50	0x3c1232f6	0.008923283
51	0xbe069528	-0.13142836
52	0xbe8cdff3	-0.2751461
53	0x3ded0c86	0.11574654
54	0x3e12c45e	0.1433272
55	0x3e05fdbd	0.13085075
56	0xbe6c4b43	-0.23075585
57	0xbea6389a	-0.3246506
58	0xbe5f5406	-0.21809396
59	0xbe84563e	-0.25847048
60	0x3d49e964	0.049294844
61	0xbe84344a	-0.25821143
62	0xbe5f66de	-0.21816584
63	0xbea425b7	-0.32060024
64	0x3e7b4bb9	0.24540605
65	0xbe821e9c	-0.25413978
66	0xbd399e3b	-0.045316916
67	0xbc3dae89	-0.011577257
68	0x3e812041	0.2521992
69	0x3e6f6373	0.2337778
70	0xbe57f9be	-0.21091363
71	0xbd727401	-0.05919266
72	0x3eb3e757	0.35137436
73	0xbd9551e2	-0.072910085
74	0xbd40e04e	-0.047088914
75	0xbd2bff28	-0.041991383
76	0x3e513d5c	0.20433563
77	0x3d8d94e4	0.06913164
78	0x3d6e72b4	0.05821486
79	0xbe3e5d68	-0.18590319
80	0x3ea0b3b1	0.31387094
81	0x3dbdf2d2	0.0927483
82	0xbde636d1	-0.11240924
83	0x3d92547b	0.071450196
84	0x3e831a77	0.2560613
85	0xbc270fd2	-0.010196643
86	0xbe8fed43	-0.28110704
87	0xbe898eb4	-0.26866686
88	0x3ea08965	0.31354824
89	0xbe1e2bbb	-0.1544637
90	0xbe8f5600	-0.279953
91	0xbea0d128	-0.31409574
92	0x3e7fe60f	0.24990104
93	0xbd3d6cd7	-0.046246376
94	0xbce54852	-0.027988587
95	0x3e823a8e	0.254353
96	0x3e56ff5d	0.20995851
97	0xbe4fab48	-0.20280182
98	0xbcd9ac36	-0.026571374
99	0xbe819a54	-0.25313056
100	0x3e82eace	0.25569767
101	0x3e350c2c	0.17680424
102	0xbe88b468	-0.2670014
103	0x3e63fbaf	0.22263978
104	0x3d3d4458	0.046207756
105	0xbe174e53	-0.14775972
106	0xbe88d83a	-0.26727468
107	0x3e90d17c	0.28284824
108	0xbe8605f3	-0.26176414
109	0x3ea03b8d	0.31295434
110	0x3de42925	0.1114066
111	0xbe656da3	-0.22405104
112	0xbe50d460	-0.20393515
113	0xbe56e2cb	-0.20984952
114	0x3decf51f	0.11570191
115	0x3dd2e5ca	0.10297735
116	0xbd92b557	-0.07163494
117	0x3d90bc4d	0.070671655
118	0x3e09dae0	0.134624
119	0x3e3c01fb	0.1836013
120	0x3e921047	0.28528044
121	0x3e98a115	0.29810396
122	0x3c9d27b3	0.01918397
123	0x3ead153e	0.3380527
124	0x3e3ca56a	0.18422475
125	0x3e9dafc5	0.30798164
126	0xbe260fb9	-0.16216935
127	0x3c2da1b8	0.010597639
128	0x3c492fdf	0.01227948
129	0xbe90c1fe	-0.28273004
130	0xbd13f616	-0.036123358
131	0xbe306688	-0.17226613
132	0x3c8e7e08	0.01739408
133	0x3eb188cd	0.34674683
134	0xbe9891c3	-0.29798707
135	0xbe3aba8b	-0.18235223
136	0xbe97be1a	-0.29637223
137	0x3ea31120	0.31849003
138	0x3e0cd20c	0.13752002
139	0x3e311e1a	0.17296639
140	0x3e724967	0.23660813
141	0xbd477144	-0.048692003
142	0x3e48c13e	0.19604966
143	0xbe5ec556	-0.21754965
144	0xbe7f5d1b	-0.2493786
145	0x3d4568ec	0.048195764
146	0x3eaeb8ac	0.34125268
147	0x3e82a478	0.25516105
148	0x3d5b5530	0.053548038
149	0x3d19ded3	0.037566017
150	0x3e819ee7	0.25316545
151	0x3d8bf1de	0.06833242
152	0x3e6c256b	0.23061149
153	0xbe089274	-0.13337117
154	0x3e1cbfcc	0.1530754
155	0x3e354dac	0.1770541
156	0x3eb32010	0.349854
157	0x3eaadf5e	0.3337354
158	0x3e90ba68	0.28267217
159	0x3eab8261	0.3349791
160	0xbe3b3845	-0.18283184
161	0xbd29bb01	-0.041438106
162	0x3e991f05	0.2990648
163	0x3db80c8c	0.08986768
164	0x3e82bf30	0.2553649
165	0xbcb7a7c2	-0.02241886
166	0x3e756a8c	0.23966426
167	0x3e9a55fd	0.3014373
168	0xbddb5970	-0.10710418
169	0xbe99cb7a	-0.30038053
170	0x3c91110d	0.017708326
171	0x3e982f45	0.29723564
172	0xbe73ebc8	-0.23820412
173	0xbd88ff23	-0.066892885
174	0x3e5a10cb	0.21295469
175	0x3e89868e	0.2686047
176	0xbe2a4d63	-0.16631083
177	0x3e3f0b59	0.18656673
178	0x3dc858bd	0.097825505
179	0x3ea958bd	0.33075514
180	0x3e9d5d39	0.30735186
181	0x3e0e3d1d	0.138905
182	0xbe17651e	-0.14784667
183	0x3e1ec5f7	0.15505205
184	0x3e56c613	0.20973997
185	0x3ddfa388	0.10919863
186	0x3e373c07	0.17893992
187	0xbc624760	-0.013810962
188	0xbe9b039f	-0.302762
189	0xbe3e162e	-0.18563148
190	0xbe74061e	-0.23830459
191	0x3e436a87	0.19083606
192	0xbea1627c	-0.3152045
193	0xbe3105e5	-0.17287405
194	0xbe29e456	-0.1659101
195	0x3d705b33	0.058680724
196	0x3dd66c4a	0.10469873
197	0xbe8ddc96	-0.27707356
198	0x3c841c23	0.016126698
199	0x3eab1635	0.3341538
200	0xbd53df90	-0.051726878
201	0x3df13117	0.11776941
202	0xbe8c8392	-0.2744413
203	0x3d929c14	0.07158676
204	0xbc0a7b50	-0.008452252
205	0x3e3b3c9c	0.1828484
206	0x3d69ac18	0.057048887
207	0xbe3e2db8	-0.18572128
208	0xbe236028	-0.1595465
209	0xbda1c4f0	-0.07898891
210	0x3e31f9d0	0.17380452
211	0xbe5c0f83	-0.21490292
212	0x3e48202f	0.19543527
213	0xbdb75fb6	-0.08953802
214	0x3e7b6711	0.24551035
215	0x3d92120b	0.07132348
216	0xbd351759	-0.04421172
217	0xbd17d32a	-0.037066616
218	0xbe48e813	-0.1961978
219	0xbe87a707	-0.2649462
220	0x3e87c7ed	0.2651972
221	0xbe94fd38	-0.2909944
222	0x3e8f7e03	0.28025827
223	0xbe4fc00f	-0.20288108
224	0xbe1a72c3	-0.1508284
225	0x3e8e063b	0.27739128
226	0xbe956f66	-0.29186553
227	0x3d4cd1f6	0.05000492
228	0x3e9c52ad	0.30531827
229	0xbea3a5e7	-0.3196251
230	0xbe6ac6fe	-0.22927472
231	0xbe18fc50	-0.1494
232	0xbdf63987	-0.12022691
233	0xbdba7763	-0.091048025
234	0xbe9e8062	-0.30957323
235	0x3c7e4934	0.015520383
236	0xbe08dae3	-0.13364749
237	0x3e7f3bd3	0.24925165
238	0x3e70390b	0.2345926
239	0x3e3b5fcf	0.18298267
240	0xbe94401b	-0.2895516
241	0xbe835df4	-0.25657618
242	0x3e79ac50	0.24382138
243	0x3ea7836b	0.3271745
244	0x3e1b0fb8	0.15142715
245	0xbe334c10	-0.17509484
246	0x3e87d977	0.265331
247	0xbe2b2206	-0.16712198
248	0xbea08a73	-0.31355628
249	0x3e3b409f	0.1828637
250	0xbe6da1a8	-0.23206198
251	0xbe856096	-0.26050252
252	0xbea3cdeb	-0.3199304
253	0xbe011b7c	-0.1260814
254	0x3e4f4c3e	0.20243928
255	0xba44342b	-0.000748458

fc2.weight f4 [300, 400]
0	0x3ce7d2eb	0.028298816
1	0x3dad18d4	0.08452001
2	0x3d2703f2	0.040775247
3	0xbd14a5c0	-0.036290884
4	0xbd46a8cb	-0.048500817
5	0x3bd620fa	0.006534693
6	0xbd2aa85c	-0.041664466
7	0x3c59f988	0.013304122
8	0x3de13392	0.109961644
9	0x3dbdb989	0.09263904
10	0x3dbd5de7	0.09246426
11	0xbd92179f	-0.071334116
12	0xba0fc0c0	-0.0005483739
13	0xbc6dafa1	-0.014507205
14	0xbd422306	-0.047396682
15	0x3c9fa595	0.019488135
16	0x3d9bfc2b	0.076164566
17	0xbc5fbcf9	-0.013655894
18	0x3d476650	0.048681557
19	0x3c8f892a	0.01752146
20	0xbc428b20	-0.01187399
21	0xbbc21df1	-0.0059239795
22	0x3cdf5dec	0.027266465
23	0x3bf3609f	0.0074272896
24	0xbc07d7b0	-0.00829117
25	0xbba3bf01	-0.0049971347
26	0x3c359800	0.011083603
27	0x3c5755b6	0.013142994
28	0xbd23c08c	-0.03997855
29	0x3c4b5bad	0.012411994
30	0x3ca1d091	0.019752773
31	0x3a2416a7	0.0006259479
32	0x3bc8a5fa	0.0061233016
33	0x3d6f0cae	0.0583617
34	0x3d4d4ffe	0.050125115
35	0x3d024ff4	0.03181453
36	0x3c5a8700	0.013337851
37	0x3d8e051c	0.06934568
38	0x3dc2ef70	0.09518325
39	0x3ca43bf6	0.020048123
40	0xbce3134d	-0.027719164
41	0x3cbbe780	0.022937536
42	0x3ce69f0a	0.028152008
43	0x3d1dbbad	0.03850906
44	0xbcf4f4b7	-0.029901845
45	0xbcf01dbc	-0.029311053
46	0x3d2955ae	0.041341476
47	0xbc42c9bb	-0.011888917
48	0xbcd9c5c4	-0.02658356
49	0xbcffde52	-0.03123394
50	0x3ba26c6d	0.004956773
51	0xbdfcceb0	-0.1234411
52	0xbd498ace	-0.04920464
53	0x3d0bfc73	0.0341763
54	0xbcbc8203	-0.023011213
55	0x3d57d612	0.052694388
56	0x3d45a73e	0.048255198
57	0xbcd8b3cc	-0.026452921
58	0xbd66bf0d	-0.056334544
59	0x3d4c19c0	0.049829245
60	0xbc783761	-0.015149922
61	0xbcfe1303	-0.031014925
62	0x3d1b23f8	0.0378761
63	0x3c003460	0.007824987
64	0xbd2e5341	-0.042559866
65	0xbb6c2640	-0.003603354
66	0x3c606c77	0.013697735
67	0x3cd0fd76	0.025511485
68	0x3d336f35	0.043807227
69	0x3d0c1b06	0.03420546
70	0x3bcf5100	0.0063267946
71	0x3de54ff5	0.11196891
72	0xbc1ccd32	-0.009570407
73	0x3d92301b	0.07138082
74	0x3d876329	0.0661071
75	0xbafb4a6f	-0.0019171963
76	0xbd51b573	-0.051198434
77	0x3cf09437	0.02936755
78	0x3d8b91cb	0.06814917
79	0x3d5103c4	0.05102898
80	0x3d16dcb0	0.036831558
81	0xbae747e9	-0.0017645332
82	0xbdf687a4	-0.1203759
83	0x3c9d5c66	0.019209098
84	0x3c440811	0.011964814
85	0xbd3be9a4	-0.045877114
86	0x3d5d1fe2	0.053985484
87	0xbcf138e5	-0.029446075
88	0x3c35e082	0.01110089
89	0xbc2d6a48	-0.010584421
90	0x3d118052	0.035522766
91	0x3d25a02e	0.040435962
92	0x3d618d72	0.055066533
93	0x3cf297ad	0.02961334
94	0x3d853553	0.065043114
95	0x3d6b83cb	0.057498734
96	0x3d3ed806	0.046592735
97	0x3d1341a0	0.035951257
98	0x3d194e28	0.03742805
99	0xbd15f6c3	-0.036612283
100	0x3d83c60d	0.064342596
101	0x3cd5ed84	0.026114233
102	0x3c837e84	0.016051538
103	0x3cfea3d9	0.031083988
104	0x3ce91832	0.02845392
105	0xbc0b0808	-0.0084858015
106	0x3d06d674	0.032919362
107	0x3d260683	0.040533554
108	0x3b8c5030	0.00428202
109	0xbd2a5aeb	-0.041590612
110	0xbd69b882	-0.057060726
111	0xbd064268	-0.032778174
112	0xba48bb80	-0.0007657334
113	0x3d0cb12c	0.03434865
114	0xbcffb45b	-0.03121393
115	0x3d586942	0.052834757
116	0x3d364b7c	0.04450558
117	0x3cf57197	0.02996139
118	0xbd4c3e22	-0.049863942
119	0x3cce2f7c	0.025169127
120	0x3cf49de6	0.029860448
121	0x3d506cd8	0.05088505
122	0x3d777215	0.06041153
123	0x3cd42631	0.025897117
124	0x3d86fc54	0.065910965
125	0x3ca04349	0.019563334
126	0x3cf79088	0.030220285
127	0x3d86df4e	0.06585561
128	0x3d40a64b	0.04703359
129	0xbd39a8a4	-0.045326844
130	0xbd224d49	-0.039624486
131	0xbd203b08	-0.039118797
132	0x3d6f16c2	0.058371313
133	0x3c9f54f6	0.019449692
134	0xbcd7e58e	-0.026354577
135	0xbd07f362	-0.033191092
136	0xbcb9d33c	-0.022683732
137	0x3d1b86eb	0.037970465
138	0x3da84a50	0.08217299
139	0x3caaa27f	0.020829437
140	0x3cbd0128	0.02307184
141	0xbca4c405	-0.020113
142	0xbd608814	-0.054817274
143	0xbd325de5	-0.043546576
144	0x3d0b1438	0.03395483
145	0xbd09e5fb	-0.033666592
146	0x3cd882bc	0.026429527
147	0x3d17381d	0.03691875
148	0xbc8785df	-0.016543327
149	0xbd5cd3e3	-0.05391301
150	0xbd1482c1	-0.03625751
151	0x3da64615	0.08118836
152	0xbcb7d025	-0.022438118
153	0x3dfa5aae	0.12224327
154	0xbbbc7dc3	-0.0057522967
155	0x3d34efe4	0.04417409
156	0xbb2bcc04	-0.0026214132
157	0x3be41da3	0.006961541
158	0x3d1a8abf	0.037729975
159	0xbbeca93f	-0.007222324
160	0xbd0c7fdf	-0.034301635
161	0xbb4f1b36	-0.0031601912
162	0x3d5b20d4	0.053498104
163	0x3daf6100	0.08563423
164	0x3c42561f	0.011861353
165	0xbd06e1a1	-0.03293002
166	0x3ca3f674	0.020014979
167	0x3d2c9288	0.04213193
168	0xbdd4938f	-0.10379707
169	0xbd421e0a	-0.04739193
170	0xbbe5996a	-0.007006814
171	0x3d7f0469	0.062260065
172	0x3d3d052e	0.046147518
173	0x3c9b1ffe	0.018936154
174	0x3c6e392c	0.014539998
175	0x3d671829	0.056419525
176	0xbd0c7c1e	-0.034298055
177	0xbd25eaa5	-0.040506978
178	0x3dcc9501	0.09989358
179	0x3c9c37bc	0.019069545
180	0xbc7321de	-0.014839618
181	0xbcd418b3	-0.025890684
182	0xbd9a61bf	-0.07538175
183	0xbd632200	-0.055452347
184	0xbd025933	-0.03182335
185	0x3abc5b0b	0.0014370395
186	0xbc149ab8	-0.009070091
187	0xbd910ea6	-0.07082872
188	0x3d12d0b2	0.03584356
189	0x3d5fb11e	0.05461227
190	0x3c64c0d0	0.013961986
191	0x3d89cf49	0.0672899
192	0x3c6ae398	0.014336489
193	0xbb450460	-0.0030062422
194	0xbce95f5a	-0.02848785
195	0x3d285cf2	0.041104265
196	0x3d05dedb	0.032683235
197	0x3c7ad3e8	0.015309311
198	0x3bf535e2	0.00748323
199	0xbbbae7de	-0.0057039103
200	0x3d258788	0.040412456
201	0x3dadf792	0.08494486
202	0x3d462e16	0.048383795
203	0x3d8fb442	0.07016803
204	0x3d896c22	0.06710078
205	0x3a469138	0.000757474
206	0x3c6b1060	0.014347166
207	0xbcff6e0e	-0.031180408
208	0x3dda5341	0.10660411
209	0x3df48876	0.1194009
210	0xbd98ce25	-0.07461194
211	0x3ceb5984	0.028729208
212	0xbc2d96ca	-0.010595033
213	0x3d80bf38	0.06286472
214	0xbd6990d6	-0.057022892
215	0x3d2326f9	0.03983209
216	0x3e0b181f	0.1358342
217	0x3bd4ebeb	0.00649785
218	0x3d26bb4c	0.040705964
219	0x3d5d0eda	0.05396924
220	0x3d582467	0.05276909
221	0x3c8a429c	0.016877465
222	0x3d7abacd	0.061213303
223	0xb9e9d929	-0.0004460302
224	0xbbde5a38	-0.0067856573
225	0xbd0ea328	-0.034823567
226	0xbc57a778	-0.013162486
227	0x3e1a4ec0	0.15069103
228	0x3d79de5b	0.06100307
229	0x3d52f578	0.05150363
230	0xbabd6960	-0.001445096
231	0xbd26b078	-0.040695637
232	0xbd7af6da	-0.061270572
233	0x3dca4c40	0.09877825
234	0xbd0dacc3	-0.034588587
235	0xbcbd8683	-0.02313543
236	0xbd599d7d	-0.05312871
237	0x3ba57124	0.005048888
238	0xbcca9bbd	-0.024732465
239	0x3d1c847a	0.038212277
240	0xbc2ef7fc	-0.010679241
241	0xbbb533b8	-0.005529847
242	0x3d66597f	0.056237694
243	0xbd15371c	-0.03642951
244	0xbc9fcc72	-0.019506667
245	0x3c5eaad8	0.013590537
246	0xbd13092a	-0.03589741
247	0x3cbd5219	0.023110436
248	0xbcbeb28c	-0.023278497
249	0x3d207836	0.039177142
250	0xbd2d35da	-0.042287685
251	0x3b986b58	0.0046514682
252	0xbcdd46bc	-0.027011268
253	0xbd71815c	-0.058961257
254	0x3cff559e	0.031168755
255	0x3d0e34c2	0.034718283

fc2.bias f4 [300]
0	0x3b1378c9	0.0022502413
1	0x3d7a0959	0.06104407
2	0x3d68e0cc	0.056855008
3	0x3d0e3237	0.034715857
4	0xbd0a2c6d	-0.033733774
5	0x3d02aa70	0.031900823
6	0x3d33e4ab	0.043919247
7	0xb970f66b	-0.00022979981
8	0x3d073a3e	0.03301453
9	0x3b514177	0.003192989
10	0x3d577d33	0.052609634
11	0x3cda5962	0.02665395
12	0x3b8c5f52	0.004283824
13	0xbbe266c2	-0.0069092223
14	0xbc856b36	-0.016286474
15	0x3ca2e532	0.01988468
16	0xba2e8ab9	-0.00066582445
17	0xbb5f9786	-0.0034117415
18	0x3d8b8315	0.06812111
19	0x3d0407c7	0.03223398
20	0xbc4d6402	-0.012536051
21	0xbc946707	-0.018115534
22	0x3d2c2f76	0.04203745
23	0x3c0f5aff	0.0087497225
24	0x3cfcae48	0.030844823
25	0xbcaf4a78	-0.021397814
26	0x3d538d8a	0.051648654
27	0x3d117e0d	0.035520602
28	0xbcbfa2da	-0.023393083
29	0x3d2dd0cd	0.042435456
30	0x3d74346d	0.05962031
31	0x3d6545a8	0.055974633
32	0xbc6ed03c	-0.014576014
33	0x3c5be4c3	0.01342124
34	0x3bdc8afe	0.0067304363
35	0xbc62d3d8	-0.013844453
36	0x3d242d6b	0.040082376
37	0x3d8a4433	0.06751289
38	0x3d6a4310	0.057192862
39	0x3d5983c0	0.053104162
40	0x3c386aad	0.011255902
41	0x3c804c46	0.01566137
42	0x3d4c4264	0.049868003
43	0xbcbb2fb9	-0.022849904
44	0xbb9a2cd8	-0.004705053
45	0x3d166302	0.036715515
46	0x3d464454	0.048405007
47	0xbd2aa5ee	-0.04166215
48	0xbca22f38	-0.019797906
49	0x3b83e112	0.004024633
50	0x3d1230ba	0.035691
51	0x3ce782c5	0.028260598
52	0x3c05e467	0.008172131
53	0x3d138b58	0.03602156
54	0x3d165f9f	0.036712285
55	0x3a801600	0.0009772182
56	0x3c1e546d	0.009663683
57	0x3d54810e	0.05188089
58	0x3c232c52	0.009959297
59	0x3b2a9984	0.0026031444
60	0x3d46fd98	0.04858169
61	0x3d17adcd	0.037030984
62	0x3d4c54f9	0.049885724
63	0xbd3b735d	-0.045764316
64	0x3d34983e	0.044090502
65	0xbd354960	-0.04425943
66	0xbb27bfd6	-0.002559652
67	0x3a81ffca	0.000991815
68	0x3d7dc617	0.06195649
69	0x3c91ede3	0.017813629
70	0x3c777286	0.015102988
71	0x3d51f234	0.051256374
72	0xbd1332ee	-0.035937242
73	0x3d1d51b0	0.03840798
74	0x3cace5ad	0.021105612
75	0x3c8c25a4	0.017107792
76	0x3cfd270e	0.030902412
77	0x3d83fe29	0.064449616
78	0x3cfbf9c2	0.030758742
79	0xbc5cfe60	-0.013488382
80	0x3d08ab60	0.03336656
81	0xbb7cc27d	-0.0038568072
82	0xbca6bc78	-0.02035354
83	0xbd26a367	-0.040683176
84	0x3c9c13f8	0.01905249
85	0xbcdf4bf3	-0.027257895
86	0xbc902a21	-0.017598214
87	0x3dab2d47	0.08358245
88	0x3d5a7e50	0.053343117
89	0x3d6ff083	0.05857898
90	0x3d5e6188	0.05429223
91	0xbd0f50a0	-0.034989
92	0xbc890299	-0.016724871
93	0xbd033403	-0.032032024
94	0xba5b1ae0	-0.00083581917
95	0x3d2d47b5	0.042304713
96	0x3d8c05ed	0.06837068
97	0x3d42a0f2	0.04751677
98	0x3d1df17c	0.038560376
99	0xbc9f749d	-0.019464785
100	0xbcc5817a	-0.02410959
101	0x3d59364d	0.0530303
102	0x3cad09c8	0.021122828
103	0x3d24d4a6	0.04024186
104	0x3ccd75f0	0.025080651
105	0xbbaac9e9	-0.005212058
106	0x3d18df56	0.037322365
107	0xbcc05e22	-0.023482386
108	0xbc29ef9a	-0.010372067
109	0xbb1951ab	-0.0023394625
110	0xbc2e4477	-0.0106364405
111	0x3cf314b3	0.029672956
112	0xbc3223c8	-0.010872789
113	0x3d6083eb	0.054813307
114	0xbd3404d3	-0.043949913
115	0x3cd55782	0.026042704
116	0x3c73cced	0.014880401
117	0x3d821e31	0.06353415
118	0x3d3c25bc	0.045934424
119	0xbc91679a	-0.017749596
120	0xbcf1af4e	-0.029502537
121	0x3d893647	0.06699806
122	0x3c011938	0.007879548
123	0x3d1d1b15	0.038355906
124	0x3cb22bb3	0.021749353
125	0x3c41a75a	0.011819685
126	0x3d323446	0.043506883
127	0xbbf3cd58	-0.0074402504
128	0x3d52e385	0.05148651
129	0x3ba42376	0.00500911
130	0xbbd68f12	-0.006547817
131	0x3cbb5c24	0.022871085
132	0xbbb1e791	-0.005429216
133	0xbbbfb0fa	-0.0058499547
134	0x3cf383aa	0.029725868
135	0x3cc3831c	0.023866229
136	0x3c22df85	0.0099409865
137	0x3d4c6bb8	0.049907416
138	0x3d52c993	0.051461767
139	0x3d75c993	0.06000669
140	0x3d45fc83	0.048336517
141	0x3d07fdc9	0.033201013
142	0x3bda4128	0.0066605993
143	0x3b6a13eb	0.0035717438
144	0xbcb0b6ca	-0.021571536
145	0x3da609fb	0.081073724
146	0xbc2d174c	-0.010564636
147	0xbd0c4267	-0.034243014
148	0xbcbd2f78	-0.023093924
149	0x3d8812d3	0.066442154
150	0x3d79481c	0.060859784
151	0x3d82a716	0.06379525
152	0xbc964eeb	-0.018348178
153	0xbb929876	-0.004473741
154	0x3d7a6e6f	0.061140474
155	0x3d003224	0.031297818
156	0x3cb34e41	0.0218879
157	0x3d9b6ff0	0.0758971
158	0x3d333e8d	0.043760825
159	0x3cf9fe32	0.030516718
160	0x3da31e6f	0.07964789
161	0x3d2bd640	0.04195237
162	0xbcf5d057	-0.03000657
163	0xbc72b380	-0.014813304
164	0xbd443861	-0.04790533
165	0x3d42542a	0.047443546
166	0x3cc4389f	0.02395278
167	0x3c518c04	0.01278973
168	0x3da41593	0.080119275
169	0xbca287bd	-0.019840116
170	0x3d7b2f8e	0.06132465
171	0x3ce4c348	0.027925149
172	0xbd03d7a9	-0.03218809
173	0x3d335759	0.043784473
174	0xbc4f598c	-0.012655627
175	0xbce54157	-0.027985258
176	0xbd43476b	-0.04767553
177	0x3d632149	0.055451665
178	0xbd1140fa	-0.035462357
179	0x3c270fc7	0.010196633
180	0xbd0dcc46	-0.03461864
181	0x3d45efe2	0.048324473
182	0xbccce6d3	-0.02501241
183	0x3d38110b	0.04493813
184	0x3d4a0116	0.049317442
185	0x3c0aa4c1	0.008462132
186	0x3d7bc228	0.06146446
187	0x3cd69fdb	0.026199272
188	0xbc742d6e	-0.014903409
189	0x3cef1ba7	0.02918799
190	0x3d44cca5	0.048046727
191	0x3c6cbcd4	0.014449317
192	0x3d342f95	0.04399069
193	0x3d1f843c	0.038944468
194	0xbc724473	-0.014786827
195	0x3d7430a8	0.059616715
196	0x3b55b20d	0.0032607347
197	0x3c5a4a0f	0.013323321
198	0x3d1e7dab	0.038694065
199	0xb8c9e502	-9.627083e-05
200	0x3d6c4fb5	0.057693202
201	0x3d328397	0.043582525
202	0xbc75a1d6	-0.014992198
203	0xbc9dfa21	-0.01928431
204	0x3d73ea4c	0.059549615
205	0x3cbee5bf	0.02330291
206	0x3cc14e4d	0.023596907
207	0x3c88f7f1	0.01671979
208	0x3d0c1256	0.034197174
209	0xbcdbc119	-0.026825475
210	0xbbc7fdb2	-0.006103241
211	0xbbc2fd18	-0.0059505813
212	0xba80ef60	-0.0009836964
213	0x3c65dc6a	0.014029602
214	0xbbfa7a61	-0.0076439832
215	0xbc315488	-0.0108233765
216	0xbbf1e5df	-0.007382139
217	0xbc11d7f7	-0.008901588
218	0x3bfab433	0.007650876
219	0x3a29f5ec	0.00064834836
220	0xbc2d8fec	-0.010593396
221	0x3bcf0f31	0.0063189496
222	0xbc637722	-0.013883384
223	0xbca3c627	-0.019991947
224	0xbd37ba3f	-0.044855352
225	0x3b3ca9af	0.0028787663
226	0x3c855f5b	0.01628082
227	0xbd45dd7a	-0.04830692
228	0x3b0cd4af	0.0021489074
229	0xbcf76cca	-0.030203242
230	0x3d2fd3fb	0.04292677
231	0x3ced2570	0.028948516
232	0x3c470647	0.012147493
233	0x3d0279f4	0.031854585
234	0x3ca98157	0.020691557
235	0x3d1ee9a3	0.038797032
236	0x3d37bfec	0.044860765
237	0x3d6526e5	0.055945296
238	0xbd03ffcc	-0.03222637
239	0x3d15bd58	0.036557525
240	0xbc5fdfd4	-0.013664205
241	0xbd195bef	-0.03744119
242	0xbd06a35d	-0.03287064
243	0x3c90ca52	0.017674599
244	0x3c88bfb8	0.016692981
245	0xbd2e4a8e	-0.04255157
246	0x3cb1bf02	0.021697525
247	0xbd4ca743	-0.0499642
248	0x3c8eb49f	0.017420111
249	0x3ca39e71	0.019973012
250	0x3c811306	0.015756141
251	0x3d459a79	0.04824302
252	0x3cc39b79	0.023877846
253	0x3d810d32	0.06301345
254	0x3ca87559	0.020563768
255	0x3c2bde58	0.010490023

fc3.weight f4 [300, 300]
0	0x3c785233	0.015156317
1	0x3d9d8f6b	0.076933704
2	0x3cd4468c	0.025912546
3	0xbd348045	-0.04406764
4	0xbd0bdda8	-0.034146935
5	0xbda60996	-0.08107297
6	0xbd00e61a	-0.031469442
7	0xbd6976ee	-0.056998186
8	0xbae2e9bb	-0.0017312089
9	0xbd2f56f3	-0.04280753
10	0xbce80b8d	-0.02832582
11	0xbd2ac8ac	-0.041695282
12	0xbd830f9b	-0.06399461
13	0x3d08aa05	0.03336527
14	0xbd132093	-0.035919737
15	0x3d7d4a90	0.061838686
16	0x3d5cb58f	0.053884085
17	0x3d4b3a9b	0.049616437
18	0x3d443cbe	0.04790949
19	0xbd525336	-0.051348887
20	0xbd0701b7	-0.03296062
21	0xbcb828fe	-0.022480484
22	0xbcebb8fe	-0.028774735
23	0x3dcfe9f1	0.10152043
24	0xbd770a31	-0.060312454
25	0xbd2e3b68	-0.042537123
26	0xbcb7acaa	-0.0224212
27	0x3c926b12	0.01787332
28	0x3b2a0090	0.0025940277
29	0xbdb645f7	-0.089000635
30	0x3d10c6ce	0.035345845
31	0xbbdd1ca4	-0.006747799
32	0x3ccf329d	0.025292689
33	0x3d76da1f	0.06026661
34	0x3da3eb18	0.08003825
35	0xbcb4124c	-0.02198138
36	0x3b7b4b1b	0.0038344327
37	0xbcce0573	-0.025149083
38	0x3d3869d2	0.045022793
39	0xbd78492b	-0.060616653
40	0xbd253452	-0.0403331
41	0xbd645b2f	-0.055751022
42	0x3cbf7b3b	0.02337419
43	0x3d4b2fd1	0.04960615
44	0x3bad8730	0.0052956566
45	0xbda956d1	-0.08268512
46	0x3d1d4f16	0.0384055
47	0xbc991341	-0.018685939
48	0xbc90af81	-0.017661812
49	0x3cc3ba34	0.0238925
50	0x3cf2a60e	0.029620197
51	0x3cee2d79	0.029074417
52	0x3dcde36c	0.10053143
53	0xbdcd8670	-0.100354075
54	0x3d794b2b	0.0608627
55	0x3d5b8c0e	0.053600363
56	0xbdb971fc	-0.09054944
57	0xbcee03b6	-0.029054504
58	0xbd04f5ee	-0.0324611
59	0x3dc52100	0.09625435
60	0x3d3a5d6e	0.045499258
61	0x3d47380f	0.048637446
62	0xbcf7e218	-0.030259177
63	0x3d300278	0.042971104
64	0xbd09683b	-0.033546668
65	0x3da257c7	0.079268984
66	0x3d66c3e0	0.056339145
67	0xbd0101a6	-0.031495713
68	0xbd1c7e8b	-0.03820662
69	0x3d3c0bb5	0.045909602
70	0xbc926dc9	-0.017874615
71	0xbca768e7	-0.020435764
72	0xbb19dee0	-0.002347879
73	0xbd262a7e	-0.040567867
74	0x3beda68d	0.0072525204
75	0xbde65084	-0.11245826
76	0xbc56dac9	-0.013113686
77	0x3ce63eaf	0.028106062
78	0xb842d81d	-4.6454476e-05
79	0xbd59d7c0	-0.05318427
80	0x3d8bfefa	0.06835742
81	0xbc2d121d	-0.010563401
82	0x3ce5c5ce	0.028048422
83	0x3c75e978	0.015009277
84	0x3ccf2ea1	0.02529079
85	0x3aa933e0	0.0012909137
86	0xbc9b9a0e	-0.018994357
87	0xbcfb8f3a	-0.030707944
88	0x3cc733b3	0.024316644
89	0x3d0193bd	0.031635035
90	0x3ce5a9a0	0.028034985
91	0x3d101318	0.03517446
92	0xbd244392	-0.040103503
93	0x3db1eec8	0.08688122
94	0xbbef5714	-0.0073040817
95	0xbd2e0c7d	-0.04249238
96	0x3d181084	0.037125126
97	0xbd9034a6	-0.07041292
98	0xbd8cc051	-0.06872619
99	0x3d84e151	0.06488288
100	0x3e067cc8	0.13133538
101	0x3d59a4ba	0.05313561
102	0xbc8fd065	-0.017555425
103	0x3c9677c8	0.018367663
104	0x38d90827	0.00010348885
105	0xbde085ea	-0.10963042
106	0xbc8fe666	-0.017565917
107	0xbc5b55e9	-0.013387182
108	0x3d2fe998	0.04294738
109	0x3bd2ab45	0.0064291083
110	0xbc9a22ab	-0.01881536
111	0x3cd408bb	0.02588307
112	0xbd3bc477	-0.04584166
113	0xbd0432d2	-0.03227503
114	0xbc182e18	-0.009288333
115	0xbc4ac3db	-0.012375797
116	0x3d8b9e5b	0.06817313
117	0x3d2a35c7	0.041555192
118	0x3cc631c2	0.024193648
119	0x3c9c7ca9	0.019102411
120	0xbd13ff6e	-0.03613227
121	0x3d1b145e	0.03786122
122	0xbcd0b58a	-0.02547719
123	0xbe06a5d8	-0.13149202
124	0x3bafbf06	0.005363348
125	0x3d6b0ebc	0.0573871
126	0x3cb7093e	0.022343274
127	0x3cb9f290	0.02269867
128	0x3d364735	0.044501502
129	0x3d711654	0.058859184
130	0xbb56b6ba	-0.0032762722
131	0x3c498359	0.012299382
132	0xbd198511	-0.037480418
133	0xbce8daad	-0.028424585
134	0xbd21a14b	-0.03946046
135	0xbdaa3fd0	-0.083129525
136	0xbcdd9fd4	-0.027053751
137	0x3d28ce29	0.041212235
138	0x3d19ca2c	0.03754632
139	0xba219bb8	-0.00061648665
140	0xbcfcd39b	-0.03086262
141	0x3db34fa5	0.08755425
142	0xbc6b7edc	-0.014373507
143	0x3d206338	0.039157122
144	0xbd232dde	-0.039838664
145	0xbdd326fa	-0.103101686
146	0x3d44c79c	0.048041925
147	0x3c6183aa	0.013764301
148	0x3d440b02	0.04786206
149	0x3b8d160d	0.004305607
150	0xba8ea66a	-0.0010883335
151	0xbd5569de	-0.052102916
152	0x3d8fd6d3	0.07023396
153	0x3d75582f	0.05989855
154	0xbcdc9ebc	-0.02693116
155	0x3d03f867	0.032219317
156	0x3cf8fc1a	0.030393649
157	0xbd87605e	-0.066101775
158	0x3c28d1f2	0.010303961
159	0x3d61de33	0.055143546
160	0xbc0d6638	-0.008630328
161	0x3c3dd8dd	0.011587349
162	0x3b1702f0	0.0023042522
163	0x3b9fa490	0.0048719123
164	0xbc30510d	-0.0107615115
165	0xbaa4dba3	-0.0012577664
166	0x3d02ac3c	0.031902537
167	0x3d150332	0.03638
168	0xbceb9c9d	-0.028761202
169	0x3cb25e48	0.021773472
170	0xbc96b623	-0.018397396
171	0x3d43f574	0.047841504
172	0x3d4498be	0.04799723
173	0x3c0a24e2	0.008431645
174	0xbd29ad65	-0.041425128
175	0x3dd69ec3	0.104795
176	0xbcd1b568	-0.025599197
177	0xbca8289d	-0.020527178
178	0xbd5a5b59	-0.053309772
179	0x3d59d5cf	0.05318242
180	0x3ce3e04b	0.027816912
181	0xbcccea9c	-0.025014214
182	0x3d3ae4f6	0.04562851
183	0x3d3774fa	0.044789292
184	0xbb0cac6a	-0.0021465071
185	0x3caa05b3	0.02075467
186	0xbdce1263	-0.10062101
187	0xbcda069b	-0.026614478
188	0x3d85f085	0.06540016
189	0x3d958d2d	0.07302318
190	0xbb9c0177	-0.004760917
191	0x3c925d71	0.017866822
192	0x3cde8a34	0.02716551
193	0xbd19314b	-0.037400525
194	0x3b85d8fe	0.0040847054
195	0xbd7307c4	-0.059333578
196	0x3cf47d2f	0.029844848
197	0x3cd7017b	0.026245823
198	0xbc74bb2c	-0.014937203
199	0xbcd8c842	-0.026462678
200	0x3d313c21	0.043270234
201	0x3b8d2cd5	0.004308323
202	0x3d91d0f3	0.07119932
203	0x3c817b0c	0.015805744
204	0xbb3f2630	-0.0029167049
205	0xbd4685f2	-0.048467584
206	0x3b32b821	0.0027270394
207	0xbdc13122	-0.094331995
208	0x3d105302	0.035235412
209	0x3d2b49e8	0.04181853
210	0xbc94b191	-0.018151077
211	0xbc9988e8	-0.01874204
212	0xbd6a0afe	-0.05713939
213	0x3d60906c	0.05482523
214	0xbcba2fa9	-0.022727804
215	0x3c951720	0.018199503
216	0xbca41148	-0.020027772
217	0xbdb55ed6	-0.08855979
218	0xbd0a92f1	-0.03383154
219	0x3c485ca3	0.012229118
220	0x3cca9791	0.024730476
221	0x3e013643	0.12618355
222	0xbd36f341	-0.04466558
223	0x3c5378c0	0.012907207
224	0x3d3c598c	0.045983836
225	0xbada3c63	-0.0016650077
226	0x3d3e3021	0.046432618
227	0xbd2d5c1b	-0.042324167
228	0xba686aae	-0.0008865994
229	0x3c9d4ab1	0.019200655
230	0xbc92c94d	-0.017918253
231	0xba147046	-0.0005662482
232	0x3c68aabb	0.014200862
233	0xbd00780f	-0.031364497
234	0xbc91e3e9	-0.017808871
235	0x3d14b433	0.036304664
236	0xbd690d0d	-0.05689721
237	0xbc931850	-0.017955929
238	0xbcc18c1a	-0.023626376
239	0x3d9159e0	0.070972204
240	0xbd17a579	-0.03702304
241	0x3c8ea23c	0.017411344
242	0x3d6105f5	0.05493732
243	0xbd71ca66	-0.059030913
244	0xbd3906df	-0.04517257
245	0xbd000014	-0.031250075
246	0xbd205947	-0.03914764
247	0xbda0da6a	-0.07854159
248	0xb9e3faf4	-0.0004348379
249	0x3c83460d	0.016024614
250	0xbdb392fc	-0.087682694
251	0x3cf10d63	0.029425329
252	0xbc11f925	-0.008909498
253	0x3d614800	0.055000305
254	0x3d018f71	0.031630937
255	0x3cc8c728	0.024509028

fc3.bias f4 [300]
0	0x3b3b2d40	0.0028560907
1	0x3d26450c	0.040593192
2	0xbc882ec5	-0.016623864
3	0xbd3f63fe	-0.04672622
4	0x3cf9476a	0.03042956
5	0x3d6542ac	0.055971786
6	0xbd448c0c	-0.04798512
7	0x3c9e21e4	0.01930327
8	0xbc667a42	-0.0140672345
9	0x3c2e89fa	0.010653013
10	0xbbc6e3c9	-0.0060696346
11	0x3d6b23a4	0.057407036
12	0x3d8bce6c	0.06826481
13	0xbc50a012	-0.012733476
14	0x3d43cf38	0.04780504
15	0x3d55a7a7	0.05216184
16	0x3ce33ef1	0.027739974
17	0x3d8009ae	0.06251846
18	0x3d8c42f4	0.06848708
19	0x3c529e3c	0.012855109
20	0x3cf8f67d	0.030390972
21	0x3d806262	0.06268765
22	0x3c9d74aa	0.019220669
23	0x3c0db29f	0.008648544
24	0x3d6cde87	0.057829406
25	0x3c44bc97	0.012007854
26	0xbb235940	-0.0024925023
27	0xbcde99de	-0.027172979
28	0x3ca951eb	0.020668944
29	0xbd05af3b	-0.032637816
30	0x3d27de58	0.040983528
31	0xbc43b6d4	-0.011945445
32	0xbb8352a5	-0.0040076547
33	0xbcb68f64	-0.02228517
34	0x3d5e3cf2	0.05425734
35	0xbc13fb8d	-0.009032142
36	0x3d7499ba	0.059716918
37	0x3ccb23ba	0.02479731
38	0xbcef8bbb	-0.029241433
39	0xbc81a1b6	-0.01582418
40	0xbd085371	-0.0332827
41	0x3d00fe3c	0.031492457
42	0xbcc03ace	-0.02346554
43	0x3d81fef9	0.0634746
44	0xba93d555	-0.0011278788
45	0xbcf7ae04	-0.030234344
46	0x3bc9ec6c	0.006162217
47	0x3cdd1e40	0.026991963
48	0x3d21c870	0.039497793
49	0x3d61970f	0.0550757
50	0xbcbefd4b	-0.023314139
51	0xb9b9508d	-0.00035345965
52	0xbcd6bc34	-0.02621279
53	0x383a7e1b	4.44633e-05
54	0xbd055fe9	-0.03256217
55	0x3d5647ee	0.05231469
56	0x3d5093a5	0.050922055
57	0x3d2e7c4c	0.042599007
58	0xbc73faa1	-0.014891298
59	0xbc53c4cb	-0.012925337
60	0xbd13ca25	-0.036081452
61	0xbcd4dda3	-0.02598459
62	0x3d6b19c0	0.057397604
63	0xbcb7b8d8	-0.022427008
64	0xbd24e377	-0.04025599
65	0xbb9fd8cd	-0.0048781396
66	0x3d08541e	0.033283345
67	0x3c7a9f52	0.015296774
68	0x3ceae73b	0.028674712
69	0xbd12a5a0	-0.035802484
70	0x3d3127b6	0.043250762
71	0x3d30f9a3	0.043206822
72	0x3c82f93c	0.015987985
73	0x3d908d41	0.07058192
74	0x3d1c07ad	0.038093258
75	0xbd0bebd9	-0.03416047
76	0x3adb46e6	0.0016729503
77	0xbaff73e4	-0.0019489494
78	0x3d190fe8	0.037368685
79	0x3cc48072	0.023987029
80	0x3dc0cf65	0.09414557
81	0xbcd775a0	-0.026301205
82	0xbc0fe103	-0.008781674
83	0x3cb026e5	0.021502921
84	0xbd110554	-0.035405472
85	0x3bf5a480	0.0074964166
86	0x3d0a6564	0.0337881
87	0xbab045e4	-0.0013448563
88	0xbd314222	-0.04327596
89	0x3d4c4708	0.04987243
90	0x3d3747d3	0.04474623
91	0x3c4fd724	0.012685571
92	0x3cddf239	0.02709304
93	0x3b973666	0.004614639
94	0x3d4b04ff	0.04956531
95	0x3d7a24cb	0.061070245
96	0xbd0f48f8	-0.034981698
97	0x3ba8962b	0.0051448545
98	0xbd37b94e	-0.044854455
99	0x3a6d925c	0.0009062642
100	0xbc15c4a4	-0.009141121
101	0x3c1bee4f	0.009517266
102	0x3d490cbb	0.049084406
103	0x3d8a6027	0.06756621
104	0x3c157c8f	0.009123935
105	0xbc0d3ba1	-0.008620174
106	0x3d1418de	0.036156528
107	0x3ae69621	0.0017592349
108	0x3d4e2804	0.05033113
109	0x3d3e6a13	0.04648788
110	0x3d0b9778	0.03408
111	0x3d24d700	0.040244102
112	0x3a7cf422	0.0009649416
113	0xbd19bffe	-0.037536614
114	0x3d01336c	0.03154318
115	0x3d29575d	0.04134308
116	0xbb3e2380	-0.002901286
117	0x3bc7f744	0.0061024744
118	0xbd04de1d	-0.032438386
119	0xbcbfc187	-0.02340771
120	0x3d204074	0.039123967
121	0x3d1e8a7b	0.038706284
122	0x3d749fd7	0.059722748
123	0x3d85af79	0.065276094
124	0x3d2f3d59	0.042783115
125	0x3c084b4f	0.008318736
126	0x3d358aab	0.044321697
127	0x3d131dd8	0.035917133
128	0xbd1f88e8	-0.038948923
129	0x3cc5770b	0.024104616
130	0x3d50a3b7	0.05093738
131	0xbce41180	-0.027840376
132	0x3d6efc43	0.058346044
133	0xbc814d9c	-0.015784077
134	0x3d443c7a	0.047909237
135	0x3d65d107	0.056107547
136	0x3c52b528	0.012860574
137	0xbc6c1fb8	-0.014411859
138	0x3d83a6c7	0.06428295
139	0xbd12ef99	-0.03587303
140	0xbd35cbc7	-0.04438379
141	0xbcbd1a52	-0.02308384
142	0x3c2b4e43	0.010455671
143	0xbd18c818	-0.0373002
144	0xbcbfc87a	-0.023411024
145	0xbc566ca9	-0.01308743
146	0x3cacee00	0.021109581
147	0x3c2a325e	0.010387985
148	0xbb7a75ad	-0.0038217113
149	0x3d2802aa	0.041018166
150	0xbd2c6f3d	-0.042098273
151	0x3c931c53	0.017957842
152	0x39be3e4b	0.00036286036
153	0xbc9458e4	-0.018108793
154	0xbce36118	-0.027756259
155	0x3cc02af4	0.023457982
156	0xbca7c883	-0.020481354
157	0x3bd8324e	0.0065977937
158	0x3d2b6c14	0.04185112
159	0x3c392940	0.011301339
160	0xbcbe03b7	-0.02319513
161	0xbcda147a	-0.026621092
162	0x3c8b4bb5	0.017003873
163	0x3d04d78a	0.032432117
164	0x3cbf9d98	0.023390576
165	0x3c57c609	0.013169774
166	0x3d51968e	0.05116897
167	0x3d46893e	0.048470728
168	0xbcef42a8	-0.029206589
169	0x3c1ab675	0.009442915
170	0x3beb0c42	0.007173092
171	0xbca20b18	-0.01978068
172	0x3d5e2d6c	0.054242536
173	0x3d4933ea	0.049121775
174	0x3bde924e	0.006792343
175	0x3c9e5a2c	0.019330107
176	0x3d38ceaa	0.045118965
177	0x3d194d81	0.03742743
178	0x3d64f434	0.055896953
179	0x3d034446	0.032047532
180	0x3b4c9b2a	0.0031220415
181	0xbd19575c	-0.037436828
182	0x3ad20448	0.0016023004
183	0xbcb38438	-0.021913633
184	0xbc2bb10c	-0.010479223
185	0x3b9bf381	0.0047592525
186	0x3d80868d	0.062756635
187	0xbd2995f2	-0.041402765
188	0x3cc5bd1e	0.02413803
189	0xbd09e7fc	-0.033668503
190	0xbd2b1b21	-0.04177392
191	0x3ce787cd	0.028262997
192	0xbbd4da99	-0.0064957854
193	0x3d3cbde6	0.04607954
194	0x3c0d37a1	0.00861922
195	0x3d2f31dc	0.04277216
196	0x3d00ab54	0.03141339
197	0x3d3fa7fd	0.046791065
198	0x3cfa0288	0.030518785
199	0x39806fe8	0.0002449744
200	0x3c9cc427	0.019136501
201	0x3d84963b	0.06473967
202	0xbba55400	-0.005045414
203	0xbc82f66b	-0.015986642
204	0x3d492946	0.049111627
205	0x3d7dfd0a	0.062008895
206	0x3d59c7d2	0.05316908
207	0xbd002d48	-0.031293184
208	0xbc68092a	-0.014162341
209	0x3cfe3b14	0.03103403
210	0x3a85ee75	0.001021816
211	0x3cc2ff10	0.023803264
212	0x3d63dd6e	0.055631094
213	0x3c8503bf	0.016237138
214	0x3b78cfbf	0.0037965623
215	0xbac22e92	-0.0014814904
216	0x3cdb3018	0.026756331
217	0x3d853c38	0.065056264
218	0xbbdc01e6	-0.0067140935
219	0xbd426c90	-0.047466815
220	0x3d038abd	0.032114733
221	0x3d577612	0.052602835
222	0xb9109f3f	-0.00013792234
223	0x3ceb56d9	0.028727936
224	0x3d130ded	0.035901953
225	0x3d22b1f0	0.039720476
226	0xbc9540db	-0.018219402
227	0xbcccc89e	-0.024998005
228	0xbd084e52	-0.033277817
229	0x3d84988e	0.0647441
230	0xbbfe2d00	-0.0077568293
231	0x3cc95bc0	0.024579883
232	0x3d402383	0.046908867
233	0x3c559f15	0.013038416
234	0x3c7832e4	0.015148852
235	0x3c6c6b42	0.014429869
236	0xbcda2395	-0.026628295
237	0x3c63afd6	0.013896903
238	0x3cec8ebb	0.028876653
239	0x3d0d11a8	0.034440666
240	0x3d15579c	0.036460504
241	0x3cee720c	0.029107116
242	0x3d11debc	0.035612807
243	0x3d48f50d	0.049061824
244	0xbcb4ecea	-0.022085626
245	0xbd80580e	-0.06266795
246	0xbcbd8c74	-0.023138262
247	0x3d16b178	0.03679034
248	0xbd1eb1c6	-0.038743757
249	0xbc93782f	-0.018001644
250	0xbd16771f	-0.036734696
251	0x3da0e2b5	0.07855741
252	0x3c51689f	0.012781291
253	0xbd363b83	-0.04449035
254	0x3c3fb3c7	0.011700577
255	0x3da59430	0.08084905

fc4.weight f4 [3, 300]
0	0xbd2b4bb2	-0.041820236
1	0xbd3261f2	-0.04355044
2	0xbd3a8231	-0.045534316
3	0xbd171063	-0.036880862
4	0xbd1d9e08	-0.03848079
5	0xbdbc55e8	-0.09196073
6	0xbb04b92f	-0.002025198
7	0xbcf60902	-0.030033592
8	0xbc4160cd	-0.011802864
9	0xbd43770c	-0.047720954
10	0xbd7126c7	-0.05887487
11	0xbd5ba702	-0.053626068
12	0xbd988cee	-0.07448755
13	0xbd4db2c5	-0.050219316
14	0xbcfa46d7	-0.030551357
15	0xbd6806bf	-0.05664706
16	0xbd41e20b	-0.047334712
17	0xbd42428c	-0.047426745
18	0xbd860390	-0.06543648
19	0xbd231f59	-0.039824817
20	0xbd4d0dac	-0.050061867
21	0xbd898129	-0.067140885
22	0xbd19ff65	-0.03759708
23	0xbd38482e	-0.04499071
24	0xbd22b46c	-0.039722845
25	0xbd2812e5	-0.041033644
26	0xbccbd361	-0.024881067
27	0xbd384c34	-0.044994548
28	0xbcf339a8	-0.029690579
29	0xbc17a24b	-0.009255002
30	0xbbdbcf62	-0.0067080716
31	0xbaed4996	-0.0018103595
32	0xbd2cb278	-0.04216239
33	0xbac9a6e2	-0.0015384818
34	0xbd3f50d4	-0.046707943
35	0xbdb776eb	-0.08958229
36	0xbd3b4d59	-0.04572806
37	0xbcf3429b	-0.029694846
38	0xbd155a97	-0.036463346
39	0xb9e98432	-0.00044539716
40	0xbd83fedf	-0.06445097
41	0xbd0c4b30	-0.034251392
42	0xbd8bd616	-0.06827943
43	0xbd71fb6c	-0.059077665
44	0xbdbee8d3	-0.093217514
45	0xbd5c1e9f	-0.05374014
46	0xbd4aeabd	-0.04954027
47	0xbad8c38a	-0.0016537767
48	0xbb92bcf5	-0.004478092
49	0xbd6a5d03	-0.05721761
50	0xbb09b9c3	-0.0021015264
51	0xbd8a6682	-0.06757833
52	0xbd328745	-0.043586034
53	0xbcce2613	-0.02516464
54	0xba90a57b	-0.0011035645
55	0xbd85e2f6	-0.0653743
56	0xbd287750	-0.04112941
57	0xbd91e56f	-0.07123839
58	0xbcfd5081	-0.030922176
59	0xbc6aa699	-0.014321947
60	0xbd84b146	-0.06479125
61	0xbcf09b7f	-0.029371021
62	0xbd2f9502	-0.042866714
63	0x382bdcb8	4.0975137e-05
64	0xbd3e2b43	-0.046427976
65	0xbd72523b	-0.059160452
66	0xbd43b6f8	-0.047781914
67	0xbda0a8e0	-0.0784471
68	0xbc2d7119	-0.010586047
69	0x3a348ff8	0.0006887908
70	0xbd34f0b9	-0.044174884
71	0xbdb843b5	-0.08997289
72	0xbb19911f	-0.0023432446
73	0xbd958de2	-0.073024526
74	0xbd3fc966	-0.046822928
75	0xbd277364	-0.04088153
76	0xbc5840a2	-0.013199003
77	0xbd43289c	-0.04764615
78	0xbd4dbb20	-0.050227284
79	0xbc774cae	-0.015093965
80	0xbd4e2b21	-0.0503341
81	0xbd44a3d8	-0.048007816
82	0xbd275a2c	-0.04085748
83	0xbd2045d4	-0.039129093
84	0x3984f3dd	0.00025358694
85	0x3b3ac668	0.0028499607
86	0xbd2f1969	-0.042748842
87	0xbd431f34	-0.04763718
88	0xbd17be17	-0.03704652
89	0xbd21b6e6	-0.039481066
90	0xbd565884	-0.05233051
91	0xbd4108dd	-0.047127593
92	0xbd849ae0	-0.064748526
93	0xbcd07583	-0.025446659
94	0xbd54f8cb	-0.05199508
95	0xbd3beca6	-0.045879982
96	0xba0e90cc	-0.00054384465
97	0xbd7c2182	-0.061555393
98	0x3ad56134	0.0016279579
99	0xbd5d6d58	-0.054059356
100	0xbb1394a4	-0.0022519017
101	0xbd399a14	-0.045312956
102	0xbc3dd799	-0.011587047
103	0xbd4f95ae	-0.050679855
104	0xbd89e3b0	-0.06732881
105	0xbcfb1b00	-0.030652523
106	0xbd1d0b0d	-0.038340617
107	0xbd625a35	-0.05526181
108	0xbd1b4b71	-0.037913743
109	0xbd920135	-0.071291365
110	0xbd0d35f9	-0.0344753
111	0xbd7f4ece	-0.062331013
112	0xbd23e360	-0.040011764
113	0xbc6208c2	-0.013796033
114	0xbb908ff6	-0.0044116927
115	0xbd2ba7fe	-0.041908257
116	0x3a6d3368	0.00090484926
117	0xbd0a291e	-0.03373062
118	0xbc04f713	-0.008115548
119	0xbd8198d8	-0.06327981
120	0xbb1a5d7a	-0.0023554252
121	0xbd5e2250	-0.05423194
122	0xbd73ba43	-0.059503805
123	0xbd66ce11	-0.056348864
124	0xbd5b32bd	-0.053515185
125	0xbd89ee3b	-0.06734892
126	0xbd20a015	-0.039215166
127	0xbd1a7702	-0.03771115
128	0xbdae1fba	-0.08502145
129	0xbd22b3da	-0.0397223
130	0xbd704ad3	-0.058665108
131	0xbd91d589	-0.07120807
132	0xbd0947e8	-0.03351584
133	0x3ac261f0	0.0014830213
134	0xbd38d008	-0.04512027
135	0xbd6c5fa1	-0.057708386
136	0x39cdcf10	0.0003925492
137	0xbcd70354	-0.026246704
138	0xbd684a23	-0.056711327
139	0xbd210ff5	-0.03932186
140	0xbb2a90d8	-0.0026026275
141	0xbd3a2c25	-0.045452256
142	0xbd680920	-0.056649327
143	0xba6288f4	-0.00086416234
144	0x3b19b158	0.0023451652
145	0xbd7f5a0f	-0.062341746
146	0xbd3eac96	-0.04655131
147	0xbd34feab	-0.044188183
148	0xbd9ae964	-0.07564047
149	0xbd8e351f	-0.06943726
150	0xbd29e242	-0.041475542
151	0xbcfa1d20	-0.030531466
152	0xbd71ee99	-0.059065435
153	0x3b4218ce	0.0029616836
154	0xbabae5af	-0.0014259125
155	0xbd8c91e5	-0.06863765
156	0xbd890e56	-0.066921875
157	0xbd07c6e4	-0.03314866
158	0xbd17e3ec	-0.037082598
159	0xbd353d48	-0.044247895
160	0xbc754c5c	-0.014971819
161	0xbd335fd7	-0.043792572
162	0xbd66ada7	-0.05631795
163	0xbd104b97	-0.035228338
164	0xbd30322d	-0.0430166
165	0xbd339979	-0.043847535
166	0x3b6d91ec	0.0036250306
167	0xbd366a72	-0.044535108
168	0xbb29e172	-0.002592173
169	0xbd1a5a0c	-0.03768353
170	0xbd380d03	-0.044934284
171	0xbabee6d5	-0.0014564643
172	0xbdd0b08c	-0.10189924
173	0xbd9694e9	-0.07352621
174	0xbd6cea09	-0.05784038
175	0x39ed1f18	0.0004522733
176	0xbd418a70	-0.047251165
177	0xbd5e9b84	-0.05434753
178	0xbd258dc3	-0.040418398
179	0xbd3e5851	-0.046470944
180	0xbd3020ce	-0.043000035
181	0x3a98fa3c	0.0011671255
182	0xbd17a14a	-0.03701905
183	0xbd288635	-0.041143615
184	0xbae2ce8a	-0.0017303985
185	0xbc9bb365	-0.01900644
186	0xbd493128	-0.049119145
187	0xbd38bf19	-0.04510412
188	0xbd32503f	-0.04353356
189	0xbd3b16bc	-0.045675978
190	0xbd16850f	-0.03674799
191	0xbc18941f	-0.009312659
192	0xbcf13e7e	-0.029448744
193	0xbd393a9e	-0.045221917
194	0xbcac3e22	-0.021025721
195	0xbd333758	-0.04375395
196	0xbd7e9097	-0.06214961
197	0xbd1efacf	-0.03881341
198	0xbcd059bf	-0.02543342
199	0xbcd71d61	-0.026259126
200	0xbd2a49f9	-0.041574452
201	0xbd9d3512	-0.07676138
202	0xba964a88	-0.0011466304
203	0xbd5dfda9	-0.054196987
204	0xbdb7dadc	-0.08977291
205	0xbd27eee5	-0.040999312
206	0xbd87d6b3	-0.066327475
207	0xbd405cdf	-0.04696357
208	0xbd2fb132	-0.042893596
209	0xbd3ba38a	-0.04581026
210	0xbd47d1f1	-0.0487842
211	0x3aa4bad8	0.0012567891
212	0xbdb50a54	-0.088398606
213	0xbd11e03e	-0.035614245
214	0xbcf319a8	-0.02967532
215	0xbd74d7eb	-0.059776228
216	0xbd1bab01	-0.03800488
217	0xbd949373	-0.07254686
218	0xbc4c5bc7	-0.012473053
219	0xbb319be0	-0.0027100965
220	0xbd1d73b7	-0.038440432
221	0xbcc2d152	-0.023781452
222	0xbd4ecc66	-0.0504879
223	0xbda16572	-0.07880677
224	0xbd23520f	-0.03987318
225	0xbd0ecd31	-0.034863655
226	0xbd8a48c4	-0.0675216
227	0xbcf0651f	-0.029345093
228	0xbd625f50	-0.05526668
229	0xbda37a22	-0.07982279
230	0xba68d7dc	-0.0008882263
231	0xbd658167	-0.05603161
232	0xbd61d184	-0.05513145
233	0x3a8e447a	0.0010854148
234	0xbd63b336	-0.05559083
235	0xbd6d7d12	-0.057980604
236	0xbda552bb	-0.0807242
237	0xbd289c6b	-0.041164797
238	0xbd47254e	-0.04861956
239	0xbb38dfe8	-0.002820963
240	0xbd8d4d82	-0.06899549
241	0xbd8ed08a	-0.069733694
242	0xbd0e0292	-0.03467042
243	0xbd204bee	-0.039134912
244	0xbd60234f	-0.054721173
245	0xbdbf9ef3	-0.09356489
246	0xbcfe931e	-0.03107601
247	0xbae6778d	-0.0017583236
248	0xbd18e789	-0.037330184
249	0xbd34b0c4	-0.04411389
250	0xbb322c2e	-0.0027186978
251	0xbdc157d4	-0.0944058
252	0xbd359d1d	-0.044339288
253	0xbd641e1d	-0.05569278
254	0xbd47a27d	-0.048738945
255	0xbdcccbd7	-0.09999817

fc4.bias f4 [3]
0	0xbd890298	-0.06689948
1	0x3ce1b253	0.027550852
2	0x3ce10b0d	0.02747109
