checkpoint_critic.pth (torch, 745075 bytes, 7 tensors)

fcs1.weight f4 [400, 9]
0	0xbc2eb4a5	-0.010663186
1	0xbd83193a	-0.06401296
2	0x3bf100e1	0.007354841
3	0x3cb6a84f	0.022297053
4	0x3d154b2a	0.036448635
5	0xbe18e6cf	-0.14931796
6	0xbcc44850	-0.023960263
7	0xbd0d3e71	-0.034483377
8	0xbd88354c	-0.066507906
9	0xbd3710ef	-0.044693884
10	0x3cdd8db6	0.027045112
11	0x3d86ea4e	0.06587659
12	0xbc8a2fab	-0.016868433
13	0x3e098142	0.13428214
14	0x3c3dbf91	0.0115813175
15	0x3cef0beb	0.029180488
16	0xbc238a58	-0.009981714
17	0xb9a76a55	-0.00031931946
18	0xbd5cdcee	-0.053921632
19	0xbce1312a	-0.027489264
20	0xbc8220c2	-0.01588476
21	0xbd083ff3	-0.03326411
22	0xbd0db119	-0.03459272
23	0xbdba1616	-0.09086244
24	0xbd0e30e6	-0.034714602
25	0xbd117f39	-0.03552172
26	0xbd82f097	-0.06393545
27	0x3cc61e2c	0.024184309
28	0xbc235f28	-0.0099714175
29	0x3dbbf5fc	0.09177777
30	0xbcbb294f	-0.022846846
31	0x3dc0d962	0.094164625
32	0x3ba1bc8f	0.004935808
33	0xbd513f48	-0.05108574
34	0x3c43c2b7	0.011948279
35	0x3cdfe354	0.027330078
36	0x3cbe40ce	0.02322426
37	0xbc5a082f	-0.013307615
38	0x3d945340	0.07242441
39	0xbca933f2	-0.020654652
40	0x3d890e6c	0.06692204
41	0x3cacd483	0.021097427
42	0xbd2090cf	-0.0392006
43	0x3c77259d	0.015084651
44	0x3cce27aa	0.025165398
45	0xbdf29c17	-0.11846178
46	0x3ce30622	0.027712885
47	0xbb1a521c	-0.0023547476
48	0x3c1f068e	0.009706153
49	0xbd688bd2	-0.056773968
50	0xbd7616de	-0.0600804
51	0xbc7bc449	-0.015366622
52	0x3da2cd74	0.07949343
53	0x3c432dca	0.011912772
54	0x3d81d46a	0.06339343
55	0x3b947ef1	0.004531734
56	0x3dcc931a	0.09988995
57	0xbb02d9f5	-0.0019966338
58	0xbbb7f8bf	-0.0056143696
59	0xbc410aa9	-0.011782327
60	0x3d4521db	0.04812799
61	0xbc35af8c	-0.011089217
62	0xbc1f1bff	-0.009711265
63	0xbba1d500	-0.0049387217
64	0xbd09c554	-0.033635452
65	0xbd27b9e3	-0.04094876
66	0xbd1ca8cc	-0.038246915
67	0xbab231d0	-0.0013595168
68	0xbdd3db8d	-0.1034461
69	0x3daf89fb	0.085712396
70	0xbbee0aac	-0.007264456
71	0xba481f0a	-0.000763402
72	0xbd6f8c13	-0.058483195
73	0x3c9b6c9e	0.018972691
74	0xbd0f4bd2	-0.034984417
75	0x3d823c9f	0.06359219
76	0x3b690d63	0.0035560958
77	0x3e25efcd	0.16204758
78	0x3d8993d0	0.06717646
79	0xbc88bd72	-0.016691897
80	0x3c85f451	0.01635185
81	0xbd13b856	-0.03606447
82	0xbb1a55d0	-0.0023549683
83	0xbd7e3f00	-0.0620718
84	0xbc7b669b	-0.015344287
85	0xbc62cf87	-0.013843424
86	0xbd86aa91	-0.06575502
87	0xbc259c85	-0.010108118
88	0xbcaf6c0f	-0.021413831
89	0xbd74e906	-0.05979254
90	0xbd301c85	-0.04299595
91	0x3d6f7bff	0.05846786
92	0xbd5513bb	-0.05202077
93	0xbd375124	-0.044755116
94	0x3e2e8a78	0.17045009
95	0x3b4a7bbc	0.0030896505
96	0x3cf13b8a	0.029447336
97	0xbca32be2	-0.019918386
98	0x3ab9b473	0.0014168158
99	0xbd8bbd64	-0.06823233
100	0xbc93490b	-0.017979166
101	0xbc12f69a	-0.008969927
102	0xbc1ac9ff	-0.009447574
103	0xbd952afe	-0.07283591
104	0xbe157757	-0.14596306
105	0x3c824adc	0.015904836
106	0xbc45d2ba	-0.012074167
107	0xbd672dcf	-0.05644017
108	0x3d2590bf	0.040421244
109	0xbb6aa6e6	-0.0035805046
110	0xbccedec0	-0.0252527
111	0xbc6fb6ef	-0.014631017
112	0xbbc91b1b	-0.0061372644
113	0x3d9e89dd	0.07741139
114	0xbc145306	-0.009052997
115	0x3bce5cac	0.0062976684
116	0x3c21a8cd	0.009866905
117	0xbc8eff4f	-0.017455725
118	0xbd9c1566	-0.07621269
119	0x3ce3207b	0.027725449
120	0x3c887a96	0.016660016
121	0x3d5c5215	0.053789217
122	0xbdb78cee	-0.08962427
123	0xbc2a1dac	-0.010383051
124	0x3d50339c	0.05083047
125	0xbd759655	-0.05995782
126	0xbde2bab4	-0.11070767
127	0xbce9504a	-0.028480668
128	0xbca3211a	-0.019913245
129	0x3cec1213	0.028817212
130	0xbe00dfb2	-0.12585333
131	0xbde9f8cf	-0.114244096
132	0x3d1ce797	0.0383068
133	0x3d10659c	0.035253152
134	0xbcb3c871	-0.021946164
135	0xbd9e0aae	-0.07716881
136	0xbd019c95	-0.03164347
137	0xbd57666a	-0.052587904
138	0xbd1ee534	-0.038792804
139	0xbdb898dc	-0.090135306
140	0xbe02ba8a	-0.12766472
141	0x3c9b4958	0.018955871
142	0x3d150fb1	0.036391918
143	0xbd72b1bc	-0.059251532
144	0xbdf3da10	-0.119068265
145	0xbbae09b7	-0.0053112167
146	0x3be9c365	0.0071338885
147	0x3d143333	0.03618164
148	0xbca46d4e	-0.020071652
149	0xbddfa0b3	-0.10919323
150	0x3d139571	0.03603119
151	0x3ccb34d6	0.024805468
152	0x3c884408	0.016634002
153	0xbd9875cb	-0.07444342
154	0xbd2689f7	-0.040658917
155	0xbd4868dd	-0.04892813
156	0x3d1ca062	0.03823889
157	0xbd3a6f22	-0.04551614
158	0xbda4a033	-0.08038368
159	0x3d44ede9	0.04807845
160	0x3d4168d8	0.047219127
161	0xbd129172	-0.03578324
162	0x3ca48fdc	0.020088129
163	0xbb89f682	-0.004210294
164	0xbd40691f	-0.04697525
165	0x3c91ec94	0.017813005
166	0xbce6b430	-0.028162092
167	0xbc7b7508	-0.015347727
168	0x3cccc2cf	0.024995236
169	0x3c396c59	0.011317336
170	0xbb7d6825	-0.0038666811
171	0x3db3c121	0.08777071
172	0x3d80d263	0.06290128
173	0xbcbebaca	-0.023282427
174	0xbd54e177	-0.051972833
175	0x3b1e909a	0.0024195076
176	0x3bbf0ed4	0.005830625
177	0x3d636f7b	0.055526238
178	0xbcf841bd	-0.030304784
179	0x3cb19800	0.021678925
180	0xbb4836dd	-0.003055028
181	0x3c663fdb	0.01405331
182	0x3c0c4be9	0.00856302
183	0xbd45f295	-0.048327047
184	0xbca6264e	-0.020281937
185	0x3c6a6365	0.014305924
186	0x3cca09fe	0.024662968
187	0x3d00e82f	0.031471428
188	0x3cd101ed	0.025513614
189	0xbc3e83bc	-0.011628088
190	0x3e166438	0.14686668
191	0xbd54ea24	-0.051981106
192	0x3b466c47	0.003027694
193	0xbd3c2db8	-0.04594204
194	0x3da45045	0.08023123
195	0xbc22932c	-0.009922784
196	0xbc984ddb	-0.018591812
197	0x3c8029e2	0.015644971
198	0x3cb500f0	0.022095174
199	0xbc7f49b0	-0.015581533
200	0x3dadc22b	0.084843
201	0xbcabbe5a	-0.02096479
202	0x3da7352a	0.08164437
203	0x3c56e67c	0.013116475
204	0xbd434c32	-0.047680087
205	0x3c3b14a3	0.011418494
206	0x3cd1f9f8	0.02563189
207	0xbdb741d9	-0.08948106
208	0xbd164d18	-0.036694616
209	0xbc848047	-0.016174449
210	0x3cad8bd9	0.021184849
211	0xbddb5189	-0.10708911
212	0xbdd51d2d	-0.104059555
213	0x3d0e60e4	0.03476037
214	0x3c91d7b7	0.017803056
215	0xbd289bf7	-0.041164365
216	0x3cbf274a	0.023334164
217	0xbc623f46	-0.013809031
218	0x3dbbf6cb	0.091779314
219	0xbcb8c8f0	-0.022556752
220	0x3dc04295	0.093876995
221	0x3bdf1d4f	0.006808914
222	0xbd4f4d2f	-0.050610717
223	0x3c3f5941	0.011678995
224	0x3ce02b5a	0.027364422
225	0xbd3685b3	-0.0445611
226	0x3c404fc0	0.011737764
227	0xbc806d36	-0.015677076
228	0xbd39d374	-0.045367673
229	0xbde5fe9d	-0.11230204
230	0x3e0b617f	0.1361141
231	0x3be17f80	0.0068816543
232	0x3bec365c	0.0072086286
233	0x3cf3acc8	0.029745474
234	0xbd24b4a2	-0.040211327
235	0xbc0839c2	-0.008314552
236	0x3c8e3390	0.017358571
237	0xbd2fa54e	-0.042882256
238	0x3ddc23d8	0.10749024
239	0xbb456ae1	-0.003012352
240	0xbd29a830	-0.04142016
241	0x37b9b97d	2.2140093e-05
242	0x3c2720af	0.0102006635
243	0x374dc46f	1.2264688e-05
244	0xb723c80c	-9.762134e-06
245	0x36a2feb6	4.8576285e-06
246	0xb63e2df1	-2.8338948e-06
247	0x37771bf6	1.4728857e-05
248	0xb6fc6450	-7.521863e-06
249	0xb70dfcf9	-8.463155e-06
250	0x36eeb9e7	7.1145946e-06
251	0x369b33e5	4.6254013e-06
252	0xbde905c4	-0.11378053
253	0x3cf8f572	0.030390475
254	0xbb0398dc	-0.0020080125
255	0x3d15f0f2	0.036606736

fcs1.bias f4 [400]
0	0x3e2c607a	0.16833678
1	0xbbbf071d	-0.0058297054
2	0x3de44ade	0.11147092
3	0xbce66b2c	-0.028127275
4	0xbccc2f7a	-0.024924982
5	0x3d0e4761	0.03473604
6	0xbc7074ec	-0.014676314
7	0x3dff708d	0.12472639
8	0x3d0dc327	0.03460994
9	0x3d960b0b	0.07326325
10	0xbb53b955	-0.0032306511
11	0xbcb7779a	-0.022395898
12	0x3a8085ae	0.0009805465
13	0x3e5cb928	0.21555007
14	0xbdc57f0b	-0.09643372
15	0xbb8998d8	-0.0041991286
16	0xbc32f1f9	-0.010921949
17	0xbd8972e3	-0.06711366
18	0xbc5e292d	-0.013559622
19	0x3d2c0157	0.041993465
20	0x3bae56b5	0.005320395
21	0xbd1b920c	-0.037981078
22	0xbcced7cf	-0.02524939
23	0xbdbde2b5	-0.092717566
24	0xbccac0d0	-0.024750143
25	0x3def33a4	0.116797715
26	0xbaa0c11c	-0.0012264582
27	0xb80bb0ea	-3.3304947e-05
28	0xbd6574f3	-0.056019735
29	0x3da554c9	0.08072812
30	0x3e8a52ad	0.27016202
31	0xbd5dff68	-0.054198653
32	0x3e3d7ff4	0.18505841
33	0x3b99beba	0.004691926
34	0x3e1535db	0.14571325
35	0x3cd6caed	0.02621981
36	0x3e86cf12	0.26329857
37	0x3cd093b1	0.02546105
38	0xbc78944a	-0.015172074
39	0x3e92aa0d	0.28645363
40	0x3e7912fd	0.2432365
41	0x3befc71f	0.0073174383
42	0x3e79b29e	0.24384543
43	0x39f7e587	0.00047282522
44	0x3e5d7d40	0.2162981
45	0x3e924034	0.28564608
46	0xbbe3cb6e	-0.006951741
47	0x3e5a3dee	0.21312687
48	0xbdbd33e5	-0.09238414
49	0x3e29ecf3	0.16594295
50	0x3cfc7749	0.030818598
51	0x3b228ade	0.002480201
52	0xbc38802d	-0.011261028
53	0x3d8dae4c	0.0691801
54	0x3e18d0cc	0.149234
55	0x3da32794	0.07966533
56	0xbcdb145b	-0.026743105
57	0xbb8bd846	-0.004267725
58	0xbc0532d7	-0.008129797
59	0xbce97b92	-0.028501306
60	0x3da7451b	0.08167478
61	0xbcd1e20c	-0.025620483
62	0xbb82f86c	-0.0039968994
63	0xbb39d948	-0.002835827
64	0x3e5aabcb	0.21354596
65	0x3b3e48c6	0.0029035076
66	0xbd58edc6	-0.052961133
67	0xbc82868f	-0.015933303
68	0x3e6056e1	0.21908142
69	0x3e2e7982	0.17038539
70	0x3b9a05fe	0.0047004214
71	0xbd991d29	-0.07476265
72	0x3e97ac84	0.29623806
73	0xbd96052d	-0.07325206
74	0xbb1829b5	-0.0023218219
75	0xbd8928f1	-0.06697262
76	0x3e3d42c7	0.18482505
77	0x3d6c4f68	0.057692915
78	0x3ca0e92d	0.019642437
79	0xbca14d56	-0.019690197
80	0x3e9b64f4	0.3035046
81	0x3dc96b71	0.09834946
82	0xbde28dd0	-0.11062205
83	0x3da42d0c	0.080164045
84	0x3e6d082b	0.23147647
85	0xbd9aa5ee	-0.0755118
86	0xb8d820b2	-0.000103057726
87	0xbcd2f771	-0.025752755
88	0x3e5745d2	0.21022728
89	0xbbb00695	-0.0053718784
90	0x3bbfcc84	0.0058532376
91	0xbccf6732	-0.025317762
92	0x3e409531	0.18806912
93	0xbb67e0d4	-0.003538181
94	0xbacc57c7	-0.0015590125
95	0x3e6da89b	0.23208849
96	0x3df8a2fa	0.1214046
97	0xbabfcdf1	-0.0014633519
98	0x3c0f1c1c	0.008734729
99	0x3c264bbe	0.010149894
100	0x3e4f7b3d	0.20261855
101	0x3e23555c	0.15950531
102	0xbb7dd3cf	-0.0038730984
103	0x3e4138a3	0.18869261
104	0x3d427093	0.04747064
105	0xbcc579f3	-0.024106001
106	0xbc1f4523	-0.009721073
107	0x3e8318a6	0.25604743
108	0xb84f4bf7	-4.9423394e-05
109	0x3ea1784d	0.31537095
110	0x3d2d609a	0.042328455
111	0xbbaed7b4	-0.0053357724
112	0xbccbd454	-0.02488152
113	0x3c084ede	0.008319585
114	0x3dc6294c	0.096758455
115	0x3da78693	0.08179965
116	0xbc85adbf	-0.0163182
117	0x3d8de1cb	0.06927832
118	0x3d6ae10c	0.057343528
119	0x3e2f1049	0.17096056
120	0x3e86ba17	0.2631385
121	0x3e64d43c	0.22346586
122	0xbc9da81b	-0.019245198
123	0x3ea637f9	0.3246458
124	0x3e221bfa	0.15830985
125	0x3df32673	0.11872568
126	0xbbbe6592	-0.005810448
127	0xbb6e71f9	-0.003638385
128	0x3d719366	0.05897846
129	0xbb1176fb	-0.0022196162
130	0xbd856484	-0.065133125
131	0x3c7d055f	0.015443175
132	0x3cdb190a	0.026745338
133	0x3ea51730	0.32244253
134	0xbb660430	-0.003509771
135	0xbc178494	-0.009247918
136	0xbbcc3a33	-0.006232524
137	0x3e92446a	0.2856782
138	0x3d953825	0.07286099
139	0x3e27f63f	0.16402529
140	0x3e4a3640	0.19747257
141	0xbd4d4fd5	-0.050124962
142	0x3e263f70	0.16235137
143	0xbcc76bd8	-0.024343416
144	0xbcdfee6b	-0.027335366
145	0x3d810333	0.06299438
146	0x3e9ce12e	0.30640548
147	0x3e3362c7	0.1751815
148	0x3ce1215e	0.027481731
149	0x3c6d9167	0.014499999
150	0x3e88dde5	0.26731792
151	0x3d98b868	0.07457048
152	0x3e6206a4	0.22072846
153	0xbcbe7f4d	-0.023254061
154	0x3dd7dd7b	0.10540291
155	0x3de4b906	0.11168103
156	0x3e922088	0.28540444
157	0x3e96b5a0	0.29435444
158	0x3e8e38b8	0.27777648
159	0x3ea62916	0.3245322
160	0xb5810e9e	-9.615503e-07
161	0xbbd92334	-0.006626511
162	0x3e8600d9	0.26172522
163	0x3d430e17	0.04762086
164	0x3e34e4b2	0.17665365
165	0xbcf3e4ee	-0.029772248
166	0x3e785d36	0.24254307
167	0x3e6ef956	0.23337302
168	0x3c9d217e	0.01918101
169	0xbc331322	-0.010929855
170	0xbbbdf185	-0.0057966136
171	0x3e8ab37e	0.27090067
172	0xbaabe696	-0.0013114985
173	0x3c54da8f	0.012991562
174	0x3e0c3b18	0.13694417
175	0x3e017b9f	0.12644814
176	0x3ba3cf8c	0.0049991067
177	0x3e4b6827	0.1986395
178	0x3d2c61ab	0.04208533
179	0x3e95a9cd	0.2923111
180	0x3ea057aa	0.31316882
181	0x3e16c413	0.14723234
182	0xbae522db	-0.0017481701
183	0x3dbea4c5	0.09308771
184	0x3e0c500d	0.13702412
185	0x3ddd63a9	0.10810024
186	0x3e3397a7	0.1753832
187	0xbbd0c75b	-0.0063714213
188	0xbb15c924	-0.0022855485
189	0xbb18243c	-0.0023214957
190	0xbce779cf	-0.028256325
191	0x3df248c9	0.11830289
192	0xbce3ae35	-0.02779303
193	0x3ac156cb	0.0014750598
194	0xbc1d2bc5	-0.009592955
195	0x3c3adfe9	0.011405923
196	0x3dcc984c	0.09989986
197	0xbb265955	-0.0025382836
198	0xbd63c046	-0.055603288
199	0x3e90da04	0.28291333
200	0xbcc5e480	-0.024156809
201	0x3df55f04	0.119810134
202	0xbc20e948	-0.009821244
203	0x3d360a92	0.044443674
204	0xbc7c1071	-0.015384779
205	0x3de6325f	0.11240076
206	0x3d5fefef	0.054672178
207	0x3b260fff	0.0025339124
208	0x3c3cd461	0.011525244
209	0xbbc55f13	-0.0060232966
210	0x3e53034c	0.20606726
211	0x3c2e8fae	0.010654373
212	0x3e30170c	0.17196292
213	0xbcd258b6	-0.025677066
214	0x3e42c185	0.19019134
215	0x3d14c891	0.036324088
216	0xbd994db6	-0.07485525
217	0xbccc4938	-0.024937257
218	0xbc870371	-0.016481133
219	0xbce80d49	-0.028326647
220	0x3e1d2f69	0.15350117
221	0xbc07dda6	-0.008292591
222	0x3e056cf0	0.13029838
223	0xbb2c1a09	-0.0026260635
224	0xbdf6fdaf	-0.12060105
225	0x3e8edb48	0.27901673
226	0xbb67c4d3	-0.003536512
227	0x3cea1d7a	0.028578509
228	0x3e85db4f	0.26143882
229	0xbb64a61c	-0.0034889048
230	0xbc08eef6	-0.008357754
231	0xbccd4e40	-0.025061727
232	0x3ad76f6f	0.0016436408
233	0xbb928a0e	-0.004472024
234	0xbc7d8f66	-0.015476083
235	0x3c86fc63	0.01647777
236	0xbc6bbe1f	-0.01438859
237	0x3e6df838	0.23239219
238	0x3e4b934f	0.19880413
239	0x3d8aeca7	0.06783419
240	0xb8be5008	-9.074813e-05
241	0xbcd771cd	-0.026299382
242	0x3e3b18fa	0.18271247
243	0x3e9aba6b	0.3022035
244	0x3daaa181	0.08331586
245	0x3b813b8b	0.0039438657
246	0x3e8457d6	0.25848264
247	0xbbc47eab	-0.0059965453
248	0xbac2c2d3	-0.0014859088
249	0x3df45d74	0.11931887
250	0xbc19def6	-0.009391537
251	0xbc1e19f1	-0.00964974
252	0x39c9a207	0.00038458427
253	0xbb26e69e	-0.0025467048
254	0x3e395a4d	0.18100853
255	0xbd3b2ab7	-0.045695033

fc2.weight f4 [300, 403]
0	0x298e98d4	6.332578e-14
1	0x80a98da1	-1.5571006e-38
2	0xad1ecec3	-9.0271705e-12
3	0x8002e6de	-2.6649e-40
4	0x0000e553	8.2266e-41
5	0x2f369a3d	1.66076e-10
6	0x123bc275	5.9246483e-28
7	0xad721ee4	-1.37629665e-11
8	0xb3bc0ebf	-8.7571145e-08
9	0xac535462	-3.0031745e-12
10	0x8311bc2a	-4.282767e-37
11	0x26d5674d	1.4807844e-15
12	0x0000ada0	6.2285e-41
13	0x2eb9e053	8.452674e-11
14	0x2c00b5b5	1.8290762e-12
15	0x2bcfb150	1.4757449e-12
16	0x2aee1373	4.2290788e-13
17	0x1f6fb8ca	5.0763073e-20
18	0x000451ea	3.96727e-40
19	0x80024c32	-2.11005e-40
20	0x800071da	-4.0842e-41
21	0xae658630	-5.2187754e-11
22	0x80007ead	-4.5443e-41
23	0x2692d4c6	1.0188457e-15
24	0x8002c93b	-2.55859e-40
25	0xb3080c76	-3.16763e-08
26	0x0001ea3a	1.7586e-40
27	0x80039abb	-3.31013e-40
28	0x2855da78	1.1871248e-14
29	0x9241ab2f	-6.111106e-28
30	0xa8c36467	-2.1692892e-14
31	0x8005332e	-4.77537e-40
32	0x350af8ae	5.177088e-07
33	0x80466b1c	-6.466908e-39
34	0xa13266e3	-6.0444915e-19
35	0x000208d0	1.86832e-40
36	0xb606a666	-2.0064413e-06
37	0x8a0f1beb	-6.89045e-33
38	0x27053102	1.8484025e-15
39	0xb1003e79	-1.8661963e-09
40	0xaf096f95	-1.249972e-10
41	0x8002a570	-2.43019e-40
42	0xb38d7530	-6.5871404e-08
43	0x80006726	-3.7003e-41
44	0x333f320e	4.4516177e-08
45	0xb001a27a	-4.716082e-10
46	0x80057342	-5.00524e-40
47	0xb32a8dee	-3.9710294e-08
48	0x2ce74296	6.5728074e-12
49	0x331ebc41	3.6958458e-08
50	0x000270c2	2.24121e-40
51	0x000277a4	2.2659e-40
52	0x00003f83	2.2784e-41
53	0x326a0213	1.3621064e-08
54	0x2bc200b9	1.378473e-12
55	0x33266d8f	3.874953e-08
56	0x0004c819	4.39123e-40
57	0x800006cc	-2.438e-42
58	0x0002a3a6	2.42377e-40
59	0x00010473	9.3432e-41
60	0xb624d1b3	-2.4559965e-06
61	0x000010f6	6.084e-42
62	0x8002b69f	-2.49183e-40
63	0x00006eb8	3.9718e-41
64	0x329cd98f	1.8259724e-08
65	0x00033d4b	2.97494e-40
66	0x1a9d3911	6.5025874e-23
67	0x2b327061	6.339426e-13
68	0x31997461	4.466117e-09
69	0xb4767633	-2.2953536e-07
70	0x00022796	1.97872e-40
71	0x9c19be1a	-5.0869154e-22
72	0xb3fae9bb	-1.16840475e-07
73	0x801ab560	-2.452788e-39
74	0x0001ee04	1.7722e-40
75	0x910a7226	-1.0921455e-28
76	0xa6b94142	-1.2854642e-15
77	0x8000cf29	-7.4315e-41
78	0xa6beb04a	-1.3231682e-15
79	0x0001d5d6	1.68545e-40
80	0xb0946805	-1.0797981e-09
81	0xa2eabd78	-6.3626435e-18
82	0x9ed81fbd	-2.2883016e-20
83	0x2aea492e	4.161753e-13
84	0xa392bd15	-1.5909431e-17
85	0x289ccc79	1.7408155e-14
86	0x0001fa0b	1.81534e-40
87	0x00003237	1.8014e-41
88	0x35e3d3a7	1.6974417e-06
89	0x80017dd3	-1.36973e-40
90	0x8003e50e	-3.57676e-40
91	0x80002695	-1.384e-41
92	0x3266c321	1.3432129e-08
93	0x8000dacb	-7.8488e-41
94	0x84b8b5bd	-4.3425092e-36
95	0xb089945e	-1.001023e-09
96	0x30da172c	1.5868173e-09
97	0x8107fcd2	-2.4976974e-38
98	0x80001fc1	-1.1391e-41
99	0x80023848	-2.03861e-40
100	0x32bdb339	2.2083997e-08
101	0x2e142b4d	3.3689763e-11
102	0x80034112	-2.9885e-40
103	0xaf333ef4	-1.630232e-10
104	0xae40afc0	-4.3811843e-11
105	0x000212cf	1.90418e-40
106	0x807ffddc	-1.1754176e-38
107	0xaab3704d	-3.1874712e-13
108	0x8002a525	-2.42914e-40
109	0xae9ba3e2	-7.0776954e-11
110	0x2979693e	5.538039e-14
111	0x23e35c3a	2.4650449e-17
112	0x80010281	-9.2734e-41
113	0x8001e020	-1.72236e-40
114	0x2d465904	1.1274762e-11
115	0x2b369cf1	6.487719e-13
116	0x0004b2b3	4.31447e-40
117	0x2a33c49d	1.5966608e-13
118	0xa8a2fff2	-1.8096612e-14
119	0xadc14bf6	-2.1975293e-11
120	0xb3185759	-3.54697e-08
121	0xb66173d5	-3.3595036e-06
122	0x9b8a67a6	-2.2897166e-22
123	0xb01183ec	-5.2938165e-10
124	0xabdbc644	-1.5615916e-12
125	0x3114544d	2.1584754e-09
126	0x0000864d	4.8178e-41
127	0x042c4337	2.0249366e-36
128	0xadcc6728	-2.3237925e-11
129	0x00028d2e	2.34317e-40
130	0x0b696256	4.4948147e-32
131	0x00001ef2	1.1101e-41
132	0x2d081904	7.7362595e-12
133	0xae950f7f	-6.778488e-11
134	0x0002a32b	2.42205e-40
135	0x80028a91	-2.33379e-40
136	0x00027a49	2.27539e-40
137	0xb5f52b90	-1.8266601e-06
138	0xa1ae2748	-1.1801096e-18
139	0xa46d5005	-5.1458962e-17
140	0x2e395639	4.214071e-11
141	0x0002e091	2.6423e-40
142	0xa6e9c5d3	-1.6221243e-15
143	0x000425d9	3.80919e-40
144	0x0003a083	3.33087e-40
145	0xa4eec6f4	-1.03553087e-16
146	0xb0b54ce0	-1.3191332e-09
147	0x3408b401	1.2731472e-07
148	0x2d6c4606	1.3430595e-11
149	0x90aca21a	-6.8091795e-29
150	0xac1e4da9	-2.249626e-12
151	0x2a3a22b9	1.6532165e-13
152	0xace36d51	-6.4638646e-12
153	0x80054f4e	-4.87627e-40
154	0xb59a63bf	-1.1502924e-06
155	0xaa855e7d	-2.369111e-13
156	0xb6cc0062	-6.0797183e-06
157	0xaf11b6bd	-1.3252595e-10
158	0xad84b931	-1.5088904e-11
159	0xae9006a6	-6.549543e-11
160	0x80045d08	-4.00715e-40
161	0x296b2dfb	5.2220364e-14
162	0x32376fd4	1.0677429e-08
163	0xa0435895	-1.6546452e-19
164	0x33b0b90f	8.2293006e-08
165	0x9bae7381	-2.8860528e-22
166	0xa5efd4b0	-4.1604014e-16
167	0x32e1a2a0	2.62674e-08
168	0x80020f12	-1.89077e-40
169	0x000139f9	1.12632e-40
170	0x2f8b37bc	2.5323554e-10
171	0xb2b6b83f	-2.1271374e-08
172	0x00029266	2.36189e-40
173	0x80086568	-7.71062e-40
174	0x35813759	9.627357e-07
175	0x30427f49	7.075767e-10
176	0x80023f20	-2.06316e-40
177	0xb1fbc0c5	-7.326977e-09
178	0xa623f339	-5.6881613e-16
179	0xb1674965	-3.3656644e-09
180	0xaf35b570	-1.6526314e-10
181	0xa48c9adf	-6.0977683e-17
182	0x00066bdb	5.89704e-40
183	0x350100b9	4.8057296e-07
184	0xb12c0f40	-2.5037963e-09
185	0xb46c51ac	-2.2008925e-07
186	0xa6379db4	-6.3704607e-16
187	0x00067997	5.94631e-40
188	0x8000616c	-3.4948e-41
189	0x000227a0	1.97886e-40
190	0x80019bcc	-1.47725e-40
191	0xb2889346	-1.5899456e-08
192	0x00066c83	5.8994e-40
193	0x000167f4	1.29127e-40
194	0x0000c7e3	7.1706e-41
195	0x962ac508	-1.3794663e-25
196	0x3155c91f	3.1109904e-09
197	0x8000b759	-6.5773e-41
198	0x1f5cbee4	4.6744713e-20
199	0xb521db63	-6.0296423e-07
200	0x800013b5	-7.07e-42
201	0xb7863a23	-1.6001117e-05
202	0x000163d3	1.27646e-40
203	0x18400c64	2.4821674e-24
204	0x9c2866cf	-5.5719414e-22
205	0x314b124f	2.9550795e-09
206	0x9fac6dfc	-7.302679e-20
207	0x860c55cc	-2.6394107e-35
208	0x80014ef0	-1.20153e-40
209	0x00053758	4.79031e-40
210	0xb533ca14	-6.697676e-07
211	0x8001e80a	-1.75075e-40
212	0xaf00f6e4	-1.1729245e-10
213	0x0006c82c	6.22821e-40
214	0x36bf2b26	5.6972667e-06
215	0x2d3ae8f0	1.0624598e-11
216	0x27ebd87a	6.5460307e-15
217	0x00009cd2	5.6257e-41
218	0x80024181	-2.0717e-40
219	0x8004cd3e	-4.40969e-40
220	0x31f8ef55	7.244959e-09
221	0x0005ddba	5.38718e-40
222	0x30b29062	1.2992241e-09
223	0x80066f34	-5.90905e-40
224	0x29c69483	8.818729e-14
225	0x313cc656	2.7470342e-09
226	0x8000854b	-4.7817e-41
227	0x9d6e6763	-3.1552487e-21
228	0xb16e67f7	-3.4692655e-09
229	0x800371da	-3.16349e-40
230	0x0001597d	1.23938e-40
231	0x80003759	-1.9855e-41
232	0x80021d19	-1.94109e-40
233	0x80017f3b	-1.37477e-40
234	0x0003f154	3.62079e-40
235	0x000567b4	4.96379e-40
236	0x1698e990	2.4704323e-25
237	0x2c9072b4	4.1054608e-12
238	0xb257419f	-1.2529568e-08
239	0xa7e086b7	-6.2318548e-15
240	0x80001c85	-1.0231e-41
241	0x800279bd	-2.27342e-40
242	0xb6fab79c	-7.4719555e-06
243	0xb0b4ef60	-1.3164758e-09
244	0xb066dca3	-8.3987056e-10
245	0x80017d35	-1.36751e-40
246	0xae12de06	-3.3393753e-11
247	0x8002f8da	-2.72942e-40
248	0x80032551	-2.88893e-40
249	0x3414822a	1.3830928e-07
250	0x2220f425	2.1813292e-18
251	0x00006b13	3.8411e-41
252	0x00035758	3.0684e-40
253	0x2a03a5a8	1.1692611e-13
254	0xae100c82	-3.275292e-11
255	0x28165cb2	8.346773e-15

fc2.bias f4 [300]
0	0xbaab95a6	-0.0013090863
1	0x3b89c81e	0.004204764
2	0x3c649f1d	0.013953951
3	0x3a5690cf	0.00081850303
4	0x3ce0cb3d	0.027440662
5	0xbb8a1c6c	-0.004214814
6	0x3c182096	0.009285113
7	0xbcc5660e	-0.024096515
8	0x3ce14cc9	0.027502434
9	0xb70b5015	-8.303691e-06
10	0xbc2bb40b	-0.010479937
11	0xb762654d	-1.3494236e-05
12	0x3d585479	0.052814934
13	0xb2448751	-1.1439469e-08
14	0xba9f310f	-0.0012145358
15	0x3cf41ae2	0.029797975
16	0x3d8fec7b	0.07027527
17	0xbcb5acd3	-0.022177136
18	0xbc1118e9	-0.008856037
19	0xbbeace0a	-0.007165675
20	0xbce9136c	-0.028451644
21	0xbcd12bfb	-0.025533667
22	0x3cb6de34	0.022322752
23	0x3d5858da	0.05281911
24	0x3d572d7a	0.052533604
25	0x3d76f210	0.060289443
26	0xb93d0db8	-0.00018029555
27	0xb1add087	-5.0586695e-09
28	0x3d7b2916	0.06131848
29	0x3cacb0e2	0.021080438
30	0xb9613afb	-0.00021479644
31	0xbce46ebe	-0.027884837
32	0xbcbbf7ce	-0.02294531
33	0x3cd2598f	0.02567747
34	0x3d299b95	0.04140814
35	0xb679ebc6	-3.724113e-06
36	0x3cc18dc8	0.023627177
37	0x3c3b7e17	0.011443636
38	0xbb5c1e6b	-0.0033587466
39	0xb8fe1441	-0.000121154364
40	0x3af08ec6	0.0018353097
41	0x3bb769ff	0.0055973525
42	0xbaa86a48	-0.0012849057
43	0xb9e9b947	-0.00044579266
44	0xb242903f	-1.1325084e-08
45	0xb60ced71	-2.0999835e-06
46	0x3d001183	0.0312667
47	0xbc1631a4	-0.009167109
48	0xbc1138dd	-0.008863655
49	0xbce645a7	-0.028109385
50	0x3c351a8a	0.011053691
51	0x3a57aa12	0.00082269416
52	0xb8916154	-6.9322676e-05
53	0xbc830792	-0.01599482
54	0xbbbb653b	-0.0057188547
55	0x3c5dad9b	0.01353016
56	0x3d7ba941	0.06144071
57	0xb53dcf0d	-7.0709285e-07
58	0xbc187d4f	-0.00930722
59	0xb69538f1	-4.447175e-06
60	0xb80c6142	-3.346918e-05
61	0xbb690b92	-0.0035559875
62	0xb34cc821	-4.7679467e-08
63	0x3cd65c2c	0.026166998
64	0xba5c0faa	-0.0008394668
65	0xbceac246	-0.02865709
66	0x3cf2bb47	0.029630316
67	0x3c76ed9f	0.015071302
68	0xbb97f1bb	-0.004636971
69	0x3c86b4c3	0.016443616
70	0xbba1f762	-0.0049428204
71	0x3cc2323e	0.023705598
72	0x3c562622	0.013070615
73	0x3c81e896	0.015857976
74	0x3c423391	0.011853115
75	0xba3bb9ef	-0.000716119
76	0x3a8d0ad4	0.0010760673
77	0xb74a293b	-1.2049738e-05
78	0xbd09a466	-0.03360405
79	0x3d5ed032	0.05439777
80	0x3d5df035	0.054184157
81	0xb60b6585	-2.0771706e-06
82	0x3ca42ca2	0.020040814
83	0xb6072f87	-2.0144232e-06
84	0x3b9b1c48	0.004733596
85	0xb479a4a7	-2.3249832e-07
86	0x3c978567	0.018496228
87	0x3c3847de	0.011247603
88	0x3d671ba5	0.05642285
89	0x3be3f652	0.006956854
90	0xbbc6f3c7	-0.006071541
91	0x3c5b9e4c	0.01340444
92	0x3c9f7cc9	0.019468682
93	0xb59ba61e	-1.1596746e-06
94	0xbd17e033	-0.037079047
95	0x3cbc6486	0.022997152
96	0x3c5ef322	0.013607772
97	0xbb2f2290	-0.0026723482
98	0xbc0d28a1	-0.008615644
99	0xbac3c969	-0.0014937344
100	0x3c55c14d	0.013046575
101	0x3d31ec3f	0.043438192
102	0xb9941726	-0.00028246007
103	0xbaa1e220	-0.0012350716
104	0xba0e245a	-0.0005422287
105	0xbc812cc6	-0.01576842
106	0xb691940f	-4.338573e-06
107	0xb2285326	-9.797793e-09
108	0xb81b9320	-3.70919e-05
109	0xbb4390cd	-0.0029840947
110	0x3b28b8e9	0.002574498
111	0x3c86f6fd	0.016475195
112	0xbaa79d42	-0.0012787955
113	0xb69a5591	-4.599519e-06
114	0x391d2a5e	0.0001498847
115	0x3d872f11	0.06600774
116	0x3b91ac14	0.004445562
117	0x3c91cf4c	0.017799042
118	0xbb2cfff7	-0.0026397684
119	0x3d30549b	0.043049436
120	0x3d4ad931	0.049523536
121	0xbb3297bf	-0.0027251092
122	0x3d7046ee	0.058661394
123	0xbd266ceb	-0.040631216
124	0x3b2300ef	0.0024872383
125	0x3b996150	0.00468079
126	0x3d5d78f8	0.054070443
127	0x3c963698	0.01833658
128	0x3c15dc28	0.009146728
129	0xb3d7a753	-1.0042154e-07
130	0xbaa0548a	-0.0012232226
131	0x3d92b11b	0.071626864
132	0x3d49fd11	0.04931361
133	0x3d88448e	0.06653701
134	0x3ce80857	0.02832429
135	0xbc4d3af3	-0.012526262
136	0xb698daff	-4.5554475e-06
137	0x3c6ef5b7	0.01458495
138	0xbaafacdc	-0.0013402957
139	0xbca5efcf	-0.020255951
140	0xb424263c	-1.52876e-07
141	0x3c7c7a9d	0.015410093
142	0x3d8cf4b5	0.06882612
143	0x3c0134d0	0.007886127
144	0x3be42303	0.0069621815
145	0x3c373ea9	0.011184373
146	0x3d165ba3	0.036708485
147	0x3d8bcbf3	0.068260096
148	0xbce0ec2c	-0.027456366
149	0xbaa0bc93	-0.0012263231
150	0x3d892f16	0.06698434
151	0x3cfa01c4	0.03051842
152	0xb98814e0	-0.00025955494
153	0xbad056b0	-0.0015894976
154	0xb71273de	-8.729256e-06
155	0xbafa8226	-0.0019112274
156	0x3d780379	0.060550187
157	0x3c49aacd	0.0123087885
158	0x3c327727	0.010892666
159	0x3c2e5196	0.010639569
160	0x3a8e6c83	0.0010866079
161	0x3d4771b8	0.048692435
162	0x3d32a6f2	0.043616243
163	0xbca0cfcd	-0.019630337
164	0xb9f81a32	-0.00047321763
165	0xb937c8b6	-0.0001752701
166	0x3cfe59a8	0.03104861
167	0x3c35d61f	0.011098414
168	0x3d1db259	0.038500164
169	0x3c9d1633	0.019175624
170	0xbc7506b4	-0.014955211
171	0x3b3ff7fd	0.00292921
172	0xbc6f113f	-0.014591514
173	0x3ca096d5	0.019603172
174	0x397afb2d	0.00023935428
175	0x3cb36a30	0.02190122
176	0x3d22af2c	0.03971784
177	0xb80c3096	-3.342385e-05
178	0xbc22c246	-0.009934014
179	0x3cd89463	0.026437944
180	0x3bd6e568	0.006558109
181	0x3b6fe540	0.003660515
182	0xb8868f9f	-6.4163694e-05
183	0xbcc80e70	-0.024420947
184	0xbcaaf495	-0.020868579
185	0xbcce225b	-0.025162866
186	0x3b07b427	0.0020706744
187	0xba492cb9	-0.00076742057
188	0x392c9524	0.00016458757
189	0xb8934614	-7.022559e-05
190	0x3d5a7aa2	0.053339608
191	0xbaf34c14	-0.0018562102
192	0x3c2360a0	0.009971768
193	0xb81399c0	-3.5190722e-05
194	0x3cba8ef9	0.022773253
195	0xb4b89cb5	-3.438669e-07
196	0xb9de2531	-0.0004237085
197	0xbac30eb0	-0.0014881697
198	0x3c306d4c	0.010768246
199	0x3af0c259	0.0018368467
200	0xb94c0b78	-0.00019459228
201	0xbb354213	-0.0027657792
202	0x3c3365e6	0.010949587
203	0x3cf556b1	0.029948564
204	0x3ac52bee	0.0015042999
205	0x3d006aba	0.031351782
206	0x3c4c246c	0.0124598555
207	0x3c545b8e	0.012961281
208	0xb43e3989	-1.771606e-07
209	0x3d8a1ffa	0.0674438
210	0xb6a85a8f	-5.0173326e-06
211	0x3d4668eb	0.0484399
212	0xbb5e4e92	-0.0033921343
213	0x3c043384	0.008068923
214	0x3c22076f	0.009889468
215	0xb4254e6e	-1.5395355e-07
216	0xb1975f73	-4.4055297e-09
217	0x3d4d474c	0.050116822
218	0xbab8958f	-0.0014082658
219	0x3c96ad31	0.018393131
220	0xbc200b18	-0.00976827
221	0x3d48e795	0.04904898
222	0xb377fe77	-5.7740603e-08
223	0x3cdc3476	0.026880484
224	0xbcf0c5d4	-0.029391207
225	0xb49a8f28	-2.8788895e-07
226	0x3cd60c6d	0.026128972
227	0xaf82ab9c	-2.3768798e-10
228	0x3c366f64	0.011134956
229	0x3cc7cba0	0.024389088
230	0xbcc89df5	-0.024489382
231	0xbc2110fd	-0.0098307105
232	0xbae5b253	-0.0017524458
233	0x3d64414d	0.05572634
234	0x3d0e5179	0.034745667
235	0x3c68eb37	0.014216236
236	0x3ba9abda	0.005177957
237	0xbcb36c80	-0.021902323
238	0x3d705f7d	0.058684815
239	0x3bcc6d19	0.0062385914
240	0x3c0a3e0e	0.008437647
241	0x37c841ad	2.387244e-05
242	0xb9f3f278	-0.00046529225
243	0x3d3f392b	0.04668538
244	0x3c8fbfa7	0.017547442
245	0x3c461cef	0.012091859
246	0xbcbd62b5	-0.023118356
247	0xb9f90c04	-0.00047501933
248	0xbc54b00a	-0.012981424
249	0xb93f976e	-0.00018271591
250	0x3ca2a7eb	0.01985546
251	0x3cb929d6	0.022602957
252	0xbbf235cb	-0.0073916665
253	0xbcefdd90	-0.029280454
254	0xbb229536	-0.0024808175
255	0xb833f08f	-4.2900963e-05

fc3.weight f4 [200, 300]
0	0x2e75ac88	5.585979e-11
1	0x3d13d90e	0.03609567
2	0x3cc117ca	0.023570914
3	0x00064143	5.74424e-40
4	0xbc45dade	-0.012076108
5	0x39634ac2	0.00021676256
6	0x3c30e9e8	0.010797955
7	0x3b8a03e2	0.0042118886
8	0xba5f530e	-0.0008519151
9	0xacc8d5d3	-5.708081e-12
10	0x3c9c3564	0.019068427
11	0x9cc22240	-1.2846697e-21
12	0xbc9df1ce	-0.01928034
13	0xa8840331	-1.4656328e-14
14	0xb60870ad	-2.0331165e-06
15	0xbc43c017	-0.011947653
16	0xbc9d1cfe	-0.019178864
17	0x3cbc8ff7	0.023017867
18	0x3c2f56e1	0.010701866
19	0x3b6eb212	0.0036422056
20	0x3cbdd03a	0.02317058
21	0x3c81998c	0.015820287
22	0x3d0e900c	0.034805343
23	0xbc7d84c2	-0.015473546
24	0xbc4664a6	-0.012108957
25	0xbc949eec	-0.018142186
26	0xbcaec668	-0.021334842
27	0x1973c883	1.26032986e-23
28	0xbc9a42fd	-0.01883077
29	0xbc2540d7	-0.01008626
30	0x2b9a781e	1.0975697e-12
31	0x3c57fbf5	0.01318263
32	0x3c9b8755	0.01898543
33	0x3caa036f	0.02075359
34	0xbc5371bc	-0.012905534
35	0x8d989a4b	-9.404868e-31
36	0xbc851905	-0.016247282
37	0xbc61cec0	-0.013782203
38	0x390868dc	0.00013009034
39	0x25428f6a	1.6875408e-16
40	0x386821fd	5.5344764e-05
41	0x3bb49144	0.005510481
42	0x36071ce3	2.0133382e-06
43	0xa2aea1c2	-4.7334062e-18
44	0x2f2c5ee9	1.5677028e-10
45	0x0003c73f	3.46983e-40
46	0xbca8da6f	-0.02061197
47	0x3c95a4a8	0.01826699
48	0x3c673d62	0.014113756
49	0x3c981d6a	0.018568713
50	0x3cc9bc3d	0.024625892
51	0xb5ae1656	-1.2970511e-06
52	0x28b6e9dc	2.030748e-14
53	0x3c0428f3	0.008066404
54	0x3c69c96c	0.014269214
55	0x3c935192	0.017983232
56	0xbc8bdfad	-0.01707443
57	0x0005564b	4.90134e-40
58	0x3cc786e1	0.024356307
59	0x85859817	-1.2563129e-35
60	0x000042e6	2.3999e-41
61	0x3c9b20c7	0.018936528
62	0x29870004	5.995207e-14
63	0x3ba96faa	0.005170782
64	0x38dc358e	0.00010500393
65	0x3c11df6e	0.008903367
66	0x3ca5a2cc	0.02021923
67	0xbc363903	-0.011121991
68	0x3cb8292f	0.022480575
69	0xba5507b8	-0.00081264554
70	0xbbb65499	-0.005564284
71	0x3c580e70	0.013187036
72	0xbb6fb6e7	-0.0036577524
73	0x3c0b99c6	0.008520549
74	0x3c2119e2	0.009832831
75	0xa94459de	-4.359869e-14
76	0xbbb5b789	-0.0055455607
77	0x80019174	-1.44014e-40
78	0x3c146a75	0.009058584
79	0xbc155a92	-0.009115832
80	0xbc5d79ab	-0.013517777
81	0x0000adf9	6.241e-41
82	0x3c87840b	0.016542455
83	0x232cdd12	9.370952e-18
84	0xba878471	-0.0010339153
85	0x0eb8f696	4.5596956e-30
86	0x3ba44bc0	0.005013913
87	0x3cc7ffa0	0.024413884
88	0xbc2f9388	-0.010716327
89	0x3b2456c4	0.002507613
90	0x3c8dcca4	0.017309494
91	0xb81c56a9	-3.7274007e-05
92	0xbc8fc178	-0.017548308
93	0x0001cad8	1.64602e-40
94	0x3cfbb537	0.030726058
95	0xbbf29df8	-0.0074040852
96	0xb8eb6c3d	-0.00011225834
97	0x223a048d	2.521011e-18
98	0x3c8e32b3	0.01735816
99	0xbb2a4fd1	-0.0025987516
100	0xbc9a2f47	-0.018821372
101	0xbc66396d	-0.014051777
102	0xad2cb389	-9.816933e-12
103	0xb904b4d1	-0.0001265586
104	0x0a383a0f	8.870197e-33
105	0x3c6c3c51	0.014418677
106	0xa6c62811	-1.374987e-15
107	0x299511b3	6.6199996e-14
108	0x9520a71a	-3.2443563e-26
109	0x3c82eaae	0.015981045
110	0xbc311a33	-0.010809469
111	0xbc41885f	-0.011812299
112	0xb7c81d78	-2.385558e-05
113	0x8001ad64	-1.54036e-40
114	0xb5d21a27	-1.5653831e-06
115	0xbc0febe3	-0.008784267
116	0xbc566660	-0.013085932
117	0x3c802e84	0.01564718
118	0x351c726e	5.8281046e-07
119	0xbc92044f	-0.01782432
120	0xbc386f98	-0.011257075
121	0x8000a34a	-5.8577e-41
122	0xbc37676a	-0.011194089
123	0x3c9c1ace	0.01905575
124	0x3832b427	4.2606287e-05
125	0x3cad3e09	0.021147745
126	0xbc6c43ca	-0.014420459
127	0x3cac718f	0.021050243
128	0xbc9812e7	-0.0185637
129	0x80145010	-1.865431e-39
130	0x2fc85f43	3.6447476e-10
131	0xbc90c44b	-0.017671725
132	0xbc9cc6b5	-0.01913772
133	0xbc917189	-0.017754333
134	0xbc8f00c0	-0.017456412
135	0x3c259c70	0.010108098
136	0x8004bf38	-4.35938e-40
137	0xbc7de608	-0.015496738
138	0xbc676a18	-0.014124416
139	0x3c9c5aa9	0.019086199
140	0x0000a826	6.032e-41
141	0x3cbae7a8	0.02281554
142	0xbc91eac5	-0.017812142
143	0x39c40c90	0.00037393393
144	0x3c186453	0.009301263
145	0xbc808f95	-0.015693465
146	0xbc89128b	-0.016732475
147	0xbc81bb02	-0.015836243
148	0x3ccb310b	0.024803659
149	0xb6e2430c	-6.74313e-06
150	0xbc91d3f2	-0.017801259
151	0xbc8aff0b	-0.016967317
152	0xa935fb76	-4.040818e-14
153	0xb86ecd36	-5.693474e-05
154	0x31184b12	2.2161584e-09
155	0xb4ab8fe1	-3.1955918e-07
156	0xbc2c8c11	-0.010531441
157	0x80019775	-1.46168e-40
158	0x3c838c3e	0.016058084
159	0x80022545	-1.97041e-40
160	0x37bf0709	2.277225e-05
161	0xbc496c52	-0.012293892
162	0xbc91d449	-0.01780142
163	0x3bfd5289	0.007730786
164	0xb2742e3b	-1.4213181e-08
165	0x3023f3b9	5.9645405e-10
166	0xbc7f6b20	-0.015589505
167	0x3b8a212e	0.004215381
168	0xbc443c06	-0.011977201
169	0xbbaae12f	-0.0052148323
170	0x3ba3d074	0.004999215
171	0x3cedb83b	0.029018512
172	0x3c95cf13	0.018287217
173	0xbbf0fcf8	-0.007354375
174	0xaf8acf69	-2.5249428e-10
175	0x3c650bda	0.013979876
176	0xbca7ace5	-0.020468185
177	0xaa3549cf	-1.6101637e-13
178	0x3c4a9f1b	0.012367035
179	0x3c6b0dcf	0.014346554
180	0x3ba5cca5	0.005059796
181	0x3c969576	0.018381815
182	0xacb16e68	-5.0429e-12
183	0x3c40057d	0.0117200585
184	0x3c2b4735	0.010453989
185	0x3c8ee12a	0.017441351
186	0x00016571	1.28226e-40
187	0xb1a8f6ec	-4.9175153e-09
188	0x0001472a	1.17364e-40
189	0x8002a205	-2.41793e-40
190	0xbc8e25b4	-0.017351963
191	0xb8c442e3	-9.358467e-05
192	0xba468ae9	-0.00075738
193	0x00061a0a	5.60354e-40
194	0xbbe30f45	-0.0069293105
195	0xac825bed	-3.705028e-12
196	0x341f3d8e	1.4830422e-07
197	0xbaeda9c3	-0.0018132258
198	0x3c4d62dd	0.012535778
199	0xbc82a09d	-0.015945727
200	0xb1134e17	-2.1435704e-09
201	0x3c50de31	0.012748287
202	0x3ca3feae	0.020018902
203	0x3b8595ba	0.0040766867
204	0xb93615ff	-0.00017365067
205	0xbc45b0da	-0.0120660905
206	0xbcae5e30	-0.021285146
207	0xba3f8882	-0.0007306413
208	0x31be1475	5.5320535e-09
209	0xbc5d2f91	-0.01350011
210	0x8002520f	-2.13108e-40
211	0xbc00508f	-0.007831707
212	0x385d92ce	5.282723e-05
213	0x800200de	-1.83982e-40
214	0x3c11f3e1	0.008908243
215	0x2afd7fa0	4.5030386e-13
216	0x80007a4b	-4.387e-41
217	0xbc8f75ae	-0.017512169
218	0xbaa17cb1	-0.0012320486
219	0x3c67e3f7	0.014153472
220	0x3a9e76a4	0.0012089801
221	0xbc0e1137	-0.0086710965
222	0x2fb6e296	3.3266606e-10
223	0xbc8db099	-0.017296122
224	0x3cefdb23	0.029279297
225	0x2d9871ec	1.733099e-11
226	0x3c1bcb67	0.009508944
227	0x93506e75	-2.630775e-27
228	0x00015512	1.22353e-40
229	0x3cbb846c	0.022890292
230	0x3c67f84c	0.01415832
231	0x3c8a11fe	0.016854282
232	0xb8443731	-4.6781443e-05
233	0xbc84f91e	-0.01623207
234	0xbc87b636	-0.016566377
235	0xbbb77d33	-0.0055996417
236	0xbc7cec69	-0.015437224
237	0x3d182fa1	0.037154797
238	0xbc9eeff5	-0.01940153
239	0x3ccfb3a3	0.025354212
240	0x3bfbd2df	0.00768505
241	0x36bd0db8	5.634236e-06
242	0x3a96111c	0.0011449191
243	0xbc80938f	-0.015695361
244	0x3caa6f3f	0.020805
245	0x3c630f6d	0.013858658
246	0x3c9af9f9	0.018918024
247	0x2620a8dd	5.5740004e-16
248	0x3c3b34a3	0.011426124
249	0x0c0f6b00	1.1048518e-31
250	0xbc7710d3	-0.015079695
251	0x3c897c08	0.016782776
252	0x3c0a3692	0.008435862
253	0x3c3a4f65	0.011371468
254	0xb3d8b149	-1.0090532e-07
255	0x9957a1fc	-1.1147952e-23

fc3.bias f4 [200]
0	0xbc24d56b	-0.010060648
1	0xb9167343	-0.00014348053
2	0x3c03fce8	0.008055903
3	0x3cc0ee8c	0.023551248
4	0xbc45b32a	-0.012066642
5	0xb5a40613	-1.222072e-06
6	0x3b29e416	0.0025923303
7	0xb007bfb7	-4.9385157e-10
8	0xbc32f594	-0.010922808
9	0x3c2a84ce	0.01040764
10	0xbba7a2a7	-0.005115825
11	0x3c901ea7	0.017592741
12	0xb8973ffc	-7.212159e-05
13	0xb68cd68e	-4.1973026e-06
14	0x390fe28b	0.00013721937
15	0x3c81fc5e	0.015867408
16	0x3c6e5aef	0.014548047
17	0x3cb6b149	0.022301333
18	0x3ca76fcb	0.02043905
19	0x3a9e195f	0.0012062005
20	0xbac9546b	-0.0015360242
21	0x3c987dbd	0.018614644
22	0x3ca6b85b	0.02035158
23	0xbaccd38c	-0.0015627011
24	0x3659a775	3.2432993e-06
25	0xbabfd792	-0.0014636389
26	0x3b13dbdd	0.0022561469
27	0xbaee2061	-0.0018167609
28	0xbad35714	-0.0016123974
29	0x3c8c8ce6	0.01715703
30	0x3cb87dad	0.022520864
31	0x3ba69d85	0.0050846958
32	0x3ca3a166	0.019974422
33	0x3c8f1635	0.017466644
34	0x3c175bd6	0.009238204
35	0x3cb4abe4	0.02205462
36	0x3d4ca944	0.04996611
37	0xba9da2b8	-0.0012026643
38	0xbbc6073b	-0.0060433424
39	0x3c6a80c3	0.014312926
40	0xbc291936	-0.010320952
41	0xbada1e56	-0.0016641121
42	0x3c25c418	0.010117553
43	0x3bc59622	0.00602986
44	0x3c87d147	0.016579283
45	0xb9f7c2fe	-0.00047256792
46	0xad3da271	-1.0779475e-11
47	0xb93597b2	-0.00017318016
48	0x3bc8dbd2	0.0061297202
49	0x3b8346e4	0.0040062536
50	0x3c965276	0.018349867
51	0x3c723b6c	0.014784675
52	0x3c1b4ecf	0.009479239
53	0x3d7807a0	0.060554147
54	0xb8e4f1f2	-0.00010916953
55	0xba20e902	-0.00061382365
56	0xbc28a025	-0.010292088
57	0x3bb41777	0.0054959613
58	0x3d80f778	0.06297201
59	0xbc9404d4	-0.018068708
60	0x3c651002	0.013980867
61	0xbb346397	-0.002752518
62	0xb4e85d9b	-4.3281474e-07
63	0x3c10b25a	0.008831585
64	0x3ba9f098	0.0051861517
65	0xba195cf1	-0.0005850336
66	0xbad73204	-0.0016418104
67	0x3c9f4aca	0.019444842
68	0xbba62468	-0.005070258
69	0x3b4f6b4f	0.0031649654
70	0x3b82e854	0.003994981
71	0xbb0715df	-0.0020612401
72	0x3d144946	0.03620269
73	0xbc4989a8	-0.012300886
74	0xbc638e21	-0.013888867
75	0x3c882ade	0.016622003
76	0xbb727772	-0.0036997464
77	0x3b2aaa4b	0.0026041444
78	0xba894170	-0.0010471772
79	0x3aa28b27	0.001240109
80	0x3c99c360	0.01876992
81	0x3d1610df	0.036637183
82	0xb6960f89	-4.472157e-06
83	0x3d6cac40	0.057781458
84	0xba4a93ee	-0.0007727732
85	0xbc44898e	-0.011995686
86	0x3d1ccae9	0.038279448
87	0x3bda430a	0.0066608237
88	0x3c5ada80	0.0133577585
89	0xb6c71c85	-5.9339823e-06
90	0x3c6cd0ea	0.014454106
91	0x3c75ab9e	0.01499453
92	0xbb0a2163	-0.002107703
93	0x3cecb028	0.028892592
94	0x3c9b57cb	0.018962761
95	0x3d22990b	0.039696734
96	0x3b2b2a57	0.0026117766
97	0x3ba43d00	0.0050121546
98	0xbc4b44e8	-0.012406565
99	0x3d5e6156	0.054292046
100	0x3c14fe49	0.009093829
101	0xbbf47021	-0.007459656
102	0xbbc17b5f	-0.0059045996
103	0x3cc766e4	0.024341054
104	0xbb4418e8	-0.0029922072
105	0xbc49e8e8	-0.012323596
106	0xba2d91aa	-0.0006621132
107	0x3b076243	0.0020657934
108	0x3c1b3c94	0.009474892
109	0x3c9fa1f8	0.019486412
110	0x3c7e7b9c	0.0155324
111	0xbb481ab8	-0.0030533504
112	0xb9287266	-0.00016064345
113	0x3b990be0	0.004670605
114	0x3d2a880d	0.041633654
115	0xb8e3ed93	-0.00010868455
116	0xba49a4c7	-0.0007692095
117	0x3cba6eb6	0.02275787
118	0x3cbf4b9f	0.023351489
119	0x3c952745	0.018207202
120	0x3c6da296	0.014504096
121	0xb74c864b	-1.2190615e-05
122	0xbbe83d17	-0.0070873606
123	0x3bacf289	0.005277936
124	0x3a58c7b3	0.00082695036
125	0x3c971ff7	0.01844786
126	0x3b626625	0.0034545746
127	0xbcaf8c85	-0.02142931
128	0xbbd45c97	-0.006480764
129	0x3d223cf1	0.0396089
130	0x3b221313	0.0024730607
131	0x3c01c869	0.007921317
132	0x3c7c8a56	0.015413841
133	0x3c15e647	0.009149141
134	0xb61bac29	-2.319701e-06
135	0x3ac0d07c	0.0014710571
136	0xbbc451bf	-0.00599119
137	0x3d656885	0.05600788
138	0xbb2ff2e6	-0.002684766
139	0x3bfcbc04	0.007712843
140	0xbaac9d20	-0.0013169385
141	0x3c984d39	0.01859151
142	0x3ac96e21	0.0015367904
143	0x3c77c74a	0.015123198
144	0x3d523538	0.051320285
145	0x3ca33881	0.019924404
146	0xb7a19bfd	-1.9265333e-05
147	0x3c017b6a	0.007902959
148	0xbb6ea22f	-0.0036412587
149	0x3c0c9031	0.0085793
150	0xbc4b3252	-0.012402134
151	0x39d38fb3	0.0004035212
152	0xbacc62ef	-0.0015593449
153	0xbc12bf42	-0.008956732
154	0x3cd02f24	0.025413103
155	0x3d5a3012	0.0532685
156	0xb81d0693	-3.743784e-05
157	0xbbe4ecea	-0.00698625
158	0xbb2ee9b1	-0.0026689584
159	0x3c15956c	0.009129863
160	0xb56e69f1	-8.8816074e-07
161	0x3c3bdd15	0.011466284
162	0x3c965dd3	0.018355286
163	0x3cb873cd	0.022516156
164	0x3c5b8203	0.013397696
165	0x3c837e7e	0.016051527
166	0x3c8c8c08	0.017156616
167	0x3c729e28	0.014808215
168	0xbb1fb832	-0.0024371264
169	0x3d786821	0.06064618
170	0x3baa6118	0.0051995628
171	0x3cdb0ea8	0.026740387
172	0xba1b6924	-0.0005928448
173	0x3d483ca5	0.04888596
174	0x3d4ddbb4	0.050258353
175	0xba9b825a	-0.0011864409
176	0x3cd121d2	0.025528822
177	0xbc2c584e	-0.0105191
178	0x3c8b0eab	0.016974768
179	0xbbedab3e	-0.0072530797
180	0x3cc6d10d	0.024269605
181	0x3c943169	0.018089967
182	0xba259a0d	-0.0006317206
183	0x3c198911	0.009371058
184	0x3d27981d	0.04091655
185	0x3c5ab6a8	0.013349213
186	0x3b4919bf	0.0030685512
187	0x3c3cb8da	0.011518681
188	0x3cb62420	0.022234023
189	0x3c46398c	0.012098681
190	0x3b96e8d8	0.004605394
191	0xbc19beb2	-0.009383844
192	0xb808dee6	-3.2632517e-05
193	0x396d2cea	0.00022618813
194	0xb6886dd6	-4.0659024e-06
195	0x3c546231	0.012962864
196	0xba24bf03	-0.00062845665
197	0xb80b1f29	-3.3169203e-05
198	0x3ca8388c	0.020534776
199	0x3c14b5e0	0.0090765655

fc4.weight f4 [1, 200]
0	0xbdcb1234	-0.09915581
1	0xb7fbf280	-3.0034455e-05
2	0xbdaa8e54	-0.08327928
3	0x3e530b1e	0.2060971
4	0xbdbf2408	-0.09333044
5	0x39485b2b	0.00019107449
6	0xbdb80315	-0.08984963
7	0xb9843efc	-0.0002522393
8	0xbdc46340	-0.09589243
9	0xbdc6fd9b	-0.0971634
10	0xbdc77ce7	-0.0974062
11	0x3e5365ca	0.20644298
12	0xb729bf22	-1.01176865e-05
13	0x3aac3ed6	0.0013141285
14	0xbdc54943	-0.09633114
15	0xbdc144ed	-0.09436975
16	0xbd8ffd36	-0.07030718
17	0x3e579d01	0.21055986
18	0x3e540939	0.20706643
19	0xbdb5ddd9	-0.08880205
20	0xba5e15c5	-0.0008471872
21	0xbdc057ab	-0.09391721
22	0xbdd077e9	-0.10179121
23	0xbdbf12bc	-0.09329745
24	0xb8d7fa31	-0.00010298601
25	0xbdc46352	-0.09589256
26	0x3e43e2cc	0.19129485
27	0x3a76783a	0.00094020704
28	0xbdbdbe35	-0.09264795
29	0xbdbfe378	-0.09369558
30	0x3e1dc8a1	0.15408565
31	0xbea994c0	-0.331213
32	0x3e552fd1	0.20819022
33	0xbdc3e1d0	-0.09564555
34	0xbdb4c108	-0.0882588
35	0x3e504f87	0.20342837
36	0xbe61ce28	-0.22051299
37	0xbae45861	-0.0017421358
38	0xbdb39d9a	-0.087702945
39	0xbdc98dd4	-0.09841505
40	0xbdc54d3d	-0.09633873
41	0xbdbb02ac	-0.09131369
42	0xbdb48d09	-0.08815963
43	0x3e4c53e9	0.19953884
44	0xbdc8815e	-0.097903
45	0xb9e09e35	-0.00042842483
46	0x36d2e93b	6.2856393e-06
47	0x3a48a142	0.0007653424
48	0xbdc37e54	-0.095455796
49	0xbdc241b7	-0.0948519
50	0xbdc96e2d	-0.098354675
51	0xbdc7e3dd	-0.09760258
52	0xbdc875ae	-0.097880706
53	0xbe4cc093	-0.19995336
54	0x3a1d986d	0.0006011788
55	0xbab9b65c	-0.0014168727
56	0xbdd9d637	-0.10636561
57	0x3e4ff68d	0.20308895
58	0xbe61802d	-0.22021551
59	0x3e479d61	0.19493629
60	0xbdcf4a6b	-0.10121616
61	0xbdc88acf	-0.09792101
62	0xbaa5cdc4	-0.0012649824
63	0xbdb7ec17	-0.089805774
64	0xbdcacec2	-0.09902717
65	0x3a8a8ed5	0.0010571132
66	0xbdc4f133	-0.096163176
67	0xbdcbaedf	-0.099454634
68	0xbdd04641	-0.1016965
69	0xbdbc501e	-0.09194969
70	0xbdc6c95b	-0.09706374
71	0xbdc67946	-0.096911
72	0x3e54e42a	0.20790163
73	0xbdb35038	-0.08755535
74	0xbdbffae0	-0.093740225
75	0xbdb986b3	-0.09058895
76	0x3e48b882	0.19601634
77	0xbdca698e	-0.09883414
78	0xbdc0ab5b	-0.094076835
79	0xbdc74849	-0.09730584
80	0xbdb54f53	-0.088530205
81	0x3e48b1eb	0.1959912
82	0xb70b514b	-8.303973e-06
83	0x3e53ef4d	0.20696755
84	0x3a6417f4	0.0008701079
85	0xbdbfc04f	-0.09362852
86	0x3e500184	0.20313078
87	0xbdcfd34e	-0.10147725
88	0xbdb4dee8	-0.088315785
89	0xb8b419b2	-8.587855e-05
90	0xbdd34f93	-0.10317912
91	0xbdc2ff1b	-0.09521314
92	0xbb21616b	-0.0024624716
93	0x3e524397	0.20533596
94	0xbdc51913	-0.09623923
95	0xbe33b823	-0.17550711
96	0xbdbb2b69	-0.09139139
97	0xbdcd94ee	-0.10038172
98	0xbdc349f3	-0.09535589
99	0xbe482905	-0.19546898
100	0xbdcdb732	-0.10044707
101	0x3e5199e5	0.20468862
102	0xbdc2cd7a	-0.09511848
103	0x3e4ca093	0.19983129
104	0xbdbfbdbc	-0.09362361
105	0xbdd21642	-0.102581516
106	0x3a3d635e	0.00072245847
107	0xbdc38cd5	-0.09548346
108	0xbdcec92c	-0.10096964
109	0x3e4f1cb5	0.20225795
110	0xbdbb3407	-0.09140783
111	0xbdb53e9a	-0.08849831
112	0x3a68fd7f	0.00088878715
113	0x3e53c79d	0.20681615
114	0xbe63f103	-0.22259907
115	0xb7a5c002	-1.9758943e-05
116	0xb9f3f5ae	-0.00046531617
117	0x3e51dbd1	0.2049401
118	0x3e4da092	0.20080784
119	0xbdad11d8	-0.08450669
120	0x3e47e4dd	0.19520898
121	0xbaa41e21	-0.0012521186
122	0xbdc09411	-0.094032414
123	0xbdcd1090	-0.10012925
124	0x3e531f3b	0.20617382
125	0xbdbdc870	-0.09266746
126	0xbdc0bfcb	-0.094115816
127	0x3e55402f	0.20825265
128	0x3e485950	0.1956532
129	0x3e56227a	0.2091159
130	0xbdc60e1a	-0.096706584
131	0xbdb334cc	-0.087503046
132	0xbdb9a21d	-0.09064124
133	0xbdbb2ff2	-0.09140004
134	0x36c5fb9a	5.900348e-06
135	0xbdc5b7a6	-0.09654169
136	0xbdc1456a	-0.09437068
137	0xbe4ae5dd	-0.19814248
138	0xbdc67c4b	-0.09691676
139	0xbdc43040	-0.095795155
140	0xbdbe9b18	-0.093069255
141	0xbdcb96eb	-0.09940895
142	0xbdb6bed6	-0.08923118
143	0x3e55e03f	0.20886324
144	0x3e43b4e4	0.19111973
145	0x3e98dbdc	0.2985524
146	0x3b2ff9cc	0.0026851771
147	0x3e4f5b8d	0.20249768
148	0xbdbb12a8	-0.09134418
149	0xbdc6d68c	-0.0970889
150	0xbdc627a0	-0.096755266
151	0xbcfb3f16	-0.03066973
152	0xbdb7494f	-0.089495294
153	0xbdcf5835	-0.10124246
154	0x3e34943f	0.17634676
155	0xbe46ad6e	-0.19402096
156	0x3898c22d	7.284093e-05
157	0xbdba86f3	-0.09107771
158	0x3e412961	0.18863441
159	0xbdbde46c	-0.09272084
160	0x35373cee	6.8261477e-07
161	0xbdae62fe	-0.08514975
162	0x3e5177d3	0.20455866
163	0x3e52a905	0.20572288
164	0xbdb703c0	-0.08936262
165	0x3e46e800	0.19424438
166	0xbdc98666	-0.098400876
167	0xbdb3505f	-0.08755564
168	0x3e491efe	0.19640729
169	0xbe435681	-0.19075967
170	0xbdaf76a8	-0.08567554
171	0x3e4bd2de	0.19904658
172	0x3e576335	0.21033938
173	0x3e497c0a	0.19676223
174	0xbe233fc6	-0.15942296
175	0x3e4df8b6	0.20114407
176	0xbdd87f78	-0.10571188
177	0xbdcc0bac	-0.09963164
178	0xbdbec777	-0.09315389
179	0xbdc88ef7	-0.097928934
180	0x3e51ffa9	0.20507683
181	0xbdc74a08	-0.09730917
182	0x39b4fe4b	0.00034521738
183	0x3e4e9fec	0.20178193
184	0x3e50afde	0.20379588
185	0xbdb25919	-0.087084
186	0xbdb84d79	-0.08999152
187	0xbdc44d65	-0.09585074
188	0x3e500546	0.20314512
189	0xbda9f024	-0.08297756
190	0xbdc66c4c	-0.09688625
191	0xbdcf1f65	-0.1011341
192	0xb70f6501	-8.546981e-06
193	0x365350e7	3.1488541e-06
194	0xb6c3f8eb	-5.8404307e-06
195	0xbdc54da8	-0.096339524
196	0x382036b0	3.8197904e-05
197	0xb822fd07	-3.885946e-05
198	0x3e4aa564	0.19789654
199	0xbdb818ab	-0.0898908
