checkpoint_actor.pth (torch, 503007 bytes, 6 tensors)

fc1.weight f4 [400, 9]
00000000: 3740 943d e2be 113c d7ff eebc beb2 54bd
00000010: b44f 00be 47b9 ff3d c8b2 90bc 7c6e 6ebd
00000020: 635f b73d 80a5 563e cd7d c13d 48d6 23be
00000030: b8b7 fabd e394 573d a80d 253e 5713 cabb
00000040: 6b00 4ebe 62e5 373e 53a0 9c3d 9e70 333d
00000050: eefe a8bc f103 e5bc 0bbb e83d c99a e3bd
00000060: 167a 313d 6b9c bf3d 5e68 a43b e75b f6bc
00000070: 50e7 e03b 4c7d 7c3c 80c3 efbc c2e9 ec3c
00000080: c28c dc3c 5895 2bbd 2c88 483c f2da a73c
00000090: f7e7 2b3d 8e93 9a3c 73d8 1cbd 08a7 0abc
000000a0: b4f9 183c 0514 4abd abc5 2fbd 583c 30bc
000000b0: a9aa 253d 7a8f cb3d da10 973d 98d4 d5bb
000000c0: aa39 70bd 1296 1bbe e31b 243e 685c 2a3c
000000d0: ac41 953c d415 853d 5496 52bc 355d 38bd
000000e0: 6af0 9abc dcfb 0bbd 3ad4 dfbc f0c8 91bc
000000f0: 2078 d0bc 742d 70bc c58c 043d 9bfe 1f3e
00000100: 28f8 1ebe 1690 1bbc ba74 3f3c f462 af3b
00000110: 7534 cbbe 34d5 903d 62b0 863e 5225 313c
00000120: 4162 e23d c4d4 18bc e223 e3bc 97f6 33bc
00000130: f781 35be 7784 353e be14 d93b 5e5f 53bd
00000140: 86a5 0c3d bf57 0cbe bda2 2bbd d18f 043e
00000150: 2f13 a9bd 8f0b cd3d d29e 183c 7bcb 0a3d
00000160: 787d 083e c059 d9bc 9444 313c 3d5d 1cbd
00000170: 15f2 33bd f86f 7dbc 4008 b0ba 60fe 493b
00000180: fd3c 37bd cc73 3ebc f656 9d3c 394d a93d
00000190: 2f00 1c3c f9c5 1bbe 78f9 f3bc 3b07 e33c
000001a0: 77a3 d1bc 766f 3d3d 9340 1bbe 4911 843d
000001b0: 4252 2abd c483 bbbc 7726 643d 26d5 7c3d
000001c0: 6e83 05be 6172 1a3e 90d9 323d 62bb 96bd
000001d0: f633 9e3c 8475 583d b4b5 1d3d 3a56 443c
000001e0: 43b4 94bd 7108 1ebe 7de5 f03d 6b7e 36bd
000001f0: 8141 20bc a165 843d 4e3e 193e b369 41bd
00000200: 16d6 fabd b71f 27be 75e8 01bc 0a33 ac3d
00000210: 4117 b73d fe0e f8bd 2540 553d dafe 87bd
00000220: 90d0 60bd c39c 3c3d c532 f63c 59e9 1d3d
00000230: ab2f 87bd 1f56 9f3d 16bd ce3d 3bf6 77bd
00000240: 7047 33bd b873 aabd 34c2 10be 18ad 303b
00000250: 8f3b b73d 13eb 8ebd a44c 3d3d 0897 06bd
00000260: d0a9 8a3c bb7e dcbd 2491 29be a484 873d
00000270: 7e77 563d d406 6d3e 96a1 0dbd cc30 45bb
00000280: 1361 423c c8be 23bd 684a b93b 8370 3b3d
00000290: f1d3 1d3d d089 6cbb 3624 d13c 5102 4b3d
000002a0: 1d19 f3bc e0ca 21bb 986d 3bbd 916a 82bd
000002b0: 8c82 2dbd 2811 82bd 6941 2c3c 7fb9 c6bd
000002c0: b80f 2e3e c4ab e0bc 424f 8fbc a75a 22bd
000002d0: 52ba 2cbd 8396 11bd 86a3 cf3c 9fb7 2f3d
000002e0: 43f7 41bd 8c53 643c 36e1 ab3c 4bae 1bbd
000002f0: 62a6 c93c 72b5 17bd 8bdb 34bd dcd1 043d
00000300: ec86 853c bd0e f23d 5652 49bd 04f1 d63c
00000310: 5892 083d 59ae c0bd 683a 60bc 8348 2a3d
00000320: c416 663c 32e5 c33c 12d9 4bbd edae 43bd
00000330: a2f2 2cbd 601a 09bd e2ce 903c f9c0 023e
00000340: ad0e e03d 3d79 0dbb 260a febc e4d3 25be
00000350: c456 403e 769b 2b3d 3749 7abd 34bd e93c
00000360: 88aa 26bc a0eb 3ebd c0d9 a5ba 90fc bcbb
00000370: 2530 043d dbc9 43bd 4a8f a13c cf77 38bd
00000380: 5296 fa3c 23e0 2b3e 1299 12be ba43 c53d
00000390: 1ba9 90bc 3e66 fcbc bfb7 58bd 5e0d bf3d
000003a0: a037 0c3e ac20 bcbc d0b8 a63b 4f62 2c3d
000003b0: f2f7 d93c f6cf 8ebc 00b1 af3b fa4b bebc
000003c0: 0726 3e3d a83f 08bd 48e4 53bc 604b 543e
000003d0: 6b3c 8ebe fd85 623e 4d04 f93d 73fb 7e3c
000003e0: 2201 b9be bfc5 8a3d 8e0b 553e 2769 d7ba
000003f0: 3694 863d 1697 413d 99cb a3bd c799 ad3c
0.072388105 0.008895608 -0.029174728 -0.051928274 -0.12530404 0.12486511 -0.017663375 -0.058210835
0.089537404 0.2096157 0.09447823 -0.1599971 -0.12242073 0.052632224 0.1611849 -0.0061668563
-0.20117347 0.17958596 0.07647767 0.043808572 -0.020629372 -0.027955981 0.113638006 -0.11113507
0.04332932 0.09356006 0.0050173244 -0.03007312 0.006863512 0.0154107325 -0.029268026 0.028920058
0.026922587 -0.041890472 0.012239497 0.020490143 0.041969266 0.018869188 -0.03829236 -0.008462675
0.009336878 -0.0493355 -0.04291312 -0.010756575 0.040445957 0.09939475 0.07376261 -0.0065255873
-0.058648743 -0.15193966 0.16026263 0.010398008 0.018219791 0.06498304 -0.012853224 -0.045010764
-0.018913466 -0.03417574 -0.027322877 -0.01779601 -0.025447905 -0.014659274 0.03236081 0.15624468
-0.15524352 -0.009494802 0.011685545 0.0053523723 -0.3968846 0.07071915 0.26306444 0.0108121205
0.11053897 -0.009328071 -0.027727071 -0.010984085 -0.17725359 0.17726313 0.006624787 -0.05160462
0.034337543 -0.13705347 -0.041903246 0.12945487 -0.08255612 0.1001197 0.009315209 0.03388546
0.13329113 -0.026532054 0.010819573 -0.038174856 -0.04393204 -0.01546859 -0.0013430193 0.0030821785
-0.044735897 -0.011624288 0.019206505 0.08266682 0.009521528 -0.1521224 -0.029782042 0.027713409
-0.025590641 0.046248876 -0.15161352 0.064486094 -0.041582353 -0.02288998 0.055700745 0.06172671
-0.13038418 0.15082695 0.043664515 -0.07359959 0.019311886 0.052846447 0.038503364 0.011983449
-0.07260945 -0.15432908 0.117625214 -0.044554155 -0.009781242 0.06464697 0.14965174 -0.047219943
-0.12247865 -0.16320692 -0.007928957 0.084081724 0.08939982 -0.121122345 0.052063126 -0.06640406
-0.0548864 0.046047937 0.030053506 0.038552616 -0.06600889 0.07780098 0.10094659 -0.060537558
-0.0437693 -0.08322853 -0.14136583 0.002695864 0.08946907 -0.069784306 0.04621567 -0.03285888
0.016926676 -0.107663594 -0.16559273 0.06617096 0.05236005 0.23147136 -0.03457793 -0.00300889
0.011863965 -0.039976865 0.005654622 0.045761596 0.0385322 -0.0036092885 0.025529962 0.049562756
-0.02967506 -0.0024687573 -0.045758814 -0.06367982 -0.042360827 -0.063509285 0.010513642 -0.09703349
0.16998184 -0.027425654 -0.017493848 -0.039637234 -0.042169876 -0.03554393 0.025346529 0.042899724
-0.047354948 0.013935935 0.020981412 -0.038008016 0.02461547 -0.037038274 -0.044154685 0.0324267
0.016299687 0.11819217 -0.049150787 0.026237972 0.03334269 -0.09408254 -0.0136858 0.04157306
0.014043514 0.023913 -0.04976756 -0.047774244 -0.04222358 -0.03347242 0.017676774 0.12768926
0.10940299 -0.0021587156 -0.031010699 -0.16194111 0.18783098 0.041896306 -0.06110498 0.028532602
-0.010172494 -0.04661143 -0.0012653396 -0.0057674125 0.032272477 -0.047799926 0.019721646 -0.045036133
0.030589256 0.1678472 -0.14316204 0.096320584 -0.01765876 -0.030810472 -0.05290961 0.093287215
0.13693094 -0.022964798 0.0050879493 0.042085942 0.026607487 -0.017433148 0.005361676 -0.023229588
0.046422984 -0.033263832 -0.012932844 0.20731878 -0.2778047 0.22121425 0.121590234 0.01556288
-0.36133677 0.06775998 0.20805189 -0.0016434536 0.06571238 0.047263227 -0.079978175 0.02119149

fc1.bias f4 [400]
00000000: fd53 3b3e 9d3e 0cbc 9b26 333e 5362 66be
00000010: 6eb0 99be 0905 c83d 3b32 a3be 9ce1 383e
00000020: 561a 5c3c 48b4 843d 9680 18be 840a b63d
00000030: 0267 15be 3736 673e 07cf 92b9 6226 5f3d
00000040: 4659 c23d 26e1 87bd 1a51 88be e00b e43c
00000050: 9699 82be 0c70 903d f35b 6dbe b426 4bbd
00000060: ac70 8abe 20a6 133e 5b08 8fbe cd95 a6bd
00000070: f7f2 08bd 81fe 903d be2e 883e 91ef e7bc
00000080: 94ea 813e 2605 10bd d80e f23d 5c5d dd3d
00000090: 8fe5 953e 7fc1 573d ca79 8c3c 5ff3 933e
000000a0: c051 973e 1079 9cbe 85da 853e 5416 bbbd
000000b0: e9f3 a13e f73f 983e 7b08 a0be f886 8b3e
000000c0: 58ae 9dbd 26ad 503e 7583 8abc cb86 3dbe
000000d0: f3df 8cbe 6fc3 d93d cde3 0b3e 247b 003e
000000e0: 434b 6cbe 9a38 a6be 0654 5fbe 3e56 84be
000000f0: 30de 973d 4a34 84be de66 5fbe b725 a4be
00000100: 416e 773e 9c1e 82be 562d 8dbd 4a13 14bd
00000110: bbad 783e 84cf 623e bef9 57be c55b 48bd
00000120: 5059 a53e 112a 92bd 2034 b6bd 097c 8dbd
00000130: b302 5a3e b4a5 173d 4cf0 8c3d 10ad 37be
00000140: 525f 963e 4b9e 093e 675b f2bd 2025 053e
00000150: 0282 873e d367 debc 43ed 8fbe b48e 89be
00000160: ba01 8c3e bb2b 1ebe 0056 8fbe 28d1 a0be
00000170: 1c83 873e 26da 073c 5683 c0bb 924e 1d3e
00000180: c627 493e 3d7a 24be 2b21 2dbc 549a 81be
00000190: 5d24 783e f325 263e 68b4 88be 0e0c 5f3e
000001a0: 994e 413d 1118 d8bd 3ad8 88be 457d 8c3e
000001b0: f305 86be 53ff a13e 6dd0 db3d a36d 65be
000001c0: 60d4 50be cbe2 56be a865 863d 0f31 353e
000001d0: b274 81bd 8ba4 8e3d 5a19 ce3d db6e 463e
000001e0: dd63 853e 963c 923e f6f6 053c ca5a 9f3e
000001f0: 5939 2a3e b7c0 8f3e 59c9 cbbd ff08 0fbd
00000200: 1d0a 443c fec1 90be 8659 47bd 0436 0cbe
00000210: 3561 bf3d 5250 ae3e c391 98be a924 09be
00000220: 1abe 97be 6d12 a53e 320c 173d 17c0 1f3e
00000230: aa33 813e 1a45 53bd 5345 323e 56c5 5ebe
00000240: 1b5d 7fbe a023 823c 0961 9f3e f95c 523e
00000250: 638c 863d 52eb e53c 12ed 703e b2cb 943d
00000260: cb78 5a3e 7d66 07be a5ca c03d 1f09 493e
00000270: 24cf 9a3e f3c5 a83e 8056 843e 0fca a43e
00000280: aeb0 56be 43f0 43bd 73c4 833e fde8 ec3d
00000290: 489e 823e 1e21 43bd e44e 643e 3e84 a43e
000002a0: dbb9 4fbd 7acb 99be dd83 4a3b def7 8c3e
000002b0: c8eb 73be ba75 9abd 40b3 393e 2fc0 663e
000002c0: 0a1e 2dbe 766b 103e 7387 c83d 9ec7 9d3e
000002d0: dafe ad3e fa83 ee3d 0285 1dbe 2834 0d3e
000002e0: a7aa 4a3e cda7 ba3d 1ae8 053e 244f 00bd
000002f0: 9f03 9bbe 2e16 3ebe 1e06 74be 080a 403e
00000300: 7c62 a1be 92d1 65bd 1f8e 0ebe 4e8e 883c
00000310: a5a4 ae3d 96dc 8dbe 117d 8fbd bfeb a13e
00000320: b334 57bb d2f5 063e 9283 8cbe 5eb2 283d
00000330: 244c 5f3d dc07 503e b2cf 083c e71d 39be
00000340: 23a0 39be cb98 e6bd 6188 3d3e 830f 5cbe
00000350: 4ef7 383e f9fc 82bd d790 7c3e ea29 b63d
00000360: edea c0bc eb1c dfbd 32dd 26be 07a7 87be
00000370: 1924 6e3e 38fd 94be 1772 833e 18a8 5cbe
00000380: c372 1abe a319 7e3e 666f 95be 748d 853d
00000390: 7e38 9b3e e7a5 a3be fec6 6abe f943 1bbe
000003a0: d3bd 1ebe daf1 c0bd 6280 9ebe 99e4 0ebc
000003b0: 4621 42be b513 713e 5af9 3c3e 3492 213e
000003c0: 1b40 94be f45d 83be c6da 793e dab1 9c3e
000003d0: 60e0 093e cc67 cbbd 3d57 7a3e 1011 54be
000003e0: 738a a0be 8572 3c3e a8a1 6dbe 9660 85be
000003f0: ebcd a3be 9fae 0fbe 13b9 4f3e bcab 443c
0.18293758 -0.00855985 0.17495196 -0.22498445 -0.30017418 0.097665854 -0.3187426 0.18054813
0.013434013 0.064796984 -0.14892802 0.088887244 -0.14590076 0.22579275 -0.00028001537 0.054479964
0.09489684 -0.066347405 -0.26624376 0.027837694 -0.25507802 0.07052621 -0.23179607 -0.049597457
-0.27039087 0.1441884 -0.27936062 -0.08134041 -0.033434834 0.07079793 0.2659816 -0.028312476
0.2537428 -0.03516116 0.118192375 0.108088225 0.29276702 0.052674767 0.017147917 0.28896615
0.29554558 -0.30561113 0.2614328 -0.09135118 0.316314 0.297363 -0.3125647 0.2725141
-0.07699269 0.20378551 -0.016908387 -0.1850845 -0.2751461 0.10632979 0.13661118 0.12546974
-0.23075585 -0.3246506 -0.21809396 -0.25847048 0.07415426 -0.25821143 -0.21816584 -0.32060024
0.24163152 -0.25413978 -0.06893413 -0.036151208 0.24285023 0.22149473 -0.21091363 -0.048915643
0.32294703 -0.0713693 -0.08896661 -0.069084235 0.21290092 0.03702326 0.068817705 -0.17937112
0.293696 0.1343929 -0.1183384 0.13002443 0.26466376 -0.027149117 -0.28110704 -0.26866686
0.27345067 -0.1544637 -0.279953 -0.31409574 0.26467216 0.008291757 -0.0058750315 0.15362003
0.19644079 -0.16062255 -0.01056699 -0.25313056 0.24232621 0.16225414 -0.2670014 0.21781942
0.047194097 -0.10551465 -0.26727468 0.27439323 -0.26176414 0.3164011 0.107331134 -0.22405104
-0.20393515 -0.20984952 0.06562358 0.17694496 -0.06321086 0.06964978 0.10063429 0.19378226
0.26052752 0.28561848 0.008176556 0.31123954 0.16623439 0.28076717 -0.099505134 -0.03492069
0.011965302 -0.28273004 -0.04866936 -0.1369248 0.09344713 0.34045655 -0.29798707 -0.13392891
-0.29637223 0.3224062 0.036876865 0.1560062 0.2523473 -0.051579572 0.17409258 -0.21754965
-0.2493786 0.015886128 0.3112872 0.20543279 0.065697454 0.028066311 0.23527935 0.07265414
0.21335141 -0.1322269 0.094136514 0.19632386 0.3023616 0.32963523 0.25847244 0.32185408
-0.20965835 -0.047836553 0.25735816 0.115678765 0.25511384 -0.047639005 0.2229572 0.32132143
-0.050714355 -0.30038053 0.003090135 0.27532858 -0.23820412 -0.07541986 0.18134785 0.2253425
-0.1690599 0.14103493 0.0979146 0.30816358 0.339835 0.11646266 -0.1538277 0.13789427
0.19791661 0.09114037 0.13076821 -0.031325474 -0.302762 -0.18563148 -0.23830459 0.18753827
-0.3152045 -0.056108065 -0.13921402 0.016669419 0.08527497 -0.27707356 -0.070062764 0.31625172
-0.0032837808 0.1317971 -0.2744413 0.04118573 0.054515973 0.20315498 0.0083503 -0.18077813
-0.18127494 -0.11259612 0.18509056 -0.21490292 0.18063089 -0.06395907 0.24664627 0.08894713
-0.023549521 -0.108941875 -0.16295317 -0.2649462 0.23255958 -0.2909944 0.2567298 -0.21548498
-0.1508284 0.24814467 -0.29186553 0.06521121 0.30316538 -0.3196251 -0.22927472 -0.15162648
-0.155021 -0.094211295 -0.30957323 -0.008721494 -0.18958005 0.23542674 0.18454495 0.15778428
-0.2895516 -0.25657618 0.24399862 0.3060444 0.13464499 -0.09931907 0.24447341 -0.20709634
-0.31355628 0.1840306 -0.23206198 -0.26050252 -0.3199304 -0.14031456 0.20285444 0.012003835

fc2.weight f4 [300, 400]
00000000: 4d56 3a3d 2f1c 8c3e ffe6 8e3c d84f e2bb
00000010: 40ac cd3b 3ece 66bd 709e d73b c215 633d
00000020: d926 eb3c 0062 9e3b 8fda eabc a757 e23d
00000030: 5c4a 98bd a360 d43c 710b 353e d0aa 0d3d
00000040: ff40 0d3e eec9 65bd 70f3 a23c a4c8 a73c
00000050: 6ced 51bd 48ec f13d 436b 05bd 4254 d5bd
00000060: 242d b1bc a062 aa3c 9032 2f3c 0aa4 d7be
00000070: eee8 243b 61de 6f3e 3ece 483d 75a7 20bd
00000080: ab7e dd3d 78fe 473e ea6d 203c af21 67bd
00000090: ca11 b13d 9841 a9bd fef3 883e c956 d73c
000000a0: c4e3 ac3d 7874 3fbc 0eac bdbc 30c5 233e
000000b0: ebcc 333d 2ef5 a93d c9f0 dbbc 1478 3b3d
000000c0: 6478 083e 5ae1 193e f504 853d f45d a9bc
000000d0: b041 ff3c 2763 2ebd f009 213e bb47 f73d
000000e0: 800f 50bc d6de debc ace9 923c 6afc 0b3d
000000f0: 5c7a ff3c 0816 0abd 0a7f 26bd c070 633d
00000100: 6ccc 903c 7c67 3c3d e460 903d fe6b 3c3d
00000110: 1ccd 3a3e e4cf b53c a0fd 893c c455 11be
00000120: ccbd 2b3d 8ce3 943c f786 833d acd8 3a3e
00000130: 3437 513d 8984 0a3d 6b5c 0d3e 4087 f53c
00000140: c7e6 013d 26af d13d c115 a83c adae b03d
00000150: ce0b 053d d66d df3c ec0a bb3c 6890 683c
00000160: b2dd a33c 28b3 073d 966d 9ebc fc65 3fbd
00000170: 64ba bbbc fc7c 6bbe d20b 05be 434b f9bc
00000180: 144e c23d 9197 cabc bb19 cbbd 803c 293c
00000190: 9621 163e 26af 1abe d075 36bb 9d05 653d
000001a0: 944e 5bbd 3357 a7bd 0680 133d bba5 cc3c
000001b0: 4452 37bc 48ab 823d e30c ca3c b98e 4ebd
000001c0: f0b1 e63c 78c6 2b3c b60e 1bbd 9711 a53e
000001d0: 05fc 933d 190d 053e 834b dabc a5e5 bb3d
000001e0: 12fc 783d 4eef 62bc 2cfd 973e b34d 613d
000001f0: 4f48 103c def0 893d 82e3 4a3c e346 373c
00000200: 6c82 b0bd 003a 17bd fa4b 82bd 7dfa 63bd
00000210: 933a 323e 996a e33d ac97 643d 1089 fdbd
00000220: 7c1b eebc 632a bc3b 913c 84bc 8f15 c33d
00000230: ed51 fe3d 5ec4 9c3e db8a a03d c469 3bbd
00000240: f27d 233d 562a 383d 5ad8 383c 849c 03be
00000250: 3830 453e fed7 f23d 29cc 13bd 08d0 9bbc
00000260: 2e7f 05bc 36c6 0abc 7434 56bc b6db 043b
00000270: b560 613d 30ab 503d 6cfa 5a3d e0d7 193d
00000280: a8e2 8d3b c95d 1a3e e2d8 cdbc 2f6c 083e
00000290: ba94 6f3d a44c c03d 7437 9f3c a84b e03d
000002a0: 125b ecbd 30c8 a43c 02d7 27bc 543a 0cbc
000002b0: a4ff d83c 88e1 9dbe a4b9 3f3d afa4 80bc
000002c0: 9dae 1c3a f78d cdbd eb2a 86bd a181 f03c
000002d0: 333d 443d 04f2 e63c 53cc b23c 0ac7 ddbb
000002e0: d628 a8bc 1622 f03d b542 e0bb 5902 a6bd
000002f0: bed6 483d d468 373d f283 2ebd e677 0a3d
00000300: 4886 9a3c 2a8c 263e 22f0 4e3d 9bd3 633c
00000310: 6326 a9bd cc39 513d 8b60 573d 24c1 ca3b
00000320: 40a1 c33e 32a4 d53d 3ef4 5e3d c752 883d
00000330: a7db 153c 6e23 583e 4096 953b f149 b03d
00000340: c055 903a 415b 93be d956 3b3e c88e bc3c
00000350: c2ce 173e 820b a4be 6197 843d 13d2 00be
00000360: 9ac1 07bd 8f07 283e be01 93bd c472 293d
00000370: 96cc b9bc d036 103d c4d8 83bb 4094 cb3c
00000380: 98cf 4b3d 95a3 403d 4e9a c6bc dda1 f63c
00000390: ec31 4d3d 240f 133d 1fab fbbc 0aff 823b
000003a0: a80f c53c 8a1d d53c e073 313c 351d 09bd
000003b0: 00fa 96b8 a32b c13c 0ce5 ebbd ac27 5f3d
000003c0: 00a7 3a3d 98d6 d63c a874 023e 3151 6f3d
000003d0: 1898 6c3d 1084 d93e 3b90 693d aa66 143d
000003e0: 78f4 f43c f196 003e 5e74 293d c832 393c
000003f0: d407 b2bc 1b53 2cbd 83e0 b63d 0c84 723d
0.04549246 0.27365252 0.017444132 -0.006906491 0.0062766373 -0.05634903 0.0065801665 0.05544067
0.028705047 0.00483346 -0.02866867 0.110518746 -0.07436058 0.025924986 0.17680146 0.034586728
0.13794325 -0.05610078 0.01989147 0.020481415 -0.051251814 0.11812645 -0.032572996 -0.104164615
-0.02162797 0.020798981 0.010693207 -0.4211734 0.002516325 0.23424675 0.049024813 -0.0392222
0.108151756 0.19530666 0.009791831 -0.056428608 0.08645971 -0.08264464 0.2674865 0.0262865
0.0844188 -0.011685483 -0.023153331 0.1599319 0.043896597 0.082987174 -0.026848214 0.045768812
0.13327175 0.15027371 0.06495086 -0.020674683 0.031159252 -0.042575028 0.15726447 0.120742284
-0.012699008 -0.027205866 0.017933689 0.034176268 0.031186275 -0.033712417 -0.040648498 0.05552745
0.017675601 0.045997128 0.070497304 0.046001427 0.18242306 0.022193857 0.01684457 -0.14192873
0.04192905 0.018174909 0.06422227 0.18246716 0.051078036 0.0338178 0.13804786 0.029971719
0.031714227 0.10238485 0.020518186 0.08627067 0.03248196 0.027274054 0.022832356 0.014194585
0.020003174 0.03312984 -0.019339364 -0.04672812 -0.022916026 -0.22996897 -0.1299279 -0.030431395
0.094875485 -0.024730476 -0.09917017 0.010329366 0.1466125 -0.15105876 -0.0027841218 0.055913556
-0.053541735 -0.08170929 0.036010765 0.02498137 -0.011189047 0.063803256 0.024664348 -0.05042908
0.02816102 0.01048433 -0.037855826 0.32239982 0.07225803 0.12993278 -0.026647335 0.091746606
0.060787268 -0.013851 0.29685342 0.05500574 0.008806302 0.06735395 0.012383344 0.011186334
-0.08618626 -0.036920547 -0.06362148 -0.055658806 0.17405157 0.11104316 0.055808708 -0.12379658
-0.02906584 0.0057423576 -0.016142162 0.09525596 0.1241797 0.30618566 0.078389846 -0.045755163
0.039915033 0.04496225 0.011282051 -0.12852675 0.19256675 0.118576035 -0.036083374 -0.019020095
-0.008147998 -0.008470109 -0.013074029 0.002027256 0.055023868 0.050944507 0.053461477 0.03755939
0.004329998 0.15074839 -0.025127832 0.13322519 0.058491446 0.09389618 0.019435622 0.1095193
-0.11540808 0.020114988 -0.010244133 -0.008558828 0.026489086 -0.3083613 0.0468079 -0.015703527
0.0005976947 -0.10036843 -0.06551155 0.029358687 0.047909927 0.028191574 0.021825945 -0.006768112
-0.020527285 0.117252514 -0.0068438896 -0.081059165 0.04903292 0.044777706 -0.0426063 0.03380575
0.018862858 0.16264406 0.050521977 0.013905431 -0.08259275 0.05108051 0.052582305 0.006187575
0.3820896 0.104317084 0.054432146 0.066564135 0.0091466075 0.21107265 0.0045650303 0.08607853
0.0011011884 -0.2878056 0.18294849 0.023017302 0.14824966 -0.3204003 0.06474186 -0.12580137
-0.033143617 0.16409133 -0.07178067 0.041369215 -0.022680562 0.035208523 -0.004023643 0.024850965
0.049758524 0.047031004 -0.0242435 0.03010648 0.050096437 0.03590311 -0.030721245 0.003997688
0.024055317 0.026015062 0.010830849 -0.03347512 -7.1991235e-05 0.023580378 -0.115182966 0.054481193
0.04556942 0.026225373 0.12739813 0.05842704 0.057762235 0.42483568 0.057022315 0.03623072
0.029901728 0.1255758 0.041370742 0.011303611 -0.021732248 -0.042071443 0.08929541 0.05920796

fc2.bias f4 [300]
00000000: 625d 9c3c 112f 033d ccdf f23c 65c3 f73c
00000010: 711e 2dbd 5397 923c 2dcc 0b3d f1d0 473c
00000020: 9708 8e3c 801c 84bc 128a 4f3d ae46 253d
00000030: 0006 803c 833a 3abd 8ea4 42bd e153 b93c
00000040: 445e 21bc c2ea ce3c d341 4a3d 3dca e13c
00000050: d9b6 a03b 6119 80bc 40cf 433d e6de 75bc
00000060: d820 c53c 8cca 5f3b d8ca 203d 7476 f03c
00000070: e333 c2bc e768 803d 1e24 4f3d bf7c 2f3d
00000080: a8d8 cbbb d849 603d 099c 34bc b79e 86bb
00000090: ba68 623d 931c 353d 17f6 493d 4ef1 443d
000000a0: 6ce5 933c b235 303d 4776 183d d363 28bd
000000b0: 5c8f 2a3c 0a5c 073d 6f42 bb3d a291 3ebd
000000c0: b721 c9bb 4aef 1dbc e721 f83c 276b 8e3c
000000d0: 2115 d03d 8182 f43c bf1d 413d 67dd 183c
000000e0: 6ebd f5ba e392 b03c af56 3cbc c2be 5dbc
000000f0: 575e 193d a432 da3c 04a4 e63d 0688 1bbd
00000100: a007 a93c 98f1 14bd 559d a3bc f2be c8b9
00000110: 48ab 3e3d 0691 04ba 0cf7 35bc 4854 903c
00000120: ea51 a3bb f7ea 5c3c f8fd 323c d635 c33c
00000130: e503 123d be72 423d b678 0b3d 2ea9 7fbc
00000140: 5781 203d f79a 25bc a5db d2bc 5da1 b9bc
00000150: 2c5a df3a b31b b4bc c538 bfbc 4488 733d
00000160: 4eaf 593d 04d5 443d 2444 443d 3dd2 59bd
00000170: 4805 abbc 72f2 1dbd 372e 8c3d 2fcc 8a3c
00000180: 8750 543d 7071 1d3d e137 a73d 02ab 0fbd
00000190: 33c9 b3bc a8e3 6b3d c950 a13c b353 1e3d
000001a0: 9b15 da3c 485e 2cbc bbab 943c 5f10 433c
000001b0: 89da 07bc ebfc e6bc 8cf1 efbc 7bc9 723d
000001c0: afe6 30bc 9c31 4a3d 8bf3 28bd 7c0d d63c
000001d0: 861a bd3c 2cf5 423d 51e3 643d 2ac6 1cbd
000001e0: 412c cbbc 7e64 673d dd15 203c db01 5b3d
000001f0: b4d9 d03c a491 083b 11b9 193d 4c3d 473c
00000200: 74e3 303d 08b2 76bb 9b75 9cba 4a64 c03b
00000210: 73d9 073d 35d4 a0bc 3a48 953c 6d23 dd3c
00000220: 66ff 03bc 87d8 323d 24b4 373d b8aa 783d
00000230: f50b 463d f42b 65bc db87 333c 247d f4bb
00000240: 52fe 0dbc 3872 253d 665f 403b 57b5 91bd
00000250: a730 2fbc 3c1a 7b3d 3141 923d 3ae3 113e
00000260: cd94 e2bc c2d2 fdbb fa86 b23d 0122 bc3c
00000270: 91f2 03bb b5eb 6d3d 8a21 f83d 62e5 b7b8
00000280: d43a 623d 9a16 133d 4b32 06bd 85a7 b63b
00000290: 69f6 3bbd b559 cb3d 9ee7 203c 5314 a93d
000002a0: 0d27 473d d79c 05bc 9fb4 f83c 2062 833c
000002b0: 8395 03bd e887 f93c 5a47 8fbc 0ece 88bc
000002c0: 6c96 11bd f3ab 403d d74e 96bc 85b7 10bb
000002d0: 9fd4 63bc fa44 033d 546b f13c afe9 e23c
000002e0: cbe5 843c 4508 663b 032c 513d 27d7 213c
000002f0: 020c 4fbc 5521 333d b071 1d3d 1cdc 413c
00000300: 059b 0c3d 8e0f 0e3d 3d92 983d 54b0 153d
00000310: f81e 303d b23b a63c 8afb 623d ed85 4bbc
00000320: cf1a 743d e581 013d 45b7 5bbd 9e40 443c
00000330: 5404 2e3d 5612 be3d 18f9 083d b048 933b
00000340: e3f3 263c df34 25bd 74c3 1fbc 84ac a53a
00000350: 096a 5c3c 2720 8c3d f74d a13c bd6e b2bb
00000360: c830 e93c 4cf8 e0bc d4be 1c3d 3a72 b4ba
00000370: 05cf c3bc b133 88bb 43ee 1f39 a41d 633c
00000380: 33ab fbbc e353 c7bc 2eaf b4bb 3a25 1bbd
00000390: abb2 623d fbbd 18bd 6414 ea3c 8fdd 2f3d
000003a0: 3914 513c ec5e 973b 08d1 bd3d fe7d b73c
000003b0: a19b fc3d f13d 9d3b 4ad3 5b3d 391d 1f3d
000003c0: 5e4e 76bb 5a82 16bd e413 1ebd 0c9a 123b
000003d0: e90d 353d 4a56 1cbd 2fe3 243c 68b5 1fbd
000003e0: f816 c73b 146c 03bc f645 b83b 18d4 763d
000003f0: 9eb4 823d 4e31 733d 1031 a4bc c8ad 823c
0.019087497 0.032027308 0.02964773 0.030244539 -0.04226536 0.017894423 0.034130264 0.012195812
0.01733808 -0.016126871 0.050668783 0.04035061 0.015627861 -0.045465957 -0.047520213 0.022623004
-0.009849135 0.025258426 0.04937918 0.027562255 0.0049046096 -0.015637102 0.04780507 -0.015006756
0.024063513 0.0034147827 0.039255947 0.029353358 -0.023706382 0.062700085 0.050571553 0.042843577
-0.006220896 0.054757923 -0.01102353 -0.0041082758 0.055275656 0.044216704 0.049306955 0.04808169
0.018053733 0.043019958 0.037222173 -0.041110825 0.010410156 0.03304676 0.091435306 -0.046525605
-0.0061380523 -0.0096395705 0.030289603 0.017385079 0.1016028 0.029847385 0.04714751 0.00933013
-0.0018748471 0.021554416 -0.011495276 -0.01353425 0.037443485 0.026635475 0.11261752 -0.03797152
0.020633519 -0.036363214 -0.019972483 -0.00038289238 0.046550065 -0.00050570106 -0.011106264 0.017618313
-0.00498413 0.013483754 0.010924809 0.023829382 0.035648245 0.047472708 0.034050666 -0.0156043
0.039185848 -0.010107747 -0.0257395 -0.022659952 0.0017040423 -0.021985864 -0.0233425 0.059456125
0.0531457 0.04805471 0.047916546 -0.053179014 -0.020876542 -0.038561292 0.06844752 0.016943065
0.05183461 0.03843826 0.08164955 -0.035075195 -0.021946525 0.057590157 0.019691842 0.03865404
0.02662163 -0.010520525 0.018148294 0.011905759 -0.008291849 -0.028196773 -0.029289983 0.059274178
-0.010797187 0.049363717 -0.041247886 0.026129477 0.023083936 0.047597095 0.05588085 -0.03827492
-0.024801375 0.05649232 0.009770838 0.053468566 0.025494434 0.0020838762 0.03753001 0.01216061
0.043185666 -0.0037642736 -0.0011936905 0.0058713304 0.03316636 -0.019632438 0.018222917 0.026994431
-0.008056497 0.043663528 0.04484953 0.060709685 0.048351247 -0.01398753 0.010957683 -0.007461207
-0.008666592 0.04039213 0.0029353737 -0.07114666 -0.010692752 0.061304316 0.071413405 0.14246836
-0.027658844 -0.0077460716 0.08717151 0.022965433 -0.0020133595 0.058086116 0.12115772 -8.768846e-05
0.055231884 0.035910226 -0.032762807 0.005574169 -0.045889292 0.0992922 0.009820847 0.0825583
0.048621226 -0.008155069 0.030359564 0.016038 -0.032125007 0.030460313 -0.017490078 -0.016699817
-0.035543844 0.047038984 -0.01834814 -0.0022082042 -0.013905673 0.032048203 0.029470123 0.02769932
0.016222855 0.0035100144 0.051067363 0.0098779565 -0.01263714 0.04373296 0.0384385 0.011832263
0.034327526 0.034682803 0.07449768 0.036545113 0.042998284 0.020292137 0.055415668 -0.012422067
0.05959588 0.031618018 -0.053641576 0.011978297 0.042484596 0.09280841 0.03344068 0.004494749
0.010189983 -0.040333625 -0.0097511895 0.0012639915 0.013453015 0.0684207 0.019690497 -0.00544533
0.028465644 -0.027462147 0.038267925 -0.0013766952 -0.023902426 -0.0041565527 0.00015252181 0.013862047
-0.030721283 -0.024331992 -0.005514047 -0.0378773 0.055346172 -0.037290554 0.028574176 0.042935904
0.012761169 0.00461947 0.09268385 0.022398945 0.12334371 0.0047986438 0.053668298 0.03884623
-0.0037583332 -0.036745407 -0.038593188 0.002236965 0.04420272 -0.03816823 0.01006393 -0.03899136
0.006075736 -0.008021373 0.0056235744 0.060260862 0.06382106 0.059373192 -0.020042926 0.015952006

fc3.weight f4 [3, 300]
00000000: 9951 89bd d6e6 193b a82e 0c3e 77e5 0dbe
00000010: 661d 8fbb ef6d e4bb da3d c5bd 33e4 24be
00000020: eb46 89bd e533 d9bd 3837 e73d 8e01 f0bc
00000030: 74c2 813d 433f 6abd 8fd8 c63d 3cda aabb
00000040: cf98 5abe 3880 ebbc 1582 f0bd 93b1 2bbe
00000050: 1b02 14be 3deb e13d 2dfa 90bd 9b4b 213c
00000060: 5ba0 0bbe 2ff6 3ebd bce4 aebd 1d24 c4bc
00000070: 0274 09ba 6cdc 903d c257 0bbd 32bd 21bd
00000080: cdaf fb3c 6437 923d 107f 07ba c956 e0bd
00000090: a360 87bd cb51 963d b561 13be f891 12be
000000a0: 3086 8ebd 87a7 073d 6214 2ebe c472 253b
000000b0: caae 2ebd e82e 0fbe 1dd0 833d 208e 2a3d
000000c0: dbd6 37be f50f 40be e515 50be 3b65 62bd
000000d0: 19e5 5d3d 6d46 0abe bed7 91bd a051 bebd
000000e0: 7402 88bd dc2a 743a 6faf 05be 7a2f c43d
000000f0: 8ec5 3bba 7f75 cfbc 3008 9a3d 4530 dbbc
00000100: 0170 27be edc0 8fbd cfea 3bbe 10b2 2ebe
00000110: 78cd ed3b c037 5dbe d38d 813e e201 e73a
00000120: 1809 613d bfe5 22be 29c6 873d a308 e9bd
00000130: 6a14 1cbd 1530 cc3c 2a03 10be 00a7 5eb7
00000140: 3fb3 9dbd 7895 45be 296a 293d 8226 90bd
00000150: 07cb c2bd f7d0 1a3e c0be b03d c3c5 7bbd
00000160: f573 32be 6ee5 2abe 5189 d8bc 14a4 243b
00000170: 8680 cdbd 0039 073b de57 d03c 2837 9f39
00000180: bc33 3dbd 7ee4 cdbd cf11 27bd e09c 75ba
00000190: 1b84 6cbe 1ad7 1f3d 33d2 11be 607f b5bd
000001a0: a6e1 95bd b1f7 7bbd 1fe9 eb3d 6ad4 053e
000001b0: b226 90bd 696c 57bb 93d7 3cbe e474 c0bd
000001c0: cab5 423e bdbf e53d 1e2d 9c3d f3a8 3dbe
000001d0: 29e5 7c3d 7efb 4bbe d671 1e3d 18a7 a43d
000001e0: e78b 3fbd 3de8 1fbe 50b3 ee3c fa63 24bd
000001f0: 35f0 64be 8f55 c33a 7a6f ca3c 756d c1bd
00000200: d2db 103e e874 db3d 959d 24be f8e8 16bb
00000210: 4e31 003e acdb 733c 4f6f fc3d c6f2 4d3c
00000220: 36a1 b2ba 3640 4fbe d9b5 a3bd 3cb1 bcba
00000230: 96dd 49be 79f9 aebd 9cc4 8d3b 521e 64be
00000240: 4a2d 81bd 9e67 c13d 692a b6bd 6fa7 43be
00000250: d1c9 2a3d 130a 57bd ecc4 713d 148d a73d
00000260: 68ab 58ba accb 47be cfea 8b3d 314b 0cbe
00000270: 96dc 9fbb a938 04be 4047 833d 604c 993a
00000280: 92cc 22be f8fa 98bc b0e2 f2ba 1ca0 8ebd
00000290: 3b4f 1abe 559d 9d3d f244 24bc 0c47 b33d
000002a0: 6ae6 433d 3036 01bd 8c72 a7bd 057b 453d
000002b0: 787b 9abd 86ec 26be 0f4d 393b 2514 21bd
000002c0: c24c 0ebe 6e0b c1bd 6f47 083d 6194 8fbd
000002d0: f887 033e acf5 2abe 63c2 873d e583 0f3e
000002e0: 37c6 be3d 32fa de3c d5a1 fa3d 6b63 4abe
000002f0: 6c4d 173d 9c2a 3e3e d082 3fbe 6b0d 50be
00000300: df1b 1ebe 28db c1bd 321b e63d 4bce 87bc
00000310: 31b4 943a 33e8 283e 963b 1a3d 2006 a2bd
00000320: 8c89 e5bd a1c9 babd 5ae4 ef3d 2e74 913d
00000330: f6b2 ac3d 85fc 943d b1f2 fdbc 5c79 33be
00000340: 1eaa 8f3d 3f36 64be 1d79 1a3e a183 03be
00000350: 1ef8 acbd b509 bbbc 6390 743d 53d3 80bd
00000360: d98c b43c 8644 2fbe c5bf 8f3d 4aa7 42bc
00000370: fa8d 3dbe 9c33 14be b36a 3a3e 38ee b23c
00000380: 2477 5bbd af81 123d 2443 26bb e1ed d3bd
00000390: 4aec 3f3d 0bdf c6bd d7c9 913d ca0f 03be
000003a0: 1cb4 cbbd cf11 44be 3f98 ef3d c929 3bbd
000003b0: ae54 d63d 15e6 cdbd b625 4d3d 31e5 2abd
000003c0: d63c bd3c c320 69be c2fd 25b9 1fc3 373d
000003d0: d072 ef3d dc9c c83c 2bb3 17be 2e2c 06be
000003e0: 49c9 223d 1c37 073b cb8a 40be 874c 023e
000003f0: b5c5 993d 36c9 3abe 52a3 abbd 1efb 29be
-0.06705017 0.0023483536 0.13689673 -0.13857065 -0.0043675182 -0.006971113 -0.09630938 -0.16102676
-0.0670298 -0.10605601 0.11289829 -0.029297616 0.06335917 -0.057189237 0.09709274 -0.005214004
-0.21347354 -0.028747663 -0.11743561 -0.16766958 -0.14453928 0.11031196 -0.07078967 0.009844686
-0.1363539 -0.046621498 -0.08539721 -0.023943001 -0.0005243422 0.07073292 -0.03401924 -0.03948707
0.030723477 0.07139471 -0.0005168775 -0.10954053 -0.06610229 0.073398195 -0.14392741 -0.14313495
-0.06959188 0.03311875 -0.16999963 0.0025245408 -0.04264716 -0.13982737 0.06436179 0.041639447
-0.17953055 -0.18756087 -0.20320852 -0.055272322 0.054173563 -0.13503428 -0.07121228 -0.092929125
-0.06641093 0.0009314248 -0.13055204 0.09579368 -0.0007162922 -0.025324581 0.07521093 -0.026756415
-0.1635132 -0.070192195 -0.18351291 -0.17060113 0.00725716 -0.21603298 0.25303516 0.0017624462
0.054940313 -0.15907954 0.06629593 -0.113786004 -0.038105406 0.024925271 -0.14063707 -1.3271114e-05
-0.07700204 -0.19295299 0.041361008 -0.07038595 -0.09511381 0.15118776 0.08630133 -0.061467897
-0.17427047 -0.16689083 -0.026432665 0.0025122212 -0.100342795 0.002063334 0.025432523 0.00030367938
-0.046191916 -0.10053347 -0.040788468 -0.00093693845 -0.23097269 0.039023496 -0.14240341 -0.088621855
-0.0731843 -0.061515514 0.11519074 0.13069311 -0.070386305 -0.0032871014 -0.1844161 -0.09397295
0.1901466 0.11218212 0.07625793 -0.1852148 0.06174198 -0.19920155 0.03868278 0.08039683
-0.04676428 -0.15615936 0.029138237 -0.040134408 -0.22357257 0.0014902818 0.02471136 -0.094447054
0.14146355 0.107156575 -0.16075738 -0.0023027044 0.12518808 0.014883917 0.12325918 0.012570089
-0.0013628367 -0.20239338 -0.07993669 -0.0014396082 -0.19713435 -0.08543677 0.004326416 -0.22277191
-0.06307466 0.094435915 -0.08894808 -0.1910684 0.041696373 -0.052499842 0.05902569 0.081812054
-0.00082652876 -0.19511288 0.068318956 -0.13700558 -0.004878591 -0.12912239 0.06410074 0.0011695735
-0.1589835 -0.018674359 -0.0018530693 -0.06964132 -0.15069287 0.07696024 -0.0100262035 0.087537855
0.04782716 -0.031545818 -0.08176145 0.048213024 -0.07543081 -0.16301164 0.002827469 -0.039325852
-0.13896468 -0.09426008 0.03327125 -0.07010723 0.12844837 -0.16695279 0.06628873 0.14015158
0.0931515 0.027218912 0.12237898 -0.19764487 0.03693907 0.18570942 -0.18702245 -0.20317619
-0.1544032 -0.09465629 0.11235656 -0.01657786 0.0011345205 0.16494827 0.03765448 -0.079113245
-0.112078756 -0.09120489 0.117134765 0.07102238 0.084325716 0.07274727 -0.030999513 -0.17526764
0.07014869 -0.22286318 0.15085264 -0.12843181 -0.08445762 -0.022831777 0.05970801 -0.06290307
0.022039818 -0.17115983 0.07018999 -0.011880705 -0.18511191 -0.14472812 0.18204765 0.021842107
-0.05358042 0.035768207 -0.0025369609 -0.10348106 0.046856202 -0.09710511 0.07118576 -0.12798992
-0.099464625 -0.19147418 0.116989605 -0.045694146 0.1046537 -0.1005365 0.050084792 -0.04172248
0.023100298 -0.22766404 -0.00015830158 0.044863816 0.116918206 0.024488859 -0.14814441 -0.1310279
0.03974274 0.0020632213 -0.18802945 0.12724505 0.07508413 -0.18240818 -0.0838076 -0.165997

fc3.bias f4 [3]
00000000: ddfc b9bc 82a5 6c3b 1fb5 803c
-0.022703582 0.0036109393 0.015711365
