checkpoint_critic.pth (torch, 745075 bytes, 7 tensors)

fcs1.weight f4 [400, 9]
000000 a1 07 64 bf 8b 96 4e bf 87 93 65 bf 71 08 89 3d
       -0.8907414 -0.8069846 -0.89678234 0.06691063
000010 f7 0b 75 40 aa 34 0c c0 fd 7d 6b bd 05 38 b6 3e
       3.8288553 -2.1907144 -0.0574932 0.35589615
000020 70 c5 be be 6b 0d 00 be e4 ab 3e bf f5 93 23 c0
       -0.37260008 -0.12505119 -0.74481034 -2.5559056
000030 cd 28 89 c0 47 28 74 3e 2e 8e a2 3f 38 20 59 3f
       -4.2862306 0.2384349 1.269964 0.84814787
000040 ee c2 59 3f 8b d7 a6 3f 3f 75 c7 3d e6 75 32 bf
       0.85063064 1.3034528 0.0973916 -0.6971115
000050 37 7a c3 3d 3b 96 2b bd 78 66 5d 3f a8 36 3c bf
       0.09544795 -0.041891318 0.8648448 -0.735209
000060 b6 7c d9 be 0f b7 a9 3e 83 a8 7d 3f 5e 34 b4 3c
       -0.4247796 0.33147475 0.99085253 0.021997627
000070 af 17 30 3d 52 9a 8c 3c 75 6a 15 bd fb f9 05 3d
       0.042991336 0.01716343 -0.03647848 0.032709103
000080 38 c4 04 3c 05 2d 45 3d 7d 55 33 3d bd f3 f3 bc
       0.008103423 0.048138637 0.0437827 -0.02977931
000090 4a 51 f5 bc f2 89 cf 3c d0 f6 bd 3b 6d 14 0e bd
       -0.029945988 0.025334332 0.0057972446 -0.03468745
0000a0 92 ee 1b bd fc 8a 8f bc 39 50 27 3d 9a b2 be 3c
       -0.038069315 -0.017522328 0.04084799 0.023278523
0000b0 19 58 3d 3d 9e 5d ed bc 7b e9 e0 bd 6d 74 97 be
       0.046226595 -0.028975304 -0.10982033 -0.29581013
0000c0 3d a7 59 be 9d 5c 9a 3f b1 39 60 3f d3 a7 c6 be
       -0.21255203 1.2059513 0.8758803 -0.38799915
0000d0 85 c6 fc 3e a8 73 5d 3f 30 f3 e8 3b 20 74 2f 3b
       0.49370208 0.865046 0.0071090683 0.0026772097
0000e0 04 51 83 bc ca 3f 05 bd 40 6d 9a 3a 12 cf df 3c
       -0.016029842 -0.032531537 0.0011781827 0.027320419
0000f0 f5 2c 07 bd 44 02 65 3c 00 5e 0e 39 ba b5 eb 3f
       -0.03300186 0.013977591 0.00013577193 1.8414834
000100 14 d4 36 bf 8f 69 09 c0 ed 90 01 bf f6 3b 77 40
       -0.71417356 -2.1470678 -0.50611764 3.8630347
000110 2c ee 4b 3d 1c ed 10 3f 8f 00 5b 3e 74 fa 8f 3f
       0.049787685 0.566118 0.21386932 1.1248307
000120 d6 07 b0 bc 78 ac 30 bd df d0 0c 3f d3 aa 62 be
       -0.021488111 -0.04313323 0.5500621 -0.22135477
000130 fe 17 2e be 17 b4 66 3f 51 19 d6 bd 57 55 53 3e
       -0.1700134 0.90118545 -0.104540475 0.20638023
000140 80 52 0b 3f 1f b5 76 3f a6 ac 0c c0 28 54 40 3f
       0.5442276 0.9637012 -2.1980376 0.7512841
000150 09 e1 2d bf 71 53 07 3f e6 36 c4 3f a1 00 09 3f
       -0.679215 0.52861696 1.5329254 0.53516585
000160 0a f1 0e 3f 50 93 4a 3f 75 b1 02 bb 20 35 76 3b
       0.55836546 0.7913103 -0.0019942198 0.0037568286
000170 5d 77 29 be c3 03 21 bf 9f 33 5b 3e b4 1a 85 3e
       -0.1654944 -0.62896365 0.2140641 0.25996935
000180 b3 e0 93 b9 13 cc d7 bd 29 40 0a 3f 4b 19 0b 3e
       -0.0002820544 -0.10536971 0.5400415 0.13583867
000190 82 89 4c 3f 91 4f e0 bf 88 7f 61 bf 0e 7c 55 3e
       0.7989732 -1.7524282 -0.8808522 0.20848104
0001a0 44 1a fd bf ea 92 2c c0 20 f3 26 3f e3 a9 81 bd
       -1.9773641 -2.696467 0.6521473 -0.063312314
0001b0 7e 32 e2 3d 02 58 4a 3d 9d 01 cf bd c7 f5 58 bc
       0.11044787 0.049400337 -0.101077296 -0.013242192
0001c0 fd 04 b9 ba b9 89 0f bb dd 43 ba 3c ce 3f 2f 3d
       -0.0014115867 -0.0021902157 0.022737438 0.04278546
0001d0 23 02 53 3d cd 03 fc 3b 76 d7 35 bf 3a d6 11 bf
       0.05151571 0.007690883 -0.7103189 -0.5696751
0001e0 2e 23 d7 be 4f db 0e 3f 64 7f d4 bd af 8f 1f bf
       -0.42019027 0.5580339 -0.1037586 -0.6232862
0001f0 e9 58 db bb 61 22 a6 3e 9a e1 fc bf f2 88 3e 3f
       -0.0066939485 0.32448104 -1.9756348 0.7442771
000200 60 62 6c c0 47 41 7b bf f3 cc ff bf 19 b0 48 bf
       -3.6935043 -0.9814648 -1.998442 -0.78393704
000210 21 f4 c7 bf ba 5d 6d 3e 9e cb 1b 3f aa 26 c9 3d
       -1.5621377 0.23180285 0.6085757 0.09821828
000220 d8 0b a7 3d 33 bd 24 be 9a 4a c4 be d5 7d b9 3e
       0.08156556 -0.16087799 -0.38338166 0.36228815
000230 bb e5 9d bd 44 e0 ba bd 36 4b aa bd 2d b6 33 3f
       -0.07709833 -0.091248065 -0.083151266 0.70199853
000240 f4 42 47 be 01 05 8a c0 f3 6b ce bc 31 91 e8 3e
       -0.19459134 -4.313111 -0.025197959 0.45423272
000250 cc 99 24 bd d2 20 b2 be 6a b8 b8 be 22 c0 8e 3f
       -0.040185735 -0.34790665 -0.36078197 1.1152384
000260 bb 97 95 3e a3 1c 03 bf 3a 95 71 c0 0c e3 bb 3d
       0.29217324 -0.5121557 -3.774733 0.09174165
000270 0e af 9f be b7 74 75 bf be c3 f8 be a5 68 85 bf
       -0.31188244 -0.9588122 -0.4858684 -1.042256
000280 13 b6 2d 3f 7c ec dc 3e 4a 44 8c bc a0 35 f0 3a
       0.6785595 0.43149173 -0.017122407 0.0018326528
000290 db 23 0c 3d de 29 ef 3c 2a 47 2c bd be 27 ec 3c
       0.034213882 0.029194769 -0.042060055 0.028827544
0002a0 33 34 f6 bc 14 e3 53 3c 5a 36 c7 bc ef 51 eb 3f
       -0.030054187 0.012932558 -0.024317909 1.8384379
0002b0 d5 77 b4 be a1 b8 f1 3f 31 d9 32 bf ae 69 86 bd
       -0.35247675 1.8884469 -0.6986266 -0.065631256
0002c0 48 69 04 40 2f dd 36 bf 91 d9 43 be b5 d6 06 3f
       2.0689259 -0.7143125 -0.19125964 0.52671367
0002d0 02 cf 81 3c 72 f5 2c bd 42 45 c3 3c 2c f4 28 3c
       0.01584578 -0.042226262 0.023836736 0.010312121
0002e0 43 5e f2 bc ae dd 12 bd 1a 29 dd bc 18 cd 13 bc
       -0.029585963 -0.03585594 -0.026997138 -0.009021066
0002f0 7d b5 f8 bc 5b 84 92 3f b7 a9 40 bf de 57 17 3f
       -0.030359978 1.1446642 -0.75258964 0.5911845
000300 fd a2 c5 bf 4a 99 cf 3e 58 ba 09 be 27 40 ce be
       -1.5440365 0.40546638 -0.13449991 -0.4028332
000310 e9 d3 46 bd 1a 35 be 3e 1c b0 63 3c 4c 7a 89 bc
       -0.048541937 0.37149888 0.013896968 -0.016781949
000320 c8 9a 4e bc 53 b7 d0 bc d4 74 15 bc da a4 dc 3c
       -0.012610145 -0.02547804 -0.009122092 0.026934076
000330 ff 62 45 3d 1d 0f 05 bd 49 2f 16 3d cd 86 c5 bf
       0.048190113 -0.032485116 0.03666619 -1.5431763
000340 0f 64 62 bd 98 a3 1b bf 0e ce df 3d 36 3c 92 c0
       -0.055271205 -0.607965 0.10927974 -4.56985
000350 a7 40 3f 40 07 8f 2d bf df 42 d4 3e 9d 16 92 3f
       2.988321 -0.6779637 0.4145727 1.1413151
000360 8c 91 6e bc 5d b2 02 bd 17 c9 4a 3d c0 68 f9 bb
       -0.014561068 -0.03190838 0.04950818 -0.007611364
000370 6b 78 3f bd 0c b9 63 bc f0 a0 c1 3b 0f 05 42 bd
       -0.0467457 -0.013899099 0.005909078 -0.047368106
000380 2f dc 2c bd 64 f9 23 3e 93 8e 28 bf 48 b3 1a bf
       -0.04220217 0.16013104 -0.6584255 -0.6042981
000390 32 d8 ad be fc ee 16 40 0d 3f 58 3f fc 91 61 3e
       -0.33954006 2.3583364 0.8447121 0.22028345
0003a0 17 ec 4a 3f 60 0a 78 3f 80 07 70 3a 18 8f 1d bd
       0.79266495 0.9689083 0.0009156391 -0.038466543
0003b0 d7 63 3b 3d 42 2d 1e bd 68 3a 1b 3c 01 c2 49 3d
       0.04574951 -0.03861738 0.009474374 0.049257282
0003c0 fd 9f 20 bd c1 f9 3a 3d 9e 17 ad 3c 95 ae c3 3c
       -0.039215077 0.04564834 0.021129426 0.023886958
0003d0 8b 77 77 3c ab c0 57 bc 7a 34 b4 bc 88 ca ab 3d
       0.015104185 -0.013168494 -0.021997679 0.08388239
0003e0 dd d8 38 bd a6 28 85 bd 5a ef ba 3c 00 e3 f0 3c
       -0.045128692 -0.06501894 0.02281921 0.029405117
0003f0 c8 c6 c9 40 db 40 6a be 4e 05 45 bf d7 50 97 bf
       6.3055153 -0.22876303 -0.7696122 -1.1821545

fcs1.bias f4 [400]
000000 20 d4 29 3f 07 f8 4a bd 16 29 f4 bf 53 62 66 be
       0.663393 -0.049552944 -1.9075038 -0.22498445
000010 6e b0 99 be 5d 43 c2 bf 3b 32 a3 be a7 1d e1 bf
       -0.30017418 -1.5176808 -0.3187426 -1.7587174
000020 0c 19 ad bf b6 d1 c3 bf bf 80 9a bf e3 fb 88 bd
       -1.3523269 -1.5298374 -1.207054 -0.066886686
000030 46 e9 9b be 92 d0 13 c0 a6 8e d3 bf 37 05 8c bf
       -0.3045141 -2.3096051 -1.6527908 -1.0939091
000040 64 3a 08 c0 8b c6 c2 bf 1a 51 88 be 7e 41 c9 bf
       -2.128564 -1.521684 -0.26624376 -1.5723112
000050 96 99 82 be a8 05 e8 bf f3 5b 6d be ce 23 d6 bf
       -0.25507802 -1.8126726 -0.23179607 -1.6729677
000060 ac 70 8a be 8a b8 f6 bf 5b 08 8f be e4 10 7c be
       -0.27039087 -1.9275067 -0.27936062 -0.24615818
000070 dc 48 73 bf 5c d5 b1 bf 16 51 0d 40 f0 80 9d bf
       -0.9503305 -1.3893237 2.208074 -1.2304974
000080 30 be f8 bf b2 51 db bf 19 ae a7 bd a9 f5 9e bf
       -1.9433041 -1.7134306 -0.08187503 -1.241872
000090 f3 89 8d bf f8 6c ed bf 56 d9 f5 bd f2 c4 2b bf
       -1.1057724 -1.854888 -0.12004344 -0.6709739
0000a0 31 c6 aa bf 10 79 9c be 1c 29 28 bf 40 ef 30 c0
       -1.3341733 -0.30561113 -0.6568773 -2.7646027
0000b0 cc 68 f4 bf 20 11 5d bf 7b 08 a0 be 6a 21 91 bf
       -1.9094481 -0.86354256 -0.3125647 -1.1338322
0000c0 9c 96 20 bf d2 72 00 3f 6d 19 fc bf e9 b2 e6 be
       -0.6272981 0.501752 -1.9695259 -0.45058373
0000d0 f3 df 8c be 71 e6 06 c0 40 98 35 c0 07 2b 5d bf
       -0.2751461 -2.107815 -2.8374176 -0.8639378
0000e0 43 4b 6c be 9a 38 a6 be 06 54 5f be 3e 56 84 be
       -0.23075585 -0.3246506 -0.21809396 -0.25847048
0000f0 30 99 22 3f 4a 34 84 be de 66 5f be b7 25 a4 be
       0.63514996 -0.25821143 -0.21816584 -0.32060024
000100 03 52 be bf 9c 1e 82 be 20 a7 4b bf 55 b2 06 c0
       -1.4868778 -0.25413978 -0.7955189 -2.1046345
000110 ad c1 91 bf 79 02 d0 bf be f9 57 be ad df 8c bf
       -1.138723 -1.6250755 -0.21091363 -1.100576
000120 2a 88 e2 3f 04 a3 50 bf b5 43 ac bf 86 e8 71 bf
       1.7697804 -0.8149874 -1.3458163 -0.9449543
000130 54 7e 38 bf 68 4a c7 bf 31 69 a5 bf 10 ad 37 be
       -0.7206776 -1.5569582 -1.2922727 -0.17937112
000140 66 1f b2 bf bd 3f b1 bf f8 b8 df bf 9b 8d 9c bf
       -1.3915832 -1.3847576 -1.7478323 -1.2230715
000150 d7 84 b5 bf b3 6f 64 bf 43 ed 8f be b4 8e 89 be
       -1.4181165 -0.8923294 -0.28110704 -0.26866686
000160 0f d0 98 bf bb 2b 1e be 00 56 8f be 28 d1 a0 be
       -1.1938494 -0.1544637 -0.279953 -0.31409574
000170 c5 7b 67 3f 0c 5c a3 bf 34 2b ff bf 79 fd 8b bf
       0.9042323 -1.2762465 -1.993506 -1.0936729
000180 09 12 03 c0 48 ab 4f be 3e 54 d9 bf 54 9a 81 be
       -2.0479758 -0.20280182 -1.6978834 -0.25313056
000190 27 b2 2a c0 58 38 98 3f 68 b4 88 be 17 05 a3 bf
       -2.6671236 1.1892195 -0.2670014 -1.2735928
0001a0 ba a6 4f bf 53 4e 17 be 3a d8 88 be 54 cf b1 bf
       -0.8111378 -0.14775972 -0.26727468 -1.3891397
0001b0 f3 05 86 be 86 d7 a4 3f 66 a6 ed bf a3 6d 65 be
       -0.26176414 1.2878273 -1.8566406 -0.22405104
0001c0 60 d4 50 be cb e2 56 be ba d2 d4 bf e9 b4 b4 bf
       -0.20393515 -0.20984952 -1.6626809 -1.4117709
0001d0 95 18 e3 bf f4 05 2a be 23 86 a9 bf 04 39 27 c0
       -1.7741877 -0.16603833 -1.324406 -2.612855
0001e0 ab 25 88 3e 6c 31 04 c0 ce cf 1d c0 fd 97 ff 3d
       0.26591238 -2.0655165 -2.4658084 0.12480161
0001f0 dd ad da bf dd 96 e9 bf 4e d2 25 be 01 a1 84 bf
       -1.7084309 -1.8249165 -0.16193506 -1.0361634
000200 ef 39 21 40 fe c1 90 be ff 9a 4c c0 cd dc 24 bf
       2.519161 -0.28273004 -3.1969602 -0.64399415
000210 c7 39 84 bf 41 50 9d bf c3 91 98 be bb 92 3b be
       -1.0330132 -1.2290117 -0.29798707 -0.18317692
000220 1a be 97 be c3 96 54 bf ff cf b7 bf 9b fa 2c c0
       -0.29637223 -0.83042544 -1.436035 -2.7027957
000230 0d 01 9d bf f0 78 d1 bf 2e d0 84 bf f4 24 2f bf
       -1.2265946 -1.6365032 -1.0376031 -0.6841576
000240 1b 5d 7f be 8f 7b 82 be 0c fd c2 bf fa 37 d8 bf
       -0.2493786 -0.25484893 -1.5233474 -1.6892083
000250 ee 3f 64 bf d7 8d 30 c0 62 05 a2 3f 74 43 09 3f
       -0.8916005 -2.7586572 1.2657893 0.5361855
000260 1c ec 1b c0 53 2a 22 be 23 93 8f bf 7a f8 b6 bf
       -2.436286 -0.15836458 -1.1216778 -1.4294579
000270 c2 6d aa be b7 7e 07 c0 8c e4 28 c0 a3 3b cc bf
       -0.33286864 -2.117109 -2.6389494 -1.59557
000280 ae b0 56 be 93 11 df bf 34 1a 97 3f 72 62 89 bf
       -0.20965835 -1.7427238 1.1804872 -1.0733168
000290 89 ec 99 3f 1b a9 c3 bf 9c ae b6 bf 01 cb fa bf
       1.202531 -1.5285982 -1.4272037 -1.9593202
0002a0 d3 4a 39 be 7a cb 99 be f3 09 c3 bf 77 65 22 be
       -0.1809495 -0.30038053 -1.5237411 -0.15859018
0002b0 c8 eb 73 be b9 99 18 c0 3e 0e 01 c0 57 c4 16 3f
       -0.23820412 -2.3843825 -2.0164943 0.5889334
0002c0 5c 44 84 3f b9 f1 2c 40 3a 95 57 3e 21 f9 db bf
       1.0333362 2.7022536 0.21053019 -1.7185403
0002d0 5b 64 bb 3f 2e e2 0b c0 20 99 b9 bf f2 65 58 3f
       1.4640001 -2.18568 -1.4499855 0.84530556
0002e0 32 1f 58 bf 37 b7 16 3e aa 00 e5 bf 5b b7 0f c0
       -0.844226 0.14718328 -1.7890828 -2.2455661
0002f0 9f 03 9b be 7f 6a 64 bf 1e 06 74 be 9c cd da bf
       -0.302762 -0.89225 -0.23830459 -1.7093997
000300 7c 62 a1 be 24 72 8c bf 56 e4 29 be 7b 6e 1f c0
       -0.3152045 -1.0972333 -0.1659101 -2.4911182
000310 43 84 6c bf 96 dc 8d be 62 f5 ae bf af a2 73 bf
       -0.92389315 -0.27707356 -1.3668635 -0.9517011
000320 c9 b7 6b bf 27 78 3a 3f 92 83 8c be 58 49 93 bf
       -0.9207731 0.7283959 -0.2744413 -1.1506758
000330 06 19 40 bf 71 ac 42 3f 0b ff df bf b8 2d 3e be
       -0.7503818 0.76044375 -1.7499708 -0.18572128
000340 47 78 62 bf 6e 5f 06 40 39 50 cc bf 83 0f 5c be
       -0.8846478 2.0995746 -1.5961982 -0.21490292
000350 84 f4 72 bf 05 e9 90 be 6c 20 35 c0 0d e6 a2 bf
       -0.9490435 -0.2830278 -2.8301039 -1.2726456
000360 f3 48 e1 bf 8d 50 08 c0 13 e8 48 be 07 a7 87 be
       -1.7600387 -2.1299164 -0.1961978 -0.2649462
000370 72 3c 8f 3f 38 fd 94 be b0 9f be bf 18 a8 5c be
       1.1190321 -0.2909944 -1.4892483 -0.21548498
000380 c1 23 a8 be 66 d8 09 c0 66 6f 95 be d8 e9 44 bf
       -0.32839778 -2.153833 -0.29186553 -0.7691932
000390 59 40 2a 3f e7 a5 a3 be fe c6 6a be 18 d0 6c bf
       0.66504437 -0.3196251 -0.22927472 -0.92505026
0003a0 d3 bd 1e be d3 c3 92 bf 62 80 9e be 2c 89 0f c0
       -0.155021 -1.1466011 -0.30957323 -2.2427473
0003b0 d6 d6 61 bf 11 f0 ce bf 3b 8e dd bf 6f bf 1e 3e
       -0.8821844 -1.6167012 -1.730903 0.15502714
0003c0 1b 40 94 be f4 5d 83 be ba 39 73 3f 96 ff 9c bf
       -0.2895516 -0.25657618 0.9500996 -1.2265499
0003d0 43 d5 1c bf e5 67 24 bf bc fd 08 c0 ad 68 08 c0
       -0.6126291 -0.6422103 -2.1404867 -2.131389
0003e0 73 8a a0 be ab 94 cb 3f a8 a1 6d be 96 60 85 be
       -0.31355628 1.5904745 -0.23206198 -0.26050252
0003f0 eb cd a3 be af c5 9b bf 8d 07 d3 be 17 1f 88 bf
       -0.3199304 -1.2169703 -0.41216698 -1.0634488

fc2.weight f4 [300, 403]
000000 59 ff ec bd 6c d2 60 3d 10 7c a8 bd 00 84 f2 38
       -0.11572141 0.054888174 -0.08226788 0.00011564046
000010 52 f2 85 bc 59 62 02 bd 90 b8 63 bb 3c d3 0d bd
       -0.016350899 -0.031832073 -0.003474746 -0.034625277
000020 cc 9f b7 bc 18 ee 23 3c e0 e9 1e 3c 96 52 ce bd
       -0.022415064 0.010005496 0.009699315 -0.10074346
000030 ce 62 b3 bd cd 77 87 bd 5f 11 ba bc 2e 03 89 bb
       -0.0875908 -0.06614647 -0.022713361 -0.0041812873
000040 2a d6 06 bd 74 65 5f bc 30 71 d8 3c 7e 1c 1c 3d
       -0.032919087 -0.013635028 0.02642116 0.03811311
000050 98 a8 74 3c 3c 2c b1 bb a8 49 4f 3d e8 16 45 bd
       0.014932774 -0.0054068845 0.050607353 -0.04811755
000060 d0 75 09 3d 35 9f 6b bc b2 37 6b 3d 3f f6 3b bd
       0.03355962 -0.01438122 0.057426162 -0.045889135
000070 81 c4 71 bd 32 9c 4d bc a6 2d 9a bb 0f dd b5 bd
       -0.05902529 -0.012549447 -0.0047051487 -0.08880054
000080 95 77 0a bd 60 e7 0e 3c 0f 5e 9c bd 5e 38 e6 bb
       -0.03380545 0.008722156 -0.07635128 -0.0070257625
000090 b2 11 14 bd c8 44 c0 bd 0a d1 34 3d d0 dc c0 bd
       -0.036149688 -0.09388119 0.044144668 -0.09417117
0000a0 e1 f3 fd bc 7a 79 28 3d 20 0f 9f bd 4e 5b 0b 3d
       -0.03100008 0.041131474 -0.07766557 0.03402262
0000b0 c7 d0 d8 bc 5c 82 a9 bd 72 a4 16 bd 9f b5 af bd
       -0.02646674 -0.08276817 -0.03677792 -0.08579563
0000c0 40 5c 73 bd 84 45 9c bd 0a 67 00 bc 40 8e f1 bb
       -0.05941415 -0.076304466 -0.007837066 -0.007371694
0000d0 20 33 1d bc 65 7a 8d bd 56 93 d0 bd ce 28 d1 bd
       -0.009594709 -0.069081105 -0.10184352 -0.10212861
0000e0 c0 26 2f 3d aa e6 2f bd 20 e4 34 bd 68 98 07 bc
       0.042761564 -0.042944588 -0.04416287 -0.008276083
0000f0 a3 b6 63 bd a5 91 68 bd bb 0e 1d bd 3d 9f 63 bd
       -0.055594098 -0.056779522 -0.038344126 -0.055571783
000100 fa 32 5e bd 52 aa 57 3d 4f c0 48 bd 91 05 a1 bc
       -0.054247834 0.052652664 -0.049011525 -0.019655975
000110 ab 2f 10 bd be 74 96 bc 8a 08 4c 3d c7 71 05 bd
       -0.03520171 -0.018366214 0.04981283 -0.03257921
000120 51 21 75 bd 90 ef bf bd 68 66 e6 bd 0f fa 60 bc
       -0.059846226 -0.09371865 -0.11250001 -0.013731494
000130 8a 6a 9c bc a1 da 54 bc 4b 21 8d bd 62 68 6b bd
       -0.01909377 -0.012991578 -0.06891116 -0.057472594
000140 94 86 90 bb 26 cc e3 bd 6f 2e 5d bd 68 22 d4 bd
       -0.004410574 -0.111229226 -0.05399936 -0.10358125
000150 b6 8f 73 bd b7 6a da bd f9 04 6a bd 55 12 45 bd
       -0.059463225 -0.106648855 -0.05713365 -0.048113186
000160 6a da 22 bc 61 20 0d bd f0 54 a4 3c 94 0d 35 3d
       -0.009939769 -0.034454707 0.020060033 0.044202402
000170 54 4b 6f bd 90 4a 0c 3d 81 6b 59 bd 94 07 3e bd
       -0.058421448 0.034250796 -0.05308104 -0.046393946
000180 82 d6 69 bc 02 6b af bc 2a 88 0d bd 6a d5 00 bd
       -0.014272334 -0.02141333 -0.034553684 -0.031453528
000190 dd cb 6d bd 82 2f 28 bd c0 bb f2 3a c7 96 b4 bd
       -0.058055747 -0.041060932 0.0018519089 -0.08817821
0001a0 23 66 ae bd ac ad 31 bc 7e 46 30 3d 26 92 9b bd
       -0.08515575 -0.010844629 0.043035977 -0.07596235
0001b0 16 ee 10 3d e3 99 b2 bd 98 ec 81 bc 7e 43 f9 bc
       0.035383306 -0.08720758 -0.015859887 -0.03042769
0001c0 34 1f 8c 3c 46 96 63 3d f4 87 c3 bd 2e c1 15 bc
       0.017104723 0.055563234 -0.095474154 -0.009140296
0001d0 48 69 84 3c db 2b 97 bd 98 3c e7 bd a7 b4 5c bd
       0.016163483 -0.07381412 -0.11290854 -0.05388322
0001e0 cd ab a5 bd 93 b9 b5 bd 8b 18 4d bd c9 89 c0 bd
       -0.08089409 -0.08873286 -0.050072234 -0.094012804
0001f0 bc 7e 83 bc 55 fb e3 bd 78 de c2 bc d4 ca 16 3d
       -0.016051643 -0.11131922 -0.023787722 0.036814526
000200 b0 bc 14 bc da a0 8c bc 8f 6e 6d bd 17 21 fc bc
       -0.00907819 -0.017166544 -0.057966765 -0.030777497
000210 63 28 27 bd d8 7b c9 bc e0 dc 57 bc 00 2e e0 bb
       -0.04081 -0.024595186 -0.013175219 -0.006841421
000220 aa 86 3c 3d f0 ec 66 bb 43 8d eb bd 0d 00 c1 bd
       0.046026863 -0.003523644 -0.11501553 -0.09423838
000230 05 e5 9e bd 4a 6a d0 bd a5 14 b8 bd 68 97 f8 3c
       -0.07758526 -0.10176523 -0.08988313 0.030345634
000240 20 e4 cd 3c c7 40 d3 bd 1b 72 47 bc ad dc c9 bd
       0.025133193 -0.1031509 -0.012173201 -0.09856544
000250 ac 53 70 bd 48 23 c9 bd 75 e9 83 bd 46 66 d7 bd
       -0.058673546 -0.098211825 -0.06441013 -0.10517554
000260 aa a1 a1 bd 27 9b 05 bd cd 70 2b bd 13 50 61 bd
       -0.07892163 -0.032618668 -0.041855622 -0.055008005
000270 f7 c5 e1 bd e5 c2 90 bd f6 bf 28 bd 14 d1 95 bd
       -0.11024087 -0.07068423 -0.041198693 -0.07315269
000280 88 8c c5 3c 88 e3 48 bd 56 4b 93 bd 22 e1 49 bd
       0.024114862 -0.049045116 -0.071921036 -0.04928697
000290 6e e9 00 bd de a0 0f bd 68 79 d8 bd e1 fe 9d bd
       -0.031472616 -0.035065524 -0.105700314 -0.0771463
0002a0 72 a1 14 bd dc e8 31 bd 95 bc e8 bd f6 87 bc bd
       -0.03628678 -0.043434963 -0.11364094 -0.0920562
0002b0 80 df 29 bd 02 8f 47 3d e6 2b 1a bd 9e 9f 23 bc
       -0.04147291 0.048720367 -0.03763952 -0.009986786
0002c0 e4 28 ea bc dc ad ac bd 5d c4 c8 bc f9 74 ae bd
       -0.028583951 -0.084315985 -0.024507696 -0.085184045
0002d0 05 2e a2 bd 64 01 c3 bd a0 2e f6 3a cb 71 73 bd
       -0.07918934 -0.095217496 0.0018782206 -0.059434693
0002e0 58 da 7b bd 74 4c bf bd 9d 5c 27 bd 46 6e 5e 3d
       -0.061487526 -0.09340754 -0.040859807 0.054304384
0002f0 76 f3 ca bc 34 3f 06 3d 94 dc 06 3d 35 aa d0 bd
       -0.024774294 0.03277512 0.032925203 -0.101887144
000300 cb a1 19 bd e2 28 a8 bc be bf 20 3d 21 db 97 bc
       -0.037507813 -0.020527307 0.03924536 -0.018537106
000310 dd 83 59 bc 98 8c 13 bc 7d c9 a0 bd 09 02 8c bd
       -0.013276068 -0.009005688 -0.07850931 -0.06836326
000320 71 65 cb bd d0 f9 ac bd 38 e2 bc 3c 9c e0 d3 bd
       -0.09931458 -0.084460855 0.023057088 -0.10345575
000330 65 64 7b bb a6 04 a5 bd 02 07 95 bd 22 a5 3c 3d
       -0.00383594 -0.08057527 -0.07276727 0.04605592
000340 58 83 b7 3c 56 e1 61 bd e2 80 0b bc f0 17 27 3c
       0.022401497 -0.055146538 -0.008514615 0.010198578
000350 b3 28 cc bd ec 49 5f 3d 3b eb 02 bd 7e d0 89 bd
       -0.099687 0.054513857 -0.031962615 -0.0672922
000360 8e 15 d5 bd 37 0b 65 bd ae a9 02 bd a2 2e 30 bd
       -0.10404502 -0.0559189 -0.0319001 -0.043013223
000370 2f f2 cd bd 2c 56 21 bc 72 db 87 bd f4 02 a7 bc
       -0.100559585 -0.009847205 -0.06633653 -0.02038715
000380 cf af 0e bc ae 7f 6d bd f8 ee 04 3c 4b f8 be bc
       -0.008708908 -0.057983093 0.008113615 -0.023311755
000390 06 6f 9d bd e0 00 47 bd 72 a9 31 3d 74 e2 bd bc
       -0.07687192 -0.04858482 0.043374486 -0.02317927
0003a0 e0 e8 b9 3a c8 6f 20 bc 36 67 5f bd 00 0f e8 3c
       0.0014183782 -0.009792276 -0.05454179 0.028327465
0003b0 88 5d ef bb c8 e6 eb bd 28 bc 9f bd 9f 3e 32 bd
       -0.007304851 -0.115186274 -0.0779956 -0.04351675
0003c0 2c f0 e7 bc 48 10 c5 3c d9 38 9c bd 03 3d 80 bd
       -0.028312765 0.024055615 -0.0762803 -0.06261637
0003d0 1b 13 80 bd 30 59 33 bb de df 80 bd 1c 6e 53 3d
       -0.06253644 -0.0027366392 -0.06292699 0.05161868
0003e0 0a 91 5c 3d 5a d2 0d bc 73 86 39 bd 6c 7a a7 bc
       0.053849258 -0.008656109 -0.045294236 -0.020444117
0003f0 bc 2e 86 3c 00 04 c3 3a 7a c7 9f bd df 54 cd bd
       0.016379707 0.0014878511 -0.07801719 -0.100259535

fc2.bias f4 [300]
000000 dc d7 b7 bd 64 d4 c5 be ed 84 14 bc b2 8e cc be
       -0.08976719 -0.38638604 -0.009064895 -0.39952618
000010 62 29 35 3f 00 bd 63 be f8 a7 8f be 37 4e e5 be
       0.7076627 -0.22240067 -0.28057837 -0.44786236
000020 05 c0 9a be 68 60 0d bf af 36 b4 bf 29 50 d2 be
       -0.30224624 -0.5522523 -1.4079188 -0.41076782
000030 4a 6a 92 bd 15 23 29 bf f9 34 1e be fa c1 83 be
       -0.07149179 -0.66069156 -0.15449895 -0.2573393
000040 09 93 d6 be d3 89 04 bf 1e 5d 5b bd 86 d2 9d be
       -0.41909054 -0.51772803 -0.0535556 -0.3082468
000050 9d b7 f9 be 6b 8c ba be c5 42 b0 be 95 9b 0f bf
       -0.48772898 -0.36435255 -0.3442594 -0.56096774
000060 dc a0 7b bd 34 aa 20 bf fe 49 ef bd 21 8d 84 be
       -0.061432704 -0.6275971 -0.11684035 -0.25888923
000070 02 1a 73 bf 50 98 c8 bd 1f 8c a8 bd 52 91 d5 be
       -0.9496156 -0.09794676 -0.08229851 -0.41712433
000080 1b 62 a5 be 03 22 7b be c7 68 bb bd 9b c5 94 3f
       -0.3230141 -0.24524693 -0.09150844 1.1622804
000090 1c 95 04 bf b2 52 ce bd b1 3e ba be 2f 1d c5 be
       -0.5179002 -0.10074367 -0.36375955 -0.38498828
0000a0 fc 9d dd be 5d 53 b1 be 34 32 3a bd ba d9 c8 be
       -0.43284595 -0.34633914 -0.045458034 -0.39228612
0000b0 f2 dc a8 bd 48 3d c0 be 5e 5d f6 be 0b 9e 4e bf
       -0.08245267 -0.37546754 -0.4811811 -0.80709904
0000c0 e4 6b cd be a8 34 95 be 3d b1 32 bd 6b c1 e2 be
       -0.40121377 -0.29141736 -0.04362606 -0.4428819
0000d0 b8 e3 d2 be 1e a0 ae bd 4d 40 be be 44 4b c6 bc
       -0.4118936 -0.08526634 -0.37158433 -0.024205811
0000e0 04 81 08 3f 63 c1 47 bf 59 1c 8e bd 48 5a d2 be
       0.5332186 -0.7802946 -0.06939001 -0.41084504
0000f0 cc d0 bf be cb 37 57 bf 60 08 a0 be df c5 a6 be
       -0.37463987 -0.8406951 -0.3125639 -0.3257284
000100 cf f5 d3 be 3b 93 c5 be cc e6 73 3c f3 f8 bd be
       -0.41398475 -0.3858889 0.014886569 -0.37103996
000110 d3 9f a9 bd b1 68 b9 be 22 40 0e bf f5 fb a4 bd
       -0.08282437 -0.36212686 -0.5556661 -0.080558695
000120 c0 3f 20 bd 63 b8 45 3c 40 2e 25 bf 08 4f 56 bd
       -0.039123297 0.012067887 -0.64523697 -0.052321464
000130 d6 68 d5 be 96 7e 04 bf d9 75 f0 bd bf 67 b5 be
       -0.41681546 -0.51755655 -0.11741228 -0.35430714
000140 94 a2 83 bc a3 d7 53 bf 34 7c 3a be d6 86 47 bf
       -0.016068734 -0.8275091 -0.18211442 -0.7794012
000150 28 af ce be 04 28 79 be 36 6a b7 bd 6d ba 0d be
       -0.4036801 -0.24331671 -0.08955805 -0.13840647
000160 ba 6a d1 be 57 5f 0a 3e d4 dd 07 bf 1b d9 fd bd
       -0.40901738 0.13512932 -0.5307286 -0.12394925
000170 0b e0 f1 bd 69 34 bc be fc be 9e bd 13 dd c4 be
       -0.11810311 -0.36758736 -0.07751271 -0.38449916
000180 6f 5d 64 bd 91 63 35 be 11 96 a4 be 2d 1d d4 be
       -0.055753168 -0.17713763 -0.32145742 -0.4142851
000190 c6 58 b1 bd 1c 74 f2 be fc b0 af bd 03 8c 94 be
       -0.0865951 -0.4735421 -0.08578679 -0.2901307
0001a0 95 aa c7 be b7 be 9b bf db 91 ed be cb e1 4d bf
       -0.3899733 -1.2167577 -0.4640034 -0.8042266
0001b0 0c ca cf be d6 b6 82 bd 01 3e c9 bd d0 1d 35 be
       -0.40583837 -0.063825294 -0.098262794 -0.17687154
0001c0 e8 05 b9 be 25 dd 77 be 1d 77 a1 be 3c 69 90 be
       -0.3613732 -0.24205454 -0.3153619 -0.28205287
0001d0 9b ed 63 bf 08 c7 be be b4 2a 6c bd b6 b2 90 bd
       -0.8903443 -0.37261224 -0.057657912 -0.070653364
0001e0 73 2b 6e bd e6 b4 04 be e5 e2 97 3b 26 7a 2a bf
       -0.058146905 -0.12959632 0.004635202 -0.66592634
0001f0 8b 2c 15 bf e1 02 83 be 50 f2 76 3e 55 b6 a2 be
       -0.5827109 -0.25588134 0.24115872 -0.31779733
000200 e1 79 e7 be a7 3c 42 3f d1 05 c1 be 49 0f ce be
       -0.45210174 0.758738 -0.3769975 -0.40246037
000210 b9 e2 d4 be 9c b2 f8 be 08 25 71 bf 0f ef cb be
       -0.41579226 -0.48573768 -0.9419713 -0.39830825
000220 8b 17 56 bd 09 68 14 be ab 23 d5 be a1 1d d3 be
       -0.052268546 -0.14492811 -0.41628775 -0.41233543
000230 2d 22 cc 3e 41 43 bd bd e9 24 b4 be ea 28 d0 be
       0.39869824 -0.09241343 -0.3518441 -0.40656215
000240 9c ac 59 3e 09 1a 85 be ae 0c 2b bf 33 dd c0 be
       0.21257252 -0.25996426 -0.6681622 -0.37668762
000250 79 24 10 bf 05 c0 a9 bd 50 5b 42 be 03 8c 42 be
       -0.5630565 -0.08288578 -0.18980145 -0.18998723
000260 76 df be be c3 c6 2b be 7f 9d 44 be a5 a5 77 bf
       -0.37279862 -0.1677504 -0.19200705 -0.9673713
000270 a8 41 85 be bf ce e9 bf 25 68 27 be dd 4c cf be
       -0.26026654 -1.8266219 -0.16348322 -0.4048833
000280 e6 84 65 3f 52 7a 9b be c7 59 b9 be f1 78 c3 bd
       0.8965591 -0.3036676 -0.36201307 -0.09544552
000290 45 5b 24 40 5d a7 0e bf 61 b8 4e bf 9f 7b a4 be
       2.5680707 -0.55724126 -0.8075009 -0.32125565
0002a0 ee a4 9b bf 6c ff c3 bf 17 8f 53 be d4 37 6e bf
       -1.2159708 -1.5312324 -0.20660053 -0.93053937
0002b0 03 ac e7 bd c3 58 aa be 39 5b 01 be 41 48 fd bd
       -0.113121055 -0.33270845 -0.12632455 -0.12367297
0002c0 bb 39 21 bf 0f 13 45 bf ec 87 c5 be 88 0b 3c be
       -0.62978715 -0.76982206 -0.38580263 -0.18363774
0002d0 30 45 7a bd 63 3a c7 bd 59 ea 0a be 15 be 69 bd
       -0.06110114 -0.09727933 -0.13565959 -0.057066042
0002e0 fb 97 3c bd 33 86 68 bd 48 68 01 bf e4 94 dd bc
       -0.046043377 -0.056768607 -0.50549746 -0.027048536
0002f0 3b 3b be be 29 7d 10 be 55 c3 a3 be 3a c4 ea be
       -0.37154564 -0.14110245 -0.31984964 -0.45852834
000300 74 5c 27 bf 27 a9 ec be 40 6f ce be a1 3d d6 be
       -0.6537545 -0.46222803 -0.40319252 -0.41843894
000310 83 e4 c4 be 97 81 9b be 19 6e 11 be 87 8f 22 bf
       -0.3845559 -0.30372307 -0.14202155 -0.63500255
000320 37 c4 c5 be a1 45 8b bd b1 6d f9 be 08 00 d6 be
       -0.38626263 -0.0680039 -0.487165 -0.417969
000330 b9 d6 e4 be 89 d5 ff be 4a 2f b9 be 5b b4 c0 be
       -0.4469507 -0.49967602 -0.3616889 -0.376376
000340 d6 e1 2b bf d4 d2 d7 be 13 e1 c8 be 83 91 d8 be
       -0.67141473 -0.42153037 -0.39234218 -0.42298517
000350 4f 3f c6 be 3b 81 a9 be 14 ad bd be ed 74 d8 be
       -0.38720176 -0.33106408 -0.3704611 -0.42276707
000360 f5 0d 87 be 6d 9a cd be 9a d7 dc bd 5d 01 a2 bd
       -0.26377836 -0.4015688 -0.1078331 -0.07910416
000370 17 ad e4 be a6 04 58 bf bf fb 79 3f 3c 08 9f bd
       -0.44663307 -0.8438209 0.9764976 -0.077652425
000380 ea 8e e8 be 66 9d 53 40 81 d3 f9 be fa 1c c1 be
       -0.45421535 3.3064818 -0.48794177 -0.3771742
000390 1f ee 63 be 1f df c6 bd fa 04 3c bf b6 51 2d bf
       -0.22258805 -0.09710526 -0.73445094 -0.67702806
0003a0 89 0d c5 be d2 78 bf be ff ee 1d bf 31 ca cd be
       -0.3848689 -0.37396866 -0.61692804 -0.40193322
0003b0 7b 38 64 bf 5a 63 0d be 76 76 6e be 7b 01 c2 be
       -0.8914868 -0.13807431 -0.23287377 -0.37891755
0003c0 3c 95 39 bd ea 95 b5 be f9 ad 59 bf f8 9a b7 be
       -0.045308337 -0.35465938 -0.85031086 -0.3586042
0003d0 38 51 b3 be 41 89 95 bd c8 17 21 bf 7e 57 cc be
       -0.35022902 -0.0730157 -0.6292691 -0.399105
0003e0 0e d5 c6 be 86 bd 7f 3e 24 2e e9 be f9 eb a7 be
       -0.38834423 0.24974641 -0.45543015 -0.3279722
0003f0 1c b1 c6 be b2 9e 1c 3f 0c 6f f2 3d ce 91 d3 bd
       -0.38807 0.6117965 0.11837587 -0.103305444

fc3.weight f4 [200, 300]
000000 40 ed 17 3d 52 6f 1e 3c 70 01 28 3c 00 db ca b9
       0.037091494 0.0096700955 0.010254249 -0.0003869161
000010 8e d6 f0 bd b8 3e 2c bc 39 e6 9a bd c4 06 f7 bd
       -0.11759673 -0.010513 -0.07563443 -0.12061837
000020 80 68 cb 3c 57 91 c1 bb 4d 77 7f bd 8e 17 67 3d
       0.024830103 -0.0059072184 -0.062369633 0.056418948
000030 aa 3f bb bd 40 e5 ab bb cf 10 28 bd 04 1f d0 bc
       -0.09143002 -0.0052458346 -0.041031655 -0.025405414
000040 d9 43 0d bd 09 d2 85 bc 1d 8b d3 bd 67 72 fd bd
       -0.034488533 -0.016335504 -0.10329268 -0.12375336
000050 f9 6f bf bc dd 74 b7 3b 21 89 ec ba 13 00 90 bd
       -0.023368822 0.005598648 -0.0018046239 -0.07031264
000060 8f 3a 81 bd d5 76 76 3c b1 af 49 bd c6 48 4a bd
       -0.06309997 0.01504298 -0.049239818 -0.04938581
000070 24 34 ad 3d 98 97 f3 bd f1 8a 0c 3d 29 0c 18 bd
       0.08457211 -0.118941486 0.034312192 -0.03712097
000080 32 8d 16 bb cf fc be bd 5b 9f 2e bd 70 1d a8 bc
       -0.0022972343 -0.09325563 -0.042632442 -0.02052185
000090 3d d0 87 bc 4d 5c 45 3c ed e8 61 3c 80 2e 0a 3a
       -0.016578788 0.012045932 0.013788444 0.0005271211
0000a0 04 b4 10 bd 78 a9 e1 bd 1e 9e 27 3d 26 9b 4b bd
       -0.035327926 -0.11018652 0.040922277 -0.049708508
0000b0 32 2e 75 bd 28 d1 00 bd 9f 9c 95 bd 61 09 b5 bc
       -0.05985851 -0.031449467 -0.07305264 -0.022099199
0000c0 93 85 b6 bd 33 ed 37 bd be e5 dc 3b f7 8b cb bc
       -0.08912196 -0.044903945 0.0067412546 -0.024847014
0000d0 21 1d 11 3c c1 1f e0 bd 89 9e 81 bd ad de d4 bd
       0.0088570425 -0.109435566 -0.06329066 -0.103940345
0000e0 20 45 ed 3b 94 0c 99 3d ca 01 22 bd 0c b9 8b 3c
       0.0072409064 0.07473102 -0.039552487 0.01705601
0000f0 38 78 79 3c dd 78 37 bd f6 7f b4 bc bd f0 d9 bd
       0.015226416 -0.044793 -0.022033673 -0.1064162
000100 3d ec 48 bd b5 a8 ea bd 9d 73 fc bc 69 56 6c bd
       -0.04905342 -0.114579596 -0.030816847 -0.057699595
000110 82 ca 02 3c a0 06 56 3b e9 38 bd bd 18 b4 75 bd
       0.007982852 0.0032657757 -0.092393704 -0.059986204
000120 b8 e5 d4 bd 68 7a d8 bc 3d b7 a3 bd 01 b7 a4 be
       -0.10395378 -0.026425555 -0.07993934 -0.3217087
000130 4b f2 d9 bd 2b 58 77 bd 19 36 03 be 17 8a dd 3d
       -0.10641917 -0.060386818 -0.12813605 0.10817354
000140 0f 39 49 bd 51 e7 01 bd da ea dc bd 00 15 ea 3a
       -0.04912668 -0.03171474 -0.10786982 0.0017859042
000150 78 56 e2 bc 25 c1 11 bb 94 5b c6 bd 3f 91 7e bc
       -0.027629122 -0.0022240367 -0.09685436 -0.015537559
000160 bc ef e7 ba 2c e0 c0 bd 29 87 41 bd d0 b4 a6 3d
       -0.0017695348 -0.094177574 -0.04724804 0.08139956
000170 d0 e2 8f bd 82 76 5f bd 2b 5c bd 3b 8f 1b af bd
       -0.07025683 -0.054556377 0.0057788095 -0.08550178
000180 73 10 17 bd fc a0 86 3c 22 3c 82 bd 80 0f c6 3b
       -0.03688092 0.016434185 -0.06359126 0.006044328
000190 dd f7 0c bd 02 7c 63 3d 57 41 88 3d ce 2d 64 3d
       -0.03441607 0.055538185 0.066530876 0.055707745
0001a0 64 7b 42 bc a6 be 93 bd 10 47 93 bc 9b 82 f8 bc
       -0.011870239 -0.07214098 -0.017978221 -0.030335715
0001b0 08 8e fd bc 8e 5c f8 bd 3a ec de be 4c 51 f8 bc
       -0.030951515 -0.121270284 -0.43539602 -0.030312203
0001c0 44 9c 79 bc 3a a4 31 bd fa c4 3f bd ff 85 64 bc
       -0.015235011 -0.04336951 -0.04681871 -0.013947963
0001d0 76 44 07 be 19 21 9c bd fc 54 bc bc 2e 73 d9 bd
       -0.1320971 -0.076235004 -0.022989742 -0.10617672
0001e0 1a d9 de bd 9b 86 43 bd d3 ab 43 bd 0f 03 68 bd
       -0.108812526 -0.04773579 -0.047771286 -0.056643542
0001f0 55 5e 01 bd dd a7 28 bc 1e d9 de bd ce c7 2c bd
       -0.031584103 -0.010293928 -0.108812556 -0.042182736
000200 24 40 3c 3c cb d6 1f ba 08 80 ef bc 2e 3c a9 bd
       0.011489902 -0.00060973753 -0.029235855 -0.082634315
000210 2d 24 92 bc 23 5e 47 bc 05 dc 64 bc 97 a0 c6 bd
       -0.017839516 -0.01216844 -0.013968472 -0.09698599
000220 95 26 4c bd 73 b1 e6 bd 00 b9 ee b9 17 d2 af 3a
       -0.049841482 -0.112643145 -0.00045532733 0.0013414052
000230 e0 02 35 3d 72 b7 b8 3b 50 33 e4 bb 59 f6 6f bd
       0.044192195 0.0056371028 -0.0069641247 -0.058584545
000240 97 f3 33 bd dd 67 a1 bd 1c a8 8a bb 36 bd 82 bd
       -0.043933477 -0.078811385 -0.004231466 -0.06383745
000250 f0 e3 e1 ba dc cd 42 3d 41 8c 20 bc 48 23 52 3d
       -0.0017234068 0.047559604 -0.009799064 0.051303178
000260 d6 f4 2a 3d dd 0b 0a bd 9c 21 94 be ff 27 ef 3c
       0.0417374 -0.03370272 -0.28931892 0.029193876
000270 bd 2a 91 bd ee 4c c4 bc fa b4 44 bd 0b 1f 09 3b
       -0.0708823 -0.023962464 -0.048024155 0.0020923044
000280 e5 5f 6a bd 80 87 8f bd 54 8d 8c bd 59 40 03 be
       -0.05722036 -0.070082664 -0.06862894 -0.12817515
000290 4d 13 d2 bc 90 86 8c b8 85 c1 7e be ee 5b 37 bd
       -0.025643969 -6.7007844e-05 -0.2487851 -0.044765405
0002a0 92 98 20 bd 54 a3 c7 bd f9 40 ea bd b9 7d 59 bd
       -0.039208002 -0.09747949 -0.11438174 -0.053098414
0002b0 a3 a6 97 bd 14 47 2a bc a9 d2 ba bd 6c e1 db bc
       -0.0740483 -0.010392923 -0.091222115 -0.026840888
0002c0 a0 ce 32 3b 8f 92 88 3d 91 ca 8e bd b0 72 b2 bd
       0.0027283803 0.06668579 -0.0697223 -0.08713281
0002d0 86 75 c7 bc 2f 20 c6 bd f6 11 76 3d 08 07 00 be
       -0.024348032 -0.09674107 0.060075723 -0.12502682
0002e0 b3 e5 dc bd 34 02 c2 bd 7a 2f fc ba 60 b3 b6 3b
       -0.10785999 -0.094730765 -0.0019240223 0.0055755824
0002f0 1c 0b ca 3c 08 bd 4d 3c 62 c9 fa bd 00 08 1e 3a
       0.0246635 0.012557276 -0.12245442 0.0006028414
000300 26 9c 6e bb c8 49 88 bd 18 a0 54 bd 7c 12 60 bd
       -0.003640899 -0.06654698 -0.05191049 -0.054705128
000310 ba b5 a5 bb 4e 63 3b bd 29 01 b7 bd 7c d8 cf bd
       -0.005057064 -0.045749 -0.08935768 -0.10148713
000320 00 a0 a2 ba 44 08 b5 bd 98 f3 be bb 18 20 e6 bc
       -0.0012407303 -0.08839467 -0.0058273785 -0.028091475
000330 b2 d6 5a be 0c 75 b5 3c 1b 30 02 3c e4 7d c8 3d
       -0.21370962 0.022150539 0.00794604 0.09789637
000340 f2 35 56 3d 31 31 d1 bd b1 a7 7f 3d d7 21 8f bd
       0.05229754 -0.10214461 0.062415782 -0.06988876
000350 92 d8 85 bd 74 fa 89 3c 49 52 f5 bd d5 49 56 bd
       -0.06535448 0.016843058 -0.11978585 -0.052316505
000360 4a da 46 bd b7 79 d3 bd 60 ea fc 3c 64 d9 db bc
       -0.04854802 -0.1032595 0.030873477 -0.026837058
000370 b0 3e 04 bd a0 3a 8f bd 12 02 77 bb ac 4a ef 3c
       -0.032286346 -0.06993604 -0.0037690443 0.029210411
000380 59 8b f2 bb 1a d1 91 be 44 60 dd bd 70 ae ea bb
       -0.0074018654 -0.28479844 -0.10809377 -0.007161908
000390 16 c3 5b 3d d3 b2 f7 3a 74 ac 83 bc 57 93 9b bd
       0.053652845 0.0018897898 -0.016073443 -0.07596462
0003a0 f1 51 89 bd b9 fc ae bc cb 88 28 3d 34 90 3e 3d
       -0.06705082 -0.021360742 0.04114608 0.04652424
0003b0 0e f4 27 bd 25 b9 3a 3b df 4e 0a bc e3 1b 13 bd
       -0.041004233 0.0028491702 -0.008441656 -0.035915267
0003c0 5f 0b b3 bd 7c c3 ab 3c 62 24 60 3d c9 51 84 bd
       -0.08742403 0.020967238 0.054722197 -0.06460912
0003d0 45 57 e8 bc 07 11 88 bd c0 48 02 bd 00 2d 32 3d
       -0.028361926 -0.06643873 -0.03180766 0.043499947
0003e0 a3 f5 76 3c 30 9a e6 3c 76 86 e9 bb d0 da 63 bd
       0.015073213 0.028149694 -0.0071266247 -0.055628598
0003f0 01 8e f4 bd 15 e2 d9 bd 85 f7 89 be c6 6d ea bc
       -0.119411476 -0.10638825 -0.26946655 -0.028616797

fc3.bias f4 [200]
000000 53 e4 7d bf 0a 1a 90 bd fe 2b 05 40 59 5b 7c bf
       -0.9917652 -0.070362166 2.08081 -0.98576885
000010 12 0c 08 bf 53 ab 9c bf b3 0e 83 be e1 5a 0a bc
       -0.5314342 -1.2239784 -0.25597152 -0.008444519
000020 67 4d 2e bf 2a 23 09 c0 3a 6e 1f bf 02 01 10 bf
       -0.68086857 -2.1427712 -0.6227757 -0.5625154
000030 bb 2b 2c bf 09 2e 26 bf f3 e4 71 be 90 d6 b8 bd
       -0.6725423 -0.64913994 -0.23622493 -0.090252995
000040 55 57 88 bf 7e 60 02 bd 1c fd b0 be f4 91 58 be
       -1.0651652 -0.031830303 -0.34568107 -0.21149427
000050 8a f3 6c be 90 49 28 bf e5 8f 24 be bf 60 e7 bf
       -0.23139778 -0.6573725 -0.16070516 -1.80764
000060 ef ac f7 bd 5c db ad be 47 c4 27 bf 0b 97 48 bc
       -0.12093531 -0.3395642 -0.6553387 -0.012243043
000070 c8 8e 6b bf 72 c5 69 be 9d cf 08 bf ea 53 8b bf
       -0.9201474 -0.22829226 -0.5344179 -1.0884984
000080 71 de 45 bf 16 30 5d be a5 4d 8e be cb d3 a2 bf
       -0.77292544 -0.21600375 -0.27793613 -1.2720884
000090 8e 02 ce bd 12 ce ed bd 98 c7 48 be 6d e6 03 bf
       -0.10059081 -0.116115704 -0.19607389 -0.51523477
0000a0 05 95 17 bf 54 02 2a bf 4d 24 84 be c7 5f 2e 3d
       -0.5921176 -0.664098 -0.25808945 0.04257181
0000b0 ea 6e 34 bf d0 0a ce bf 03 8a e6 be 06 fc d1 be
       -0.7048174 -1.609705 -0.4502717 -0.4101259
0000c0 0c 8e 2f 40 50 d7 8a be 89 81 d4 be 13 5d 79 be
       2.7430449 -0.27117395 -0.41505077 -0.24351911
0000d0 85 8e 34 bf b9 36 96 bf a8 ac a4 be 2c ed 29 bf
       -0.7052997 -1.173545 -0.32162976 -0.6637752
0000e0 5b b6 a1 bf aa 5b d8 be 18 8b 08 bf d3 e7 fb be
       -1.2633775 -0.42257434 -0.5333724 -0.49200305
0000f0 35 04 d2 bd 3b 61 85 be 1b 6d 0f bf 8b fa 9b be
       -0.10254709 -0.26050743 -0.56025857 -0.30464587
000100 c8 0f 2d bf f6 b7 e2 be 6d 4c 9f be c1 d1 f8 be
       -0.67602205 -0.44280976 -0.31112996 -0.4859753
000110 a0 21 9a be 36 dd 34 bf d2 af 65 bf 5b 28 36 3f
       -0.3010378 -0.7065004 -0.89721406 0.7115533
000120 05 1c 9c bd 6d 87 4f be a7 e0 9b bf 4f 5b 3d be
       -0.07622532 -0.20266505 -1.2177933 -0.18491863
000130 a4 81 52 c0 1c 77 3a bf 81 4b 9a be 16 40 df be
       -3.2891626 -0.72837996 -0.3013573 -0.4360358
000140 0d 85 05 bf bb fe bb be 01 5b 3d be 42 6e 74 be
       -0.52156144 -0.3671778 -0.18491746 -0.23870185
000150 73 ab df be d8 b7 12 bf 19 d0 15 bf 77 42 3e bf
       -0.43685493 -0.57311773 -0.58520657 -0.7432017
000160 44 5a 42 bf 1b 0b d6 be 7c 14 57 3f 4c 82 63 bd
       -0.75918984 -0.41805348 0.8401563 -0.055544183
000170 23 4e c7 be ca f0 ad bf c6 13 67 be e8 08 fb bc
       -0.389268 -1.3589108 -0.22566137 -0.030643895
000180 a8 9e 16 bf c9 7a 61 bd 61 11 8c be d8 28 30 bf
       -0.5883584 -0.055048738 -0.2735701 -0.6881232
000190 5b b4 1c bf 45 65 b0 be fb 2f 19 bf 88 71 1c bf
       -0.612127 -0.34452263 -0.5983884 -0.61110735
0001a0 c5 60 95 bf 23 e8 4e bf 6f a2 2c bf 2a 96 1a 3f
       -1.1670157 -0.8082296 -0.67435354 0.6038538
0001b0 e7 42 e9 be 60 4b a2 bf e4 8d 2b be bc f0 62 bf
       -0.45558855 -1.2679253 -0.16753346 -0.8864858
0001c0 63 be fa be e9 ee 7e bf 0c 4d 00 be c4 81 46 bf
       -0.4897338 -0.995833 -0.12529391 -0.77541757
0001d0 e3 ee 7d bf cf 0e ab bf b0 e2 d9 be 77 e5 41 3f
       -0.9919264 -1.3363894 -0.4255576 0.7574076
0001e0 ce 34 30 bf d2 3d b8 be 86 c4 11 bf 3f 12 31 bf
       -0.68830574 -0.35984665 -0.56940496 -0.69168466
0001f0 4d d9 18 bf 6c 3a e6 be 74 d7 84 be c7 53 c8 be
       -0.59706575 -0.44966447 -0.25945628 -0.39126417
000200 2e a9 de 3d 0d d7 7e bd 8c f7 15 bf 03 29 3e be
       0.10872112 -0.062216807 -0.5858085 -0.18570332
000210 68 9e 1c bf ff 37 95 be f8 bb 84 bf 99 87 41 bf
       -0.6117921 -0.29144284 -1.0369864 -0.7559753
000220 8b 1f 55 bf 8c 7f fb be 5e 4f 59 bf 8b 95 99 be
       -0.83251256 -0.49120748 -0.8488673 -0.29996905
000230 25 84 b4 be 07 8e 05 be ab 96 ee be dc 77 73 bf
       -0.35257068 -0.1304246 -0.46599326 -0.95104766
000240 43 d4 fa bf d9 0b 51 bf d2 11 49 bf c2 3e 77 be
       -1.9596027 -0.81658703 -0.78542817 -0.24145034
000250 02 83 3d bf 0c c3 40 bf 1c c2 b3 bf 0b 4e f5 be
       -0.7402803 -0.7529762 -1.4043612 -0.47911105
000260 e9 01 22 bf d9 44 a9 3f 65 15 1f be 8d 8d 0c be
       -0.63284165 1.3224136 -0.15535505 -0.13725872
000270 9f f0 87 bf d5 5b 8d bf 62 10 a3 be 6d 8b aa be
       -1.0620307 -1.104365 -0.31848437 -0.33309498
000280 42 dc 06 bf dd 2d 30 bd 6f 2e 6b bf 9f 9d f4 be
       -0.52679837 -0.04301249 -0.9186773 -0.47776505
000290 a6 56 32 bf 2c 05 f1 be 14 dc c7 be 14 95 85 bd
       -0.69663465 -0.47074258 -0.39035094 -0.06522575
0002a0 9a f8 35 bf 49 af 7c bf a4 8f 61 bf e4 45 16 bf
       -0.7108246 -0.98704964 -0.88109803 -0.58700395
0002b0 de 7e b7 be 6b 22 3b bf 6c 2f 5f bf 08 63 e2 be
       -0.3583898 -0.7309939 -0.87181735 -0.4421618
0002c0 88 a3 94 bf 52 fc 7b be 23 13 7a bd a4 92 ca be
       -1.1612406 -0.24607971 -0.061053406 -0.39565003
0002d0 4a 95 fa be 45 27 bb be c1 1c 27 bf 34 64 89 be
       -0.48942024 -0.36553398 -0.6527825 -0.2683426
0002e0 c0 7e 5f bf d5 eb dd be bc de e7 be f8 ba 84 be
       -0.8730278 -0.43343988 -0.4528712 -0.25923896
0002f0 3d 4f 61 bf 7d 44 94 be d4 26 54 be 14 8f c4 be
       -0.88011533 -0.28958502 -0.20717937 -0.3839041
000300 4a 7f 52 40 2f a2 1c bf 2a fe 3b 40 2c 19 a7 be
       3.289019 -0.6118497 2.937388 -0.32636392
000310 08 cb 01 bf 22 fe 39 bf df 13 31 bf eb 3a 1d be
       -0.50700426 -0.726534 -0.69170946 -0.15354507

fc4.weight f4 [1, 200]
000000 7c 82 40 be 85 b8 dc be a8 07 b5 be 8c a9 85 be
       -0.18799776 -0.43109527 -0.35357404 -0.26105917
000010 25 26 99 be 47 d1 ea bd b6 0c be 3c 2c a5 95 bd
       -0.29911914 -0.11465698 0.02319942 -0.07306895
000020 27 13 93 3d 78 47 3e 3c a9 fb 7f bd 9c 20 cd bc
       0.071813874 0.011613719 -0.06249586 -0.025039963
000030 59 ee 24 be 0d a9 aa 3c 28 2c 02 bd 16 ab 16 3e
       -0.16106547 0.020832563 -0.031780392 0.14713702
000040 ed 3a ed 3e 87 e9 98 be 79 a3 85 be 48 f7 86 3d
       0.4633402 -0.29865667 -0.26101282 0.06590134
000050 18 63 65 3d 7e e7 39 3e 4f a1 01 3e 66 91 62 3e
       0.056002706 0.18154714 0.1265919 0.22125778
000060 ec 7e 1e be 5d 87 7e 3d 15 48 a4 bc 50 28 9e be
       -0.15478104 0.06214081 -0.020053903 -0.3089013
000070 04 72 00 bc 39 bc 85 3c 99 34 91 3d 6c 47 81 be
       -0.007839683 0.016325103 0.0709011 -0.25249803
000080 f9 e2 93 bd 55 03 11 3c d6 b3 39 bb 63 56 db bd
       -0.07221026 0.008850892 -0.002833595 -0.10709836
000090 ee 0c 17 be ce 01 f2 be 0c 8e 10 3e 67 a7 6d be
       -0.14751026 -0.47267002 0.14116687 -0.2320839
0000a0 7a 39 96 bd 5f 86 99 3e a5 6d 06 3e fe 19 89 be
       -0.073351815 0.2998533 0.13127764 -0.26777643
0000b0 bb 45 81 bd 07 78 82 bb 8b 0d 7f 3e bd 30 95 3e
       -0.06312128 -0.0039815935 0.2490751 0.29138747
0000c0 6d 8e 90 be 68 27 05 3d ed 08 9c 3d de e9 76 3b
       -0.28233662 0.032508284 0.0761889 0.0037676017
0000d0 d2 4c 18 bf b2 ba f5 bd 48 ec a2 bd de 85 51 be
       -0.5949222 -0.119985 -0.07955223 -0.20461223
0000e0 e7 43 40 3e fc a2 3c bd 08 c0 49 3d 97 d3 09 bd
       0.18775903 -0.04605387 0.0492554 -0.033649053
0000f0 fe 28 28 bf bb 90 ea 3e 83 ba 8d 3e 63 0e df bc
       -0.6568755 0.45813546 0.2768136 -0.02722854
000100 eb ad 0e be 17 92 07 be da bb 6a 3c 83 fc 05 be
       -0.13933532 -0.13239323 0.014327014 -0.13084607
000110 76 06 e1 3c 6e e3 6b 3e 5b 05 50 be f2 92 95 be
       0.027468901 0.23035976 -0.20314543 -0.29213673
000120 b4 4a f8 be 8a 5f e1 3d a2 d6 76 3e 47 4f 55 bd
       -0.48494494 0.11004551 0.24105313 -0.052077558
000130 0f 95 cb bd f9 d3 7c be 8c 5f 8c be fb fa 2c bd
       -0.0994054 -0.24690236 -0.27416646 -0.04223154
000140 63 60 36 3e e2 86 ba bd 84 79 af be df 72 2e bd
       0.17810206 -0.09107758 -0.34272397 -0.04259002
000150 fe 2b 15 be 1a 5e f7 3d 29 c6 31 bd 23 db 0a 3e
       -0.14567563 0.12078495 -0.04340187 0.13560157
000160 3a 94 8a 3e 7b 7b e1 3d 1f 4c 21 bf 13 ff c4 3d
       0.27066213 0.1100988 -0.63006777 0.09618964
000170 9b 90 09 3d 5c 6a c2 3d 29 b6 61 be 23 d0 6b be
       0.033585172 0.09492943 -0.22042145 -0.23028617
000180 81 6a e0 3d b8 92 5f bd 52 48 ea 3c 3c 10 7b be
       0.10957814 -0.05458328 0.028598938 -0.24517912
000190 dc 33 a9 3c 33 ce 6c 3e 38 4f 66 be b5 25 fb bd
       0.020654611 0.23125534 -0.22491157 -0.122630514
0001a0 80 63 a8 3e 53 91 f1 bc 8f 88 5b be c3 13 1b bf
       0.32888412 -0.029488241 -0.21438812 -0.6057703
0001b0 be 96 de bd 60 ba a8 be 3b 43 bd 3d a2 67 5c be
       -0.108685955 -0.32954693 0.09241339 -0.21523908
0001c0 47 88 a5 bd d4 d9 7d bd 98 7a c9 be e5 d1 c7 3d
       -0.080826335 -0.061975315 -0.39351344 0.09756831
0001d0 a1 3c 9b be 9f ec 9e bd 93 73 08 be eb b0 58 3f
       -0.30319694 -0.07759976 -0.13325338 0.84644955
0001e0 6b a8 82 3b 67 1c 25 be 7d 93 10 3e 94 5a 26 3e
       0.003987362 -0.16124116 0.14118762 0.1624549
0001f0 80 eb b6 3e 71 2c ee bd c3 09 37 3d a1 20 66 be
       0.35726547 -0.1162957 0.044687044 -0.22473384
000200 4d fc 6d 3d aa 22 4c bc 00 6e 24 3e fb b6 86 3c
       0.05810194 -0.012459436 0.16057587 0.016444674
000210 ff a9 5f 3d d2 cb fb 3d 01 4d 51 be 78 55 90 3e
       0.05460548 0.12294735 -0.20439531 0.28190207
000220 5d 4e 1a 3b b0 ef 83 3e 56 02 34 be a2 de 9d 3d
       0.0023545243 0.25768805 -0.17579016 0.077084795
000230 e2 74 bb 3c 68 e1 72 3d 80 0c 28 bd 66 16 83 bd
       0.022882883 0.059296995 -0.041027546 -0.064007565
000240 dd 70 94 be 05 45 bd bd 06 a9 2d be af f3 25 3e
       -0.28992358 -0.0924168 -0.16959009 0.16206239
000250 c5 3a 10 be 19 ea 9b 3d 4b e5 85 3e a4 30 f1 bd
       -0.14084919 0.0761301 0.261515 -0.117768556
000260 6d 29 a5 bd e9 93 b7 be aa f0 18 bf e9 57 6b bd
       -0.08064542 -0.35855034 -0.59742224 -0.057456885
000270 85 67 85 3d f1 61 dc bd ae 2c 67 3e 44 f9 85 be
       0.065138854 -0.10760868 0.22575638 -0.26166737
000280 a0 2f 04 be 3a cb 0a be 74 8a 77 3c ff 3e 6e bc
       -0.12908792 -0.13554087 0.015108693 -0.014541387
000290 40 20 70 be cb 0a ad bd 82 54 a0 3d 29 d9 79 3d
       -0.23449802 -0.08449324 0.078286186 0.060998116
0002a0 55 6b 94 bd cf 79 94 bd 95 20 27 3e 93 36 2f 3e
       -0.072470345 -0.07249796 0.16321023 0.17110662
0002b0 3e 00 ff 3d 00 4a 6c 3d f7 59 6e 3e d0 c6 14 be
       0.12451218 0.05768776 0.23276506 -0.14528966
0002c0 28 79 3c be d1 21 ad bc 36 47 b7 3d 30 a2 9e bd
       -0.18405592 -0.021134289 0.08949129 -0.077457786
0002d0 43 0d 36 3e 8e ce 70 3d be 09 77 ba b5 e4 01 be
       0.17778496 0.058790736 -0.0009423754 -0.12684901
0002e0 09 09 b3 be cd 3f 5d be bb 1d 7e 3d 36 e4 14 bd
       -0.3496783 -0.2160637 0.062040072 -0.03635045
0002f0 be 74 c4 bc 1e 72 5a 3e ca ab b0 bc 50 15 ae bd
       -0.023981448 0.21332595 -0.02156629 -0.08500159
000300 c0 b2 e2 be e5 2a 67 be d7 0a 98 bf 16 bd 41 bd
       -0.44277 -0.22574957 -1.1878308 -0.047299467
000310 60 01 fa bc eb 62 89 3e 57 1e 16 3d d8 a1 85 bd
       -0.030518234 0.2683328 0.036650028 -0.0652501
