checkpoint_actor.pth (torch, 864681 bytes, 8 tensors)

fc1.weight f4 [400, 9]
00000000: e6e0 06bd 444c 48bc 9ee8 64bb 3fe6 50bd
00000010: 7bbd 2b3c 1b65 24bd 9cd6 513d d6af 1a3d
00000020: 1c65 123d 34e9 1bbd 3060 9d3c b4e8 6c3d
00000030: 9e6d 6ebb 1d10 7ebc 5774 13bd 92aa 593d
00000040: 8d0d 183d 149d 8cbc 78bb bebc a32f e8bc
00000050: 50d0 09bc 75f4 37bd 5698 1abc c2da 25bd
00000060: 5f56 933a 2e4b f43b f2fc 143c e298 e43c
00000070: 3a60 c0bc 9ae8 2abd 5dd4 043d d75c edbc
00000080: 43a1 ffbc 0028 08bb 3a4c 17bd 3a07 fabc
00000090: e8d8 32bd d9a2 183d 3336 e4bc 06d1 a33c
000000a0: 504f 1abb 959c 06bd d360 39bd d6ac 8cbc
000000b0: 1078 e93b d940 b8bc 3b79 1a3d 5b43 2dbd
000000c0: 57ba 123d 6517 fbbc b210 a5bc d694 493d
000000d0: ab1d 0dbd b805 adbc 002c 6abb 9f33 343d
000000e0: 380b 7cbc abd1 3b3d a353 023d 5402 573c
000000f0: 2c5c 073c c75d b6bc 4d5f 033d b803 3bbd
00000100: df47 66bc 6957 933c 5661 84bb 109d 3739
00000110: e57d 323d 3725 2bbd 38fe 6f3c b92c 23bd
00000120: 6a5d fb3c f7f0 0b3d 383b 10bb 64a1 cdbc
00000130: abbf 0dbb 6e2a edbc fed9 163d 82d6 bc3b
00000140: aa37 f7bc 7fe6 65bd 1b66 54bd 2c2f 0c3c
00000150: a0ae a2bc bb28 e53a 2666 40bd 59e0 15bd
00000160: 758f b7bc 441a dd3c 8c69 60bc 43fc ffbc
00000170: 0155 293d 2ae2 c6bc 670a 3d3d a914 303d
00000180: f716 373d ca1e 9fbc 5e3d cd3c 0cd5 cf3b
00000190: 224c eebc 343a 073c e496 21bd f5b6 8c3c
000001a0: 4b5c c1bc 05c9 723d cc3c 02bd 234a 703d
000001b0: 8c54 4e3d d1d9 9c3d 5dbe b93d 48b1 4c3d
000001c0: 8ba9 a53d 67f8 9d3d 41a2 d1bd 89b2 8bbd
000001d0: 54e8 54bd d3cf cc3c 8601 f93c 94b6 213d
000001e0: f18c 3cbd 410b 0e3d ab6e 33bd acc7 143c
000001f0: f9fc c33c 7623 50bc acef 1dbd 0248 6b3d
00000200: 906c 02bc 345d a23d babb b83c 745d 033d
00000210: 9a26 a13c 44f9 20bd 5a31 9ebd f5c0 f33c
00000220: db84 fabc 1c2f 30ba 3261 c73c 9832 43bd
00000230: 22ec 853c 786a 3b3d 61f5 fc3c b4f4 89bc
00000240: 6919 dc3b 1841 32bd ee5c 353d dc3b c13c
00000250: b5d9 e4bb 3695 64bd 06d0 0bbc 7b62 78bc
00000260: 0a33 cdba b718 cabb 84fa d239 922f 603d
00000270: 3c2e 82bd 752c 09bc 04b1 d53b 71d0 3e3d
00000280: 5a9b 1ebc aa7b 6d3c 4636 ed3c 8311 cfbc
00000290: 58bd dd3b 08a6 17bc d2d2 8c3c 8074 343b
000002a0: faf4 b1bc e3f3 35bd 8acb cc3c 6603 c13a
000002b0: 7a87 54bd 33bc 28bd 4d10 02bd 75f3 dd3b
000002c0: e8e9 2cbd 62ea 903c 77bc 5d3d 5409 633d
000002d0: 8a67 a63c 5d48 afbc b914 2d3d b84b 103c
000002e0: 9ec1 943c cafa d7bc e2d6 b73c 60d8 963a
000002f0: 4f9a 42bd cb09 d9bc 872e b6bc 69b5 61bd
00000300: b368 0d3d 9754 063d 187f 273d 87e7 df3c
00000310: ba3e 613c 80a6 c1bc a37f 1cbd 98c6 44bd
00000320: 1d8c 48bd 8946 0f3d c704 fdbc 2cb1 7f3c
00000330: b07d a4bb 00a6 b23b 5d10 e5bc c5fb 513b
00000340: b00c 843d 730e 9c3d 04c3 a03d 5366 bbbb
00000350: c8dc a83d f4ed 2a3c 5274 36bd a10c 84bc
00000360: b0a3 a63b a835 e0bb 83cf d8bc 6414 623c
00000370: eddc b1bc e685 05bd c04b 073c 4cd5 573c
00000380: 30ae f1bb 3f11 f1bb 735a 253d b02d efbc
00000390: 8a7c 66bd 061a 1e3d 278c 163d 7b38 173d
000003a0: 0973 653a 5be4 db3c 5c45 80bc 0102 2e3d
000003b0: 920e b53c 4cd0 403c 80bc 76bc 5798 39bd
000003c0: 24ed 00bd ad05 323d 8ab8 c5bc 46eb 80bc
000003d0: 00b0 f1bc 69a0 423d b1f6 0c3d 419f 113d
000003e0: 2ff1 303d d4e8 0fbc 7984 323d f041 8f3b
000003f0: 13ee e83c 829e 53bc 38fa d2bc 8c97 28bd
-0.032929324 -0.012225214 -0.003492869 -0.05100083 0.010482187 -0.040135484 0.051230058 0.037765346
0.035740957 -0.038064197 0.019210905 0.05783911 -0.0036381255 -0.015506771 -0.035999622 0.053141184
0.037122298 -0.017164744 -0.023282751 -0.028343027 -0.008411482 -0.044910867 -0.009435734 -0.040491827
0.001124095 0.007455251 0.00909351 0.027904931 -0.023483384 -0.041725732 0.032429088 -0.028974934
-0.031204825 -0.0020775795 -0.03693793 -0.030521024 -0.04366389 0.03726468 -0.027857875 0.019997131
-0.002354581 -0.032864172 -0.045258354 -0.017172258 0.0071249083 -0.02249186 0.03771327 -0.042300563
0.03582224 -0.030650804 -0.020149563 0.049214207 -0.03445212 -0.021120891 -0.0035731792 0.043994542
-0.015383534 0.04585425 0.031818043 0.013123114 0.008261722 -0.022261513 0.032073308 -0.045657843
-0.014055221 0.017986016 -0.0040399237 0.0001751075 0.043577094 -0.041783538 0.014648013 -0.039837573
0.030684192 0.03416535 -0.0022007953 -0.025101371 -0.0021629136 -0.028950896 0.036828987 0.005762876
-0.03017791 -0.05612802 -0.051855188 0.0085561685 -0.019858658 0.0017483452 -0.046972416 -0.036590908
-0.022407273 0.026990063 -0.013697039 -0.031248217 0.04134083 -0.024277765 0.0461525 0.042988453
0.044699635 -0.019423861 0.025053676 0.006342536 -0.029089037 0.008253623 -0.03945054 0.017177084
-0.023603579 0.05927374 -0.03179626 0.058664452 0.0503736 0.07658733 0.09069512 0.049973756
0.080889784 0.077133946 -0.102360256 -0.06821162 -0.051979378 0.025001442 0.030396234 0.03948076
-0.04603285 0.0346787 -0.043806713 0.009080809 0.023924338 -0.012703767 -0.038558647 0.05744172
-0.007960454 0.07927933 0.022550453 0.032071546 0.019671727 -0.03930022 -0.07724257 0.029755095
-0.030580929 -0.0006720887 0.024338339 -0.04765567 0.016347948 0.045755833 0.030878725 -0.016840316
0.0067168963 -0.04351911 0.044278078 0.023588113 -0.0069839605 -0.05580636 -0.008533483 -0.015160198
-0.001565547 -0.006167497 0.0004024097 0.054732867 -0.06356475 -0.008372416 0.006521346 0.046585504
-0.009680593 0.014494816 0.028956544 -0.025276905 0.0067669563 -0.0092558935 0.01719037 0.002753526
-0.02172326 -0.04442204 0.024999399 0.0014725744 -0.051887013 -0.041195106 -0.031753827 0.006773407
-0.042215258 0.017689887 0.054134812 0.055428818 0.020313043 -0.02139681 0.04225609 0.008807115
0.01815873 -0.026364703 0.022441331 0.0011508577 -0.04751044 -0.026493927 -0.022238983 -0.055104647
0.034523677 0.032795515 0.04089269 0.02733208 0.013747865 -0.023638964 -0.03820766 -0.048040956
-0.048961747 0.034979377 -0.030886067 0.015606206 -0.005019866 0.0054519176 -0.027961904 0.0032040935
0.064477324 0.076199435 0.07849696 -0.005718985 0.08245236 0.010432709 -0.044544525 -0.016119303
0.005085431 -0.006842334 -0.026466137 0.013798807 -0.021711791 -0.0325984 0.008257806 0.0131734125
-0.007375501 -0.007356792 0.040369462 -0.02919659 -0.056271113 0.038599037 0.036754753 0.0369191
0.00087527983 0.026842287 -0.015658073 0.04248238 0.022101674 0.011768412 -0.01505959 -0.0453113
-0.031476155 0.043462444 -0.024135847 -0.015737187 -0.029502869 0.04751626 0.03441495 0.035552267
0.04319876 -0.008783538 0.043583367 0.004371874 0.028433835 -0.012916209 -0.02575408 -0.04116015

fc1.bias f4 [400]
00000000: b85a 413e e0e7 d4bd 54d9 383e 5362 66be
00000010: 6eb0 99be 44ec d53d 3b32 a3be 5bfc 0d3e
00000020: eec2 013d bc5f 963d 9680 18be b2a8 86b9
00000030: e0c0 cabd 932e 743e 2a78 89bd a0b3 9c3c
00000040: 7bd0 203d 2709 88bd 1a51 88be c1fc 203c
00000050: 9699 82be c8a6 0d3d f35b 6dbe 0836 82bd
00000060: ac70 8abe 9c6b 173e 5b08 8fbe 3b97 3fbe
00000070: 8a3b 1fbd e470 823d 867b 903e cb52 71bd
00000080: bf5a 923e ea46 03be daac e93d f69e 853d
00000090: d3dc 973e 8410 223d da57 f8bd 2913 973e
000000a0: 811a 9a3e 1079 9cbe 9f58 993e 4a9b 56bd
000000b0: 9c10 b23e 775f a23e 7b08 a0be 5ee5 8c3e
000000c0: 587f 42bd 97e6 283e 8d79 10bc cb86 3dbe
000000d0: f3df 8cbe 7c3f f53d bb4a 013e 2692 003e
000000e0: 434b 6cbe 9a38 a6be 0654 5fbe 3e56 84be
000000f0: 1af8 613d 4a34 84be de66 5fbe b725 a4be
00000100: 5d11 773e 9c1e 82be c694 39bd 82e6 353b
00000110: 073c 743e 4c5c 653e bef9 57be 24de a3bd
00000120: 3587 ac3e 7781 a1bd 4b5a 16bd 58a6 98bd
00000130: aa4a 4d3e 5050 5f3d e648 2f3d 10ad 37be
00000140: 3281 a23e 7cad f43d 081e 06be e482 823d
00000150: eb85 803e 653d 3abd 43ed 8fbe b48e 89be
00000160: 951d 9b3e 9726 1ebe 0056 8fbe 28d1 a0be
00000170: 259a 793e 9690 6ebd c44c 2bbd 6d49 813e
00000180: 1769 513e 48ab 4fbe b3ee 37bd 549a 81be
00000190: e3d5 7a3e a713 2a3e 68b4 88be d073 593e
000001a0: 1737 163d 534e 17be 3ad8 88be 7619 8a3e
000001b0: f305 86be dada a13e b839 c53d a36d 65be
000001c0: 60d4 50be cbe2 56be 5351 af3d 7231 ae3d
000001d0: 8329 b0bd feaa 8c3d c8e7 cd3d 6344 3b3e
000001e0: 40ef 8d3e 564a 943e 33a6 8e3c 294e a63e
000001f0: 7fac 353e 2be7 963e d1e6 9dbd 2bc0 66bd
00000200: c9b7 e93b fec1 90be de49 18bd 8866 30be
00000210: c799 153d 19ec b03e c391 98be 3036 3cbe
00000220: 1abe 97be 4bd0 a23e 62bb 5f3d 70f7 2a3e
00000230: 22e1 673e 7186 3bbd d22e 3e3e 56c5 5ebe
00000240: 1b5d 7fbe 0649 7b3d 8c70 ae3e b65c 793e
00000250: b257 343d f1df f63c f97d 813e a3ce 8d3d
00000260: 209b 623e 7dab 08be 198a 153e 67d4 413e
00000270: 1e7c ad3e 77af a43e 4119 893e 8a70 a53e
00000280: aeb0 56be 16ab 5abd ef0d 933e 304a 6a3d
00000290: d593 7c3e 8ff5 19bc 73d4 783e 503b 9d3e
000002a0: 08c9 65bd 7acb 99be a283 fd3b fe43 923e
000002b0: c8eb 73be f611 f0bd efcc 4a3e d4ee 813e
000002c0: 634d 2abe 9a6f 343e 6ebe b03d 942d a73e
000002d0: 20d2 9c3e 52a8 023e a8df dcbd 53c8 0b3e
000002e0: c464 4a3e 2606 a03d e106 283e 545d 5bbd
000002f0: 9f03 9bbe 2e16 3ebe 1e06 74be 3906 3e3e
00000300: 7c62 a1be 09a7 1bbe 56e4 29be 8ab9 f23c
00000310: af41 c43d 96dc 8dbe c056 8f3b a79a a63e
00000320: bccf 6abd 33b7 e23d 9283 8cbe 871a 473d
00000330: b9df 14bc d518 453e 0681 553d b82d 3ebe
00000340: d366 3cbe 54eb f8bd efbe 293e 830f 5cbe
00000350: e3aa 473e 1446 dfbd 8e8a 823e 7605 813d
00000360: 70cf 6abd f184 ccbd 13e8 48be 07a7 87be
00000370: 208d 833e 38fd 94be 4d9d 893e 3df1 5cbe
00000380: afb3 1abe ffda 893e 666f 95be f260 e03c
00000390: e133 983e e7a5 a3be fec6 6abe 50fc 18be
000003a0: eaa1 10be 7afc b9bd 6280 9ebe c13d 303c
000003b0: 585f 15be ee90 783e 5c31 673e 900c 383e
000003c0: 1b40 94be f45d 83be 8f66 733e 09dd a33e
000003d0: 619b 103e 104c 33be d913 883e 2a4f 54be
000003e0: 738a a0be 317a 403e a8a1 6dbe 9660 85be
000003f0: ebcd a3be 6f29 20be c9bc 463e 354c c4bb
0.18882263 -0.10395789 0.18051654 -0.22498445 -0.30017418 0.10445455 -0.3187426 0.13865797
0.03168004 0.07342479 -0.14892802 -0.0002568416 -0.09900069 0.23845892 -0.067123726 0.01912862
0.039261322 -0.06642371 -0.26624376 0.009825886 -0.25507802 0.034582883 -0.23179607 -0.06357962
-0.27039087 0.14787143 -0.27936062 -0.18710034 -0.03887514 0.063691884 0.2821924 -0.05891685
0.2858486 -0.1282002 0.11409922 0.0652446 0.29660663 0.03956653 -0.12126131 0.29506806
0.30098346 -0.30561113 0.29950425 -0.05239419 0.34778297 0.3171346 -0.3125647 0.27518743
-0.047484726 0.16494213 -0.008818042 -0.1850845 -0.2751461 0.11974999 0.12626164 0.12555751
-0.23075585 -0.3246506 -0.21809396 -0.25847048 0.05516825 -0.25821143 -0.21816584 -0.32060024
0.24127717 -0.25413978 -0.045307897 0.0027755802 0.23851024 0.2239849 -0.21091363 -0.08001354
0.33696905 -0.078860216 -0.036707204 -0.074536026 0.20048013 0.05451995 0.04279413 -0.17937112
0.31739193 0.11947152 -0.13097394 0.06372622 0.2510217 -0.045468707 -0.28110704 -0.26866686
0.30296007 -0.15444408 -0.279953 -0.31409574 0.24375208 -0.058243357 -0.041821256 0.25251332
0.20450245 -0.20280182 -0.044905376 -0.25313056 0.24495654 0.1660906 -0.2670014 0.21235585
0.03667363 -0.14775972 -0.26727468 0.2697255 -0.26176414 0.31612283 0.096301496 -0.22405104
-0.20393515 -0.20984952 0.08560433 0.08505525 -0.08601668 0.06868552 0.100539744 0.18287806
0.27721596 0.28962964 0.017413234 0.32481506 0.17741583 0.29473242 -0.0771004 -0.05633561
0.0071325046 -0.28273004 -0.03717982 -0.17226613 0.036523607 0.34555128 -0.29798707 -0.18380046
-0.29637223 0.3179954 0.05462206 0.16695952 0.22644475 -0.04578251 0.18572548 -0.21754965
-0.2493786 0.061348937 0.3407024 0.24351773 0.044028945 0.03013608 0.25291422 0.069241785
0.22129488 -0.13346668 0.14603461 0.18928681 0.33883756 0.3216512 0.2677708 0.32312423
-0.20965835 -0.053385817 0.28721568 0.057199657 0.24665768 -0.009396925 0.24299793 0.30709314
-0.05609992 -0.30038053 0.007736639 0.285675 -0.23820412 -0.11722176 0.19804738 0.25377524
-0.16631083 0.17620698 0.086300716 0.3265196 0.30629063 0.12759522 -0.107848465 0.13650636
0.19765002 0.07813673 0.16408874 -0.0535558 -0.302762 -0.18563148 -0.23830459 0.18557061
-0.3152045 -0.15200438 -0.1659101 0.029629488 0.09582841 -0.27707356 0.004374355 0.32539865
-0.057327017 0.11070099 -0.2744413 0.048609283 -0.009086543 0.19247754 0.052125 -0.18572128
-0.183986 -0.1215426 0.16576742 -0.21490292 0.19498782 -0.10902038 0.25496334 0.0629987
-0.057326734 -0.09986294 -0.1961978 -0.2649462 0.25693607 -0.2909944 0.26877823 -0.215764
-0.15107606 0.26924893 -0.29186553 0.027389977 0.2972708 -0.3196251 -0.22927472 -0.1494
-0.14124265 -0.09081359 -0.30957323 0.010756911 -0.14587152 0.24274036 0.22577423 0.17973542
-0.2895516 -0.25657618 0.23769592 0.32004574 0.14121772 -0.17509484 0.26577643 -0.20733324
-0.31355628 0.18796612 -0.23206198 -0.26050252 -0.3199304 -0.15640806 0.19407953 -0.00599053

fc2.weight f4 [300, 400]
00000000: d94f 383d 7ce7 15bc 8981 343d c0a5 14bd
00000010: cba8 46bd 0588 0b3c 5ca8 2abd 3c5d 583c
00000020: c380 873d 0947 873d 64a5 a43c 70d9 eabc
00000030: b1ca 2c3d 3f82 87bc 5fdb 56bb ba78 cb3c
00000040: 505f 223d 7ff2 6cbc 5066 473d 62f0 d43c
00000050: 208b 42bc 6efd e8bb ec5d df3c 0a3d 8e3d
00000060: b0d7 07bc 6bc8 a1bb 0098 353c 9c3f 333d
00000070: e3de 32bd a2a1 d13c c702 bb3c 44a6 26bd
00000080: d2d2 9e3b 5446 0fbd 4c59 413d 6611 653d
00000090: ff7e 743c 5551 4c3d 09aa e23c 1f56 5e3d
000000a0: f6a1 1dbd 80e7 bb3c 2fdf e63c 6e69 8e3c
000000b0: e6c8 fabc bc8c eebc ae55 293d ac09 33bc
000000c0: deb4 9c3c a483 f0bc 0d75 f53c 5b66 52bd
000000d0: ce8a 49bd e27a 823c f72f 99bc 14cf 1f3d
000000e0: 3ea7 453d ccb3 d8bc 0dbf 66bd c019 4c3d
000000f0: 79ea 21bd 0313 febc f823 1b3d 6034 003c
00000100: 400e febc 4026 6cbb 08d0 363d 4574 553b
00000110: 894c 3a3d acc5 053d 0051 cf3b 8c8e 6e3d
00000120: 7d33 42bc 927e 813b e419 6a3d 9bdf 21bd
00000130: 3fa3 d83c 6308 a23c 73db 2f3d 207c 3d3d
00000140: 553c 1f3d 867f 85bb 397f 5fbd bc96 cebc
00000150: f8a8 613c d39d 913c e21f 5d3d e538 f1bc
00000160: f028 8f3b 486a 2dbc 5280 113d 2ea0 253d
00000170: f15f 4f3d 1173 da3c 1cb0 9e3c 3e7d 663d
00000180: 982a 3b3d a041 133d 4e39 8a3d c3f6 15bd
00000190: fa3d 8b3d 6a84 163d 847e 833c 5315 d73c
000001a0: a869 9d3d 0808 0bbc 74d6 063d 6a98 233d
000001b0: 3050 8c3b a599 16bd 953c e33b 6842 06bd
000001c0: 80bb 48ba 2cb1 0c3d 1fd7 35bd 2cca 92b9
000001d0: 188b b23c ba7b 673c dc41 2a3d fb06 753c
000001e0: 89fc fc3c 017a 573d 7007 ae3d 9d58 c93c
000001f0: 5e7c 8b3d da54 8a3c b3d7 933d f4f8 803d
00000200: 32c9 1f3d a4a8 39bd 3d8e 3f3c 083b 20bd
00000210: cab2 7fbb a1f4 883c 8ee5 d7bc 666f 16bd
00000220: 3cd3 b9bc 5820 2d3d 137f 763d 5a1f ad3c
00000230: 04aa e93c 5d46 c13c e258 f5bc e55d 32bd
00000240: 3814 0b3d 5e42 b4bb dcca cc3c cf27 0d3d
00000250: 70ef 7f3c 03b3 1abd f839 10bd ee5c 853d
00000260: 1517 c5bc e87f 553d 8b7b 9c3c fa8e 303d
00000270: 87d9 a33b 39a2 fc3b b013 223d c038 f9bb
00000280: 0c0e c6bc 943d 203d 1e5f 613d 5f0c 7f3d
00000290: 51ff 623c c9db f9ba 482c 013d fe19 7f3d
000002a0: 86e7 5ebc 0a1e 42bd 7370 333c 6ac6 603d
000002b0: 2e05 3d3d c56b 123d f1cf 583c 2c6b 583d
000002c0: 1e7c 0cbd 5f50 26bd 1dcb 833d 8a9b 713c
000002d0: 3244 a6bb bfdc afbc d3b9 ffba a28a a4bc
000002e0: ee05 f7bc 2d15 a539 b909 36bc 3d63 46bc
000002f0: b2d0 123d 1eb1 5f3d d0c0 643c a205 6a3d
00000300: 98e3 6a3c 46d2 e3bc 5a5f e9bc d2d3 b2bb
00000310: 30b1 873c e8d3 7a3c 3f0e 6c3d 77c7 b0bb
00000320: 4576 dc3c 5bb7 783d 162e 463d ed49 973d
00000330: a13d 9f3c 952e cbba cc63 673d 0e6e ffbc
00000340: fd6b 0a3c 6a89 853c ad5a bd3c 8459 eb3c
00000350: f9d6 37bc 496c 113d a6a3 04bd 66a2 933c
00000360: 9e07 393d b096 173d 4cbb 263d da0e 5d3d
00000370: 3e79 623d 9c42 8a3c 5708 513d 312d 1cbd
00000380: b656 debb cd0c 18bd 78a7 57bc 6595 453d
00000390: eff9 7b3d 78f5 523d 6069 bdba 78b0 26bd
000003a0: c6a0 0bbd 5518 8c3b c3ac 0dbd b358 dcbc
000003b0: 2086 a13d 60d9 c53b 79e8 dcbc 75b9 363d
000003c0: fcf7 2ebc b833 b5bb e3be 693d ca5e 08bd
000003d0: 541d 20bd d8aa 5e3c c5d7 0bbd 5acb 0cbd
000003e0: 8cb2 bebc 6fa7 2d3d da35 2dbd 586b 983b
000003f0: bc46 ddbc 4b03 4cbc b3d7 fa3c 1d8a 9b3d
0.044998024 -0.009149428 0.044068847 -0.036290884 -0.048500817 0.008516316 -0.041664466 0.013205823
0.06616356 0.06605346 0.020098396 -0.028668135 0.04218549 -0.016541598 -0.0032784564 0.02483784
0.03964168 -0.014462112 0.048681557 0.02599353 -0.01187399 -0.0071102893 0.027266465 0.06945236
-0.00829117 -0.0049372218 0.011083603 0.043761835 -0.043669593 0.025589768 0.022828473 -0.040685907
0.004846909 -0.03497918 0.0472043 0.055924796 0.014922856 0.04988225 0.02766897 0.05428135
-0.038484536 0.022937536 0.028182594 0.017384257 -0.030613374 -0.029119842 0.041341476 -0.010927599
0.019129213 -0.029359646 0.02996304 -0.051367145 -0.04920464 0.015927736 -0.01869963 0.039015844
0.048255198 -0.026452921 -0.056334544 0.049829245 -0.03953025 -0.031014925 0.0378761 0.007824987
-0.031012654 -0.003603354 0.044631988 0.0032570523 0.045483146 0.032659218 0.0063267946 0.058241412
-0.011853096 0.003951856 0.057153597 -0.039519887 0.02644503 0.01977939 0.042933892 0.046260953
0.038875896 -0.00407404 -0.05456469 -0.02521836 0.013773195 0.017775452 0.053985484 -0.029446075
0.004368894 -0.010584421 0.035522766 0.040435962 0.050628606 0.026666196 0.019371085 0.056271784
0.045694917 0.035951257 0.06749211 -0.036612283 0.067989305 0.036747374 0.016051538 0.026255285
0.07686168 -0.0084858015 0.032919362 0.039940275 0.00428202 -0.03676762 0.006934712 -0.032778174
-0.0007657334 0.03434865 -0.04439461 -0.0002799792 0.02179484 0.01412862 0.041566715 0.014955278
0.030882137 0.052606586 0.08497512 0.024578387 0.068108305 0.016886164 0.07218876 0.06297484
0.039010234 -0.045326844 0.011691627 -0.039118797 -0.0039016479 0.01671821 -0.026354577 -0.03672733
-0.022683732 0.042267174 0.06017978 0.021133114 0.028523453 0.023593122 -0.02994961 -0.043546576
0.03395483 -0.0055010756 0.024999075 0.034461793 0.015621051 -0.037768375 -0.035211533 0.065118656
-0.024058858 0.052123934 0.019101879 0.043105103 0.0050002965 0.007709768 0.039569557 -0.007605642
-0.02417662 0.039121225 0.05502235 0.062267657 0.0138548175 -0.0019062693 0.03153637 0.062280647
-0.013605004 -0.04739193 0.010952103 0.054876722 0.046147518 0.03574731 0.013233171 0.052836582
-0.034298055 -0.04060399 0.06435225 0.014746556 -0.0050740475 -0.021467565 -0.0019510336 -0.020085637
-0.030154195 0.0003148703 -0.0111107165 -0.012108621 0.03584356 0.05461227 0.013961986 0.057134278
0.014336489 -0.027810227 -0.02848785 -0.00545738 0.016563982 0.015309311 0.057630774 -0.005394872
0.026911864 0.060721736 0.048383795 0.07387147 0.019438567 -0.0015501553 0.056491658 -0.031180408
0.008448598 0.016300876 0.023114527 0.028729208 -0.011220687 0.03550366 -0.03238263 0.018021774
0.04517328 0.03700894 0.040705964 0.05396924 0.055291407 0.016877465 0.051033344 -0.038129035
-0.006785239 -0.037121583 -0.013162486 0.048238177 0.061517652 0.05150363 -0.001445096 -0.040695637
-0.034088872 0.0042753615 -0.034588587 -0.026897764 0.078869104 0.006037876 -0.02696632 0.04461046
-0.010679241 -0.005529847 0.05706681 -0.033293523 -0.03909047 0.013590537 -0.03414132 -0.03437362
-0.023278497 0.042396005 -0.042287685 0.0046514682 -0.027011268 -0.012451957 0.030620432 0.075947024

fc2.bias f4 [300]
00000000: f12d 653b 3f0e 423d 052e 223d b52f fa3c
00000010: 43a3 3ebd 91e1 d93c e53c 203d 005c b238
00000020: 117f 6d3d 1764 03bd 7777 493d 6259 da3c
00000030: b785 86bc 59f4 8abb ed1c 06bd a7bc a83c
00000040: 86af 92bc f0ba a7b7 19c2 6a3d daf9 9d3c
00000050: 608c 3abc 38fe 09bd cd5e 323d 6858 34bc
00000060: 0968 27bb fdec 053d 0192 ed3c 7d97 0a3d
00000070: daa2 bfbc f339 013c 1b53 1e3d 9a13 5d3d
00000080: 141f 70bc 8a6b d83a 1d47 423b d8d3 62bc
00000090: bba5 2f3d ed1c 1e3d 361f 6b3d 0b89 1a3d
000000a0: 00c1 373c 464c 803c 9ea5 183d 174f e6bc
000000b0: d82c 9abb c9a0 733d 30b0 503d b7f6 44bd
000000c0: 8d00 a7ba 75da 17bc 48d2 133d 570e 9a3c
000000d0: 186f cebb b263 233d 1f2e 2e3d 0016 803a
000000e0: 9815 b3bc 871e 273d 38f5 99b7 0878 a9bc
000000f0: f9a0 453d 7e8f c43c f113 3b3d 5d73 3bbd
00000100: c36a 563d 3df2 3bbd ab8f a5bb 446f a0ba
00000110: f7dd 5a3d 0a54 993c f1ad 8c3c 835f a03c
00000120: ee32 13bd 8073 a73b e9dd 2a3c b85b 7b3c
00000130: 8733 fc3c 4da8 7f3d a0e2 243d 60fe 5cbc
00000140: be1f ad3c dc27 46bb 3408 d4bc 5291 21bd
00000150: 170d 573b f34b dfbc 169b 8cbc 04dd 703d
00000160: e6e7 6e3d dd51 4b3d 8038 523d 3e59 15bd
00000170: 23da e2bc 3251 923c 6caa 2937 9183 f83c
00000180: 0889 5b3d ba36 cc3c c241 9e3c f5f0 b9bc
00000190: d393 1bbd 7e6b 463d f124 b73c 5667 1b3d
000001a0: ee1b b43c 1f52 8dbc 55aa d03c bd5f c8bc
000001b0: 2d20 20bc 80b6 c4bc 66f2 c2bc 1656 f33c
000001c0: c823 32bc 74c5 623d d304 34bd 7caf 673c
000001d0: 933b 723b 6655 533d 62d9 203d 0bac 01bd
000001e0: c6be 13bd 489b 663d fb5d 933d 7f9e 1c3d
000001f0: 1e44 d03c 1c0d cb3b bf2c 163d 58cd f3bb
00000200: 1530 273d 215f de3a 860e c8bb 21a3 a83c
00000210: 4084 07bd 08c7 efbb 08dc cb3c a139 763c
00000220: fba7 053c 73c0 1c3d 141a 563d 5707 703d
00000230: fec0 433d 2c0e 5b3c 2841 da3b 3308 0cbc
00000240: cab6 b0bc f18e 403d 4c17 2dbc 6597 15bd
00000250: 63c4 b7bc 23cb 703d 16f7 543d 451b 413d
00000260: cd94 e2bc 91b7 7cbb 10ba d43c e66a 913c
00000270: 1b51 683c b3b6 3f3d 30bb db3c 3140 7e3c
00000280: 50ee 893d f39a 1c3d 57d0 f5bc 80b3 72bc
00000290: 65eb 42bd e11c 3a3d 2cd4 af3b 048c 513c
000002a0: 7dae 353d bd87 a2bc 6e59 5f3d 2685 c93c
000002b0: 00c1 13bd cd66 113d 8c59 4fbc 18ff a5bb
000002c0: 6b47 43bd cd36 583d fa40 11bd a47c c539
000002d0: 2a7c 07bd 071d 0c3d d3e6 ccbc 4f14 9f3d
000002e0: b908 5c3d bec4 253c e774 3b3d 75e2 9c3b
000002f0: b1dc 65bc 3e76 e93c 5fa3 2d3d a997 5d3c
00000300: 6b68 163d 217b a03d b82a 52bc d2a7 173d
00000310: 1e08 f93a a7d9 4a3c d3fd 1e3d 4544 9bbc
00000320: 2e1d 623d 03e9 a93c 97fc c3bc 93aa cebc
00000330: 4b35 6e3d 149e 4d3c a085 ea3c 6fc5 21bc
00000340: 6631 b23c d1ea 10bd d1f9 aabb 18fd c2bb
00000350: 60ef 80ba 3c51 a93c cabf 13bd 8854 31bc
00000360: e234 acbb aa85 12bd ac7b 80bc 0c10 413a
00000370: f0ce a4bc 4f94 d03b 90c1 40bc 27c6 a3bc
00000380: e4ec dfbc 11ac 5bbc 6c3f 223c 7add 45bd
00000390: c2c9 c8bb ecd4 04bd b202 243d 8e9c e83c
000003a0: f277 463c 83ac 8a3d 1a2b a23c 8965 cc3c
000003b0: 8201 093d cda6 163d ccff 03bd 6b3a 0f3d
000003c0: 6870 3abc d206 16bd d3b2 10bd 7067 f6bb
000003d0: 3ca9 083b ff40 3abd 4c04 8e3c 233c 50bd
000003e0: d66f df3c 78c5 883b 90a8 0bbc 79a8 493d
000003f0: 0ad5 a63c 6736 773d 74c0 3c3c 04df 2b3c
0.003497001 0.047376867 0.03959467 0.030540327 -0.046542417 0.026596816 0.039120574 8.504838e-05
0.057982508 -0.032077875 0.049186196 0.02665395 -0.016421182 -0.0042405543 -0.03274243 0.020597769
-0.017905962 -1.9995001e-05 0.057314012 0.019284178 -0.011386007 -0.033689708 0.04354744 -0.011007406
-0.0025544188 0.032696713 0.029000284 0.033835877 -0.023393083 0.007887351 0.038653474 0.05397377
-0.014655847 0.0016511541 0.0029644438 -0.013844453 0.042882662 0.038601805 0.057402812 0.03772835
0.011215448 0.01566137 0.03726732 -0.028113885 -0.004705053 0.05947951 0.050949275 -0.048086848
-0.0012741253 -0.009268393 0.03608921 0.018805666 -0.0062998645 0.03989 0.042524453 0.0009772182
-0.021860883 0.040800598 -1.835321e-05 -0.020687118 0.04824922 0.023994204 0.045673314 -0.045764316
0.05234791 -0.045885313 -0.005052527 -0.0012240191 0.05343434 0.01871683 0.017172785 0.019576794
-0.035937242 0.005110204 0.010428884 0.015341692 0.030786289 0.062416364 0.04025519 -0.013488382
0.0211333 -0.003023616 -0.025882818 -0.03944523 0.0032814199 -0.027257895 -0.017163794 0.058804527
0.058326624 0.049638618 0.051323414 -0.03646206 -0.027691906 0.017860983 1.0112864e-05 0.030336173
0.05359748 0.02492844 0.019318465 -0.022697905 -0.037982773 0.048442356 0.022356482 0.037940346
0.021985974 -0.017251072 0.025471846 -0.024459714 -0.009773296 -0.024012804 -0.023797225 0.029704135
-0.010872789 0.055364087 -0.043949913 0.01414096 0.0036961779 0.051595114 0.039269812 -0.031658214
-0.036070608 0.05630043 0.0719566 0.03823709 0.025423106 0.006196631 0.036663767 -0.0074402504
0.04081734 0.0016965606 -0.006105247 0.020585598 -0.033085108 -0.0073174275 0.024885193 0.015028388
0.008157725 0.03826947 0.052270964 0.05860075 0.047791474 0.013370078 0.0066605993 -0.008546877
-0.021571536 0.04701132 -0.010564636 -0.036521334 -0.022432512 0.058787476 0.051993452 0.047145147
-0.027658844 -0.0038561563 0.025967628 0.017751168 0.014179493 0.046805095 0.026822656 0.015518234
0.067349076 0.03823371 -0.03000657 -0.014813304 -0.04758777 0.045437697 0.005365869 0.01278973
0.044355858 -0.019840116 0.054528646 0.024599623 -0.03607273 0.03549843 -0.012655627 -0.00506581
-0.04767553 0.052786637 -0.035462357 0.00037667633 -0.033077396 0.03420737 -0.02501241 0.077675454
0.053719256 0.010117708 0.045765784 0.004787738 -0.014029668 0.028498765 0.04239213 0.013524928
0.036720674 0.07835985 -0.012827568 0.03702528 0.0018999611 0.012380994 0.038816284 -0.018953452
0.05520361 0.020740991 -0.023924155 -0.02522782 0.058156293 0.012549896 0.02862817 -0.009873732
0.02175207 -0.03538019 -0.0052177687 -0.0059505813 -0.0009836964 0.020668618 -0.036071576 -0.0108233765
-0.0052553276 -0.035772003 -0.015683971 0.0007364757 -0.020118207 0.006365336 -0.011764899 -0.019991947
-0.027334638 -0.013407723 0.009902816 -0.04830692 -0.006127567 -0.03242962 0.040041633 0.028394964
0.012113558 0.06771185 0.019795943 0.02495076 0.033448704 0.036780167 -0.03222637 0.03496782
-0.011379339 -0.036627598 -0.03532679 -0.007519655 0.0020852825 -0.04547214 0.017336033 -0.0508386
0.027275007 0.0041739307 -0.008524075 0.049232934 0.020365257 0.060354616 0.011520494 0.010490183

fc3.weight f4 [300, 300]
00000000: de89 c63b 93b8 983d 682d da3c d671 1f3d
00000010: 058f a33c d75c 77bc 3db2 b2bc db8a 69bd
00000020: 91f1 b33d 08ba 8d3c d1ec 23bd acc8 2abd
00000030: 4892 73b9 3cf4 dc3c f092 02bb af29 6d3d
00000040: 484d 153d 18b9 3a3d 13a5 183d 308c f23b
00000050: 4231 11bd 1df6 1c3d 1bd0 ebbc 547f db3c
00000060: 992c 8ebb 1b10 363d 2126 163d cca2 353c
00000070: 9000 2a3b 2ae4 e9bc 705f 9fbc ddca 0dbc
00000080: c175 913c 91ee 603d f478 8a3d 4c12 b4bc
00000090: 803f 7d3b 4f1a d43c df4e 493d a02a 7cbc
000000a0: f236 25bd 2f5b 64bd 45d7 113c 8cf1 393d
000000b0: 3087 ad3b 64a7 f93c 937d 173d ac1c 053d
000000c0: 469c 9a3d f299 aa3c 62a6 b73c e992 223d
000000d0: a8f8 663d 9a0f 98bc f8b1 6d3d 0e8c 5b3d
000000e0: d6c6 1bbd 9240 0ebd 05e4 403d 817b 6c3d
000000f0: 00e9 293d 9193 473d a0ba 183b 7802 303d
00000100: ce6b 1239 4fcb 99bb 837b 853d 4bc3 0cbd
00000110: 0352 1bbd 5373 9e3d 9ff1 c0bc d098 fe3c
00000120: e0de 19bb 52ec 823c 460c 193b f178 60bd
00000130: b9dd 9abc 69b8 903c 6041 91bb c0d7 59bd
00000140: 7c55 053d a14b b5bc 1a0d b53c 0842 7a3c
00000150: 2d1b f73c e033 a93a 4375 c2bc 2876 90bc
00000160: 7de2 953c c964 053d 2eb5 c03c ebbe 153d
00000170: 8cf5 28bd d4aa 643d 2524 0dbc 5061 dabc
00000180: fd35 d73c 4761 22bd e1f5 5dbc 53cf 713d
00000190: 9c11 ca3c 92b9 4f3d b372 82bc 3ec3 2b3c
000001a0: e496 dabb 2b1a 30bd 1504 04bd 3f0e 85bc
000001b0: 1a56 263d 3496 963c 5f78 a8ba 90fc d33c
000001c0: 77c4 3bbd 6af2 2ebd 182e 18bc 4b50 ffbc
000001d0: 2402 ef3c b64f 5f3d 1c20 ea3c 078b 403c
000001e0: 5406 57bd 6c08 dd3c b8cf 9d3c be26 3bbd
000001f0: 2474 a53a a36a 803d 545a 0f3c 90f2 b93c
00000200: ff5c 623d a651 643d 4025 6ebb 401f 673c
00000210: 9d60 983c 823e 0ebd f1fb 18bd f405 663a
00000220: 5206 e7bc 1e4b b8bc 2942 063d ef40 63ba
00000230: d718 20bd 843d 3cbc dc7e 6bbc ae0a cc3c
00000240: de2d 23bd 7f4d 30bd 9cc7 443d f142 363c
00000250: 826b 443d e7e1 923b e7fb 84bc 12ce 553b
00000260: 7a2d 9bbc eb4e 673d f86a fa3c 8863 e2bb
00000270: 1f54 a03c 2fba a8bc 35fe f93b 4138 6e3d
00000280: fca3 213b c39f d23b f002 173b 90a4 9f3b
00000290: 2043 33bc d6f3 22bc e9c2 363d 3203 153d
000002a0: 8e71 b23c 485e b23c 53a1 e6bb 0068 3d3d
000002b0: 656e 353d d845 adba 65ad 29bd b473 ad3d
000002c0: 68b5 d1bc 71a0 edbc 595b 5abd 148e 6d3d
000002d0: 10bb e53c 660e 6ebc f6e4 3a3d a462 9c3d
000002e0: 47de 923d 3d42 7f3c fe9c abbc 1d01 2abc
000002f0: 8c82 773d ea4e 813d e49e 33bc 85b0 1c3c
00000300: 40c8 cb3c f2e4 b23b 301e 8f3b ec35 5cbc
00000310: 5b65 b63c d882 ab3c 8c10 a53d 5231 cabc
00000320: 77db 1f3d b936 453d 7532 7b3d 0b41 983c
00000330: 8b51 13bc 9509 e53c 7c4c 1cbc 16e8 35bd
00000340: f050 e03c 4f1b 1d3d 088c d8bc e888 99bc
00000350: fe0a 6abd e8f8 1b3d 40c8 3bbb 2017 953c
00000360: 321a 773d dbb0 5ebd 403c 2d3c 0b38 6a3c
00000370: 0a6e 823c 3b4b 723d a5d1 3abd c078 533c
00000380: aa98 023c 5daf 47bc ba48 123d 1b5c 2dbd
00000390: 26af 793d 2c80 063c 6fcb 8e3d beb2 14ba
000003a0: 75b5 2e3c 24a2 453d 227a d9bc 17d6 163d
000003b0: 6d0b aa3b 7d13 6bbc 1a8c c1bc f178 783d
000003c0: 6ecb 17bd 0d46 0239 d8f2 463d dbc1 8ebc
000003d0: 5780 663c 941a f83c 5b7b 35bd 0011 4abd
000003e0: 8650 933d 58f7 253c 3259 f3bc 2e9f b93c
000003f0: 6cd8 a2bc 68e2 413d 24a7 b63c 28c7 c83c
0.0060589155 0.0745708 0.02663298 0.03892692 0.019965658 -0.015097818 -0.021813506 -0.05701719
0.087863095 0.01730062 -0.040020768 -0.041695282 -0.0002322878 0.026971929 -0.0019924007 0.05790108
0.036450654 0.045586675 0.037266802 0.0074019656 -0.035447367 0.03832065 -0.028785756 0.026794113
-0.0043388125 0.044448953 0.036657456 0.011086177 0.0025940277 -0.02855118 -0.019454688 -0.008654323
0.017756345 0.054915015 0.06761351 -0.02198138 0.0038642585 0.025891451 0.049147483 -0.015391022
-0.040335603 -0.055751022 0.008901422 0.045396373 0.0052956566 0.030475326 0.03698499 0.032498047
0.07549338 0.02082536 0.022418205 0.039690886 0.05638948 -0.018562127 0.058031052 0.053600363
-0.03803142 -0.034729548 0.047092456 0.05773497 0.04148197 0.048724715 0.0023304597 0.042971104
0.00013963805 -0.0046934257 0.065176986 -0.034365933 -0.03792001 0.0773684 -0.023552714 0.031078726
-0.002347879 0.015981827 0.0023353263 -0.05480284 -0.018904554 0.017666059 -0.004432842 -0.05318427
0.032552227 -0.02213079 0.022100974 0.015274532 0.030164326 0.0012909137 -0.023737555 -0.017634466
0.018296475 0.03256682 0.023523893 0.036559027 -0.041249797 0.055826977 -0.008614575 -0.02665773
0.02627086 -0.039643552 -0.013547392 0.05903561 0.0246666 0.050714083 -0.015923833 0.010483561
-0.0066708196 -0.042993706 -0.032230455 -0.016242145 0.040609457 0.01838217 -0.0012853256 0.025877267
-0.04584166 -0.042711653 -0.009288333 -0.031166216 0.029175825 0.054519378 0.028579764 0.011751897
-0.05249627 0.026981555 0.019264087 -0.045691244 0.0012623114 0.06270339 0.008749563 0.02269867
0.05526447 0.05574193 -0.003633812 0.014106572 0.018600756 -0.03472758 -0.037349645 0.0008774691
-0.028201256 -0.022496756 0.03277794 -0.00086690387 -0.03908619 -0.011489276 -0.014373507 0.024907436
-0.039838664 -0.043042656 0.048041925 0.0111243585 0.04795409 0.004482496 -0.016233398 0.0032624048
-0.018942583 0.056471746 0.030568585 -0.0069088377 0.019571362 -0.020596592 0.007629181 0.058159117
0.0024664393 0.0064277365 0.0023042522 0.0048719123 -0.010941297 -0.00994583 0.044619475 0.03638
0.021782663 0.021773472 -0.0070382743 0.04624176 0.044294734 -0.0013219668 -0.041425128 0.08469334
-0.025599197 -0.029007168 -0.053309772 0.057996824 0.0280433 -0.0145298 0.04562851 0.07636002
0.07171302 0.015579757 -0.020948883 -0.010376242 0.060427234 0.0631388 -0.010963175 0.00956357
0.02487576 0.0054594213 0.0043676123 -0.01344059 0.022265127 0.020936415 0.08059797 -0.02468172
0.039027657 0.04814789 0.061327416 0.018585702 -0.008991609 0.02795867 -0.00953972 -0.044410788
0.027382344 0.03835612 -0.02643396 -0.01874204 -0.05713939 0.038079172 -0.0028653294 0.018199503
0.060327716 -0.05436788 0.010573447 0.014295588 0.015921611 0.059153777 -0.04561009 0.012907207
0.007970968 -0.012187806 0.03571389 -0.042324167 0.06095805 0.0082092695 0.06972396 -0.00056723866
0.01066338 0.048250332 -0.026547495 0.036825266 0.0051893503 -0.014347908 -0.023626376 0.060662214
-0.03705924 0.00012423862 0.048571438 -0.017426422 0.014068685 0.030286111 -0.044307094 -0.04933262
0.07193093 0.010129772 -0.029705618 0.02265891 -0.019878589 0.04733506 0.022296496 0.024509028

fc3.bias f4 [300]
00000000: 64e6 5e3c e7d0 223d 0f90 7cbc 882b 96bc
00000010: c451 233d 442a 203d eb82 3abd 2410 013d
00000020: 787d d73c e443 6d3c 445d 0c3c 447a 703d
00000030: e132 773d 3219 3cbc 5903 703d e4ae 4e3d
00000040: 767b 093d 7042 813d 7320 823d f7ef 943c
00000050: c1ef 073d adf8 663d 3e69 e93c d4ae 703c
00000060: 46a0 8a3d 2170 0c3d 1dd8 b7bc ecb1 99bc
00000070: 9aa8 f93c fc31 29bd a8ef 443c d4b6 43bc
00000080: 48be 2f3b 648f b6bc 852c 673d 35fc 94bc
00000090: 7630 7d3d bac2 093d aa54 b2bc 12d6 f6bc
000000a0: cf02 5bbd 9c19 f63b fceb 23bd e604 893d
000000b0: 3cc9 cabc 4464 02bd ec1c 3f3c 401e dd3c
000000c0: 9418 723c 3e84 e83c c882 b4bc 6aac e0bc
000000d0: 2de1 8fbc 75b9 9fbc e95f 05bd 7adf 3a3d
000000e0: bd26 6e3d eee5 163d 78e6 b8bc fba6 c5bc
000000f0: 3c01 3fbd 0666 40bd 45e6 7f3d 9e94 b7bc
00000100: 6658 0fbd 36e8 afbc 983c 0e3d cc70 723b
00000110: 5870 3e3d a0a5 12bd f052 583d b009 053d
00000120: 5ec4 813c e2b6 843d a910 2a3d 9b74 cebc
00000130: d932 b0bc eabf 473b 9ee7 1a3d 2024 71bb
00000140: 386f 183d eef5 a2bc cbe6 ce3a 9f6c ed3c
00000150: f9b9 0ebd 80a4 f53b a858 243d a642 dc3b
00000160: 45db 07bd 858b 613d bb3c 383d 3000 8e3c
00000170: 07c3 c73c e9fa 8dba 2e5e 4b3d 4e59 813d
00000180: b56d d9bc 61d0 8dbc 4eb9 37bd 214b 643b
00000190: a4c4 15bc 4aca ff3c f488 b33c 6b2e 1e3d
000001a0: 7f1a 4839 7933 58bc 06e1 813c 4f9e 40bc
000001b0: bcb3 703d b70d b43c bacb 2a3d 8045 ef3c
000001c0: ee55 503c 72cb 5ebd d0ea 9b3b 19b4 863d
000001d0: 8023 3ebb 9b92 5e3c e502 0e3c 7b6a b3bc
000001e0: 7440 203d 5bf2 253d 6191 1b3d 7134 a13c
000001f0: f9cd 343d bc51 5abc 4c2a 4d3d 1e1d 203d
00000200: ca8a 2abd 2676 eb3c c8a9 413d 3a81 fdbc
00000210: 827f 8a3d 9c4d 81bc 5980 413d 1c59 5b3d
00000220: 442f b83c d28b 3fbd 4291 813c 4286 c6bb
00000230: c7cb 35bd 8204 9bbc a801 163c 18c8 18bd
00000240: 7ac8 bfbc 74d6 91bc fbf0 c93c a052 1a3c
00000250: 3c66 2bbc 8cdc a43c ea8f 29bd c594 dc3c
00000260: cc61 c539 e458 94bc 038e 5cbd 64a3 02bc
00000270: 9c90 b4bc d4d8 b2bc e6ca 523d c6be 5e3c
00000280: 509f 06bd 21db 90bc fb43 8b3c d54b 213d
00000290: 895b 063d 8fd0 a33c b4bb cd3c a9a1 603d
000002a0: a842 efbc aeb1 193d e849 683c fad0 48bd
000002b0: c5b8 0f3d b4f0 5d3d 3086 87bc 2c5a 9e3c
000002c0: 3543 4e3d a2ea 0e3d f141 7a3d 00ac 173d
000002d0: 93be 063c 5c57 19bd 1352 303c 89b6 e63a
000002e0: 0cb1 2bbc febd 59bc 1aca 7d3d ef6e 06bd
000002f0: 69e8 093d 659c a0bc 9190 ffbc a00c c83a
00000300: 2b25 01bd 058a 433d b9b5 9c3c e5c4 853d
00000310: eaa9 2e3d 6cd7 5d3d 4278 fa3b c265 f6bc
00000320: 8ad4 cc3c e0a8 5b3d 0054 a5bb 6710 40bc
00000330: 482a 363d c24d 8a3d 1f2e 3c3d fe99 bbbc
00000340: 46a8 ebbb 4c77 203d 602b aa3b 10ff c23c
00000350: aae1 403d 1289 14bd d38a a6bc 8a86 d5bc
00000360: 32a3 413d f1de 733d c8c8 373b 906c 42bd
00000370: 69cb 193d f79a 833d 37f6 23bd ca06 9a3c
00000380: 17c1 393d 841f 493d 4479 9ebc 8eb2 46bd
00000390: 108b 0ebd c68a 843d 002d febb b017 dc3c
000003a0: 78f0 2c3d c506 543c 468c 4c3c 8c32 613c
000003b0: 9609 00bd 7188 133d 284c 0e3d a811 0d3d
000003c0: 1c93 fc3c efbf d83c 0af0 533d 64e2 693d
000003d0: 46f3 bebc 6663 4fbd 00aa e7bc 8927 7e3d
000003e0: 3d63 f1bc 0fa6 3ebc 1f77 16bd 79a7 7f3d
000003f0: 9c19 9b3c 94af 3abd 4b82 3b3c f322 763d
0.013604734 0.039750006 -0.015415206 -0.018331304 0.0398729 0.039102808 -0.04553501 0.031509534
0.026304945 0.014481518 0.008567158 0.05871035 0.060351256 -0.011480616 0.058596943 0.050459757
0.033565007 0.063115 0.063538454 0.01818083 0.03318763 0.0563895 0.028492566 0.01469012
0.06768851 0.034286622 -0.022441918 -0.018761598 0.030475903 -0.041307434 0.012020029 -0.011945445
0.0026816297 -0.02228517 0.05643894 -0.018186668 0.061813794 0.03363297 -0.021768887 -0.030131374
-0.053469475 0.007510377 -0.040019974 0.066903874 -0.02475416 -0.031833902 0.01166461 0.026991963
0.014776368 0.02838337 -0.022035018 -0.027425963 -0.017563427 -0.019497612 -0.03256217 0.04562328
0.058142412 0.03684037 -0.022570834 -0.024127474 -0.046632037 -0.046972297 0.06247546 -0.022409733
-0.034996413 -0.021473031 0.034725755 0.0036993502 0.046493858 -0.035802484 0.05281347 0.03247994
0.015840705 0.06480195 0.041519795 -0.025202086 -0.021508621 0.003047938 0.037818544 -0.0036795214
0.03721544 -0.019892659 0.0015785334 0.028982459 -0.034845326 0.0074964166 0.04012361 0.0067218123
-0.033168096 0.055064697 0.044979792 0.017334074 0.024384988 -0.0010832223 0.049650364 0.06315862
-0.02654157 -0.017311277 -0.044854455 0.003483482 -0.009141121 0.031224389 0.02191589 0.038618486
0.00019083357 -0.013195866 0.01585437 -0.011756494 0.058765158 0.021979196 0.041698195 0.029207945
0.0127158 -0.05439324 0.0047582164 0.0657732 -0.002901286 0.013584758 0.008667682 -0.02190136
0.039123967 0.04051433 0.03798044 0.019678326 0.044141743 -0.013325151 0.050089166 0.03909027
-0.041636266 0.028742861 0.047281057 -0.03094541 0.067626014 -0.015784077 0.047241542 0.05355178
0.022483476 -0.046764202 0.015816335 -0.0060584852 -0.04438379 -0.018923048 0.009155668 -0.0373002
-0.023411024 -0.017802455 0.024651041 0.009419113 -0.010461386 0.020124696 -0.041397013 0.026926408
0.00037647632 -0.018108793 -0.05384637 -0.007973526 -0.022041611 -0.021831907 0.05146303 0.013595289
-0.032866776 -0.017682614 0.017000189 0.03937896 0.03280214 0.01999691 0.025113918 0.05484167
-0.029206589 0.037522964 0.014177777 -0.04902742 0.03508832 0.05418463 -0.016543478 0.019330107
0.050357062 0.034891732 0.061098043 0.037029266 0.008224147 -0.037436828 0.0107617555 0.0017602007
-0.010479223 -0.013289927 0.061960317 -0.03282064 0.03366891 -0.019605825 -0.031196864 0.0015262552
-0.031529587 0.047739048 0.01912962 0.06531695 0.04264251 0.05416052 0.0076437304 -0.030077819
0.02500369 0.05362785 -0.005045414 -0.011722661 0.044473916 0.067531124 0.045942422 -0.022900578
-0.0071916906 0.03917627 0.005193159 0.023803264 0.04709021 -0.036263533 -0.020329868 -0.02606513
0.047274776 0.059538785 0.002804326 -0.047466815 0.037547503 0.064260416 -0.04002973 0.018802065
0.04535016 0.04910232 -0.019344933 -0.048510127 -0.03480059 0.064717814 -0.0077568293 0.026866764
0.042221516 0.012941067 0.012484616 0.0137449615 -0.03125914 0.036018793 0.034740597 0.034440666
0.030831866 0.026458709 0.05174259 0.05710067 -0.023309361 -0.050631903 -0.028279305 0.062049422
-0.029466266 -0.011636271 -0.036734696 0.062415574 0.01893311 -0.0455776 0.0114446385 0.060091924

fc4.weight f4 [3, 300]
00000000: 88d2 65bc 7677 4fbc 5a4d 25bc 7efb 2ebc
00000010: 2472 41bc af88 72bc 2fb9 04bb bdf2 62bc
00000020: 2664 96bd c37a 74bc 4f29 1abd 50e3 6dbc
00000030: c6d9 66bc 1c54 75bc 253f 3abc 7875 2ebc
00000040: cdd9 7cbc 283f 53bc e5c9 3ebc 401e 39bc
00000050: 8b27 75bc d5bf 64bc fc96 3bbc e75f 5cbc
00000060: 2949 32bc 0ddf 3fbc 48c3 4ebc c781 66bc
00000070: dd54 19bc 523e 043b 6812 2bba 9649 edba
00000080: 026d 5abc e2a6 c9ba b2ca 73bc 0eb7 58bc
00000090: c548 46bc 45b5 4abc 13bb 5dbc 7b55 39bc
000000a0: 8a48 9cba c311 5dbc df6d 9cba a711 82bc
000000b0: eace 86bc 226a 4bbc 1527 6abc 8ac3 d8ba
000000c0: ce44 453a 33a7 cf3a 5ce1 22bb c8b8 62bb
000000d0: 779d 7cbc f4ee 79bc 7ba5 90ba fffc 49bc
000000e0: a2b2 72bc af22 69bc 7bcb 913a d244 bf3a
000000f0: 5868 0bba 805d d039 4eb5 66bc 0de4 8738
00000100: 6b58 65bc b2cd 41bb f234 74bc b96c 48bc
00000110: 5406 40bd f88f 343a 082c 32bc 94fa 80bc
00000120: b87b 3abb e77b 6ebc c58d 77bc be1d 6fbc
00000130: f3d1 a63a d1b8 60bc e678 69bc fae2 2b3b
00000140: 46cf 373a 4258 5dbc 08a2 50bc 77ca 3abc
00000150: e0f3 8439 68c6 3a3b 8192 44bc d1a5 77bc
00000160: b09e 5bbc 0090 4cbc 3db2 62bc 044d 63bc
00000170: 3cdc 66bc 4cc3 e3bc c6e7 6abc 0136 5dbc
00000180: d6bb 4dbc f842 1bba 3461 d53a ce0d 85bc
00000190: a494 13bb d6ec 4ebc 5822 88ba 026d 5dbc
000001a0: 7d16 75bc 08b6 d6bc 4373 82bc 3c2a 14bd
000001b0: 10fb 60bc fd95 663a e958 35bc 40b2 e83a
000001c0: 08b0 65bc b070 e6b9 036a 41bb 3368 4fbc
000001d0: 6833 6d3a c1ea 49bc 08aa a5bd 7e95 59bc
000001e0: 7a5d 1abb 35ae 30bc baf8 f13a d8c5 97ba
000001f0: b54f 74bc 5471 08bb 53a8 27bc 533c 47bc
00000200: 06cf 6abc c389 43bc 955b 69bc 52c5 71bc
00000210: 440c 4ebc f061 c23a 80b3 1cbc 6b2e 6bbc
00000220: fa46 4ebc 0e3d 1cb9 4fcb 5f3a 796c 64bc
00000230: d890 2abb 0bd8 4bbc f603 57bc f488 62ba
00000240: 58b1 193b 4e06 4ebc ef38 58bc b3fc 31bc
00000250: cdb6 7ebc 1dc6 4abc 8410 27bc c932 2fbc
00000260: 3405 59bc ce18 423b e820 b23a e857 993a
00000270: a7fe 66bc 9279 19bb 1c85 1cbc 26bd 5cbc
00000280: 7007 f939 ec76 69bc af2c 80bc b4a8 34bc
00000290: 78b4 6dbc a5f7 5cbc e231 293b 4847 6ebc
000002a0: 72e1 29bb 5edf 60bc 3c79 6cbc 919a 21b9
000002b0: 2da1 81bc 72fb 89bc 3840 1c3a 181f ed39
000002c0: 71a4 84bc 5e04 45bc bceb 4cbc fecf 67bc
000002d0: 333a 68bc 3cfa 983a d870 3dbc ca51 47bc
000002e0: 8ace e2ba d54c 53bc b3b2 31bc 7db2 78bc
000002f0: 2a3d 5abc 3780 56bc bdba 5cbc e492 ea3a
00000300: a464 45bc 0619 4fbc 4552 3fbc 7b8f 62bc
00000310: 5c1a 7bbc 59ee 58bc 3f53 55bc 614c 8c3a
00000320: e28d 4dbc 2554 47bc 884a 96ba 326e 81bc
00000330: 26db 84bc 2460 60bc 2ed4 6fbc 70fa 76bc
00000340: 5b81 4fbc b6f8 5dbc 3d57 6fbc d8ba a43a
00000350: 02bd 66bc 0c77 9b3a bb8f 7ebc 3081 70ba
00000360: e749 28bc 43ca 63bc 4797 a8bd e09b 31bb
00000370: 708b 4dbc 7581 2fbc 284b a5ba 7e5a 77bc
00000380: 6ddc 43bc 9a20 5dbc 5a50 71bc fccc 85bc
00000390: e708 73bc cfcf 70bc dcd7 68ba c560 5cbc
000003a0: d25c 65bc 46f5 923a 4a4b 40bc 4e69 70bc
000003b0: d8dd 68bc cb35 6cbc 16ac 78bc e8df 38bb
000003c0: b3b2 53bc c3aa 6abc 6cee 9abd 53e7 42bc
000003d0: 76bb 3bbc 8fc0 c4b9 7f04 00bd bd79 a5bd
000003e0: 29a1 53bc 79d5 85bc 2e2c 32bb 4a44 7ebc
000003f0: a606 39bc b7b1 49bc 6cbf 66bc 782c 77bc
-0.014027245 -0.012662759 -0.010089243 -0.010680078 -0.011806998 -0.014803096 -0.002025198 -0.013851819
-0.073433205 -0.014921847 -0.03763705 -0.014519528 -0.014090007 -0.0149736665 -0.011367594 -0.010648124
-0.015432787 -0.012893476 -0.011644815 -0.011298716 -0.014963041 -0.013961752 -0.011449572 -0.013450599
-0.010881701 -0.011710894 -0.012619801 -0.014069027 -0.009358612 0.0020178747 -0.0006525875 -0.0018103595
-0.013331654 -0.0015384818 -0.014879869 -0.013227237 -0.012102311 -0.01237232 -0.0135333715 -0.011311884
-0.0011923474 -0.013493004 -0.00119346 -0.015877558 -0.016456086 -0.012415441 -0.014291544 -0.0016537767
0.00075252063 0.0015842676 -0.0024853563 -0.0034595001 -0.015418402 -0.015254725 -0.0011035645 -0.012328385
-0.014813097 -0.014229461 0.0011123264 0.0014592654 -0.00053179776 0.00039742514 -0.014081312 6.4797794e-05
-0.013998131 -0.0029572067 -0.014905201 -0.012232953 -0.046881035 0.0006887908 -0.010874756 -0.015744485
-0.002845509 -0.014555908 -0.015109484 -0.014594493 0.0012727365 -0.013715939 -0.014250016 0.0026227818
0.0007011782 -0.013509812 -0.012733944 -0.01140081 0.00025358703 0.0028499607 -0.01199782 -0.015115217
-0.013404533 -0.012485504 -0.013836441 -0.013873342 -0.014090594 -0.027803086 -0.014337486 -0.013501645
-0.012556991 -0.000592276 0.0016279579 -0.016241934 -0.0022519017 -0.012629708 -0.0010386212 -0.013514759
-0.014958975 -0.026209846 -0.015924102 -0.03617309 -0.013731733 0.00087961537 -0.011068561 0.0017753318
-0.01401902 -0.00043952977 -0.002951265 -0.01265912 0.00090484926 -0.012324036 -0.080890715 -0.013280271
-0.0023554252 -0.010783722 0.0018460967 -0.0011579348 -0.014911582 -0.0020819502 -0.010233003 -0.0121603785
-0.014331585 -0.0119347 -0.014243026 -0.0147565175 -0.012576167 0.0014830213 -0.0095642805 -0.014354329
-0.012590164 -0.00014900064 0.000853707 -0.0139418775 -0.0026026275 -0.012441645 -0.013123503 -0.00086416234
0.0023451652 -0.012574745 -0.013197168 -0.010863471 -0.015546513 -0.012376335 -0.010196809 -0.0106932605
-0.013245869 0.0029616836 0.0013590129 0.0011699172 -0.0140988 -0.0023418409 -0.00955322 -0.013472831
0.00047498522 -0.014249545 -0.015646307 -0.01102655 -0.014508359 -0.013486777 0.0025817086 -0.014543362
-0.002592173 -0.01372513 -0.014433201 -0.00015411737 -0.015823925 -0.016843531 0.0005960497 0.0004522733
-0.016191693 -0.012024967 -0.012507375 -0.01414871 -0.014174032 0.0011671255 -0.011562549 -0.012165496
-0.0017303985 -0.012896736 -0.010845828 -0.015179274 -0.013320247 -0.013092092 -0.013472256 0.001789656
-0.01204792 -0.012640243 -0.011677329 -0.013828154 -0.015326109 -0.01324042 -0.013020336 0.0010703915
-0.0125460345 -0.012166058 -0.0011466304 -0.015799616 -0.01621778 -0.013694797 -0.01463799 -0.015074357
-0.012665118 -0.013548067 -0.014608202 0.0012567891 -0.014083149 0.001186104 -0.015537198 -0.0009174524
-0.010271526 -0.013903203 -0.08231979 -0.0027100965 -0.0125454515 -0.010712017 -0.0012610899 -0.015097259
-0.011954409 -0.013496542 -0.01472863 -0.016333096 -0.014833665 -0.014697983 -0.0008882263 -0.013450806
-0.013999181 0.0011212013 -0.0117367 -0.014673544 -0.014213048 -0.014417122 -0.015177747 -0.002820963
-0.012921023 -0.014322939 -0.075650066 -0.011895972 -0.011458268 -0.000375275 -0.031254288 -0.0807986
-0.012916842 -0.016337143 -0.0027186978 -0.015519211 -0.011293089 -0.012310437 -0.0140837245 -0.015086286

fc4.bias f4 [3]
00000000: b1eb 26bd 6e59 c23c c6a3 1abd
-0.040752117 0.023724284 -0.037753843
