checkpoint_critic.pth (torch, 745075 bytes, 7 tensors)

fcs1.weight f4 [400, 9]
00000000: e29e 4abc ad55 cdbd 08c7 b83c 4601 433d
00000010: 27a8 413d 07e6 0abe 18cc f1bc 43dd 24bd
00000020: 3a71 1fbd 88dc 1ebd 4af5 9b3d 66fb 88bd
00000030: 964d af3d 8de8 0dbe 9105 803d e579 8c3d
00000040: 33da d8bd 822a 39bd a082 57bd 178a c5bb
00000050: 58ea b0bb 2f7d 4dbd c740 02bd ee13 7ebd
00000060: df12 debc 88e4 2fbd 731c 49bd 5e34 b43c
00000070: af17 303d 529a 8c3c 756a 15bd fbf9 053d
00000080: 38c4 043c 052d 453d 7d55 333d bdf3 f3bc
00000090: 4a51 f5bc f289 cf3c d0f6 bd3b 6d14 0ebd
000000a0: 92ee 1bbd fc8a 8fbc 3950 273d 9ab2 be3c
000000b0: 1958 3d3d 230d 4ebd 525b 1c3e e9e7 a2bc
000000c0: 60b3 f83c aa7e f0bc 58b1 48bb a847 69bd
000000d0: 0bcd a33d 3dd5 cd3c 30f3 e83b 2074 2f3b
000000e0: 0451 83bc ca3f 05bd 406d 9a3a 12cf df3c
000000f0: f52c 07bd 4402 653c 005e 0e39 67c1 8cbd
00000100: ed18 7dbd ed13 c1bc a964 0abd 1a13 883c
00000110: 4721 77bd 3413 153d d0b2 a3bc 2806 f33c
00000120: 40ab 01bd 7c42 c0bd 7814 f5bb 2156 133d
00000130: 40fd ab3d fd51 5d3e c56c 463d a00a 49bb
00000140: 4605 96bb af6b b0bc be5b 40bd bd1e 56bd
00000150: 0399 c5ba c2f8 893d 1998 53bd 9e29 88bc
00000160: ddc4 15bd 7777 59bd 15e9 343d 11cd 52bb
00000170: 1119 473c c30b 07bd 5d00 003d 52e2 bd3c
00000180: fe67 bc3c ba70 eebc f112 15bc 12d3 81bd
00000190: 0a06 24bd c0fb 9a3c 4254 34bc b22a 8dbd
000001a0: 04aa f3bd f173 873d d84b 22bd c797 efbc
000001b0: 57ec 00bd 66ab d43c b8ed 233d 6666 0f3c
000001c0: b860 f0bc 1d1a 993c 3946 833a 81b8 853c
000001d0: 2d3d cd3c 41c9 a6bd c0eb 6a3d 3b6e 0b3d
000001e0: 988c 503d 9aaa 8fbc b87c d23d 7432 70bd
000001f0: b61f 483d be83 b4bd 9332 e4bd e271 ccbc
00000200: 66a8 41bb 8d5b 253d 870f 9ebd 5d03 40be
00000210: 9c62 7d3d c5b6 583d 4219 45bc d88b b7bd
00000220: 0579 9dbc edc8 04bc 8f90 42bd b861 a1bd
00000230: 7d96 2abe f90a 533d b36c 2d3d 0fdc 94bc
00000240: 4224 e4bd b9af 6cbc 9a38 723c 8780 4e3d
00000250: eecb e43c aaac 12be f1a6 513d 35e1 8bba
00000260: 687c 2a3d 46e1 93bd 95b5 c3bd 2af7 aebd
00000270: 8049 623d b052 acbc 2686 a3bd 58d5 983d
00000280: c515 bf3d 3d27 5fbc 4a44 8cbc a035 f03a
00000290: db23 0c3d de29 ef3c 2a47 2cbd be27 ec3c
000002a0: 3334 f6bc 14e3 533c 5a36 c7bc 52a3 873d
000002b0: 98a1 78bd a3bd b4ba fbd2 0cbd f67c 9d3c
000002c0: 4a97 093b 3df3 473d 4917 acbd 40da 93bc
000002d0: 02cf 813c 72f5 2cbd 4245 c33c 2cf4 283c
000002e0: 435e f2bc aedd 12bd 1a29 ddbc 18cd 13bc
000002f0: 7db5 f8bc f86c 123e e28e f73c a325 9f3c
00000300: 0d7c 5ebc 638f 0dbb 78e9 90bd 5bca 0b3d
00000310: c280 e2bb b895 0dbc 1cb0 633c 4c7a 89bc
00000320: c89a 4ebc 53b7 d0bc d474 15bc daa4 dc3c
00000330: ff62 453d 1d0f 05bd 492f 163d 831b bcbd
00000340: 5202 33bd b509 6dbc e452 533b a98d e0bd
00000350: 21a4 03be 4c16 b93d 8dfe 883c 1128 e4bc
00000360: 8c91 6ebc 5db2 02bd 17c9 4a3d c068 f9bb
00000370: 6b78 3fbd 0cb9 63bc f0a0 c13b 0f05 42bd
00000380: 2fdc 2cbd a075 28bd 9ab4 f13d 44c2 8cbd
00000390: 2d43 8ebd 0f8f 7abd 9c2e 413e de2b a1bd
000003a0: 281c 23bd c636 b93c 8007 703a 188f 1dbd
000003b0: d763 3b3d 422d 1ebd 683a 1b3c 01c2 493d
000003c0: fd9f 20bd c1f9 3a3d 9e17 ad3c a790 f4bc
000003d0: 5eac 08be a02d 273e eab9 103b c6df 7cbd
000003e0: cbc4 223e 6f0f 6e3c 05e2 e3bd 2a0a 443b
000003f0: 27b2 3dbd d41c 043e 0710 163d 09c7 0e3d
-0.012366982 -0.10026107 0.022555843 0.047608636 0.047279503 -0.13564311 -0.029516265 -0.040250074
-0.03892634 -0.038784534 0.076151446 -0.066885754 0.0855972 -0.13858242 0.06251062 0.06859187
-0.10588493 -0.045206554 -0.052614808 -0.0060284245 -0.0053990297 -0.050168213 -0.031800058 -0.062030725
-0.027108608 -0.042942554 -0.049099397 0.021997627 0.042991336 0.01716343 -0.03647848 0.032709103
0.008103423 0.048138637 0.0437827 -0.02977931 -0.029945988 0.025334332 0.0057972446 -0.03468745
-0.038069315 -0.017522328 0.04084799 0.023278523 0.046226595 -0.050305497 0.15269211 -0.019885974
0.03035897 -0.029357273 -0.0030623283 -0.056953102 0.07998093 0.025126094 0.0071090683 0.0026772097
-0.016029842 -0.032531537 0.0011781827 0.027320419 -0.03300186 0.013977591 0.00013577193 -0.06872826
-0.06179135 -0.023569072 -0.033787403 0.01661067 -0.06033447 0.036395267 -0.019982725 0.029666021
-0.031657457 -0.09387681 -0.0074792467 0.03597081 0.08397913 0.21613307 0.048443574 -0.00306765
-0.0045782654 -0.021535723 -0.046962492 -0.052275408 -0.0015075508 0.067369 -0.051658724 -0.016621407
-0.036564697 -0.053092446 0.044167597 -0.0032165686 0.012151972 -0.0329702 0.031250346 0.023179207
0.022998806 -0.029106487 -0.009098754 -0.063390866 -0.04004482 0.018918872 -0.011006417 -0.06892909
-0.11897662 0.06613911 -0.03962311 -0.029247178 -0.03147539 0.025960635 0.04002163 0.008752441
-0.029342994 0.01868921 0.0010015435 0.01632333 0.025053585 -0.08143855 0.057353735 0.03404067
0.05091533 -0.017537404 0.102776945 -0.058641866 0.048858367 -0.0881419 -0.11142459 -0.024956647
-0.0029549836 0.040370513 -0.07717805 -0.18751283 0.06186162 0.052908678 -0.012029948 -0.0896222
-0.019222746 -0.008104545 -0.047501143 -0.078799665 -0.16658969 0.051524136 0.04233999 -0.018171338
-0.11139728 -0.014446192 0.014784003 0.050415542 0.027929273 -0.14323679 0.0511846 -0.0010671975
0.04162255 -0.07220702 -0.095561184 -0.085432366 0.055245876 -0.021035522 -0.07984571 0.07462567
0.09330324 -0.013620195 -0.017122407 0.0018326528 0.034213882 0.029194769 -0.042060055 0.028827544
-0.030054187 0.012932558 -0.024317909 0.06622948 -0.060700983 -0.0013789426 -0.034380894 0.019224625
0.0020994716 0.048815954 -0.08402879 -0.018048406 0.01584578 -0.042226262 0.023836736 0.010312121
-0.029585963 -0.03585594 -0.026997138 -0.009021066 -0.030359978 0.14299381 0.030219499 0.019427126
-0.013579381 -0.0021600358 -0.07075781 0.034128528 -0.006912322 -0.008641653 0.013896968 -0.016781949
-0.012610145 -0.02547804 -0.009122092 0.026934076 0.048190113 -0.032485116 0.03666619 -0.09184935
-0.043703385 -0.014467646 0.0032245452 -0.109645195 -0.12855579 0.09037456 0.016722942 -0.027851136
-0.014561068 -0.03190838 0.04950818 -0.007611364 -0.0467457 -0.013899099 0.005909078 -0.047368106
-0.04220217 -0.0411278 0.11802025 -0.06872991 -0.069464065 -0.061171588 0.18865436 -0.07869695
-0.039821774 0.022609126 0.0009156391 -0.038466543 0.04574951 -0.03861738 0.009474374 0.049257282
-0.039215077 0.04564834 0.021129426 -0.029854132 -0.13347003 0.16325998 0.002208347 -0.061736844
0.15895383 0.014530047 -0.11127094 0.0029913285 -0.046312477 0.12901622 0.03663638 0.034857783

fcs1.bias f4 [400]
00000000: a3ea 273e 5f0d d9bd 03a9 133e 5362 66be
00000010: 6eb0 99be 6855 b73d 3b32 a3be 4d5f e63d
00000020: 12f8 9d3d da21 ae3d 7473 1ebe 0b29 efbc
00000030: 357e 26be 3b84 6c3e 9d53 e4bd cf41 ccbc
00000040: c43a f1bb 5c45 cbbd 1a51 88be 9eeb 633d
00000050: 9699 82be 888c 903d f35b 6dbe 5d51 d9bd
00000060: ac70 8abe 25db 013e 5b08 8fbe 77ba 1cbe
00000070: 2405 f0bc 125d de3d be91 953e 38a6 1ebd
00000080: c21e 7e3e 0630 0fbe 0923 2c3e f34a 8c3c
00000090: 0ef3 953e 79f1 4b3c cc27 77bd e37d 933e
000000a0: 7e9d 923e 1079 9cbe fa77 9b3e cf0a f7bc
000000b0: 3ba5 ad3e 2f4b 8f3e 7b08 a0be fe16 8d3e
000000c0: a6d6 cbbd d607 1c3e 6b7b c1bc a886 41be
000000d0: f3df 8cbe 82b9 ba3d 2112 0f3e 27e8 ed3d
000000e0: 434b 6cbe 9a38 a6be 0654 5fbe 3e56 84be
000000f0: 0279 c03d 4a34 84be de66 5fbe b725 a4be
00000100: 38e8 6f3e 9c1e 82be b98e 8abd d1f0 21bd
00000110: 6c39 643e 4611 773e bef9 57be b112 adbd
00000120: 357d ba3e 6363 bebd 3724 a8bd d648 0abe
00000130: 03ce 5a3e 75ba e73d 4375 583c 10ad 37be
00000140: 8563 a83e d029 ff3d b977 06be 58fc 353d
00000150: a63d 733e 2a35 b5bd 43ed 8fbe b48e 89be
00000160: 8322 983e bb2b 1ebe 0056 8fbe 28d1 a0be
00000170: 6303 6a3e a471 59bd c601 4fbd 4734 8f3e
00000180: 39b9 213e 48ab 4fbe bfa7 a1bd 549a 81be
00000190: cb2c 5f3e fc3c 133e 68b4 88be 257b 743e
000001a0: 9604 a03d 534e 17be 3ad8 88be e71a 843e
000001b0: f305 86be d1bd a33e d375 a93d a36d 65be
000001c0: 5070 70be cbe2 56be 060f 173e 5524 c73d
000001d0: 021c dabd c340 ba3d 76f2 883d d8b9 253e
000001e0: ce39 7a3e 849f 963e 01dc 643d cef1 a43e
000001f0: baef 4f3e aa5a 963e 4ed2 25be a34e eebc
00000200: 7e49 513d fec1 90be 5738 f9bd 3c56 37be
00000210: d1dd 963c 546a ac3e c391 98be bb92 3bbe
00000220: 1abe 97be c5f4 ab3e 950d cb3d 5472 333e
00000230: 7c88 563e 20a1 81bd 09f9 0f3e 56c5 5ebe
00000240: 1b5d 7fbe 49d0 bc3d 9fa7 af3e 8f8a 623e
00000250: 2f66 a33c 1898 9a3b b4fd 8b3e 975f ae3c
00000260: 17c1 733e 532a 22be d707 343e 1fd8 3a3e
00000270: f6fa a83e 8edb 953e d007 893e d09d 9c3e
00000280: aeb0 56be 5558 69bb 0e64 823e 60bd 083d
00000290: 315a 6f3e ab0f 30bd 23a8 883e 5c94 933e
000002a0: a981 833c 7acb 99be fca6 38bd b069 a33e
000002b0: c8eb 73be c3c6 90bd 39c6 373e cafd 823e
000002c0: 7805 16be 98e0 633e 9971 5c3d f0ea a03e
000002d0: 9297 a33e ac1e 193e a366 07be d455 153e
000002e0: ad8a 1c3e 46e5 e23d cce8 3e3e d4ee a6bc
000002f0: 9f03 9bbe 4285 44be 1e06 74be d672 313e
00000300: 7c62 a1be 83e9 29be 56e4 29be 1121 70bb
00000310: c7bb bc3d 96dc 8dbe c773 5fbd 0699 a13e
00000320: 8a84 83bd 81f1 1b3e 9283 8cbe 8f25 ecba
00000330: 216c 0abd d927 263e 1342 b53d b82d 3ebe
00000340: 68d2 36be 316f 02be d611 643e 830f 5cbe
00000350: de6b 6c3e 4b5f 9fbd 1bb7 633e 0127 5c3d
00000360: 6c18 c9bd 0923 93bd 13e8 48be 07a7 87be
00000370: 77c3 643e 38fd 94be 9a10 8b3e 18a8 5cbe
00000380: 0035 43be 4f79 8f3e 666f 95be 171b 71bd
00000390: 4af3 9d3e e7a5 a3be fec6 6abe d655 b9bd
000003a0: 02b0 22be b6fd 6cbd 6280 9ebe b437 863c
000003b0: 485f 45be 6d8b 723e 5b35 653e 864c 1d3e
000003c0: 1b40 94be f45d 83be c390 7d3e 0fce ab3e
000003d0: 9019 473e 66e2 45be 17cd 803e 5dcd 32be
000003e0: 738a a0be a0aa 403e a8a1 6dbe 9660 85be
000003f0: ebcd a3be 048e 25be a510 1c3e 4204 83bd
0.163981 -0.105982535 0.14419942 -0.22498445 -0.30017418 0.08951837 -0.3187426 0.11248646
0.07713331 0.085025504 -0.1547373 -0.029194376 -0.16259082 0.23097317 -0.111487605 -0.024933724
-0.0073617417 -0.099253386 -0.26624376 0.055644624 -0.25507802 0.07058054 -0.23179607 -0.10611222
-0.27039087 0.12681253 -0.27936062 -0.15305506 -0.029299326 0.108575955 0.29212755 -0.038732737
0.2481642 -0.13983163 0.1681024 0.017125582 0.29287 0.012447708 -0.060340688 0.2880698
0.28635782 -0.30561113 0.30364972 -0.030156521 0.33915123 0.27987048 -0.3125647 0.27556604
-0.0995305 0.15237364 -0.02361842 -0.18899024 -0.2751461 0.09117414 0.1397176 0.11616545
-0.23075585 -0.3246506 -0.21809396 -0.25847048 0.093980804 -0.25821143 -0.21816584 -0.32060024
0.23428428 -0.25413978 -0.067655034 -0.0395363 0.2228753 0.24127683 -0.21091363 -0.08450831
0.3642365 -0.092963 -0.082100324 -0.13504347 0.2136765 0.11314861 0.013211551 -0.17937112
0.32888427 0.12459147 -0.13131608 0.044430107 0.23753986 -0.08848031 -0.28110704 -0.26866686
0.2971383 -0.1544637 -0.279953 -0.31409574 0.22852854 -0.05308689 -0.0505388 0.27969572
0.15793313 -0.20280182 -0.07893323 -0.25313056 0.21794431 0.14378732 -0.2670014 0.23875101
0.07813375 -0.14775972 -0.26727468 0.25801775 -0.26176414 0.31980756 0.08274426 -0.22405104
-0.23480344 -0.20984952 0.14751825 0.09723727 -0.10649873 0.090943836 0.06686871 0.16184175
0.24436113 0.29418576 0.055873875 0.32215732 0.20306292 0.29366046 -0.16193506 -0.029090231
0.05109548 -0.28273004 -0.12168949 -0.1790399 0.018416317 0.33674872 -0.29798707 -0.18317692
-0.29637223 0.33585182 0.099147 0.17524081 0.20950502 -0.0632956 0.14059843 -0.21754965
-0.2493786 0.09219415 0.34307572 0.22123168 0.019946186 0.004717838 0.27341998 0.021285815
0.23804127 -0.15836458 0.17581116 0.18246506 0.33003968 0.2926907 0.26763773 0.3058915
-0.20965835 -0.0035605629 0.2546696 0.033383727 0.23374249 -0.042983692 0.26690778 0.28824127
0.016053038 -0.30038053 -0.045081124 0.3191657 -0.23820412 -0.07069161 0.1794671 0.2558425
-0.14650524 0.22253644 0.053819273 0.31429243 0.31951576 0.14953107 -0.13222747 0.14583522
0.15287276 0.11078887 0.18643492 -0.020377554 -0.302762 -0.19191459 -0.23830459 0.17328963
-0.3152045 -0.16592984 -0.1659101 -0.0036640803 0.09215503 -0.27707356 -0.054553773 0.3156206
-0.06421764 0.15228845 -0.2744413 -0.0018016564 -0.033794526 0.16226138 0.08850493 -0.18572128
-0.17853701 -0.12737729 0.22272429 -0.21490292 0.23088023 -0.077818476 0.22237818 0.053748135
-0.09819111 -0.07184417 -0.1961978 -0.2649462 0.22340189 -0.2909944 0.27161103 -0.21548498
-0.19063187 0.2802224 -0.29186553 -0.058863726 0.30849677 -0.3196251 -0.22927472 -0.09049575
-0.15887454 -0.057859145 -0.30957323 0.016383983 -0.19274628 0.23685999 0.22383635 0.15361223
-0.2895516 -0.25657618 0.24762253 0.33555648 0.19443345 -0.19324645 0.2515647 -0.17461152
-0.31355628 0.18815088 -0.23206198 -0.26050252 -0.3199304 -0.16167456 0.15240724 -0.063972965

fc2.weight f4 [300, 403]
00000000: 2c38 79bd 25d6 533d 86d8 debc 0084 f238
00000010: 52f2 85bc d35f be3c 90b8 63bb a01a c43c
00000020: 496f d33c 5a00 b43b e0e9 1e3c 9e0b 2dbd
00000030: b25b 07bd 76eb 3dbc f02b 133d 9640 5f3d
00000040: ba60 d33c 87da 66bc 3071 d83c 1bf6 0a3d
00000050: 98a8 743c 51e0 443d a849 4f3d c1c2 293c
00000060: d075 093d b1da 263d b237 6b3d 3ff6 3bbd
00000070: 8efa cdba 4993 293d 755f 4b3d a0f6 ffbc
00000080: 16c2 af3c 60e7 0e3c 94a3 bebc ba3b 523d
00000090: 78c0 953c 911d 11bd 0ad1 343d 4915 20bd
000000a0: 9967 c53c 7a79 283d c91b babc 4e5b 0b3d
000000b0: 9c4b e93c 6aa1 e2bc 72a4 16bd a048 fdbc
000000c0: 73c5 44ba 1a74 95bc b8fb 173d 408e f1bb
000000d0: 2033 1dbc ca48 2bbc 5913 41bd 8e39 41bd
000000e0: c026 2f3d aae6 2fbd 20e4 34bd 6898 07bc
000000f0: 52fa 5abb a591 68bd bb0e 1dbd 3d9f 63bd
00000100: 261a 133a 52aa 573d bf94 2a3c e8fb 1f3d
00000110: 39b1 a33c a93f 143d 8a08 4c3d efae d03c
00000120: 361e b1bb 1d54 13bd 94c0 5cbd 02e7 273d
00000130: 28ff 0f3d 4eff 233d 4521 27bc 6268 6bbd
00000140: d370 4e3d 14a8 65bd 42b2 c53a 7bc4 37bd
00000150: b025 9ebb 0aa0 44bd f904 6abd 5512 45bd
00000160: 5928 383d 6120 0dbd f054 a43c 940d 353d
00000170: 9858 8dbb 5b5f ee3c 6cd4 71bd 3c30 023c
00000180: ea1d 283d 026b afbc 2a88 0dbd 6ad5 00bd
00000190: 048a 2dbb d8dd 683c c0bb f23a c899 08bd
000001a0: 9dc0 03bd acad 31bc 7e46 303d 54c5 adbc
000001b0: 16ee 103d bd4c 04bd 5e6e 2f3d 7e43 f9bc
000001c0: 341f 8c3c 4696 633d 4dbd 28bd e4b1 3d3d
000001d0: 4869 843c 8957 76bc 5217 5ebd a586 c63a
000001e0: b89c b7bc 1b23 0cbd 1967 cf3a 1970 20bd
000001f0: 0eb5 1c3d 7a14 69bd 78de c2bc d4ca 163d
00000200: 1dea 333d daa0 8cbc 8ba9 263a 1721 fcbc
00000210: 16e6 923c e82d f93c e0dc 57bc 002e e0bb
00000220: aa86 3c3d 386b 523d 5a08 7fbd de6c 20bd
00000230: ca66 b6bc 5a50 46bd 3d94 0dbd 6897 f83c
00000240: 20e4 cd3c 8823 4dbd c87d 2e3d dfef 32bd
00000250: 9cef 67b8 0c04 22bd 5f91 1bbc 9cab 3ebd
00000260: 74bd cebc 279b 05bd 33f2 513c fb4a 503b
00000270: 61b8 62bd a632 80bc a0f3 643c 497e 94bc
00000280: 888c c53c 2f4d 55bd ebdc 88bc 2827 143c
00000290: 25d5 bf3c 5720 bd3c 0fb9 52bd 70b9 b5bc
000002a0: 3447 2bbd dce8 31bd b786 60bd 5090 1abd
000002b0: 80df 29bd a1d3 3a3d 4287 8d3c 3fc4 373d
000002c0: e428 eabc 21ac fabc 8d07 0f3d 2975 f7bc
000002d0: a3ee c5bc e06c 28bd a02e f63a 41d5 b4bb
000002e0: c2a2 d3bb 4215 1ebd 539f 673c ba80 513d
000002f0: 76f3 cabc 343f 063d 94dc 063d 9ded 41bd
00000300: cba1 19bd e228 a8bc bebf 203d a8f8 243d
00000310: 7923 3a3d 988c 13bc 7e76 a2bc 5229 5bbc
00000320: 2ade 3abd 924e 0ebd 38e2 bc3c f356 36bd
00000330: 47a1 603d 4af5 d2bc 1afc 94bc 22a5 3c3d
00000340: 5883 b73c 56e1 61bd a25b 333d f017 273c
00000350: 29c6 38bd e56b 523d 213d bc3c 368e 0dbc
00000360: f1da 39bd 6b13 6cbd aea9 02bd a22e 30bd
00000370: e655 3abd 2c56 21bc b7c3 39bc f402 a7bc
00000380: fc21 4e3d e1b0 48bb f8ee 043c 579f 103d
00000390: 1db5 b4bc e000 47bd 72a9 313d 74e2 bdbc
000003a0: ffc4 1eb8 47ac 243d 3667 5fbd 000f e83c
000003b0: 885d efbb fabf 77bd 5bee 9fbc 5aa0 3e3c
000003c0: 2cf0 e7bc 4810 c53c e562 afbc 025d 02bc
000003d0: 2e48 30bc 3059 33bb 3011 00bc 1c6e 533d
000003e0: 0a91 5c3d b43a 3f3d 7386 39bd 6c7a a7bc
000003f0: bc2e 863c 0004 c33a 6929 babc f161 27bd
-0.060844585 0.051717896 -0.027202856 0.00011564046 -0.016350899 0.023239052 -0.003474746 0.023938477
0.0258099 0.005493206 0.009699315 -0.042247407 -0.03304643 -0.011591783 0.035930574 0.054504953
0.025802959 -0.014090187 0.02642116 0.03392611 0.014932774 0.048065487 0.050607353 0.010361374
0.03355962 0.040735904 0.057426162 -0.045889135 -0.001571493 0.041400228 0.04965158 -0.03124553
0.021454852 0.008722156 -0.02327136 0.05132649 0.018280253 -0.035428587 0.044144668 -0.0390828
0.02409725 0.041131474 -0.022718327 0.03402262 0.028478436 -0.027664859 -0.03677792 -0.03091842
-0.0007506229 -0.018243838 0.037105292 -0.007371694 -0.009594709 -0.010454366 -0.047137592 -0.04717403
0.042761564 -0.042944588 -0.04416287 -0.008276083 -0.0033413363 -0.056779522 -0.038344126 -0.055571783
0.00056115014 0.052652664 0.01041144 0.039058596 0.019981967 0.036193524 0.04981283 0.02547404
-0.0054052128 -0.03596889 -0.053894594 0.04099179 0.035155445 0.0400384 -0.010200803 -0.057472594
0.050400566 -0.056068495 0.0015083032 -0.044865113 -0.00482627 -0.048004188 -0.05713365 -0.048113186
0.044960354 -0.034454707 0.020060033 0.044202402 -0.0043135397 0.029098203 -0.059040472 0.00794607
0.041044153 -0.02141333 -0.034553684 -0.031453528 -0.0026479969 0.014213048 0.0018519089 -0.033349782
-0.032166112 -0.010844629 0.043035977 -0.021212257 0.035383306 -0.032299746 0.042829864 -0.03042769
0.017104723 0.055563234 -0.041196156 0.046312228 0.016163483 -0.015035518 -0.05422146 0.0015146328
-0.022413597 -0.034213167 0.0015823572 -0.039169405 0.038258605 -0.056904294 -0.023787722 0.036814526
0.04392444 -0.017166544 0.00063576613 -0.030777497 0.01793198 0.030417398 -0.013175219 -0.006841421
0.046026863 0.051371783 -0.062263824 -0.039166324 -0.02226581 -0.048416473 -0.0345652 0.030345634
0.025133193 -0.050082713 0.042600423 -0.04368579 -5.5297845e-05 -0.03955464 -0.009495108 -0.04655038
-0.025236823 -0.032618668 0.012814092 0.0031782973 -0.05535162 -0.015649151 0.0139741 -0.018126624
0.024114862 -0.05207556 -0.016706904 0.009042539 0.023417065 0.02308671 -0.051446017 -0.02218315
-0.04181595 -0.043434963 -0.054815974 -0.037735283 -0.04147291 0.04561198 0.01727641 0.04486489
-0.028583951 -0.030599656 0.03491931 -0.030207234 -0.024161642 -0.041119456 0.0018782206 -0.005518586
-0.006458611 -0.03859449 0.014137107 0.051148154 -0.024774294 0.03277512 0.032925203 -0.047345746
-0.037507813 -0.020527307 0.03924536 0.0402762 0.045443986 -0.009005688 -0.019831892 -0.013376551
-0.04562203 -0.0347429 0.023057088 -0.044516515 0.054841306 -0.025751729 -0.018186618 0.04605592
0.022401497 -0.055146538 0.04378856 0.010198578 -0.045110855 0.051372427 0.022978367 -0.008639863
-0.045374814 -0.057635706 -0.0319001 -0.043013223 -0.045492075 -0.009847205 -0.011338166 -0.02038715
0.05032538 -0.0030623006 0.008113615 0.03530821 -0.022059018 -0.04858482 0.043374486 -0.02317927
-3.7853602e-05 0.04020336 -0.05454179 0.028327465 -0.007304851 -0.060485817 -0.019522836 0.0116349105
-0.028312765 0.024055615 -0.021409461 -0.007956745 -0.0107593965 -0.0027366392 -0.007816598 0.05161868
0.053849258 0.046686843 -0.045294236 -0.020444117 0.016379707 0.0014878511 -0.022724824 -0.04086489

fc2.bias f4 [300]
00000000: 8159 0fbd 1995 0abc 012f 523d 8909 acbc
00000010: 5b3b f83c 416b cd3c 65d4 2d3d 6340 d5bc
00000020: 8895 863d 95ea 323d 6c4a 3abc b593 20bd
00000030: 8044 823d 8d71 d1bc f1b0 bfbc 1f35 953d
00000040: dc36 b23d f8cf 933b a4b9 00bd 10d0 173d
00000050: 75c3 63bd 815a 95bb f2cd 5b3d 98c8 693d
00000060: 0a7f 083d e156 843d 2904 45ba b1ab 1a3d
00000070: d9b8 a83d d0fa 9b3c b94e 6bbb 6b5a a2bc
00000080: aa36 1a3c 34fc 243d 583c 09bc e5bf 4abd
00000090: e658 953b 27b6 5fbd 98dc ff3a e0eb 573b
000000a0: ee17 9d3d 72a7 6b3d 8fcb 8d3d 80ba b7bc
000000b0: ef1a 28bd c67d 2bbb 7d30 243d 4fde a73c
000000c0: 2646 af3c 7c94 b7bb f985 673d cb26 8c3d
000000d0: bb74 5fbb 71c1 a73b 28f6 aa3c 468a 133d
000000e0: cebe 833d df73 623d 3012 e33c 7736 3cbd
000000f0: 4401 da3c 4231 303c c8c6 e23c f4b9 833d
00000100: a9c0 db3c cd47 f1bc 2e5d 6a3d fc15 d1bc
00000110: 3a62 6c3b 98e2 cb3c ba05 36bd 00bd 7f3d
00000120: 3c13 2d3d a393 8c3d 5ded 853d 09bd 4d3d
00000130: 9eb8 38bc 62a9 803c 1d41 5cbc 4629 c83d
00000140: 9ed2 263d ba8b 9e3b 712e 113d fd52 3ebd
00000150: a297 823c 809f 913c f0a3 923d 862a fe3c
00000160: 564e 373d c5c4 0a3d bdcf 223d 075d 09bd
00000170: e12c a83c 02ff ff3c f1ab 22bd b871 923d
00000180: d29b 373a 5675 fc3c fc10 3f3c 301a 18bd
00000190: ecba b1ba c6cd 30bc 9086 83bc c83f 1b3c
000001a0: 03a1 c2bc b7c9 163c d1e2 21bd 9d9c 42bb
000001b0: 9855 aabc a7ed 5ebc 724b 243b 12ea 833c
000001c0: feca 453d d370 5ebc 09af 8d3d ceaf 143d
000001d0: 6835 1d3c 9a32 823d 24be 423c 0b30 ec3a
000001e0: 4c1d 783d 6e1d f43a 6327 e63c 19db e8bc
000001f0: f68d 633d 8c19 b03a 9fcf 8f3d 799e 5a3d
00000200: dea0 2b3b 9cd6 443d eb16 da3a dcc0 bf3d
00000210: bce4 6f3d 3504 a23d e0c8 023d 62e8 663c
00000220: 8d70 9a3c 2b19 04bd 5abb dabb c395 f0bb
00000230: a87b 54bc 16a8 4d3d 485c bf3d d23c 443d
00000240: f4db 5c3d 8124 bcbb 8c9e 383d 7cf2 543d
00000250: afb6 1dbd 0b2c 03bd bf0a af3d 46be fbbc
00000260: 05ce 2bbb 7165 6ebb c779 9ebc 4484 ac3d
00000270: 6284 013d cbe7 00ba 9ece 803d ee5f 94bb
00000280: bba5 8a3d 8664 873c 74d5 673d c62d b3bb
00000290: a833 98bb c4f3 223d 125a 6d3d 9b98 923d
000002a0: 7ccb 8c3d dbfd d2bc b79f ce3a 29cd bd3c
000002b0: 6827 bfbc 54bf fabc accd 343d 35a3 803d
000002c0: 03dc 673d 26fc 0d3d 8d09 f83b d3e1 a43d
000002d0: 773f 6d3d c273 553d 4fab 7d3c bbd5 8a3c
000002e0: 2a48 d8b8 64f9 f6bc 112d 2b3c 4e9d 423d
000002f0: 7a57 663d ddb8 d6bc cda2 4b3d cffd 2cbd
00000300: b7fe a83c 834d 51bd e235 b5bc 446d 19bd
00000310: 424f febc 2425 a7bc e226 333d 8acf beb9
00000320: f801 a3bb ab78 ab3c 6481 3a3d 488a 923b
00000330: 0c67 2e3d b55a 0c3d cb77 513c 574c aa3c
00000340: 1eb7 12bd 5126 a73d 7674 bf3a 777c cc3c
00000350: 6e71 633d 5abd c03c 6840 833d 8094 48bc
00000360: 9d6b 143d bd25 843d 7ed3 87bb 80ef be3d
00000370: 7deb be3c 9494 9f3d 7546 bf3c 1f74 0a3d
00000380: c020 3bbc 3862 343c 0d33 663d 034b 063d
00000390: b943 fdbc 895b 563d fa47 80bc 9c99 d2ba
000003a0: 5422 f33c 0c85 893d 26c5 0cbc 7fe0 8f3c
000003b0: 0cfe 19bc 995a 18bd b835 9c3d 35c8 8f3a
000003c0: d4a6 2c3d 2d18 923c d05f 7f3b 1ba3 713d
000003d0: 9b33 053d 949b 4f3d a387 0f3c 7a69 fd3c
000003e0: 8cc5 573c c8b9 39bd 8a1b 8e3b adaf 693d
000003f0: 19e4 0cbd 2866 06bd 4c08 0abd 4484 2dbc
-0.034997467 -0.008458399 0.051314358 -0.02100064 0.03030174 0.025075557 0.042438883 -0.026031679
0.065714896 0.043680746 -0.011370283 -0.039203364 0.063607216 -0.02556684 -0.023399802 0.07285523
0.0870187 0.004510876 -0.03142704 0.03706366 -0.055606324 -0.004557908 0.0536632 0.057076067
0.03332428 0.06461883 -0.00075155735 0.037761394 0.08238382 0.019040495 -0.0035905077 -0.019818505
0.009412447 0.040279582 -0.0083762035 -0.04949941 0.0045577167 -0.054617073 0.0019520698 0.003294699
0.0767058 0.057532735 0.06923591 -0.022427797 -0.04104131 -0.0026167496 0.040085305 0.020491747
0.021395754 -0.0056024175 0.05652425 0.06843337 -0.0034096676 0.0051194956 0.02086933 0.03602054
0.064328775 0.055286285 0.027718633 -0.04595038 0.026611932 0.0107539315 0.027682677 0.06431952
0.026825266 -0.029453183 0.05721777 -0.025523178 0.003606929 0.024888322 -0.044439055 0.062436104
0.04225467 0.06864097 0.06539414 0.050229106 -0.011274485 0.015705768 -0.013443259 0.09773497
0.040728204 0.004838434 0.03544468 -0.046465863 0.015941445 0.01777625 0.07160175 0.031026136
0.04475244 0.03387906 0.039748896 -0.033535983 0.020529212 0.031249527 -0.039714757 0.071505964
0.0007004115 0.030817669 0.011661764 -0.03713435 -0.0013559735 -0.010791248 -0.016055375 0.009475656
-0.023758417 0.009203366 -0.03952295 -0.00296954 -0.020792767 -0.013606465 0.0025069383 0.016102824
0.04828929 -0.013576704 0.06918151 0.036300473 0.009595253 0.06357308 0.011886153 0.0018019689
0.060574815 0.0018624493 0.028094953 -0.028424786 0.055555306 0.0013435348 0.070220225 0.053373788
0.0026188414 0.04805623 0.001663891 0.09362957 0.058567747 0.07910959 0.03192985 0.01409349
0.018852497 -0.032250565 -0.006675166 -0.0073420717 -0.012968935 0.050209127 0.09343773 0.047909565
0.0539207 -0.0057416563 0.045073077 0.051989064 -0.0385043 -0.032024425 0.085469715 -0.030730378
-0.0026215327 -0.0036376382 -0.019345177 0.08423665 0.03162039 -0.00049173523 0.06289409 -0.0045280373
0.06769892 0.016527425 0.05660005 -0.005468103 -0.00464483 0.039783254 0.057947226 0.071580134
0.06874749 -0.025755813 0.0015764151 0.023169117 -0.02333422 -0.03060881 0.044141456 0.06281129
0.056606304 0.034664296 0.007569498 0.08050885 0.057921853 0.05211235 0.015482738 0.016947618
-0.00010313124 -0.030148216 0.010447756 0.0475133 0.056235768 -0.026211197 0.049715806 -0.04223424
0.02062927 -0.05109931 -0.02212042 -0.03745772 -0.031043652 -0.020403452 0.043738253 -0.00036394253
-0.0049746 0.020931562 0.045533553 0.004472051 0.042578742 0.034266192 0.0127849085 0.020788355
-0.035819165 0.08161605 0.0014606852 0.024961693 0.055528097 0.02352779 0.06408769 -0.012242436
0.03623544 0.064525105 -0.004145085 0.09323025 0.023305649 0.07792011 0.023349026 0.033802148
-0.011421382 0.011009745 0.05620103 0.03278638 -0.030916082 0.05233339 -0.015659321 -0.0016067508
0.029679455 0.0671483 -0.008591926 0.017563103 -0.009398948 -0.037195776 0.076274335 0.00109697
0.042151287 0.017833794 0.003896702 0.05899344 0.032519918 0.05068548 0.008760366 0.030934084
0.013169657 -0.04534319 0.004336779 0.057052303 -0.03439722 -0.032812268 -0.03369932 -0.010590617

fc3.weight f4 [200, 300]
00000000: eb31 b1bc 3102 0f3e b491 d73d 6f9f 5cbd
00000010: a88c 1ebe b83e 2cbc 4640 263d 3c50 903b
00000020: ee1d 71bd 55fa 543d 78e4 533d 8e17 673d
00000030: 154a 6bbe 40e5 abbb 6523 963c 62ec 243d
00000040: 70d9 eabd df55 a93d f378 4dbd d66e 9abc
00000050: 1364 c63d 35fa ec3d 27dd e63d dedb 7cbe
00000060: 2ad1 b03a c802 5bbe 78a6 69be 23a8 b8bc
00000070: a8b8 38be 9329 aabd 4de7 6c3d 375f a63d
00000080: ce66 cf3d f05d 133d ee3f 14bc 1c5a bebc
00000090: f85a e83d 5912 7cbd 1f68 dcba 802e 0a3a
000000a0: 1049 43be 08c2 1dba 6ffc 313d 269b 4bbd
000000b0: ca69 a7bb 28d1 00bd 5435 29be 2054 9a3d
000000c0: 1b95 a73c 96d2 653d f090 d03d 28cc 913d
000000d0: eb7d c73d c32f 103b 07e5 263d e69a 063b
000000e0: da5e e23d 1fae 24be 2863 8c3d 039e 1bbd
000000f0: 045f 14be c6b5 b43d ace1 d1bc af41 24bc
00000100: 392b 423d 73ae bd3b c949 c83d b1ed 47bc
00000110: 21df 013e f4b1 453d fdc5 e5bd 130e 6c3d
00000120: ee70 b0bd 63be 923d 0fbf be3c 7e3e 09bd
00000130: 7111 a2bd 2b58 77bd 15a7 03bc 5d80 963d
00000140: e45f 253c 0b98 ff3c bdb8 0f3c 0015 ea3a
00000150: ff81 e6bc beb7 773d cef8 993b 0840 c83d
00000160: 339d 853d d7cb 7b3c e836 19be f7d5 513d
00000170: 4f3f 64be 8276 5fbd 8107 e73d a064 e5bd
00000180: 7980 62be fca0 863c a0d4 213d 800f c63b
00000190: 69b2 8f3d cc6b 603d 5741 883d ce2d 643d
000001a0: 647b 42bc 2f1e c03c f281 86bc 48c2 3d3d
000001b0: ad5a e63c 790f 733d c170 d8bd 7e0f a1bd
000001c0: 7f05 e53d 9d30 0b3d 39ce 06be a41c 3a3d
000001d0: ef4c 46be 6f43 e53c fc54 bcbc 5aa9 caba
000001e0: bd9d 1dbe 1b1e 673d f27e 703c 2f14 843d
000001f0: dd88 bf3d f179 673e 2ba3 7ebe 210f 8f3d
00000200: 2e95 abbd faf9 d73d 0a2d 36bd 146e bc3b
00000210: 31e3 52be dd4d ffbd c7fb a83c 8f0d d13b
00000220: 9476 2a3d 264f 5bbd 0fe1 da3c 4823 013e
00000230: e002 353d 6c16 ed3d 7689 b7bd 4457 5ebd
00000240: bac9 4a3d 9b2c b83c 5440 6abe 73f1 dd3d
00000250: 087b f33d dccd 423d e7f5 5abe 2867 a8bd
00000260: 3cde 0e3e 93f0 cb3c 472f eb3d 0452 2cbe
00000270: 8930 873d c519 5a3c 5221 7a3d 4585 9b3d
00000280: 5f27 163d de2f 24bc 4314 6dbe d133 adbc
00000290: 8ab1 053d 3fd3 f23d c2da a7bc 11bd 593d
000002a0: 9547 bbbc fc26 2abd 8b7f 4c3c c998 903d
000002b0: 1828 673d 5f5f 393e 91b7 86bd 4249 883d
000002c0: e955 67be 9b85 ae3d 9e4c 2f3d 0c32 da3c
000002d0: 0205 9c3d 688b 62bc 00b7 313d 5107 1fbe
000002e0: c8ad 453c ad31 a33d 9e63 9dbc 442b 723d
000002f0: 8e1f 683c 08bd 4d3c edb1 86bc 0008 1e3a
00000300: 2ad3 92bd 1821 f4bb 0257 5dbd bf79 bfbd
00000310: 144d 503d 4e63 3bbd 19ca e93c d980 27be
00000320: 00a0 a2ba 0ca7 7b3c 5a79 7f3d 1820 e6bc
00000330: 00bb e6bc 45ee 1cbd 32e3 2ebe 308a 1d3e
00000340: f235 563d 89bb 0ebe 872e 843d a85d 2fbc
00000350: 7bda 22be 9d83 263c 677a 36be d549 56bd
00000360: f871 893d 4a26 67be f91f 7d3e e2fc 9abd
00000370: f336 8d3d e79a 12be 776c fdbb 57a9 bbbd
00000380: 5e1b d73d dc9d 0abe db91 0a3c 4072 35bd
00000390: 16c3 5b3d 79cb ca3d 3b5e 043d 1e24 603d
000003a0: 984b 36bc b4fa 8b3c c097 543d aa15 1dbe
000003b0: 0ef4 27bd 271d e43d e89d babd 2118 053e
000003c0: ebe1 c83c a008 ac3d 6224 603d 3f05 44be
000003d0: 6a69 bc3d 5fbb 523d fbdf 9d3d 002d 323d
000003e0: c5f8 d8bb 309a e63c d815 8bbe 85c7 6b3d
000003f0: 7740 1c3e 0188 4b3c bca3 8e3c c4cf df3c
-0.021630248 0.1396568 0.105258375 -0.053862985 -0.15483344 -0.010513 0.04058864 0.004404096
-0.058866434 0.051996548 0.051731557 0.056418948 -0.22977479 -0.0052458346 0.018327424 0.040264495
-0.11467254 0.08268332 -0.050164174 -0.018851679 0.096870564 0.11571161 0.1127265 -0.24693248
0.001349007 -0.2138778 -0.22817409 -0.022541111 -0.18039191 -0.08308711 0.057837773 0.081236295
0.1012703 0.035978258 -0.009048445 -0.023236327 0.11345476 -0.061540935 -0.0016815698 0.0005271211
-0.1907084 -0.00060179876 0.04345363 -0.049708508 -0.0051090466 -0.031449467 -0.1652425 0.07535577
0.020456841 0.056109034 0.10183895 0.07119018 0.09740814 0.0022001124 0.04074576 0.0020539104
0.11053248 -0.16082047 0.0685485 -0.03799249 -0.1448937 0.08823733 -0.025620304 -0.010025426
0.0474045 0.0057886182 0.097796984 -0.012202666 0.12682773 0.048265412 -0.11219404 0.05763061
-0.0861529 0.0716522 0.023284463 -0.033506863 -0.07913483 -0.060386818 -0.008035441 0.07348702
0.010093663 0.03120043 0.008772072 0.0017859042 -0.028138159 0.060477965 0.0046988493 0.09777838
0.06524124 0.015368423 -0.14962351 0.051229443 -0.22289775 -0.054556377 0.11280728 -0.11200833
-0.22119321 0.016434185 0.039509416 0.006044328 0.07016451 0.054790303 0.066530876 0.055707745
-0.011870239 0.023451893 -0.016419385 0.04632786 0.02811941 0.059340928 -0.10568381 -0.07864283
0.11182689 0.033981908 -0.13164605 0.04543747 -0.19365285 0.027986256 -0.022989742 -0.0015461848
-0.15392204 0.056425195 0.014678704 0.06449162 0.093522765 0.2260511 -0.24866931 0.069853075
-0.08378063 0.10545726 -0.044476546 0.005750427 -0.20594479 -0.12466023 0.02062787 0.00637979
0.04161699 -0.05354228 0.026718644 0.12611115 0.044192195 0.11576542 -0.089617655 -0.05428244
0.049508788 0.022482207 -0.22876102 0.108370684 0.11888701 0.047559604 -0.21382867 -0.082228005
0.13951963 0.024894988 0.11483627 -0.16828161 0.06601054 0.013311808 0.061066933 0.075937785
0.03665864 -0.010021178 -0.2315226 -0.021142872 0.032640018 0.11856698 -0.020490054 0.053158823
-0.022861281 -0.041541085 0.0124815805 0.070603915 0.05643472 0.18102787 -0.06577981 0.06654598
-0.22591366 0.08521577 0.042797677 0.026635192 0.07618143 -0.013827182 0.043387413 -0.15530135
0.012065358 0.07968459 -0.01921254 0.059123293 0.0141676795 0.012557276 -0.016442263 0.0006028414
-0.071691826 -0.007450234 -0.054038055 -0.09349393 0.050854757 -0.045749 0.02853875 -0.16357745
-0.0012407303 0.015359651 0.06237159 -0.028091475 -0.02816534 -0.03831317 -0.17078856 0.15384746
0.05229754 -0.13938726 0.06454187 -0.010703482 -0.15903656 0.010163215 -0.1782013 -0.052316505
0.06711191 -0.225732 0.24719228 -0.07567765 0.06895246 -0.14316903 -0.0077338773 -0.091631584
0.10503267 -0.13536781 0.008457626 -0.04429841 0.053652845 0.099020906 0.032316428 0.054721944
-0.011126421 0.017087318 0.051902533 -0.15340295 -0.041004233 0.11138373 -0.091121495 0.12997486
0.024521789 0.084000826 0.054722197 -0.19142626 0.09199794 0.051448222 0.077087365 0.043499947
-0.0066214525 0.028149694 -0.27165103 0.057563324 0.15258966 0.012422563 0.017412059 0.02732075

fc3.bias f4 [200]
00000000: 8c38 03bd b43b 1e3d 635a 633d e4fc b23d
00000010: aaa3 deba 8644 923d 6d35 813c 96da 6b3c
00000020: b16c ea3c 87ee d13d 4645 f9bc 5f83 3a3d
00000030: 442e be3c 67f8 7c3d 6f90 c6ba 580c 5d3d
00000040: 3805 413d ea9a d93d 99e1 203d 1333 8a3c
00000050: f84f afbb 4ccd a33d ae9f ac3d ab86 3dbb
00000060: 75cb 443d 5d11 b23c 2beb bb3c 0f41 2f3c
00000070: 378d 8abb fc0d 743d d02e e93b 90a8 de3c
00000080: 1a67 9d3d 2cc7 2b3d fd2e 2d3d e416 b23d
00000090: 72ac 5dbd 9079 f1bc 0ea3 babb 97d9 403d
000000a0: d2ef 21bd ab52 e73b c9e5 1f3d 83c2 7b3d
000000b0: 65ec e93d 0dec 043d 74e3 47bc bdb2 ab3c
000000c0: 1b55 b43d bd4e 543c 92b8 7a3d 9829 903d
000000d0: 6a57 363d 09d7 923d 1953 3cbd 8b43 31bd
000000e0: 210b 61bd 040c 9cbc cfd5 ecbc 1c7f c03c
000000f0: 0594 613d 9f62 45bc 5539 673d 188d 5f3d
00000100: 9583 ac3d 574e 8f3c 324f a139 b274 9c3d
00000110: 914e 16bc 22de 263d e6fb a33d 7d46 89ba
00000120: 194c e83d 42dc 04bd ed9f 67bd 36f0 803d
00000130: 7460 f33c dd15 933d 4020 6b3c a5fa 5f3b
00000140: 10cb 7ebb 1927 d63d 69d0 7b3d f4ec 4f3d
00000150: 3c20 39bd 1673 32bd dbb4 f33c 770d 1f3c
00000160: 79b9 703d 2c86 aa3c 6026 c33d 64ab 633d
00000170: 9729 ee3c 80ab c53d 6d84 8e3d a823 74bd
00000180: 628b 9f3d d860 6f3c a504 3cbd 7d9e 303d
00000190: 90fd 2b3d f495 113d b61f 3d3d a95e b23d
000001a0: d212 1b3b 27af 0bbd 44df 78bd 0a2f 8d3d
000001b0: 096b f33c 82da c8bc db08 7b3d 8f12 8cbb
000001c0: 1bb7 a6bc dca1 5abd 27a0 85bd 88b0 33bd
000001d0: 7758 163c 62dc aa3d 1037 683b 2afd a23a
000001e0: 2d27 3a3d d8d8 7fbc 438f b6ba 67c0 5a3c
000001f0: d0ea 653d f474 793d 4d86 9c3c ce47 d13c
00000200: 5d55 9fbc 09f2 d03d ad87 7e3c 8310 5c3d
00000210: d96f b73d 474d 553d 26dc 7abd 6fd8 ad3a
00000220: 3953 a1bc 84c8 013d fd56 e7bb 6e31 123d
00000230: b461 e33a de35 9b3d b8d6 903c c317 7abc
00000240: c1fa ea3d c8fe 1abb fca0 de3d 7a32 733d
00000250: ffb9 6abc 7dc6 003d b004 52bd 17d1 12bd
00000260: ad78 0dbb f898 043d 06f2 1abd 51bb dc3c
00000270: 2ea8 bf3c 03c9 63bc cd2f 80bd af48 173d
00000280: 7dd1 46bd 509a 973d 91b6 72bc 40d8 a63d
00000290: dac4 973d 3665 a63d 32fc 7e3d d725 6a3d
000002a0: be4a 63bd 875a 173d bc3b 283d e70e da3d
000002b0: 7a23 4c3d 9e87 073e 6848 703d 8984 45bd
000002c0: b477 9a3d 2c4e 22bd 01c0 ac3d faec e3bc
000002d0: d9b3 263d 26f3 8b3d 737a 32bd ee0d 18bd
000002e0: f0f0 013e 8fd8 683d e098 a13c 38ef 353d
000002f0: a91b 7c3d 20fe 6d3d 65c0 5f3c 241b 22bd
00000300: f9eb 813c 182e 053d 80c4 0bbd 176b 593d
00000310: 5aac 313d 2aa2 5bbd cc54 5fbc 702c 343d
-0.03203635 0.038631156 0.05550612 0.08739641 -0.0016986032 0.07141976 0.015772546 0.014395377
0.028616281 0.102505736 -0.03042854 0.04553544 0.02321542 0.061760332 -0.0015149246 0.05396685
0.047124118 0.10625251 0.039277647 0.016870057 -0.005350109 0.07998142 0.08428894 -0.002891938
0.048045594 0.021736795 0.022939285 0.0106966635 -0.00422826 0.05958365 0.007116176 0.027179986
0.07685681 0.041937992 0.04228114 0.08695772 -0.054119535 -0.02947691 -0.005695707 0.04708251
-0.03953535 0.0070594153 0.0390375 0.061464798 0.11422042 0.032451678 -0.012200225 0.020959252
0.08805295 0.012958226 0.061211176 0.070391834 0.04451696 0.07169921 -0.045977686 -0.043277305
-0.054942254 -0.019048698 -0.028910546 0.02349811 0.055072803 -0.012047439 0.05645116 0.054577917
0.08423535 0.01749341 0.00030767318 0.07639445 -0.009174005 0.040739186 0.0800703 -0.0010473278
0.113426395 -0.032436617 -0.056549 0.062958166 0.029709078 0.071819045 0.014350951 0.0034176495
-0.003887836 0.10456676 0.061478052 0.050763085 -0.045196757 -0.043566786 0.029749325 0.0097078
0.05877063 0.020815931 0.09528804 0.055583373 0.029072566 0.09651852 0.06958852 -0.059604317
0.07790257 0.014610492 -0.045902867 0.043119896 0.041989863 0.035543397 0.04617282 0.08709461
0.002366234 -0.034102585 -0.060759798 0.068937376 0.029714124 -0.024518255 0.061287742 -0.0042746733
-0.020350983 -0.053377017 -0.06524687 -0.043869525 0.009176365 0.08342816 0.003543321 0.0012435068
0.045447517 -0.015615664 -0.0013928193 0.013351536 0.056132138 0.06090255 0.019107008 0.025546934
-0.019449884 0.102024145 0.015535277 0.053726684 0.0895688 0.05207565 -0.061245106 0.0013263355
-0.019693004 0.031685367 -0.0070599304 0.03569167 0.0017347843 0.07578634 0.01768051 -0.015264454
0.11473609 -0.0023650397 0.10870549 0.05937431 -0.0143265715 0.031439293 -0.051274 -0.035843935
-0.002158682 0.032372445 -0.037828468 0.026944788 0.023395624 -0.013902905 -0.06259117 0.03693455
-0.048539627 0.0740248 -0.014814035 0.08146715 0.07410593 0.08124773 0.06225223 0.057164993
-0.0554912 0.036951568 0.041072592 0.10647374 0.04983852 0.13235328 0.058662802 -0.0482221
0.07542363 -0.03962533 0.08435059 -0.02782296 0.04069886 0.06833486 -0.043573808 -0.03712266
0.12689567 0.05684715 0.019726217 0.04441759 0.061549816 0.05810368 0.01365671 -0.039576665
0.01585959 0.03251466 -0.034122944 0.053080644 0.043377258 -0.05362145 -0.013631057 0.04398769

fc4.weight f4 [1, 200]
00000000: e429 4cbe cc9e 31bb d625 25be 558c c2be
00000010: cf71 9cbe 6908 b8be 2dd4 43be 42c3 333b
00000020: 60f4 503e cd00 e1be 928a 05ba d904 adbe
00000030: 417c 2b3b 8094 353e 1d0b 47be a29b 38be
00000040: 1ce8 193a 1359 e9be 6615 96be 20e1 0cbe
00000050: 52b2 33bb 2504 3abe 038b 3ebe c2ae 4abe
00000060: 720b d8ba 27a2 31be e2bd c5be 254f 56be
00000070: 5ff8 53be d9dd 40be 48a0 883a 09f3 ebbe
00000080: 0bb6 5d3e 8730 e7ba f819 34be ffa4 253e
00000090: 5574 b639 8169 063b d117 25be cfdc 3ebe
000000a0: 6790 45be b6db 2abe f3a2 53be 890e 393e
000000b0: 5553 e1be f952 3f3e 04b3 f53a 82cd 253e
000000c0: 0c78 403e 30f3 5cbe 6eea 1bbe 9a37 44be
000000d0: 8d30 2ebe 8b2f 503e 011d 113b 066d 203b
000000e0: 1a7e 8739 18a2 38be 2172 203a 99de 4f3e
000000f0: 0cb3 39be f377 3fbe a3e8 463e 239b dabd
00000100: c196 453e 6cdc 43be e73a 4cbe c217 38be
00000110: 07c3 44be 381b 84be 7128 453e d277 10be
00000120: a87f d8be 7848 1cbe 0cf6 b739 0943 35be
00000130: 48c8 e6be 06e9 ebbe 569c 36be 8e3d 6abe
00000140: b43d a73a 503f 4d3e b830 4b3e fbcf 34ba
00000150: 6a80 303b e802 5bbe 6d9d 8439 29a4 843b
00000160: 3617 2fbe f047 0eb9 3d26 d4be 3709 44be
00000170: 3966 f2be 7d83 523e 6f02 fdbd 86b4 1c39
00000180: bee6 4e3e ad56 45be 6fbf 55be cd82 463e
00000190: 8f09 3ebe 01de 403e eb85 303e a70f 3c3e
000001a0: f716 38be d980 29be 387f 17ba 6fd1 dfbe
000001b0: 7503 49be d3b4 213b 7bf8 3fbe d4b2 32be
000001c0: 8a97 853a 8f26 25ba 50f1 2c37 30c3 ad3a
000001d0: 27fd 9cb9 28a0 413e a21d e7ba 76d2 1cbb
000001e0: 9515 82be d319 c2b8 1519 32be 5a98 3fbe
000001f0: 80c5 413e 7c04 eebd 85d3 36be 1514 4f3e
00000200: 50bb 1cbe bd63 4d3e 2a0a 3fbe 9d35 edbd
00000210: 9884 dabd 293d 35be 3cd4 9cbb 42eb 55be
00000220: 286f 4dbe 70ee 14be b159 41be 6e51 0ebe
00000230: 4f73 3cbe c118 38be 4e1d 2bbe d8c5 0f3b
00000240: 4b5a bbbe 9897 013b f3e0 c7be f89f 4a3e
00000250: 5c9c 48be 66a6 21be fefc 32be 7a66 10be
00000260: 27b7 31be 5aa6 443e 955e 2cba a632 363e
00000270: 26f5 3f3e 2f25 4cbe 7e03 2a3b 66ac 68be
00000280: ff9d c63a 797d edbd f3f0 a63a 3210 283e
00000290: a8c3 09be 49a3 3e3e c535 47be 3c8e 56be
000002a0: b4bb 433b 8ad8 dbbd e55f edbd fc7d 4f3e
000002b0: fca8 453e 1c09 ecbe 309f d9be 58a0 bf39
000002c0: 48d0 49be 444b 47be 1384 37be bccd 4bbe
000002d0: d772 48be da7c 43be d312 f239 ab2c 2dbb
000002e0: 2a9c 5b3e ad64 3dbe fe7f 28be 2bd2 4dbe
000002f0: e830 d6be 22b1 e7bd ceb3 39be e0c9 c23a
00000300: 46e3 9cb9 874d a9ba d811 3cbb 4b6a 44be
00000310: e12f 3c3e c094 e539 6ac7 2ebb 46af 3bbe
-0.19937855 -0.0027102707 -0.16127715 -0.3799769 -0.3055558 -0.35943916 -0.19123907 0.0027429615
0.20405722 -0.43945923 -0.0005094196 -0.3379276 0.002616659 0.1773243 -0.19437833 -0.18028119
0.0005871074 -0.4557577 -0.293132 -0.13757753 -0.002741952 -0.18165644 -0.18607716 -0.19793227
-0.0016482903 -0.17347012 -0.38621432 -0.20928629 -0.20700215 -0.18834628 0.0010423744 -0.4608386
0.21651475 -0.0017638364 -0.17588031 0.16176222 0.0003480042 0.0020509663 -0.16122366 -0.1863892
-0.19293366 -0.16685376 -0.20667629 0.18071951 -0.4400889 0.18683995 0.0018745367 0.16191676
0.18795794 -0.21577144 -0.15226147 -0.19161835 -0.17010708 0.20330636 0.0022142532 0.0024479046
0.0002584316 -0.18030584 0.0006120522 0.20299758 -0.18134707 -0.18698101 0.19424681 -0.10674121
0.1929579 -0.19127053 -0.19944344 -0.17977813 -0.19215022 -0.25802016 0.19253708 -0.14108208
-0.42284894 -0.1526202 0.000350878 -0.17701353 -0.45074677 -0.4607622 -0.17833075 -0.22875044
0.0012759478 0.20043683 0.19842803 -0.00068974466 0.002693201 -0.21387827 0.00025294293 0.0040478897
-0.17098698 -0.00013568974 -0.41435423 -0.1914414 -0.47343615 0.20557971 -0.1235398 0.0001494457
0.20205209 -0.19271345 -0.20873807 0.19385834 -0.18558334 0.18834688 0.17238586 0.18365346
-0.1797751 -0.16553058 -0.000577915 -0.43714473 -0.19630225 0.002467443 -0.18747132 -0.1745103
0.0010192257 -0.0006299996 1.0308184e-05 0.0013257023 -0.00029943252 0.18908751 -0.0017632733 -0.0023929155
-0.2540709 -9.255451e-05 -0.1739238 -0.18710461 0.18922997 -0.11621949 -0.17854126 0.20222504
-0.15305829 0.20057578 -0.18656221 -0.115824915 -0.106698215 -0.17699112 -0.0047860425 -0.20890525
-0.20061934 -0.14544082 -0.18881871 -0.1389825 -0.18403362 -0.17978193 -0.16710398 0.0021937992
-0.36592326 0.0019774195 -0.3903881 0.19787586 -0.19590896 -0.15786132 -0.17479321 -0.14101592
-0.17355023 0.19204083 -0.0006575373 0.17792758 0.1874586 -0.1993606 0.0025942023 -0.22722015
0.0015153288 -0.11596198 0.0012736603 0.16412428 -0.13453543 0.18616976 -0.19454105 -0.20952696
0.0029866518 -0.10734661 -0.11590556 0.20262903 0.19302744 -0.461007 -0.42504263 0.00036549824
-0.19708359 -0.19462305 -0.17921476 -0.199027 -0.19575058 -0.19090596 0.00046171862 -0.002642433
0.2144629 -0.18495436 -0.16455075 -0.20099704 -0.41834188 -0.11313082 -0.18134996 0.0014861189
-0.0002992397 -0.0012916782 -0.002869716 -0.19181173 0.1837764 0.0004378911 -0.0026669153 -0.1832858
