checkpoint_critic.pth (torch, 504167 bytes, 5 tensors)

fcs1.weight f4 [400, 9]
000000 7b 51 a9 bd 71 fd 27 bd 4d e7 f0 bc 46 55 87 bc
       -0.08267494 -0.041013185 -0.029407168 -0.016520154
000010 49 61 44 be fa 97 d5 bd 1f 78 06 bd 1f 2b 6b 3c
       -0.19177736 -0.10429378 -0.0328294 0.014353543
000020 aa 1a 10 bd a8 d3 15 bc 64 19 99 3e a5 cc ba 3e
       -0.03518168 -0.009144701 0.29902184 0.36484256
000030 4f df 5b bd b4 0f 74 3e cf c3 43 3e 5c 8d cb 3d
       -0.05367976 0.23834115 0.19117664 0.099390715
000040 34 7b 96 bd 1d f3 1d 3d af df a1 3c 76 8b ba bd
       -0.07347718 0.03856193 0.019759981 -0.09108631
000050 d0 3e c7 bb c7 4f e5 3c 37 04 10 be b6 39 8b be
       -0.006080486 0.027992142 -0.14064108 -0.27192467
000060 06 d4 03 bd 3d 55 45 3d c8 b3 2e be 58 9c 51 bc
       -0.032184623 0.048176993 -0.17060769 -0.012793623
000070 3e 6c 0f bd e0 f7 5b bc d5 51 0c 3d 68 77 de bb
       -0.035015337 -0.013425797 0.03425773 -0.0067891367
000080 c1 f6 18 3d 46 a6 97 3c b9 d6 39 3d 79 14 16 3d
       0.037344698 0.018511903 0.04537079 0.036640618
000090 8c 71 0e bc fa 66 4c bd b7 37 c7 bc f0 a4 ed bb
       -0.008694064 -0.049902894 -0.02431856 -0.007252328
0000a0 fc ef 8b bc dc 67 66 3c 38 d6 38 bd 58 d2 2b bd
       -0.017082207 0.014062848 -0.04512617 -0.041948646
0000b0 92 2f b8 3c 3f 58 b7 bd 1e ab 0f be c4 21 5f bd
       0.02248362 -0.089523785 -0.1403012 -0.05447556
0000c0 09 03 79 3d a0 5b 52 be c2 ae a2 be 61 a2 7e 3d
       0.06079391 -0.20542765 -0.31773955 0.062166575
0000d0 95 ac 5d 3d 46 9d ec 3c 98 10 58 bc 60 d6 4c bc
       0.054119665 0.028883588 -0.01318755 -0.012502283
0000e0 6c a4 10 3c 90 4c a7 bb 63 56 a0 bc da 59 97 bc
       0.008828264 -0.0051055625 -0.019572442 -0.018475462
0000f0 00 b8 51 3b 10 95 ac 3b 4a 34 c9 bc d9 58 b0 bd
       0.0032000542 0.005266793 -0.024561066 -0.08610696
000100 2b 17 b2 bc c1 a9 81 3d 3e 02 7e bc 16 29 7c be
       -0.021739563 0.06331206 -0.015503464 -0.24625048
000110 b1 b7 95 3c fb 4d 89 3d de 5e aa 3d e8 ba 1f 3d
       0.018276067 0.06704327 0.08318876 0.038996607
000120 be 9e e3 bd d7 b0 5c 3d 89 e7 f9 bd 4d a6 23 bc
       -0.11114262 0.053879585 -0.12202365 -0.00998838
000130 de 1b 4a be 07 95 70 bc 9c 22 06 3e cc 89 2f bd
       -0.19737193 -0.014683968 0.1309914 -0.042856023
000140 81 04 17 bd 17 d6 21 3d 8d 33 64 3d 14 da 38 3b
       -0.03686953 0.039510813 0.055713225 0.0028206157
000150 6e be f2 bc 9a 0f 7f be 0b 1a 46 3d d3 c7 43 3e
       -0.02963182 -0.24908295 0.04836468 0.19119196
000160 c1 20 a2 bb 31 fc 26 3c 3b 9e 26 3e 0f e4 b8 bc
       -0.004947752 0.010191963 0.16271298 -0.022569684
000170 87 b6 4d 3b 9f 6c bc ba 3c 27 b6 bd 58 fa b6 3c
       0.0031389312 -0.0014375633 -0.08894202 0.02233617
000180 78 88 9f 3d 49 7e 6f 3b 56 fd 22 3e c6 80 f7 bc
       0.07789701 0.0036543778 0.15916952 -0.030212771
000190 1e 2d 30 bd f9 c2 5a bd 8d 2b c5 3c 4e e7 18 bd
       -0.043011777 -0.053408597 0.024068618 -0.037329964
0001a0 7d b7 17 3e 94 5d 52 3d 7d f6 38 3e 75 eb e6 3d
       0.14816089 0.051358774 0.18062778 0.112753786
0001b0 f6 74 c8 bb 54 b1 31 bd ba 0b c7 3c 38 e9 44 3d
       -0.0061174585 -0.043382004 0.024297584 0.048073977
0001c0 fa 34 bd 3c d1 f7 22 3e ee 2b fe 3c 01 d7 ef 3d
       0.02309655 0.15914847 0.031026807 0.117109306
0001d0 58 8b e0 bd 56 0d bb bd 48 7c 94 3c 98 f3 31 3d
       -0.10964078 -0.09133403 0.018125668 0.0434452
0001e0 e0 bd a2 bd 52 c2 66 be e5 af f9 3d 23 71 cc bd
       -0.07946372 -0.22535065 0.12191752 -0.099825166
0001f0 3c 3e 0c bd f1 7e 0f 3e 3e 38 5d bd 46 cc aa 3d
       -0.03423904 0.14013268 -0.054008715 0.08339743
000200 20 e3 de bd a1 c8 ad 3b f4 cc 81 bc ac d1 2d bd
       -0.108831644 0.005303458 -0.0158448 -0.042436287
000210 c6 4e 28 3d e3 67 0b 3e 47 59 13 3d 74 e5 80 bd
       0.04109075 0.13613848 0.035973813 -0.06293765
000220 e7 89 37 3c fc eb 8b 3c f9 1b 82 bc 07 9f 5c be
       0.011202312 0.0170803 -0.015882479 -0.21545039
000230 5a d5 bb be ec de 9c 3d 88 ad 14 3e 00 ed 17 3d
       -0.36686212 0.076597065 0.14519322 0.037091255
000240 64 96 a0 bd 4b e1 b2 bd a3 83 54 bd 0a 5d 15 3d
       -0.07841185 -0.087343775 -0.05188335 0.036465682
000250 a1 a5 83 be 6e b8 a3 be ee 48 bc 3d 3b f7 c4 3d
       -0.25712302 -0.31976646 0.09193598 0.09617468
000260 97 ba ea 3c f5 c0 81 bd 8f a5 24 3e 3a c3 d3 3d
       0.028653426 -0.06335632 0.1607878 0.10339971
000270 2e d8 87 3c e8 f2 c2 be 14 8c 03 3f c6 aa 21 3e
       0.016582575 -0.38075948 0.5138562 0.15787801
000280 95 2c 3c be 5e ce ba bb 1e 32 9b 3c d5 41 3f bd
       -0.18376382 -0.0057008704 0.018944796 -0.04669364
000290 bb 58 0d bd 93 de a1 bc fe 1c 0e bd ad b5 fc bc
       -0.034508448 -0.019759452 -0.034695618 -0.030848349
0002a0 84 ce 8c bc c0 59 4a 3c d8 78 0a bd 3d 05 88 bd
       -0.017188318 0.0123505 -0.03380665 -0.06641624
0002b0 92 53 74 3d aa 92 c2 bd 55 2d 05 be a3 6f 92 bd
       0.05965001 -0.0950063 -0.13005574 -0.07150199
0002c0 d9 f8 71 be 68 55 88 3d f9 0e cd bd 85 16 c8 bc
       -0.23630084 0.06656915 -0.100126214 -0.0244248
0002d0 ac cc 71 3c d6 18 ac 3c e2 7e a2 3c 00 e1 32 bb
       0.01475827 0.021007936 0.019835893 -0.0027294755
0002e0 18 03 4a bc e2 e3 ae 3c 80 55 da bc f8 c7 19 bd
       -0.012329839 0.021348897 -0.026652098 -0.03754422
0002f0 ac 5b 10 bc 7a 84 d2 bd bf 90 a1 bc b8 c9 bf 3d
       -0.008810919 -0.10279174 -0.01972234 0.09364647
000300 64 69 38 3d c9 fb 6a be 57 49 3e 3d f6 36 9a 3d
       0.045022383 -0.22947611 0.04645666 0.07530014
000310 8f f8 54 3c b0 3e 87 bd aa 8c 83 3c 4a e9 c8 bc
       0.012998714 -0.066037536 0.016058285 -0.024525303
000320 e6 07 b0 3c d0 51 09 bb b4 35 4a 3c 95 16 3a bd
       0.021488141 -0.0020953305 0.012341905 -0.045431692
000330 63 65 4c bd 1d 86 bf bc ac 15 65 bc 80 33 0e bc
       -0.049901377 -0.02337938 -0.013982218 -0.008679271
000340 d0 42 03 bb 40 bf 39 3a e0 bb 74 bb a5 d6 3a bd
       -0.0020028837 0.00070856884 -0.0037343428 -0.045614857
000350 23 fb ca bc 14 8f 3f bc e7 c8 b6 bc 4a 34 80 bc
       -0.024777954 -0.011691827 -0.022312595 -0.015649933
000360 7a fd be bc e8 97 37 3c de 5b f3 3c 68 56 99 3b
       -0.023314226 0.011205651 0.029706892 0.00467949
000370 d3 ad 3d bd c0 cc d1 bc 70 b7 9b 3b a8 cb e5 bb
       -0.04630835 -0.025610328 0.004752092 -0.007012803
000380 74 28 64 bc eb cf 0c bc aa b3 89 bd 20 6b 1e bd
       -0.01392566 -0.008594493 -0.06723721 -0.03867638
000390 17 e8 63 bd 73 80 77 be 4a 45 60 be d5 d5 8f bd
       -0.05564126 -0.24170093 -0.21901432 -0.07023207
0003a0 90 05 a2 bd 1f f6 ce bd e8 fa 18 3c 34 07 5a bc
       -0.07911217 -0.101055376 0.009337164 -0.013307381
0003b0 b0 ac 8e 3b de 88 2a bd a3 4f cd bc 63 3d cb bc
       0.004354082 -0.041634433 -0.025062388 -0.024809545
0003c0 f2 5d b5 3c d8 90 25 3c 3f e8 3f bd 00 5e 3b bd
       0.022139523 0.010105334 -0.046852347 -0.045743942
0003d0 b0 54 3e be d3 c4 ba 3d ae b6 29 bd e1 a0 a8 bc
       -0.18586993 0.091195725 -0.041433983 -0.020584526
0003e0 4b 2a 34 be 74 75 ee 3d 46 d2 8a bd 2a ae e9 bc
       -0.17594258 0.11643496 -0.06778388 -0.02852543
0003f0 8f 7c b9 bd 9d 27 e9 3c f7 35 d1 bd 8a 13 44 3d
       -0.09056961 0.028461272 -0.10215371 0.047870196

fcs1.bias f4 [400]
000000 97 62 24 3e c4 bb 2a be df c0 48 3e 53 62 66 be
       0.16053234 -0.1667319 0.19604824 -0.22498445
000010 6e b0 99 be f8 83 1a 3d 3b 32 a3 be 0f df d0 3d
       -0.30017418 0.03772351 -0.3187426 0.10198795
000020 60 d0 36 bd bd 15 9b 3c 9a 1d e8 bd d8 ce a0 3b
       -0.044632316 0.018931264 -0.11333771 0.00490747
000030 01 3d 1a be b3 4e 15 3e 72 08 1c be 7d 41 92 3b
       -0.15062334 0.14580803 -0.15237597 0.004463373
000040 c6 44 84 bc bc 65 41 bd 1a 51 88 be 0b 54 70 3c
       -0.016146075 -0.047216162 -0.26624376 0.014668475
000050 96 99 82 be d1 f9 8b bd f3 5b 6d be 36 f0 d9 bd
       -0.25507802 -0.06834758 -0.23179607 -0.1064152
000060 ac 70 8a be 33 a4 15 3e 5b 08 8f be 11 05 5a be
       -0.27039087 0.14613418 -0.27936062 -0.21290995
000070 18 3d 62 bd e1 e8 b8 3d ac 58 a1 3e 96 51 5f 3c
       -0.055234045 0.09028793 0.31512964 0.013630291
000080 4e 7f 9e 3e 4d b0 56 be 32 4e 46 3e a6 a2 54 3c
       0.309565 -0.20965691 0.19365767 0.012978232
000090 ff a8 94 3e 99 1a e3 3d 03 71 23 be 21 d2 90 3e
       0.29035184 0.110890575 -0.1596108 0.28285316
0000a0 a3 5c be 3e 10 79 9c be 73 9e b8 3e 03 2b ac 3c
       0.3718005 -0.30561113 0.36058387 0.021016603
0000b0 fa 17 d4 3e 57 7b ab 3e 7b 08 a0 be 70 1b a9 3e
       0.41424543 0.33492538 -0.3125647 0.33028746
0000c0 cf d3 0f bd 82 a8 7a 3e 18 4f 64 3d 4b 63 89 be
       -0.035114106 0.24478343 0.055739492 -0.26833567
0000d0 f3 df 8c be 43 31 6d 3d 03 e3 d6 3d 25 fd b8 3c
       -0.2751461 0.057908308 0.10492518 0.022581646
0000e0 43 4b 6c be 9a 38 a6 be 06 54 5f be 3e 56 84 be
       -0.23075585 -0.3246506 -0.21809396 -0.25847048
0000f0 01 e6 7e 3d 4a 34 84 be de 66 5f be b7 25 a4 be
       0.062231068 -0.25821143 -0.21816584 -0.32060024
000100 56 4a 98 3e 9c 1e 82 be 5c ea 8f bd 55 42 25 3c
       0.29744214 -0.25413978 -0.070271224 0.010086616
000110 30 32 89 3e 40 6d 91 3e 46 8b 5c be 1c fd 1e be
       0.26796103 0.28403664 -0.21537504 -0.15526241
000120 61 03 a6 3e c9 f0 06 be 15 8f b9 bb 31 29 b9 bd
       0.32424453 -0.1317779 -0.0056628087 -0.0904106
000130 5b b1 01 3e eb fe 05 3e 13 84 19 3d 10 ad 37 be
       0.12665312 0.13085525 0.03747947 -0.17937112
000140 95 be 97 3e 38 bc 3a 3e 66 b0 06 be 71 c8 af 3d
       0.2963759 0.18235862 -0.13153228 0.08583153
000150 1c 0e 7d 3e a3 17 95 3d 43 ed 8f be b4 8e 89 be
       0.24712414 0.07279899 -0.28110704 -0.26866686
000160 40 b4 9e 3e 50 96 62 be 00 56 8f be 28 d1 a0 be
       0.30996895 -0.22127652 -0.279953 -0.31409574
000170 c7 b0 71 3e 33 ca 15 be 6b 5a 16 3d 15 7a 97 3e
       0.23602591 -0.14627914 0.036707323 0.2958533
000180 38 44 4d 3e 48 ab 4f be 80 6f 8e bc 54 9a 81 be
       0.20045555 -0.20280182 -0.017387152 -0.25313056
000190 5e 78 86 3e 97 c6 8e 3d 68 b4 88 be 26 7c 86 3e
       0.26263708 0.06971472 -0.2670014 0.26266593
0001a0 c7 8a 5c 3d ae e5 e6 bd 3a d8 88 be a3 d5 5a 3e
       0.053843286 -0.11274277 -0.26727468 0.21370558
0001b0 f3 05 86 be a5 b3 ae 3e 57 9b 8f 3d a3 6d 65 be
       -0.26176414 0.34121433 0.070120506 -0.22405104
0001c0 60 d4 50 be cb e2 56 be 89 09 d0 3c 67 75 64 3c
       -0.20393515 -0.20984952 0.025395172 0.0139440065
0001d0 f4 5c 5a be 75 26 64 3d 09 1e 37 bc 71 ba 29 3e
       -0.21324521 0.055700738 -0.0111765945 0.16575028
0001e0 77 a5 b2 3e 86 1b 84 3e d3 72 85 3d 40 2c 9b 3e
       0.34891865 0.2580225 0.065160416 0.30307198
0001f0 82 06 02 3e 62 a8 a1 3e 4e d2 25 be 00 9e c6 bd
       0.12697795 0.31573778 -0.16193506 -0.09698105
000200 39 f1 53 bd fe c1 90 be 49 99 4e bd 88 66 30 be
       -0.05174372 -0.28273004 -0.050439153 -0.17226613
000210 33 2a 9e 3d db b5 d4 3e c3 91 98 be 71 be 89 be
       0.077228926 0.41544995 -0.29798707 -0.26903108
000220 1a be 97 be d5 ed ab 3e cd 37 d1 bc 82 15 06 3e
       -0.29637223 0.3357989 -0.025539303 0.13094142
000230 14 53 18 3e ea 5c 96 bd 68 9a 6a 3e 56 c5 5e be
       0.14875442 -0.07341941 0.22910464 -0.21754965
000240 1b 5d 7f be 6c a7 18 3c e5 e8 98 3e a3 9d 23 3e
       -0.2493786 0.00931726 0.29865184 0.15978102
000250 c4 ab a4 bd 33 8e cd bb 33 32 a2 3e 4a 4b e8 bb
       -0.08040574 -0.006273055 0.31678924 -0.0070890533
000260 1e 73 91 3e 53 2a 22 be ee 31 2b 3e b2 50 88 3e
       0.2840814 -0.15836458 0.16718265 0.26624066
000270 3b 57 bd 3e ad 57 cd 3e 54 82 ad 3e 07 79 7a 3e
       0.36980614 0.40105954 0.33888495 0.24460231
000280 2b 02 8c be 10 6c 72 3c c3 a7 80 3e 47 e9 e1 3c
       -0.27345404 0.014796272 0.25127992 0.027577056
000290 ac c6 a2 3e 31 22 ac 3c e1 9e 8c 3e 44 92 b3 3e
       0.317922 0.021012397 0.27464965 0.3507253
0002a0 27 2a 57 bd 7a cb 99 be 6c 0f b9 bd 56 19 61 3e
       -0.052530434 -0.30038053 -0.090361446 0.21982321
0002b0 c8 eb 73 be 95 d3 cd bd 93 47 59 3e 78 8c 2e 3e
       -0.23820412 -0.10050122 0.2121871 0.17045772
0002c0 63 4d 2a be 76 e8 38 3e ce 50 18 3e 81 1a 9c 3e
       -0.16631083 0.18057427 0.14874575 0.3048897
0002d0 b3 a0 a0 3e 0a 19 39 3e 08 e8 0f be 88 79 61 3d
       0.31372604 0.18075958 -0.14053357 0.05504754
0002e0 69 1a 27 3e a0 01 a4 3d c7 e1 b9 3d 88 2c bb bd
       0.16318668 0.080081224 0.09076267 -0.09139353
0002f0 9f 03 9b be fe 4f 04 be d1 45 77 be 91 2f 6d 3e
       -0.302762 -0.1292114 -0.24147727 0.23162676
000300 7c 62 a1 be 25 29 2d be ff 24 2d be c8 f3 8a 3d
       -0.3152045 -0.16910227 -0.16908644 0.06784779
000310 fb c6 3a 3e 96 dc 8d be b4 26 90 bd 16 a6 c2 3e
       0.18239968 -0.27707356 -0.07038632 0.3801734
000320 d9 21 82 bd b4 64 22 3e 92 83 8c be 8b e2 cb bc
       -0.06354112 0.15858728 -0.2744413 -0.024888298
000330 0e 91 d3 bb 81 2e 18 3e 7c 66 9c 3c b8 2d 3e be
       -0.006456501 0.1486149 0.019091837 -0.18572128
000340 23 a0 39 be f9 50 49 be b1 58 1c 3e c3 98 60 be
       -0.18127494 -0.19659795 0.15268208 -0.21933274
000350 50 43 89 3e b5 2d b8 bd f4 e7 8b 3e 47 f6 f8 3d
       0.26809168 -0.08993093 0.27325404 0.12156349
000360 69 ad 3c bd 2f ea a4 bd 13 e8 48 be 07 a7 87 be
       -0.046063814 -0.080524795 -0.1961978 -0.2649462
000370 37 8a 9b 3e 38 fd 94 be b6 a7 8d 3e 18 a8 5c be
       0.30378887 -0.2909944 0.27667016 -0.21548498
000380 c3 72 1a be f1 97 7b 3e 66 6f 95 be 39 3d fb 3a
       -0.1508284 0.2456968 -0.29186553 0.0019168026
000390 d5 d1 b4 3e e7 a5 a3 be fe c6 6a be 36 0d 22 be
       0.3531634 -0.3196251 -0.22927472 -0.15825352
0003a0 ff f9 32 be 2c 52 05 be 62 80 9e be e6 91 34 bc
       -0.17478178 -0.13019627 -0.30957323 -0.011021113
0003b0 75 ef 36 be 14 dd 82 3e d6 df ee 3d 72 ee 61 3e
       -0.17864783 0.25559294 0.11663787 0.22063616
0003c0 1b 40 94 be f4 5d 83 be 10 4b 35 3e 4b 19 a3 3e
       -0.2895516 -0.25657618 0.17704415 0.31855235
0003d0 78 84 a3 3d 38 6c 9f be 25 17 78 3e 10 11 54 be
       0.07984251 -0.31137252 0.24227579 -0.20709634
0003e0 73 8a a0 be a1 d2 14 3e a8 a1 6d be 96 60 85 be
       -0.31355628 0.14533474 -0.23206198 -0.26050252
0003f0 eb cd a3 be 06 95 41 be 78 dc 33 3e 55 ba d8 3d
       -0.3199304 -0.18904504 0.17564571 0.10582415

fc2.weight f4 [300, 403]
000000 40 71 79 bd a1 5a 18 bf 28 e1 9e 3d 48 b7 c2 bb
       -0.06089902 -0.5951329 0.07757789 -0.005942259
000010 a8 ad 9d 3c 97 8a 21 be 20 f8 4d 3b 2f 0a 17 bd
       0.019247845 -0.15775524 0.0031428412 -0.036874946
000020 c2 48 3d be 87 2c f4 bd 87 3a 8e 3e 47 ac 94 bd
       -0.18484786 -0.119225554 0.27779028 -0.07259422
000030 23 29 ac 3e cc 75 43 3d 9c 77 f8 3d 3f 90 89 be
       0.33625135 0.04771976 0.12132189 -0.26867864
000040 63 c8 74 be 21 01 4f be 4c 52 08 bd 3b 94 73 b8
       -0.23904566 -0.20215274 -0.03328161 -5.8073765e-05
000050 f9 cf 58 bd 68 12 c2 bd dc aa 0c bd a2 93 3c bd
       -0.052932713 -0.09476167 -0.03434263 -0.04603923
000060 d2 5c 52 bd 5a 7c 82 3d 38 9b 9e 3c 9e ef 6a be
       -0.05135805 0.063713744 0.019361123 -0.22942969
000070 25 0e 5f be 23 88 b1 3d 8c 6b 38 3d 7d e7 07 be
       -0.2178274 0.08668544 0.04502444 -0.132719
000080 5f 2c 48 3d 9a 39 15 3f 4c fb 8c 3d 9c 8c 1a be
       0.04887044 0.5829102 0.068838686 -0.150927
000090 d1 60 61 3d aa bf e8 3d 66 69 a6 3e 5a 62 75 3d
       0.055023972 0.11364682 0.32502288 0.05990825
0000a0 99 cf e9 3d de 66 57 3d 16 62 c5 3d d5 dd 99 be
       0.11416549 0.052588336 0.09637849 -0.30052057
0000b0 d7 f2 b3 3d 90 0a c8 bc 1e ec 01 3d c5 94 90 3d
       0.087865524 -0.0244191 0.03171932 0.070596255
0000c0 d3 0e 55 3d a7 dd 04 3e 56 12 13 3e 3c f4 8a bd
       0.05201609 0.12975179 0.14362463 -0.06784865
0000d0 a0 d3 d7 bb 53 d9 cd 3d 28 61 eb bc 70 df bf 3c
       -0.006586507 0.10051217 -0.028732851 0.023421973
0000e0 02 84 9b bc 29 48 43 bd f8 65 20 3c 9d 7c 31 bd
       -0.018983845 -0.04767624 0.009789936 -0.04333173
0000f0 d8 f5 43 be e0 a8 14 3c 28 80 9d 3c 04 08 f1 3c
       -0.1913675 0.009073466 0.019226149 0.029422767
000100 86 1f cb 3c 90 34 5f 3c 4f 97 99 bd 2a f9 34 be
       0.024795305 0.013623372 -0.07499563 -0.17673174
000110 48 56 3e 3d ad 49 04 3d 92 a4 55 bd a7 67 7e 3d
       0.046469003 0.032296825 -0.0521589 0.06211057
000120 df 79 1f 3c 09 82 44 be bf 81 f9 3d 62 92 67 3e
       0.009733646 -0.1919023 0.1218295 0.22614434
000130 da 0f cd 3b ad 98 f6 3d bf d9 7a be 80 8d 4f bd
       0.006257993 0.12040839 -0.24497126 -0.050672054
000140 8f 5c 28 3d 21 51 56 3d d0 dd 4b 3d ef 95 eb 3d
       0.041103896 0.052323464 0.049772084 0.11503207
000150 33 9b 93 3d 18 83 1b 3c 00 52 ac b9 c8 2e 5c 3c
       0.07207336 0.009491704 -0.0003286749 0.013438888
000160 ed 9e 3d 3d a4 86 44 3e b2 6b 22 3d a4 c7 ff 3c
       0.04629414 0.19191986 0.039653488 0.031223126
000170 02 1e 46 3d 3f 6c 7f be 67 16 bc bd 1a 5a e5 3d
       0.04836846 -0.24943636 -0.091839604 0.11198826
000180 d9 bd 39 bc 50 12 69 3c 35 5b b8 3d 54 16 6b bd
       -0.011336767 0.014225557 0.09001771 -0.05739434
000190 da c2 03 3e 65 7e 17 bd 18 61 10 3c 22 ca e7 3d
       0.12867299 -0.036985774 0.008812211 0.11317851
0001a0 cd 58 3d 3d 00 87 e8 bd b2 2a 5f 3d 95 10 80 3d
       0.046227265 -0.11353874 0.054484077 0.06253163
0001b0 80 0b dd bc 7d b9 5a bb ca 47 ec bd 16 a7 46 3d
       -0.026983023 -0.003337472 -0.1153713 0.04849919
0001c0 76 4f d6 bc fe 65 0a 3d f8 65 32 be c9 18 d2 bd
       -0.026160937 0.033788674 -0.1742171 -0.10258634
0001d0 3b bb 20 bf a4 44 24 be dc c4 ac 3c ca 64 af bc
       -0.6278569 -0.1604181 0.021089964 -0.021410365
0001e0 ba 12 ed 3d 93 50 94 3d d6 26 ec 3d 8d 1a b4 3d
       0.115758374 0.07241931 0.11530845 0.08794127
0001f0 76 93 b7 bc ac d8 0e bc f0 de eb bb 10 c4 8c 3e
       -0.022409182 -0.008718651 -0.007198207 0.27493334
000200 ab 77 51 be a0 de 09 3c a5 59 29 be 06 4e 38 bd
       -0.20455806 0.008414894 -0.16538103 -0.044996284
000210 5d b5 16 3e b6 ac 08 3e ff 2a 48 bd b3 14 18 bf
       0.14717622 0.13347134 -0.04886913 -0.59406585
000220 af 50 16 bd 02 5a 81 39 59 72 6a 3d b9 62 81 bd
       -0.03669804 0.00024671858 0.057237957 -0.06317658
000230 06 a4 bd bb 37 a8 43 bc c4 f1 1b 3d 08 00 73 3c
       -0.0057873754 -0.011941961 0.038072363 0.01483155
000240 0c a0 01 3d a5 c9 59 be cc c3 83 3d ab 82 2a 3c
       0.031646773 -0.21268328 0.0643383 0.01040713
000250 61 27 c7 bd 8c 66 b9 3d 7a 05 b5 3d 65 a4 89 3d
       -0.09724308 0.090527624 0.08838935 0.06720809
000260 79 aa 1f 3e c2 8e 8e bc 9b 8c 08 3e e7 e1 2d 3e
       0.15592374 -0.017402057 0.13334887 0.16980706
000270 7e ab db 3d 03 9d dc 3d 4f 42 15 3e 20 16 7e 3b
       0.10726069 0.10772135 0.14576076 0.0038770512
000280 43 c4 b5 3d 72 f0 33 3e 74 38 ff 3c 93 d6 3f be
       0.088753246 0.17572191 0.031154849 -0.18734197
000290 55 3d 03 3e fc 97 a0 bc 13 5c 0f 3e b4 55 aa 3d
       0.12816365 -0.019603722 0.13999967 0.08317128
0002a0 ad 4e b7 3e 66 d1 24 bd a2 4f 9e bd e0 e7 cd ba
       0.35802212 -0.04023876 -0.077300325 -0.0015709363
0002b0 e0 3a 6a bd ee 1f 2e 3d f7 5f 15 bb 0e 25 93 3b
       -0.057185054 0.04251092 -0.0022792795 0.0044905012
0002c0 68 ba 1b bd 07 32 4a 3c 74 07 b0 3d f8 6d 1b bc
       -0.038019568 0.012341029 0.085951716 -0.009486668
0002d0 2b 89 05 3d 89 8f 88 3d 83 bb 83 be 58 de cc bd
       0.032601517 0.06668002 -0.25728998 -0.10003346
0002e0 8f 26 96 3d 29 f1 4d 3d df 28 45 bd f4 de c7 bd
       0.07331573 0.050278816 -0.04813468 -0.09759322
0002f0 34 bc 35 3d cd 48 01 bc 9f a4 1d bd b2 c4 5c 3e
       0.044368938 -0.007890892 -0.038487073 0.21559408
000300 fd 09 59 bd 46 25 45 3d 7f 0d 32 3d d6 77 6e bd
       -0.05298804 0.04813125 0.043469902 -0.058219753
000310 a7 2d 85 3d 50 33 2e bd af 46 a2 be 7e 9e c3 3d
       0.06502848 -0.042529404 -0.31694552 0.09551714
000320 21 98 59 be fc b3 b4 3d d0 e1 18 3d 93 e9 7f be
       -0.21249439 0.08823392 0.037324727 -0.24991445
000330 16 3e b7 be 5d 9c 2a bd 94 2a a5 be 00 cf 81 3c
       -0.35789555 -0.041653026 -0.32259047 0.015845776
000340 aa 7e 5d 3d d6 5e a6 3e e1 03 73 3d ff 58 fe bc
       0.054075874 0.3249423 0.05932987 -0.031048296
000350 53 90 37 3e 7d aa 74 be 6e f8 0d bd 09 72 3c 3e
       0.17926149 -0.23893161 -0.03466075 0.18402876
000360 59 7d 01 bb 6a ec 44 be f0 55 c3 3c 7c bb da 3c
       -0.001975855 -0.1923081 0.02384469 0.026700728
000370 45 2f 35 3d d0 9b 30 3d 58 7a 41 3d 3c 73 aa bc
       0.044234533 0.043117344 0.047235817 -0.020806901
000380 88 61 df bc 4b 1c 8f 3d 40 61 1b bb 35 3b b5 be
       -0.027268186 0.06987818 -0.0023709089 -0.35396734
000390 db dd 91 3d d0 63 8b bb 78 40 5f 3c c7 ba a1 3c
       0.07122394 -0.004253842 0.01362621 0.019742383
0003a0 99 bb 48 3f ad 89 0f 3f f0 53 d9 3b fa 65 eb bd
       0.7841125 0.5606945 0.0066323206 -0.1149406
0003b0 3c 53 34 3e f7 4c 0f bc 88 35 05 3d 9c e1 c5 3b
       0.17609876 -0.008746377 0.032521755 0.0060388576
0003c0 ac d1 20 bd 68 c5 68 3d 6e 2f 8d 38 74 50 52 3d
       -0.03926246 0.056828886 6.7322384e-05 0.051346257
0003d0 d7 a6 e1 3b ea f6 59 bf ae 0b 5a 3c 84 58 08 bd
       0.006886344 -0.85142386 0.013308449 -0.03328754
0003e0 70 bd e8 bb da 83 68 bd 48 26 46 3d ee d0 68 bd
       -0.007102661 -0.05676637 0.04837635 -0.056839876
0003f0 54 28 16 bc e8 da 8b be 41 14 a9 3d 4a fc 15 3e
       -0.009164888 -0.2731545 0.08255816 0.14647022

fc2.bias f4 [300]
000000 3e 3d 8f 3d da d2 3c ba df 4a 26 3d e4 eb fd 3c
       0.06994103 -0.000720305 0.040598746 0.03099627
000010 1a 03 7b 3d b1 25 84 bc 23 81 4e 3c b2 12 24 bd
       0.061282255 -0.016131254 0.012604031 -0.04005689
000020 5e 6a 14 3d 35 7a 54 3d 5f f6 02 3b 38 54 3a 3d
       0.036234252 0.05187436 0.0019983274 0.045490474
000030 b8 2e d2 3d a2 f5 5e 3d 90 39 e1 bc 6f ce a7 ba
       0.10262817 0.054433472 -0.027493268 -0.0012802611
000040 e1 b1 fe 3d 98 b0 7c 3d fc 41 6e bc 61 92 9e 3d
       0.124362715 0.06169185 -0.014542099 0.07742763
000050 27 2e 52 3d 05 cc 0c bd 6a d5 08 3d 22 cf 1b 3c
       0.051313546 -0.034374256 0.033406653 0.0095098335
000060 40 12 24 3d ba 2d 61 3d 8d 2e 4e bd 3b ac 0c 3d
       0.040056467 0.05497525 -0.050337363 0.03434394
000070 c0 55 e9 3d 48 c8 05 bd a9 ee 81 3d b7 5f bc bc
       0.11393309 -0.032661706 0.06344349 -0.02299486
000080 5c f0 3a bd 98 7b e8 3c 39 ee b6 3d 35 eb 44 bd
       -0.04563938 0.028379247 0.08932156 -0.048075873
000090 db 7c 03 bc 08 8c 3b 3d f2 76 42 bd 70 e7 ae 3d
       -0.008025373 0.04578784 -0.047476716 0.08540237
0000a0 24 93 eb 3d f7 65 b6 3c 4e 0e ae 3c 9e f7 82 bd
       0.11502674 0.022265418 0.021247055 -0.063948855
0000b0 5e 7c 1d bd d5 b7 1e bc 5c 0b 83 bd fe 33 74 bc
       -0.038448684 -0.009687384 -0.06398651 -0.014904974
0000c0 81 1f 31 bb 96 84 32 3d 8b 4d 99 bc 90 39 f4 3d
       -0.0027026834 0.043583475 -0.018713733 0.11925042
0000d0 94 f4 43 bd 59 89 b8 bc 6b ed a4 3d 9b 63 26 3d
       -0.04784067 -0.02252643 0.080530964 0.040622335
0000e0 28 50 f5 3d 99 5a c9 3d b3 03 5f 3c 11 bd 13 bd
       0.11978179 0.09831733 0.013611722 -0.03606898
0000f0 c5 a6 04 bc df 16 b7 3d a4 13 94 3d e6 05 14 3c
       -0.008096402 0.08939909 0.07230309 0.009034609
000100 29 0b f0 3d cf 98 22 3d 49 49 eb 3c 13 91 02 bd
       0.11720879 0.03969651 0.028721469 -0.031876635
000110 71 ec 1b 3c 54 26 a4 3d 52 4e 48 bd 87 5c 8e 3d
       0.009516821 0.08015123 -0.048902817 0.06951242
000120 7c bb 3e bc 52 8b 1a 3b 2f c0 32 3d 65 c8 31 3c
       -0.011641379 0.0023581577 0.04364031 0.010851
000130 ef 17 34 3c 85 fb d2 3c 65 39 7e 3d 00 f7 d4 3d
       0.010992034 0.0257547 0.062066454 0.10398674
000140 21 eb fe 3c 34 3b 50 bc e7 7c 43 3c 62 75 6a bd
       0.031117978 -0.012709428 0.0119316345 -0.05724085
000150 04 6a 23 bd 78 6d 2b bd 49 78 f5 3c 37 bf 68 bb
       -0.039896026 -0.041852444 0.029964583 -0.0035514364
000160 51 6b 07 3e 90 cc bc 3d 56 ac 00 3d 4e 0a 60 3d
       0.13224532 0.09218705 0.031414352 0.054697327
000170 4e c5 81 bc 6b 57 dc 3d a0 31 1c bd 8d 53 df 3d
       -0.015841153 0.10758861 -0.038133264 0.10904608
000180 d9 f6 ac 3d 45 c7 17 3d 33 96 b5 bc ab 11 08 3d
       0.0844552 0.037055273 -0.022166347 0.033219974
000190 c4 51 5a 3d 24 a4 e6 3c 44 ff 51 bd c0 7b 63 3d
       0.053300634 0.02815444 -0.05126883 0.05553794
0001a0 9e e9 19 bc d5 4f d9 bc f4 61 03 bd 4f 22 15 bd
       -0.009394078 -0.026527325 -0.032075837 -0.036409672
0001b0 cb 59 7c 3d f5 02 9e 3c 51 a8 4c bd c0 51 16 bd
       0.06160907 0.01928852 -0.049965207 -0.036699057
0001c0 a2 da 08 3d 3c 85 1d bd ca 80 a6 bb 80 e6 04 3e
       0.03341163 -0.03845714 -0.005081271 0.12978554
0001d0 b6 58 4a 3d 69 2a 30 3d 65 20 02 3d 27 5c 10 b8
       0.049401008 0.043009195 0.031769175 -3.44181e-05
0001e0 ae c8 c9 3d 00 19 5b bd cc e4 bc 3b 9c e1 a2 bc
       0.0985273 -0.05349064 0.0057645794 -0.01988297
0001f0 9a 1b f9 3d a3 3b 85 3c 68 9d e8 3d d0 09 e4 3d
       0.12163468 0.016263789 0.11358148 0.11134684
000200 db b3 66 bd f7 3f e3 3d 2c 08 9d bb 82 f4 e1 3c
       -0.056323867 0.11096185 -0.004792234 0.02758241
000210 1e f6 da 3c 4f aa 9d bc 2f c6 5a bc 09 97 66 bc
       0.026728686 -0.019246249 -0.013352915 -0.0140740955
000220 14 34 88 bb 03 1e c7 bc 53 c9 f9 bc 1c f8 ff bc
       -0.004156599 -0.024306303 -0.030491507 -0.031246237
000230 d9 71 7f bc e8 a1 8c ba f8 a4 a8 3d 3f 51 bc bd
       -0.015591108 -0.0010729404 0.0823459 -0.09195184
000240 8b c4 d1 bb a3 4b 38 bd c9 84 87 ba ff 6d 1b 3d
       -0.0064016036 -0.044994008 -0.0010339256 0.037946697
000250 22 f0 cc bd 28 c7 34 3d 3e 76 c1 3b c1 0e 3b bd
       -0.10006739 0.044135243 0.005903988 -0.045668367
000260 a2 cf 06 bb f9 ce 46 bb a4 81 92 3d c1 e5 4b bc
       -0.0020570536 -0.0030335768 0.07153633 -0.012444914
000270 1a cc 11 3c 60 c0 bb 3d 07 99 ed 3d bc 30 38 bd
       0.008898759 0.09167552 0.11601453 -0.04496835
000280 4b e9 d0 3c a9 3f dd 3d f2 d3 05 bd 24 03 ea bc
       0.025501868 0.10803158 -0.03267283 -0.02856595
000290 a6 47 68 3d 97 00 84 3c 28 59 d7 3b 03 7e e9 3d
       0.056708954 0.016113563 0.0065719076 0.11400988
0002a0 26 11 3b 3d ff 3b 6b 3d ea 24 39 bc 37 15 01 bb
       0.04567065 0.057430264 -0.011300305 -0.0019696483
0002b0 d6 32 80 3d f8 dd 94 bc 71 f8 a9 bc f5 f8 6b bc
       0.06259696 -0.01817225 -0.020748349 -0.014402618
0002c0 67 ca bc 3d 74 e7 12 3c 76 5a dc bb 03 51 4d 3d
       0.09218293 0.008966316 -0.006724651 0.050126087
0002d0 3e 20 8d bb 51 59 45 3b 31 fc 7e 3a 0b ef f6 bc
       -0.004306822 0.0030113051 0.00097269105 -0.030143281
0002e0 91 4f 7b 3d 3b 1d c3 bb 28 ed 5c bc 4b 3b c8 3c
       0.061355177 -0.0059544123 -0.013484277 0.024442336
0002f0 28 f8 1e 3c 55 af d4 bc 4c da 98 3c 97 83 4d bd
       0.00970272 -0.025962511 0.01865878 -0.050174322
000300 8a df 9e 3d 4c 2e 33 bd 2f 82 d0 bc de c1 17 3d
       0.077574804 -0.043745324 -0.025452701 0.03705012
000310 02 b7 50 3d ca 3a c0 bc 36 43 57 3c da 00 9d bd
       0.05095578 -0.023465533 0.013138583 -0.07666178
000320 4c 82 89 bc 3d 70 04 bd 76 cf e4 bc e4 f0 bd 3d
       -0.016785763 -0.0323336 -0.027930956 0.09274462
000330 32 28 ff bc 9f bb a6 bc 8c ce f2 bc fe be 98 3b
       -0.031147096 -0.020353137 -0.029639505 0.00466144
000340 d2 32 b6 bd 46 a4 36 3c 8f a6 82 3d 8f f9 8c bb
       -0.08896412 0.011147564 0.06379425 -0.0043022106
000350 29 38 8c 3d 76 d1 6e 3d 60 11 bb bc a5 2f 40 bd
       0.06846649 0.058305226 -0.022835433 -0.046920437
000360 a7 ca 1c 3d 60 b4 9c bc 38 cf 89 3d 07 0a 2a 3d
       0.0382792 -0.019128978 0.06728977 0.04151347
000370 00 1d f7 ba c9 95 03 3e 0a 83 84 bd 23 fc 96 3d
       -0.0018853247 0.12850107 -0.06470306 0.0737231
000380 20 98 09 bd 00 79 60 bd aa cf 41 3d 28 38 c2 bc
       -0.033592343 -0.054802895 0.047317185 -0.023708418
000390 92 49 48 3d 38 11 a9 3c 40 14 52 bd f7 6c 98 3d
       0.048898287 0.020638093 -0.051288843 0.074426584
0003a0 9b 50 28 3c 15 f9 0d 3d 97 6f 54 bc 14 db 3f 3d
       0.010273124 0.03466137 -0.012966058 0.04683979
0003b0 0e fe d5 ba 39 88 f6 bc b1 9e 3f bc 3f 75 70 bb
       -0.0016326325 -0.030094253 -0.01169555 -0.0036690978
0003c0 87 09 3e 3c 38 84 89 bc 9b 8e b5 3d ba 5d e0 3d
       0.011598951 -0.01678668 0.088650905 0.10955377
0003d0 d7 a2 87 bc be 2c 54 3d 6b 21 87 3d 54 32 dc 3d
       -0.01655714 0.051800482 0.06598171 0.10751787
0003e0 84 9b a9 bc ba 1e 3e bd 1f 1c 19 bd 75 37 5c 3d
       -0.020704038 -0.046416022 -0.037380334 0.053763825
0003f0 38 24 5f bd e4 a8 39 bd 0a 15 90 3d 5b 00 5f bd
       -0.0544779 -0.045327082 0.07035263 -0.0544437

fc3.weight f4 [1, 300]
000000 89 1a 36 3f 8c 5b 18 bf 31 f2 28 bf db 03 27 3f
       0.7113424 -0.5951469 -0.65994555 0.6524026
000010 c1 56 ee 3e 29 c2 c3 be a9 38 56 ba 19 34 2c bf
       0.46550563 -0.3823407 -0.0008171895 -0.67266995
000020 5d 6f 22 bf e9 c5 01 bf 4f 66 04 bf c5 84 fd 3e
       -0.63451177 -0.5069261 -0.5171861 0.49515358
000030 d8 e9 f4 3e 10 aa fd 3e 18 99 ce 3a ed fa fa be
       0.4783466 0.4954381 0.0015762178 -0.49019566
000040 f2 cf 08 3f 27 60 01 3f 72 c4 06 bf 34 64 b1 3f
       0.534423 0.5053734 -0.526435 1.3858705
000050 1f ad fa 3e a2 41 26 3b 54 30 d7 3a 06 87 a2 be
       0.48960206 0.002536871 0.0016417601 -0.3174364
000060 11 3e bd b8 ee 47 da be dc 3f 85 be 89 dc 10 3f
       -9.023783e-05 -0.42633003 -0.26025283 0.5658651
000070 c0 f1 fc 3e 34 24 23 bf b4 ad f8 3e 39 1c e6 be
       0.4940319 -0.63727117 0.48570025 -0.44943407
000080 68 35 e7 be 08 8d af 38 f1 ba ed 3e a0 82 b6 3a
       -0.45157933 8.3709194e-05 0.46431687 0.0013924427
000090 70 b0 fd be 8f a2 f9 3e 8a 3c 24 bf 38 41 18 3f
       -0.49548674 0.48756835 -0.64154875 0.59474516
0000a0 ab d0 e7 3e 78 36 00 bf 83 8f 7b ba 04 4b c9 be
       0.4527639 -0.5008311 -0.0009596275 -0.39315045
0000b0 5e 75 0e bb bf c1 20 bf c9 24 f7 be 12 f2 f1 be
       -0.0021737437 -0.62795633 -0.48270252 -0.47254997
0000c0 5b b7 03 39 5f c6 ef 3e d5 34 93 be 5a 2f fa 3e
       0.00012561439 0.46831033 -0.28751245 0.4886425
0000d0 0a 30 09 bf 14 e9 6f ba 7e f7 03 3f 54 7a f1 be
       -0.53588927 -0.0009151858 0.5154952 -0.4716364
0000e0 00 2c fb 3e 36 ca f8 3e 5b d7 26 bf 38 99 30 3a
       0.49057007 0.48591775 -0.65172356 0.00067366986
0000f0 3a 43 40 3b ba 1b fd 3e ca ba f4 3e 76 bd b0 be
       0.0029336945 0.49435216 0.4779876 -0.34519547
000100 97 bd ef 3e 96 c6 f7 3e 6f f3 1e bf 89 0f 73 3a
       0.46824333 0.48393697 -0.620902 0.0009272029
000110 90 66 1f bf 1c f7 d3 3e 83 6d e2 3a 52 25 04 bf
       -0.6226587 0.41399467 0.0017275069 -0.51619446
000120 4f 3b a4 be 26 23 d2 be df 3c f3 be d2 7a 3e bf
       -0.320765 -0.4104244 -0.47507378 -0.7440616
000130 c2 d2 d8 3f 4e 2a 7f 3e a9 a5 09 3f fc dd ee 3e
       1.6939318 0.24918482 0.537684 0.46653736
000140 11 a4 2d bf 79 9e 0a bf 43 5e 1f bf 2b 23 36 3b
       -0.6782847 -0.5414806 -0.62253207 0.0027791958
000150 f8 b3 e6 be 2f 77 13 bf dc 94 2c bf c9 c3 1f bf
       -0.4505918 -0.57603735 -0.6741464 -0.6240812
000160 80 ed eb 3e 13 c0 ed 3e af 52 e5 be fe 2e 2c 3f
       0.46079636 0.46435603 -0.44789645 0.67259204
000170 3b 05 01 bf 87 08 21 3f f4 7a ff be 23 52 e9 3e
       -0.50398606 0.62903637 -0.49898493 0.45570478
000180 42 3e f8 3e a2 4c f3 bd ec cb 36 bf 45 76 19 3f
       0.48485 -0.11879851 -0.7140491 0.5994609
000190 f1 18 fd 3e 43 a3 e6 be c3 db bd be c7 e5 e8 be
       0.4943309 -0.45046434 -0.37081727 -0.45487806
0001a0 7f d7 b8 be 9e 1b 2b bf ec 41 e5 be 52 18 db be
       -0.3610191 -0.66839015 -0.44776857 -0.42791992
0001b0 d6 de 1e 3f b3 c2 f3 be 3d 8c 17 3a 45 41 17 3b
       0.6205877 -0.4760948 0.000578109 0.0023079675
0001c0 48 53 08 bf 6d 97 c9 b9 1a c8 b9 be 8e 22 fe 3e
       -0.5325208 -0.00038450529 -0.36285478 0.49635738
0001d0 63 e8 29 3f f8 ec e2 be 8d e6 a0 3f d9 77 b3 ba
       0.6637022 -0.44321418 1.2570359 -0.0013692334
0001e0 09 b2 f8 3e 41 67 2b bf c7 00 c5 be f8 1c 98 bf
       0.4857333 -0.6695443 -0.38477156 -1.188384
0001f0 17 b4 f7 3e 1c 55 3c bf 00 6b fe 3e 9b 9e 08 3f
       0.48379585 -0.73567367 0.4969101 0.5336701
000200 3c 1f 09 bf 35 91 08 3f 54 2f 8a 3a ac 8d 26 bf
       -0.53563285 0.5334657 0.0010542669 -0.65059924
000210 92 44 1c bf 56 de eb be a5 e7 86 be 84 59 1e bb
       -0.6104213 -0.46068066 -0.26348606 -0.0024162242
000220 5c cc 37 bf 8f fd fb be 69 ba d4 be 62 b2 3e bf
       -0.717962 -0.49216887 -0.4154847 -0.7449094
000230 09 ad 01 b9 f1 72 54 bf 10 46 ea be e9 12 f9 be
       -0.0001236686 -0.82987887 -0.45756578 -0.4864724
000240 ca 87 ae be 74 9d 29 bf b5 1b 2f bf 3a 6a 1f bb
       -0.34087974 -0.6625588 -0.6840165 -0.002432479
000250 47 c8 a1 3f 44 99 0b 3f 40 85 0c bf 92 bc 81 be
       1.2639245 0.5453074 -0.54890823 -0.2533918
000260 d6 98 e6 be 4d 02 fc 3a 59 00 03 3f 28 d0 ee be
       -0.4503848 0.001922676 0.51172405 -0.46643186
000270 ab 07 2c bf c0 4a 04 3f a6 2c e6 3e d7 02 2b bf
       -0.671992 0.5167656 0.4495594 -0.6680121
000280 33 e1 f5 be 5d 02 ff 3e 35 b4 f1 be 8d d1 4b bb
       -0.48023376 0.4980649 -0.472078 -0.0031100244
000290 2c 11 e0 bf b2 0b c2 ba a5 fd 09 bf a0 64 ff 3e
       -1.750524 -0.0014804511 -0.53902656 0.49881458
0002a0 5e ca 1c bf 03 03 f2 3e dc 12 1c bf 3e e0 26 bf
       -0.6124629 0.47267923 -0.6096628 -0.65185916
0002b0 4c 4d fc 3e 75 9f 3c bf c3 fa c8 be 00 d7 fe be
       0.49277723 -0.7368081 -0.39253816 -0.49773407
0002c0 92 7c f9 3e 86 2e d2 be 86 f9 25 bf 1c ad 02 bf
       0.48727852 -0.4105112 -0.6483387 -0.51045394
0002d0 69 64 81 bf 11 a8 2c bf 16 06 04 bf 09 6f 83 3f
       -1.0108768 -0.6744395 -0.51571786 1.026826
0002e0 07 59 00 3f 2a bd 86 3f a8 d2 87 3a dc b8 22 bf
       0.50135845 1.0526478 0.0010362463 -0.63563323
0002f0 0e 80 2c bf f3 bf 6c b9 37 9a fb be 13 f1 c6 b9
       -0.67382896 -0.0002257822 -0.49141094 -0.00037945117
000300 02 5e 2c 3f 48 a4 35 3b 60 f5 82 3a f3 f0 f6 3e
       0.67330945 0.0027716327 0.000999134 0.48230705
000310 3a 6e f9 3e 9f 43 09 bb 99 4b 28 bf 6b e2 a8 be
       0.4871691 -0.0020944846 -0.6574035 -0.32985243
000320 db a6 2a bf a6 6b c7 be 6b d4 01 bf 5f 3d f7 3e
       -0.6666085 -0.38949317 -0.5071475 0.4828901
000330 8b f0 22 bf 63 4e 2f bf 47 9f f9 be e0 51 2d bf
       -0.6364829 -0.68478984 -0.4875433 -0.67703056
000340 80 71 ef be c3 21 04 bf 6c 14 fb 3e 96 c0 a5 be
       -0.4676628 -0.51614016 0.49039018 -0.32373494
000350 b8 b4 fc 3e 70 a3 f9 3e 13 db bc be cd b6 9a be
       0.49356627 0.48757505 -0.3688589 -0.3021759
000360 79 5f 25 bf 07 fb b1 be 97 ea 2c 3f 74 2c 10 bf
       -0.64598805 -0.3476183 0.67545456 -0.5631783
000370 14 a3 00 3a 94 ab ea 3e 3d 3e ec be 3a 85 f5 3e
       0.0004907113 0.4583403 -0.46141234 0.47953206
000380 cb 28 2d bb a7 6d 73 bf a7 eb 1a bf ff 49 c4 be
       -0.002642202 -0.9508919 -0.60515827 -0.38337705
000390 7a ae e8 3e b8 e5 cd b6 26 3c 64 bf 10 1c 08 3f
       0.45445615 -6.136219e-06 -0.8915428 0.5316782
0003a0 c6 3a 99 bf d4 82 34 bf 8e 0b e5 ba 7e dc 16 3f
       -1.1971061 -0.7051213 -0.0017474757 0.58930194
0003b0 10 ec 19 bf a9 4c 16 3b d0 ed 03 bf 4b ed 9e be
       -0.6012583 0.0022933877 -0.5153475 -0.31040415
0003c0 5d a7 4c 3b be 64 b0 be cf df f9 3e 6c cb f9 3e
       0.0031227686 -0.3445186 0.48803565 0.4878801
0003d0 1b 48 c3 be 78 9a e8 be 68 bd 03 3f 6d 5f e3 3e
       -0.3814095 -0.4543035 0.51460886 0.44408742
0003e0 ec 7e 08 39 92 ca 89 b8 4b af 96 b9 8f e6 e1 be
       0.00013017253 -6.570401e-05 -0.00028740833 -0.44121215
0003f0 7b 1e d3 be e4 fb 0c bb 4d 14 44 3f 80 d5 ef be
       -0.41234192 -0.0021512443 0.76593477 -0.46842575
